#loc = loc("/sgl-workspace/sglang/python/sglang/srt/layers/attention/fla/fused_gdn_gating.py":11:0)
#loc48 = loc("g"(#loc))
#loc49 = loc("beta_output"(#loc))
#loc50 = loc("A_log"(#loc))
#loc51 = loc("a"(#loc))
#loc52 = loc("b"(#loc))
#loc53 = loc("dt_bias"(#loc))
#loc54 = loc("stride_a"(#loc))
#loc55 = loc("stride_b"(#loc))
module {
  tt.func public @fused_gdn_gating_kernel(%g: !tt.ptr<f32> {tt.divisibility = 16 : i32} loc("g"(#loc)), %beta_output: !tt.ptr<f32> {tt.divisibility = 16 : i32} loc("beta_output"(#loc)), %A_log: !tt.ptr<f32> {tt.divisibility = 16 : i32} loc("A_log"(#loc)), %a: !tt.ptr<bf16> {tt.divisibility = 16 : i32} loc("a"(#loc)), %b: !tt.ptr<bf16> {tt.divisibility = 16 : i32} loc("b"(#loc)), %dt_bias: !tt.ptr<bf16> {tt.divisibility = 16 : i32} loc("dt_bias"(#loc)), %stride_a: i32 {tt.divisibility = 16 : i32} loc("stride_a"(#loc)), %stride_b: i32 {tt.divisibility = 16 : i32} loc("stride_b"(#loc))) attributes {noinline = false} {
    %cst = arith.constant dense<0.000000e+00> : tensor<8xf32> loc(#loc1)
    %softplus_x = arith.constant dense<2.000000e+01> : tensor<8xf32> loc(#loc56)
    %cst_0 = arith.constant dense<1.000000e+00> : tensor<8xf32> loc(#loc1)
    %mask = arith.constant dense<24> : tensor<8xi32> loc(#loc57)
    %c24_i32 = arith.constant 24 : i32 loc(#loc1)
    %c8_i32 = arith.constant 8 : i32 loc(#loc1)
    %0 = tt.get_program_id x : i32 loc(#loc4)
    %1 = tt.get_program_id y : i32 loc(#loc5)
    %2 = tt.get_program_id z : i32 loc(#loc6)
    %head_off = arith.muli %2, %c8_i32 : i32 loc(#loc58)
    %head_off_1 = tt.make_range {end = 8 : i32, start = 0 : i32} : tensor<8xi32> loc(#loc59)
    %head_off_2 = tt.splat %head_off : i32 -> tensor<8xi32> loc(#loc60)
    %head_off_3 = arith.addi %head_off_2, %head_off_1 : tensor<8xi32> loc(#loc60)
    %off = arith.muli %0, %c24_i32 : i32 loc(#loc61)
    %off_4 = arith.muli %1, %c24_i32 : i32 loc(#loc62)
    %off_5 = arith.addi %off, %off_4 : i32 loc(#loc63)
    %off_6 = tt.splat %off_5 : i32 -> tensor<8xi32> loc(#loc64)
    %off_7 = arith.addi %off_6, %head_off_3 : tensor<8xi32> loc(#loc64)
    %mask_8 = arith.cmpi slt, %head_off_3, %mask : tensor<8xi32> loc(#loc57)
    %blk_A_log = tt.splat %A_log : !tt.ptr<f32> -> tensor<8x!tt.ptr<f32>> loc(#loc65)
    %blk_A_log_9 = tt.addptr %blk_A_log, %head_off_3 : tensor<8x!tt.ptr<f32>>, tensor<8xi32> loc(#loc65)
    %blk_A_log_10 = tt.load %blk_A_log_9, %mask_8 : tensor<8x!tt.ptr<f32>> loc(#loc66)
    %blk_a = arith.muli %0, %stride_a : i32 loc(#loc67)
    %blk_a_11 = tt.addptr %a, %blk_a : !tt.ptr<bf16>, i32 loc(#loc68)
    %blk_a_12 = tt.splat %blk_a_11 : !tt.ptr<bf16> -> tensor<8x!tt.ptr<bf16>> loc(#loc69)
    %blk_a_13 = tt.addptr %blk_a_12, %head_off_3 : tensor<8x!tt.ptr<bf16>>, tensor<8xi32> loc(#loc69)
    %blk_a_14 = tt.load %blk_a_13, %mask_8 : tensor<8x!tt.ptr<bf16>> loc(#loc70)
    %blk_b = arith.muli %0, %stride_b : i32 loc(#loc71)
    %blk_b_15 = tt.addptr %b, %blk_b : !tt.ptr<bf16>, i32 loc(#loc72)
    %blk_b_16 = tt.splat %blk_b_15 : !tt.ptr<bf16> -> tensor<8x!tt.ptr<bf16>> loc(#loc73)
    %blk_b_17 = tt.addptr %blk_b_16, %head_off_3 : tensor<8x!tt.ptr<bf16>>, tensor<8xi32> loc(#loc73)
    %blk_b_18 = tt.load %blk_b_17, %mask_8 : tensor<8x!tt.ptr<bf16>> loc(#loc74)
    %blk_bias = tt.splat %dt_bias : !tt.ptr<bf16> -> tensor<8x!tt.ptr<bf16>> loc(#loc75)
    %blk_bias_19 = tt.addptr %blk_bias, %head_off_3 : tensor<8x!tt.ptr<bf16>>, tensor<8xi32> loc(#loc75)
    %blk_bias_20 = tt.load %blk_bias_19, %mask_8 : tensor<8x!tt.ptr<bf16>> loc(#loc76)
    %x = arith.extf %blk_a_14 : tensor<8xbf16> to tensor<8xf32> loc(#loc77)
    %x_21 = arith.extf %blk_bias_20 : tensor<8xbf16> to tensor<8xf32> loc(#loc78)
    %x_22 = arith.addf %x, %x_21 : tensor<8xf32> loc(#loc79)
    %softplus_x_23 = arith.cmpf ole, %x_22, %softplus_x : tensor<8xf32> loc(#loc56)
    %softplus_x_24 = math.exp %x_22 : tensor<8xf32> loc(#loc80)
    %softplus_x_25 = arith.addf %softplus_x_24, %cst_0 : tensor<8xf32> loc(#loc81)
    %softplus_x_26 = math.log %softplus_x_25 : tensor<8xf32> loc(#loc82)
    %softplus_x_27 = arith.select %softplus_x_23, %softplus_x_26, %x_22 : tensor<8xi1>, tensor<8xf32> loc(#loc83)
    %blk_g = math.exp %blk_A_log_10 : tensor<8xf32> loc(#loc84)
    %blk_g_28 = arith.subf %cst, %blk_g : tensor<8xf32> loc(#loc85)
    %blk_g_29 = arith.mulf %blk_g_28, %softplus_x_27 : tensor<8xf32> loc(#loc86)
    %3 = tt.splat %g : !tt.ptr<f32> -> tensor<8x!tt.ptr<f32>> loc(#loc36)
    %4 = tt.addptr %3, %off_7 : tensor<8x!tt.ptr<f32>>, tensor<8xi32> loc(#loc36)
    tt.store %4, %blk_g_29, %mask_8 : tensor<8x!tt.ptr<f32>> loc(#loc37)
    %blk_beta_output = arith.extf %blk_b_18 : tensor<8xbf16> to tensor<8xf32> loc(#loc87)
    %blk_beta_output_30 = arith.subf %cst, %blk_beta_output : tensor<8xf32> loc(#loc89)
    %blk_beta_output_31 = math.exp %blk_beta_output_30 : tensor<8xf32> loc(#loc90)
    %blk_beta_output_32 = arith.addf %blk_beta_output_31, %cst_0 : tensor<8xf32> loc(#loc91)
    %blk_beta_output_33 = arith.divf %cst_0, %blk_beta_output_32 : tensor<8xf32> loc(#loc92)
    %5 = tt.splat %beta_output : !tt.ptr<f32> -> tensor<8x!tt.ptr<f32>> loc(#loc44)
    %6 = tt.addptr %5, %off_7 : tensor<8x!tt.ptr<f32>>, tensor<8xi32> loc(#loc44)
    %7 = arith.truncf %blk_beta_output_33 : tensor<8xf32> to tensor<8xbf16> loc(#loc45)
    %8 = arith.extf %7 : tensor<8xbf16> to tensor<8xf32> loc(#loc46)
    tt.store %6, %8, %mask_8 : tensor<8x!tt.ptr<f32>> loc(#loc46)
    tt.return loc(#loc47)
  } loc(#loc)
} loc(#loc)
#loc1 = loc(unknown)
#loc2 = loc("/sgl-workspace/sglang/python/sglang/srt/layers/attention/fla/fused_gdn_gating.py":36:20)
#loc3 = loc("/sgl-workspace/sglang/python/sglang/srt/layers/attention/fla/fused_gdn_gating.py":29:22)
#loc4 = loc("/sgl-workspace/sglang/python/sglang/srt/layers/attention/fla/fused_gdn_gating.py":26:34)
#loc5 = loc("/sgl-workspace/sglang/python/sglang/srt/layers/attention/fla/fused_gdn_gating.py":26:52)
#loc6 = loc("/sgl-workspace/sglang/python/sglang/srt/layers/attention/fla/fused_gdn_gating.py":26:70)
#loc7 = loc("/sgl-workspace/sglang/python/sglang/srt/layers/attention/fla/fused_gdn_gating.py":27:21)
#loc8 = loc("/sgl-workspace/sglang/python/sglang/srt/layers/attention/fla/fused_gdn_gating.py":27:46)
#loc9 = loc("/sgl-workspace/sglang/python/sglang/srt/layers/attention/fla/fused_gdn_gating.py":27:33)
#loc10 = loc("/sgl-workspace/sglang/python/sglang/srt/layers/attention/fla/fused_gdn_gating.py":28:26)
#loc11 = loc("/sgl-workspace/sglang/python/sglang/srt/layers/attention/fla/fused_gdn_gating.py":28:44)
#loc12 = loc("/sgl-workspace/sglang/python/sglang/srt/layers/attention/fla/fused_gdn_gating.py":28:38)
#loc13 = loc("/sgl-workspace/sglang/python/sglang/srt/layers/attention/fla/fused_gdn_gating.py":28:56)
#loc14 = loc("/sgl-workspace/sglang/python/sglang/srt/layers/attention/fla/fused_gdn_gating.py":30:32)
#loc15 = loc("/sgl-workspace/sglang/python/sglang/srt/layers/attention/fla/fused_gdn_gating.py":30:24)
#loc16 = loc("/sgl-workspace/sglang/python/sglang/srt/layers/attention/fla/fused_gdn_gating.py":31:30)
#loc17 = loc("/sgl-workspace/sglang/python/sglang/srt/layers/attention/fla/fused_gdn_gating.py":31:24)
#loc18 = loc("/sgl-workspace/sglang/python/sglang/srt/layers/attention/fla/fused_gdn_gating.py":31:41)
#loc19 = loc("/sgl-workspace/sglang/python/sglang/srt/layers/attention/fla/fused_gdn_gating.py":31:20)
#loc20 = loc("/sgl-workspace/sglang/python/sglang/srt/layers/attention/fla/fused_gdn_gating.py":32:30)
#loc21 = loc("/sgl-workspace/sglang/python/sglang/srt/layers/attention/fla/fused_gdn_gating.py":32:24)
#loc22 = loc("/sgl-workspace/sglang/python/sglang/srt/layers/attention/fla/fused_gdn_gating.py":32:41)
#loc23 = loc("/sgl-workspace/sglang/python/sglang/srt/layers/attention/fla/fused_gdn_gating.py":32:20)
#loc24 = loc("/sgl-workspace/sglang/python/sglang/srt/layers/attention/fla/fused_gdn_gating.py":33:33)
#loc25 = loc("/sgl-workspace/sglang/python/sglang/srt/layers/attention/fla/fused_gdn_gating.py":33:23)
#loc26 = loc("/sgl-workspace/sglang/python/sglang/srt/layers/attention/fla/fused_gdn_gating.py":34:17)
#loc27 = loc("/sgl-workspace/sglang/python/sglang/srt/layers/attention/fla/fused_gdn_gating.py":34:43)
#loc28 = loc("/sgl-workspace/sglang/python/sglang/srt/layers/attention/fla/fused_gdn_gating.py":34:31)
#loc29 = loc("/sgl-workspace/sglang/python/sglang/srt/layers/attention/fla/fused_gdn_gating.py":36:62)
#loc30 = loc("/sgl-workspace/sglang/python/sglang/srt/layers/attention/fla/fused_gdn_gating.py":36:55)
#loc31 = loc("/sgl-workspace/sglang/python/sglang/srt/layers/attention/fla/fused_gdn_gating.py":36:51)
#loc32 = loc("/sgl-workspace/sglang/python/sglang/srt/layers/attention/fla/fused_gdn_gating.py":36:74)
#loc33 = loc("/sgl-workspace/sglang/python/sglang/srt/layers/attention/fla/fused_gdn_gating.py":38:20)
#loc34 = loc("/sgl-workspace/sglang/python/sglang/srt/layers/attention/fla/fused_gdn_gating.py":38:13)
#loc35 = loc("/sgl-workspace/sglang/python/sglang/srt/layers/attention/fla/fused_gdn_gating.py":38:48)
#loc36 = loc("/sgl-workspace/sglang/python/sglang/srt/layers/attention/fla/fused_gdn_gating.py":39:17)
#loc37 = loc("/sgl-workspace/sglang/python/sglang/srt/layers/attention/fla/fused_gdn_gating.py":39:22)
#loc38 = loc("/sgl-workspace/sglang/python/sglang/srt/layers/attention/fla/fused_gdn_gating.py":40:42)
#loc39 = loc("/usr/local/lib/python3.12/dist-packages/triton/language/standard.py":48:30)
#loc40 = loc("/sgl-workspace/sglang/python/sglang/srt/layers/attention/fla/fused_gdn_gating.py":40:33)
#loc41 = loc("/usr/local/lib/python3.12/dist-packages/triton/language/standard.py":48:29)
#loc42 = loc("/usr/local/lib/python3.12/dist-packages/triton/language/standard.py":48:20)
#loc43 = loc("/usr/local/lib/python3.12/dist-packages/triton/language/standard.py":48:16)
#loc44 = loc("/sgl-workspace/sglang/python/sglang/srt/layers/attention/fla/fused_gdn_gating.py":41:27)
#loc45 = loc("/sgl-workspace/sglang/python/sglang/srt/layers/attention/fla/fused_gdn_gating.py":41:51)
#loc46 = loc("/sgl-workspace/sglang/python/sglang/srt/layers/attention/fla/fused_gdn_gating.py":41:32)
#loc47 = loc("/sgl-workspace/sglang/python/sglang/srt/layers/attention/fla/fused_gdn_gating.py":41:4)
#loc56 = loc("softplus_x"(#loc2))
#loc57 = loc("mask"(#loc3))
#loc58 = loc("head_off"(#loc7))
#loc59 = loc("head_off"(#loc8))
#loc60 = loc("head_off"(#loc9))
#loc61 = loc("off"(#loc10))
#loc62 = loc("off"(#loc11))
#loc63 = loc("off"(#loc12))
#loc64 = loc("off"(#loc13))
#loc65 = loc("blk_A_log"(#loc14))
#loc66 = loc("blk_A_log"(#loc15))
#loc67 = loc("blk_a"(#loc16))
#loc68 = loc("blk_a"(#loc17))
#loc69 = loc("blk_a"(#loc18))
#loc70 = loc("blk_a"(#loc19))
#loc71 = loc("blk_b"(#loc20))
#loc72 = loc("blk_b"(#loc21))
#loc73 = loc("blk_b"(#loc22))
#loc74 = loc("blk_b"(#loc23))
#loc75 = loc("blk_bias"(#loc24))
#loc76 = loc("blk_bias"(#loc25))
#loc77 = loc("x"(#loc26))
#loc78 = loc("x"(#loc27))
#loc79 = loc("x"(#loc28))
#loc80 = loc("softplus_x"(#loc29))
#loc81 = loc("softplus_x"(#loc30))
#loc82 = loc("softplus_x"(#loc31))
#loc83 = loc("softplus_x"(#loc32))
#loc84 = loc("blk_g"(#loc33))
#loc85 = loc("blk_g"(#loc34))
#loc86 = loc("blk_g"(#loc35))
#loc87 = loc("blk_beta_output"(#loc38))
#loc88 = loc("blk_beta_output"(#loc40))
#loc89 = loc(callsite(#loc39 at #loc88))
#loc90 = loc(callsite(#loc41 at #loc88))
#loc91 = loc(callsite(#loc42 at #loc88))
#loc92 = loc(callsite(#loc43 at #loc88))
