#loc = loc("/sgl-workspace/sglang/python/sglang/srt/layers/attention/fla/chunk_o.py":30:0)
#loc68 = loc("q"(#loc))
#loc69 = loc("k"(#loc))
#loc70 = loc("v"(#loc))
#loc71 = loc("h"(#loc))
#loc72 = loc("g"(#loc))
#loc73 = loc("o"(#loc))
#loc74 = loc("cu_seqlens"(#loc))
#loc75 = loc("chunk_indices"(#loc))
#loc76 = loc("scale"(#loc))
#loc77 = loc("T"(#loc))
module {
  tt.func public @chunk_fwd_kernel_o(%q: !tt.ptr<bf16> {tt.divisibility = 16 : i32} loc("q"(#loc)), %k: !tt.ptr<bf16> {tt.divisibility = 16 : i32} loc("k"(#loc)), %v: !tt.ptr<bf16> {tt.divisibility = 16 : i32} loc("v"(#loc)), %h: !tt.ptr<bf16> {tt.divisibility = 16 : i32} loc("h"(#loc)), %g: !tt.ptr<f32> {tt.divisibility = 16 : i32} loc("g"(#loc)), %o: !tt.ptr<bf16> {tt.divisibility = 16 : i32} loc("o"(#loc)), %cu_seqlens: !tt.ptr<i32> {tt.divisibility = 16 : i32} loc("cu_seqlens"(#loc)), %chunk_indices: !tt.ptr<i32> {tt.divisibility = 16 : i32} loc("chunk_indices"(#loc)), %scale: f32 loc("scale"(#loc)), %T: i32 loc("T"(#loc))) attributes {noinline = false} {
    %cst = arith.constant dense<128> : tensor<1x64xi64> loc(#loc1)
    %cst_0 = arith.constant dense<3072> : tensor<64x1xi64> loc(#loc1)
    %b_g = arith.constant dense<0> : tensor<64xi64> loc(#loc78)
    %b_g_1 = arith.constant dense<24> : tensor<64xi64> loc(#loc78)
    %cst_2 = arith.constant dense<128> : tensor<64x1xi64> loc(#loc1)
    %cst_3 = arith.constant dense<0> : tensor<1x64xi64> loc(#loc1)
    %b_k = arith.constant dense<128> : tensor<128x1xi64> loc(#loc79)
    %b_k_4 = arith.constant dense<0> : tensor<128x1xi64> loc(#loc79)
    %b_k_5 = arith.constant dense<1024> : tensor<1x64xi64> loc(#loc79)
    %cst_6 = arith.constant dense<128> : tensor<1x128xi64> loc(#loc1)
    %cst_7 = arith.constant dense<0> : tensor<1x128xi64> loc(#loc1)
    %cst_8 = arith.constant dense<0> : tensor<64x1xi64> loc(#loc1)
    %b_q = arith.constant dense<1024> : tensor<64x1xi64> loc(#loc80)
    %b_A = arith.constant dense<0xFF800000> : tensor<64x64xf32> loc(#loc125)
    %h_9 = arith.constant 16384 : i64 loc(#loc82)
    %cst_10 = arith.constant dense<0.000000e+00> : tensor<64x64xf32> loc(#loc1)
    %c64_i32 = arith.constant 64 : i32 loc(#loc1)
    %c128_i32 = arith.constant 128 : i32 loc(#loc1)
    %c3_i32 = arith.constant 3 : i32 loc(#loc1)
    %c8_i32 = arith.constant 8 : i32 loc(#loc1)
    %c1_i32 = arith.constant 1 : i32 loc(#loc1)
    %c2_i32 = arith.constant 2 : i32 loc(#loc1)
    %c24_i32 = arith.constant 24 : i32 loc(#loc1)
    %0 = tt.get_program_id x : i32 loc(#loc8)
    %1 = tt.get_program_id y : i32 loc(#loc9)
    %2 = tt.get_program_id z : i32 loc(#loc10)
    %3 = arith.remsi %2, %c24_i32 : i32 loc(#loc11)
    %4 = arith.muli %1, %c2_i32 : i32 loc(#loc12)
    %5 = tt.addptr %chunk_indices, %4 : !tt.ptr<i32>, i32 loc(#loc13)
    %6 = tt.load %5 : !tt.ptr<i32> loc(#loc14)
    %7 = tt.addptr %5, %c1_i32 : !tt.ptr<i32>, i32 loc(#loc15)
    %8 = tt.load %7 : !tt.ptr<i32> loc(#loc16)
    %9 = tt.addptr %cu_seqlens, %6 : !tt.ptr<i32>, i32 loc(#loc17)
    %10 = tt.load %9 : !tt.ptr<i32> loc(#loc18)
    %11 = tt.addptr %9, %c1_i32 : !tt.ptr<i32>, i32 loc(#loc19)
    %12 = tt.load %11 : !tt.ptr<i32> loc(#loc20)
    %T_11 = arith.subi %12, %10 : i32 loc(#loc83)
    %q_12 = arith.muli %10, %c8_i32 : i32 loc(#loc84)
    %q_13 = arith.divsi %3, %c3_i32 : i32 loc(#loc85)
    %q_14 = arith.addi %q_12, %q_13 : i32 loc(#loc86)
    %q_15 = arith.muli %q_14, %c128_i32 : i32 loc(#loc87)
    %q_16 = tt.addptr %q, %q_15 : !tt.ptr<bf16>, i32 loc(#loc88)
    %k_17 = tt.addptr %k, %q_15 : !tt.ptr<bf16>, i32 loc(#loc89)
    %v_18 = arith.muli %10, %c24_i32 : i32 loc(#loc90)
    %v_19 = arith.addi %v_18, %3 : i32 loc(#loc91)
    %v_20 = arith.muli %v_19, %c128_i32 : i32 loc(#loc92)
    %v_21 = tt.addptr %v, %v_20 : !tt.ptr<bf16>, i32 loc(#loc93)
    %o_22 = tt.addptr %o, %v_20 : !tt.ptr<bf16>, i32 loc(#loc94)
    %h_23 = arith.muli %1, %c24_i32 : i32 loc(#loc95)
    %h_24 = arith.addi %h_23, %3 : i32 loc(#loc96)
    %h_25 = arith.extsi %h_24 : i32 to i64 loc(#loc97)
    %h_26 = arith.muli %h_25, %h_9 : i64 loc(#loc82)
    %h_27 = tt.addptr %h, %h_26 : !tt.ptr<bf16>, i64 loc(#loc98)
    %p_q = arith.muli %8, %c64_i32 : i32 loc(#loc99)
    %p_q_28 = arith.extsi %T_11 : i32 to i64 loc(#loc100)
    %p_q_29 = arith.extsi %p_q : i32 to i64 loc(#loc100)
    %p_h = arith.muli %0, %c64_i32 : i32 loc(#loc101)
    %p_h_30 = arith.extsi %p_h : i32 to i64 loc(#loc102)
    %b_q_31 = tt.splat %q_16 : !tt.ptr<bf16> -> tensor<64x128x!tt.ptr<bf16>> loc(#loc80)
    %b_q_32 = tt.splat %p_q_29 : i64 -> tensor<64xi64> loc(#loc80)
    %b_q_33 = tt.make_range {end = 64 : i32, start = 0 : i32} : tensor<64xi32> loc(#loc80)
    %b_q_34 = arith.extsi %b_q_33 : tensor<64xi32> to tensor<64xi64> loc(#loc80)
    %b_q_35 = arith.addi %b_q_32, %b_q_34 : tensor<64xi64> loc(#loc80)
    %b_q_36 = tt.expand_dims %b_q_35 {axis = 1 : i32} : tensor<64xi64> -> tensor<64x1xi64> loc(#loc80)
    %b_q_37 = arith.muli %b_q_36, %b_q : tensor<64x1xi64> loc(#loc80)
    %b_q_38 = tt.broadcast %b_q_37 : tensor<64x1xi64> -> tensor<64x128xi64> loc(#loc80)
    %b_q_39 = tt.make_range {end = 128 : i32, start = 0 : i32} : tensor<128xi32> loc(#loc80)
    %b_q_40 = arith.extsi %b_q_39 : tensor<128xi32> to tensor<128xi64> loc(#loc80)
    %b_q_41 = tt.expand_dims %b_q_40 {axis = 0 : i32} : tensor<128xi64> -> tensor<1x128xi64> loc(#loc80)
    %b_q_42 = tt.broadcast %b_q_41 : tensor<1x128xi64> -> tensor<64x128xi64> loc(#loc80)
    %b_q_43 = arith.addi %b_q_38, %b_q_42 : tensor<64x128xi64> loc(#loc80)
    %b_q_44 = tt.addptr %b_q_31, %b_q_43 : tensor<64x128x!tt.ptr<bf16>>, tensor<64x128xi64> loc(#loc80)
    %b_q_45 = arith.cmpi sge, %b_q_36, %cst_8 : tensor<64x1xi64> loc(#loc80)
    %b_q_46 = tt.splat %p_q_28 : i64 -> tensor<64x1xi64> loc(#loc80)
    %b_q_47 = arith.cmpi slt, %b_q_36, %b_q_46 : tensor<64x1xi64> loc(#loc80)
    %b_q_48 = arith.andi %b_q_45, %b_q_47 : tensor<64x1xi1> loc(#loc80)
    %b_q_49 = tt.broadcast %b_q_48 : tensor<64x1xi1> -> tensor<64x128xi1> loc(#loc80)
    %b_q_50 = arith.cmpi sge, %b_q_41, %cst_7 : tensor<1x128xi64> loc(#loc80)
    %b_q_51 = arith.cmpi slt, %b_q_41, %cst_6 : tensor<1x128xi64> loc(#loc80)
    %b_q_52 = arith.andi %b_q_50, %b_q_51 : tensor<1x128xi1> loc(#loc80)
    %b_q_53 = tt.broadcast %b_q_52 : tensor<1x128xi1> -> tensor<64x128xi1> loc(#loc80)
    %b_q_54 = arith.andi %b_q_49, %b_q_53 : tensor<64x128xi1> loc(#loc80)
    %b_q_55 = tt.load %b_q_44, %b_q_54 : tensor<64x128x!tt.ptr<bf16>> loc(#loc80)
    %b_k_56 = tt.splat %k_17 : !tt.ptr<bf16> -> tensor<128x64x!tt.ptr<bf16>> loc(#loc79)
    %b_k_57 = tt.expand_dims %b_q_40 {axis = 1 : i32} : tensor<128xi64> -> tensor<128x1xi64> loc(#loc79)
    %b_k_58 = tt.broadcast %b_k_57 : tensor<128x1xi64> -> tensor<128x64xi64> loc(#loc79)
    %b_k_59 = tt.expand_dims %b_q_35 {axis = 0 : i32} : tensor<64xi64> -> tensor<1x64xi64> loc(#loc79)
    %b_k_60 = arith.muli %b_k_59, %b_k_5 : tensor<1x64xi64> loc(#loc79)
    %b_k_61 = tt.broadcast %b_k_60 : tensor<1x64xi64> -> tensor<128x64xi64> loc(#loc79)
    %b_k_62 = arith.addi %b_k_58, %b_k_61 : tensor<128x64xi64> loc(#loc79)
    %b_k_63 = tt.addptr %b_k_56, %b_k_62 : tensor<128x64x!tt.ptr<bf16>>, tensor<128x64xi64> loc(#loc79)
    %b_k_64 = arith.cmpi sge, %b_k_57, %b_k_4 : tensor<128x1xi64> loc(#loc79)
    %b_k_65 = arith.cmpi slt, %b_k_57, %b_k : tensor<128x1xi64> loc(#loc79)
    %b_k_66 = arith.andi %b_k_64, %b_k_65 : tensor<128x1xi1> loc(#loc79)
    %b_k_67 = tt.broadcast %b_k_66 : tensor<128x1xi1> -> tensor<128x64xi1> loc(#loc79)
    %b_k_68 = arith.cmpi sge, %b_k_59, %cst_3 : tensor<1x64xi64> loc(#loc79)
    %b_k_69 = tt.splat %p_q_28 : i64 -> tensor<1x64xi64> loc(#loc79)
    %b_k_70 = arith.cmpi slt, %b_k_59, %b_k_69 : tensor<1x64xi64> loc(#loc79)
    %b_k_71 = arith.andi %b_k_68, %b_k_70 : tensor<1x64xi1> loc(#loc79)
    %b_k_72 = tt.broadcast %b_k_71 : tensor<1x64xi1> -> tensor<128x64xi1> loc(#loc79)
    %b_k_73 = arith.andi %b_k_67, %b_k_72 : tensor<128x64xi1> loc(#loc79)
    %b_k_74 = tt.load %b_k_63, %b_k_73 : tensor<128x64x!tt.ptr<bf16>> loc(#loc79)
    %b_h = tt.splat %h_27 : !tt.ptr<bf16> -> tensor<64x128x!tt.ptr<bf16>> loc(#loc103)
    %b_h_75 = tt.splat %p_h_30 : i64 -> tensor<64xi64> loc(#loc103)
    %b_h_76 = arith.addi %b_h_75, %b_q_34 : tensor<64xi64> loc(#loc103)
    %b_h_77 = tt.expand_dims %b_h_76 {axis = 1 : i32} : tensor<64xi64> -> tensor<64x1xi64> loc(#loc103)
    %b_h_78 = arith.muli %b_h_77, %cst_2 : tensor<64x1xi64> loc(#loc103)
    %b_h_79 = tt.broadcast %b_h_78 : tensor<64x1xi64> -> tensor<64x128xi64> loc(#loc103)
    %b_h_80 = arith.addi %b_h_79, %b_q_42 : tensor<64x128xi64> loc(#loc103)
    %b_h_81 = tt.addptr %b_h, %b_h_80 : tensor<64x128x!tt.ptr<bf16>>, tensor<64x128xi64> loc(#loc103)
    %b_h_82 = arith.cmpi sge, %b_h_77, %cst_8 : tensor<64x1xi64> loc(#loc103)
    %b_h_83 = arith.cmpi slt, %b_h_77, %cst_2 : tensor<64x1xi64> loc(#loc103)
    %b_h_84 = arith.andi %b_h_82, %b_h_83 : tensor<64x1xi1> loc(#loc103)
    %b_h_85 = tt.broadcast %b_h_84 : tensor<64x1xi1> -> tensor<64x128xi1> loc(#loc103)
    %b_h_86 = arith.andi %b_h_85, %b_q_53 : tensor<64x128xi1> loc(#loc103)
    %b_h_87 = tt.load %b_h_81, %b_h_86 : tensor<64x128x!tt.ptr<bf16>> loc(#loc103)
    %b_o = tt.trans %b_h_87 {order = array<i32: 1, 0>} : tensor<64x128xbf16> -> tensor<128x64xbf16> loc(#loc104)
    %b_o_88 = tt.dot %b_q_55, %b_o, %cst_10, inputPrecision = tf32 : tensor<64x128xbf16> * tensor<128x64xbf16> -> tensor<64x64xf32> loc(#loc105)
    %b_A_89 = tt.dot %b_q_55, %b_k_74, %cst_10, inputPrecision = tf32 : tensor<64x128xbf16> * tensor<128x64xbf16> -> tensor<64x64xf32> loc(#loc106)
    %g_90 = tt.addptr %g, %v_19 : !tt.ptr<f32>, i32 loc(#loc107)
    %b_g_91 = tt.splat %g_90 : !tt.ptr<f32> -> tensor<64x!tt.ptr<f32>> loc(#loc78)
    %b_g_92 = arith.muli %b_q_35, %b_g_1 : tensor<64xi64> loc(#loc78)
    %b_g_93 = tt.addptr %b_g_91, %b_g_92 : tensor<64x!tt.ptr<f32>>, tensor<64xi64> loc(#loc78)
    %b_g_94 = arith.cmpi sge, %b_q_35, %b_g : tensor<64xi64> loc(#loc78)
    %b_g_95 = tt.splat %p_q_28 : i64 -> tensor<64xi64> loc(#loc78)
    %b_g_96 = arith.cmpi slt, %b_q_35, %b_g_95 : tensor<64xi64> loc(#loc78)
    %b_g_97 = arith.andi %b_g_94, %b_g_96 : tensor<64xi1> loc(#loc78)
    %b_g_98 = tt.load %b_g_93, %b_g_97 : tensor<64x!tt.ptr<f32>> loc(#loc78)
    %b_o_99 = math.exp %b_g_98 : tensor<64xf32> loc(#loc108)
    %b_o_100 = tt.expand_dims %b_o_99 {axis = 1 : i32} : tensor<64xf32> -> tensor<64x1xf32> loc(#loc109)
    %b_o_101 = tt.broadcast %b_o_100 : tensor<64x1xf32> -> tensor<64x64xf32> loc(#loc110)
    %b_o_102 = arith.mulf %b_o_88, %b_o_101 : tensor<64x64xf32> loc(#loc110)
    %b_A_103 = tt.expand_dims %b_g_98 {axis = 1 : i32} : tensor<64xf32> -> tensor<64x1xf32> loc(#loc111)
    %b_A_104 = tt.expand_dims %b_g_98 {axis = 0 : i32} : tensor<64xf32> -> tensor<1x64xf32> loc(#loc112)
    %b_A_105 = tt.broadcast %b_A_103 : tensor<64x1xf32> -> tensor<64x64xf32> loc(#loc113)
    %b_A_106 = tt.broadcast %b_A_104 : tensor<1x64xf32> -> tensor<64x64xf32> loc(#loc113)
    %b_A_107 = arith.subf %b_A_105, %b_A_106 : tensor<64x64xf32> loc(#loc113)
    %b_A_108 = arith.cmpf ole, %b_A_107, %cst_10 : tensor<64x64xf32> loc(#loc126)
    %b_A_109 = arith.select %b_A_108, %b_A_107, %b_A : tensor<64x64xi1>, tensor<64x64xf32> loc(#loc125)
    %b_A_110 = math.exp %b_A_109 : tensor<64x64xf32> loc(#loc127)
    %b_A_111 = arith.mulf %b_A_89, %b_A_110 : tensor<64x64xf32> loc(#loc114)
    %m_A = tt.expand_dims %b_q_33 {axis = 1 : i32} : tensor<64xi32> -> tensor<64x1xi32> loc(#loc115)
    %m_A_112 = tt.expand_dims %b_q_33 {axis = 0 : i32} : tensor<64xi32> -> tensor<1x64xi32> loc(#loc116)
    %m_A_113 = tt.broadcast %m_A : tensor<64x1xi32> -> tensor<64x64xi32> loc(#loc117)
    %m_A_114 = tt.broadcast %m_A_112 : tensor<1x64xi32> -> tensor<64x64xi32> loc(#loc117)
    %m_A_115 = arith.cmpi sge, %m_A_113, %m_A_114 : tensor<64x64xi32> loc(#loc117)
    %b_A_116 = arith.select %m_A_115, %b_A_111, %cst_10 : tensor<64x64xi1>, tensor<64x64xf32> loc(#loc118)
    %b_v = tt.splat %v_21 : !tt.ptr<bf16> -> tensor<64x64x!tt.ptr<bf16>> loc(#loc119)
    %b_v_117 = arith.muli %b_q_36, %cst_0 : tensor<64x1xi64> loc(#loc119)
    %b_v_118 = tt.broadcast %b_v_117 : tensor<64x1xi64> -> tensor<64x64xi64> loc(#loc119)
    %b_v_119 = tt.expand_dims %b_h_76 {axis = 0 : i32} : tensor<64xi64> -> tensor<1x64xi64> loc(#loc119)
    %b_v_120 = tt.broadcast %b_v_119 : tensor<1x64xi64> -> tensor<64x64xi64> loc(#loc119)
    %b_v_121 = arith.addi %b_v_118, %b_v_120 : tensor<64x64xi64> loc(#loc119)
    %b_v_122 = tt.addptr %b_v, %b_v_121 : tensor<64x64x!tt.ptr<bf16>>, tensor<64x64xi64> loc(#loc119)
    %b_v_123 = tt.broadcast %b_q_48 : tensor<64x1xi1> -> tensor<64x64xi1> loc(#loc119)
    %b_v_124 = arith.cmpi sge, %b_v_119, %cst_3 : tensor<1x64xi64> loc(#loc119)
    %b_v_125 = arith.cmpi slt, %b_v_119, %cst : tensor<1x64xi64> loc(#loc119)
    %b_v_126 = arith.andi %b_v_124, %b_v_125 : tensor<1x64xi1> loc(#loc119)
    %b_v_127 = tt.broadcast %b_v_126 : tensor<1x64xi1> -> tensor<64x64xi1> loc(#loc119)
    %b_v_128 = arith.andi %b_v_123, %b_v_127 : tensor<64x64xi1> loc(#loc119)
    %b_v_129 = tt.load %b_v_122, %b_v_128 : tensor<64x64x!tt.ptr<bf16>> loc(#loc119)
    %b_o_130 = tt.splat %scale : f32 -> tensor<64x64xf32> loc(#loc120)
    %b_o_131 = arith.mulf %b_o_102, %b_o_130 : tensor<64x64xf32> loc(#loc120)
    %b_o_132 = arith.truncf %b_A_116 : tensor<64x64xf32> to tensor<64x64xbf16> loc(#loc121)
    %b_o_133 = tt.dot %b_o_132, %b_v_129, %cst_10, inputPrecision = tf32 : tensor<64x64xbf16> * tensor<64x64xbf16> -> tensor<64x64xf32> loc(#loc122)
    %b_o_134 = arith.mulf %b_o_133, %b_o_130 : tensor<64x64xf32> loc(#loc123)
    %b_o_135 = arith.addf %b_o_131, %b_o_134 : tensor<64x64xf32> loc(#loc124)
    %13 = arith.truncf %b_o_135 : tensor<64x64xf32> to tensor<64x64xbf16> loc(#loc65)
    %14 = tt.splat %o_22 : !tt.ptr<bf16> -> tensor<64x64x!tt.ptr<bf16>> loc(#loc66)
    %15 = tt.addptr %14, %b_v_121 : tensor<64x64x!tt.ptr<bf16>>, tensor<64x64xi64> loc(#loc66)
    tt.store %15, %13, %b_v_128 : tensor<64x64x!tt.ptr<bf16>> loc(#loc66)
    tt.return loc(#loc67)
  } loc(#loc)
} loc(#loc)
#loc1 = loc(unknown)
#loc2 = loc("/sgl-workspace/sglang/python/sglang/srt/layers/attention/fla/chunk_o.py":104:22)
#loc3 = loc("/sgl-workspace/sglang/python/sglang/srt/layers/attention/fla/chunk_o.py":92:22)
#loc4 = loc("/sgl-workspace/sglang/python/sglang/srt/layers/attention/fla/chunk_o.py":90:22)
#loc5 = loc("/sgl-workspace/sglang/python/sglang/srt/layers/attention/fla/op.py":27:35)
#loc6 = loc("/sgl-workspace/sglang/python/sglang/srt/layers/attention/fla/chunk_o.py":106:29)
#loc7 = loc("/sgl-workspace/sglang/python/sglang/srt/layers/attention/fla/chunk_o.py":74:45)
#loc8 = loc("/sgl-workspace/sglang/python/sglang/srt/layers/attention/fla/chunk_o.py":51:35)
#loc9 = loc("/sgl-workspace/sglang/python/sglang/srt/layers/attention/fla/chunk_o.py":51:53)
#loc10 = loc("/sgl-workspace/sglang/python/sglang/srt/layers/attention/fla/chunk_o.py":51:71)
#loc11 = loc("/sgl-workspace/sglang/python/sglang/srt/layers/attention/fla/chunk_o.py":52:33)
#loc12 = loc("/sgl-workspace/sglang/python/sglang/srt/layers/attention/fla/chunk_o.py":56:49)
#loc13 = loc("/sgl-workspace/sglang/python/sglang/srt/layers/attention/fla/chunk_o.py":56:43)
#loc14 = loc("/sgl-workspace/sglang/python/sglang/srt/layers/attention/fla/chunk_o.py":56:27)
#loc15 = loc("/sgl-workspace/sglang/python/sglang/srt/layers/attention/fla/chunk_o.py":57:38)
#loc16 = loc("/sgl-workspace/sglang/python/sglang/srt/layers/attention/fla/chunk_o.py":57:12)
#loc17 = loc("/sgl-workspace/sglang/python/sglang/srt/layers/attention/fla/chunk_o.py":59:40)
#loc18 = loc("/sgl-workspace/sglang/python/sglang/srt/layers/attention/fla/chunk_o.py":59:27)
#loc19 = loc("/sgl-workspace/sglang/python/sglang/srt/layers/attention/fla/chunk_o.py":60:31)
#loc20 = loc("/sgl-workspace/sglang/python/sglang/srt/layers/attention/fla/chunk_o.py":60:12)
#loc21 = loc("/sgl-workspace/sglang/python/sglang/srt/layers/attention/fla/chunk_o.py":62:18)
#loc22 = loc("/sgl-workspace/sglang/python/sglang/srt/layers/attention/fla/chunk_o.py":70:16)
#loc23 = loc("/sgl-workspace/sglang/python/sglang/srt/layers/attention/fla/chunk_o.py":70:29)
#loc24 = loc("/sgl-workspace/sglang/python/sglang/srt/layers/attention/fla/chunk_o.py":70:21)
#loc25 = loc("/sgl-workspace/sglang/python/sglang/srt/layers/attention/fla/chunk_o.py":70:41)
#loc26 = loc("/sgl-workspace/sglang/python/sglang/srt/layers/attention/fla/chunk_o.py":70:9)
#loc27 = loc("/sgl-workspace/sglang/python/sglang/srt/layers/attention/fla/chunk_o.py":71:9)
#loc28 = loc("/sgl-workspace/sglang/python/sglang/srt/layers/attention/fla/chunk_o.py":72:16)
#loc29 = loc("/sgl-workspace/sglang/python/sglang/srt/layers/attention/fla/chunk_o.py":72:20)
#loc30 = loc("/sgl-workspace/sglang/python/sglang/srt/layers/attention/fla/chunk_o.py":72:27)
#loc31 = loc("/sgl-workspace/sglang/python/sglang/srt/layers/attention/fla/chunk_o.py":72:9)
#loc32 = loc("/sgl-workspace/sglang/python/sglang/srt/layers/attention/fla/chunk_o.py":73:9)
#loc33 = loc("/sgl-workspace/sglang/python/sglang/srt/layers/attention/fla/chunk_o.py":74:17)
#loc34 = loc("/sgl-workspace/sglang/python/sglang/srt/layers/attention/fla/chunk_o.py":74:21)
#loc35 = loc("/sgl-workspace/sglang/python/sglang/srt/layers/attention/fla/chunk_o.py":74:29)
#loc36 = loc("/sgl-workspace/sglang/python/sglang/srt/layers/attention/fla/chunk_o.py":74:9)
#loc37 = loc("/sgl-workspace/sglang/python/sglang/srt/layers/attention/fla/chunk_o.py":81:43)
#loc38 = loc("/sgl-workspace/sglang/python/sglang/srt/layers/attention/fla/chunk_o.py":81:68)
#loc39 = loc("/sgl-workspace/sglang/python/sglang/srt/layers/attention/fla/chunk_o.py":87:38)
#loc40 = loc("/sgl-workspace/sglang/python/sglang/srt/layers/attention/fla/chunk_o.py":87:63)
#loc41 = loc("/sgl-workspace/sglang/python/sglang/srt/layers/attention/fla/chunk_o.py":94:22)
#loc42 = loc("/sgl-workspace/sglang/python/sglang/srt/layers/attention/fla/chunk_o.py":97:36)
#loc43 = loc("/sgl-workspace/sglang/python/sglang/srt/layers/attention/fla/chunk_o.py":97:27)
#loc44 = loc("/sgl-workspace/sglang/python/sglang/srt/layers/attention/fla/chunk_o.py":99:27)
#loc45 = loc("/sgl-workspace/sglang/python/sglang/srt/layers/attention/fla/chunk_o.py":102:13)
#loc46 = loc("/sgl-workspace/sglang/python/sglang/srt/layers/attention/fla/chunk_o.py":105:24)
#loc47 = loc("/sgl-workspace/sglang/python/sglang/srt/layers/attention/fla/chunk_o.py":105:29)
#loc48 = loc("/sgl-workspace/sglang/python/sglang/srt/layers/attention/fla/chunk_o.py":105:20)
#loc49 = loc("/sgl-workspace/sglang/python/sglang/srt/layers/attention/fla/chunk_o.py":106:33)
#loc50 = loc("/sgl-workspace/sglang/python/sglang/srt/layers/attention/fla/chunk_o.py":106:48)
#loc51 = loc("/sgl-workspace/sglang/python/sglang/srt/layers/attention/fla/chunk_o.py":106:44)
#loc52 = loc("/sgl-workspace/sglang/python/sglang/srt/layers/attention/fla/op.py":27:29)
#loc53 = loc("/sgl-workspace/sglang/python/sglang/srt/layers/attention/fla/op.py":27:15)
#loc54 = loc("/sgl-workspace/sglang/python/sglang/srt/layers/attention/fla/chunk_o.py":106:20)
#loc55 = loc("/sgl-workspace/sglang/python/sglang/srt/layers/attention/fla/chunk_o.py":109:14)
#loc56 = loc("/sgl-workspace/sglang/python/sglang/srt/layers/attention/fla/chunk_o.py":109:30)
#loc57 = loc("/sgl-workspace/sglang/python/sglang/srt/layers/attention/fla/chunk_o.py":109:26)
#loc58 = loc("/sgl-workspace/sglang/python/sglang/srt/layers/attention/fla/chunk_o.py":110:29)
#loc59 = loc("/sgl-workspace/sglang/python/sglang/srt/layers/attention/fla/chunk_o.py":118:18)
#loc60 = loc("/sgl-workspace/sglang/python/sglang/srt/layers/attention/fla/chunk_o.py":122:16)
#loc61 = loc("/sgl-workspace/sglang/python/sglang/srt/layers/attention/fla/chunk_o.py":122:38)
#loc62 = loc("/sgl-workspace/sglang/python/sglang/srt/layers/attention/fla/chunk_o.py":122:50)
#loc63 = loc("/sgl-workspace/sglang/python/sglang/srt/layers/attention/fla/chunk_o.py":122:57)
#loc64 = loc("/sgl-workspace/sglang/python/sglang/srt/layers/attention/fla/chunk_o.py":122:24)
#loc65 = loc("/sgl-workspace/sglang/python/sglang/srt/layers/attention/fla/chunk_o.py":123:25)
#loc66 = loc("/sgl-workspace/sglang/python/sglang/srt/layers/attention/fla/chunk_o.py":123:18)
#loc67 = loc("/sgl-workspace/sglang/python/sglang/srt/layers/attention/fla/chunk_o.py":123:4)
#loc78 = loc("b_g"(#loc2))
#loc79 = loc("b_k"(#loc3))
#loc80 = loc("b_q"(#loc4))
#loc81 = loc("b_A"(#loc6))
#loc82 = loc("h"(#loc7))
#loc83 = loc("T"(#loc21))
#loc84 = loc("q"(#loc22))
#loc85 = loc("q"(#loc23))
#loc86 = loc("q"(#loc24))
#loc87 = loc("q"(#loc25))
#loc88 = loc("q"(#loc26))
#loc89 = loc("k"(#loc27))
#loc90 = loc("v"(#loc28))
#loc91 = loc("v"(#loc29))
#loc92 = loc("v"(#loc30))
#loc93 = loc("v"(#loc31))
#loc94 = loc("o"(#loc32))
#loc95 = loc("h"(#loc33))
#loc96 = loc("h"(#loc34))
#loc97 = loc("h"(#loc35))
#loc98 = loc("h"(#loc36))
#loc99 = loc("p_q"(#loc37))
#loc100 = loc("p_q"(#loc38))
#loc101 = loc("p_h"(#loc39))
#loc102 = loc("p_h"(#loc40))
#loc103 = loc("b_h"(#loc41))
#loc104 = loc("b_o"(#loc42))
#loc105 = loc("b_o"(#loc43))
#loc106 = loc("b_A"(#loc44))
#loc107 = loc("g"(#loc45))
#loc108 = loc("b_o"(#loc46))
#loc109 = loc("b_o"(#loc47))
#loc110 = loc("b_o"(#loc48))
#loc111 = loc("b_A"(#loc49))
#loc112 = loc("b_A"(#loc50))
#loc113 = loc("b_A"(#loc51))
#loc114 = loc("b_A"(#loc54))
#loc115 = loc("m_A"(#loc55))
#loc116 = loc("m_A"(#loc56))
#loc117 = loc("m_A"(#loc57))
#loc118 = loc("b_A"(#loc58))
#loc119 = loc("b_v"(#loc59))
#loc120 = loc("b_o"(#loc60))
#loc121 = loc("b_o"(#loc61))
#loc122 = loc("b_o"(#loc62))
#loc123 = loc("b_o"(#loc63))
#loc124 = loc("b_o"(#loc64))
#loc125 = loc(callsite(#loc5 at #loc81))
#loc126 = loc(callsite(#loc52 at #loc81))
#loc127 = loc(callsite(#loc53 at #loc81))
