#loc = loc("/root/.cache/inductor/nf/cnfcy73d2mfc34rtm6erg4xksf4wju32xzdlsab2vdqpomqpng37.py":18:0)
#loc90 = loc("in_ptr0"(#loc))
#loc91 = loc("in_ptr1"(#loc))
#loc92 = loc("in_ptr2"(#loc))
#loc93 = loc("in_ptr3"(#loc))
#loc94 = loc("out_ptr0"(#loc))
#loc95 = loc("out_ptr1"(#loc))
#loc96 = loc("ks0"(#loc))
#loc97 = loc("ks1"(#loc))
#loc98 = loc("xnumel"(#loc))
module {
  tt.func public @triton_poi_fused__to_copy_add_cat_mul_neg_slice_unsqueeze_0(%in_ptr0: !tt.ptr<bf16> {tt.divisibility = 16 : i32} loc("in_ptr0"(#loc)), %in_ptr1: !tt.ptr<f32> {tt.divisibility = 16 : i32} loc("in_ptr1"(#loc)), %in_ptr2: !tt.ptr<f32> {tt.divisibility = 16 : i32} loc("in_ptr2"(#loc)), %in_ptr3: !tt.ptr<bf16> {tt.divisibility = 16 : i32} loc("in_ptr3"(#loc)), %out_ptr0: !tt.ptr<bf16> {tt.divisibility = 16 : i32} loc("out_ptr0"(#loc)), %out_ptr1: !tt.ptr<bf16> {tt.divisibility = 16 : i32} loc("out_ptr1"(#loc)), %ks0: i64 loc("ks0"(#loc)), %ks1: i64 loc("ks1"(#loc)), %xnumel: i32 loc("xnumel"(#loc))) attributes {noinline = false} {
    %xoffset = tt.get_program_id x : i32 loc(#loc99)
    %xoffset_0 = arith.constant 512 : i32 loc(#loc100)
    %xoffset_1 = arith.constant 512 : i32 loc(#loc100)
    %xoffset_2 = arith.muli %xoffset, %xoffset_1 : i32 loc(#loc100)
    %xindex = tt.make_range {end = 512 : i32, start = 0 : i32} : tensor<512xi32> loc(#loc101)
    %xindex_3 = tt.splat %xoffset_2 : i32 -> tensor<512xi32> loc(#loc102)
    %xindex_4 = arith.addi %xindex_3, %xindex : tensor<512xi32> loc(#loc102)
    %xmask = tt.splat %xnumel : i32 -> tensor<512xi32> loc(#loc103)
    %xmask_5 = arith.cmpi slt, %xindex_4, %xmask : tensor<512xi32> loc(#loc103)
    %x0 = arith.extsi %xindex_4 : tensor<512xi32> to tensor<512xi64> loc(#loc104)
    %x0_6 = tt.splat %ks0 : i64 -> tensor<512xi64> loc(#loc104)
    %x0_7 = arith.remsi %x0, %x0_6 : tensor<512xi64> loc(#loc104)
    %x2 = arith.extsi %xindex_4 : tensor<512xi32> to tensor<512xi64> loc(#loc105)
    %x2_8 = tt.splat %ks1 : i64 -> tensor<512xi64> loc(#loc105)
    %x2_9 = arith.divsi %x2, %x2_8 : tensor<512xi64> loc(#loc105)
    %x4 = arith.extsi %xindex_4 : tensor<512xi32> to tensor<512xi64> loc(#loc106)
    %x4_10 = tt.splat %ks0 : i64 -> tensor<512xi64> loc(#loc106)
    %x4_11 = arith.divsi %x4, %x4_10 : tensor<512xi64> loc(#loc106)
    %tmp0 = tt.splat %in_ptr0 : !tt.ptr<bf16> -> tensor<512x!tt.ptr<bf16>> loc(#loc107)
    %tmp0_12 = tt.addptr %tmp0, %xindex_4 : tensor<512x!tt.ptr<bf16>>, tensor<512xi32> loc(#loc107)
    %tmp0_13 = tt.load %tmp0_12, %xmask_5 evictionPolicy = evict_last : tensor<512x!tt.ptr<bf16>> loc(#loc108)
    %tmp0_14 = arith.extf %tmp0_13 : tensor<512xbf16> to tensor<512xf32> loc(#loc109)
    %tmp2 = tt.splat %ks0 : i64 -> tensor<512xi64> loc(#loc110)
    %tmp2_15 = arith.muli %tmp2, %x2_9 : tensor<512xi64> loc(#loc110)
    %tmp2_16 = arith.addi %x0_7, %tmp2_15 : tensor<512xi64> loc(#loc111)
    %tmp2_17 = tt.splat %in_ptr1 : !tt.ptr<f32> -> tensor<512x!tt.ptr<f32>> loc(#loc112)
    %tmp2_18 = tt.addptr %tmp2_17, %tmp2_16 : tensor<512x!tt.ptr<f32>>, tensor<512xi64> loc(#loc112)
    %tmp2_19 = tt.load %tmp2_18, %xmask_5 evictionPolicy = evict_last : tensor<512x!tt.ptr<f32>> loc(#loc113)
    %tmp22 = tt.splat %ks0 : i64 -> tensor<512xi64> loc(#loc114)
    %tmp22_20 = arith.muli %tmp22, %x2_9 : tensor<512xi64> loc(#loc114)
    %tmp22_21 = arith.addi %x0_7, %tmp22_20 : tensor<512xi64> loc(#loc115)
    %tmp22_22 = tt.splat %in_ptr2 : !tt.ptr<f32> -> tensor<512x!tt.ptr<f32>> loc(#loc116)
    %tmp22_23 = tt.addptr %tmp22_22, %tmp22_21 : tensor<512x!tt.ptr<f32>>, tensor<512xi64> loc(#loc116)
    %tmp22_24 = tt.load %tmp22_23, %xmask_5 evictionPolicy = evict_last : tensor<512x!tt.ptr<f32>> loc(#loc117)
    %tmp26 = tt.splat %in_ptr3 : !tt.ptr<bf16> -> tensor<512x!tt.ptr<bf16>> loc(#loc118)
    %tmp26_25 = tt.addptr %tmp26, %xindex_4 : tensor<512x!tt.ptr<bf16>>, tensor<512xi32> loc(#loc118)
    %tmp26_26 = tt.load %tmp26_25, %xmask_5 evictionPolicy = evict_last : tensor<512x!tt.ptr<bf16>> loc(#loc119)
    %tmp26_27 = arith.extf %tmp26_26 : tensor<512xbf16> to tensor<512xf32> loc(#loc120)
    %tmp3 = arith.mulf %tmp0_14, %tmp2_19 : tensor<512xf32> loc(#loc121)
    %tmp5 = arith.constant 0 : i64 loc(#loc122)
    %tmp5_28 = arith.constant dense<0> : tensor<1xi64> loc(#loc122)
    %tmp6 = arith.constant dense<0> : tensor<512xi64> loc(#loc123)
    %tmp6_29 = arith.cmpi sge, %x0_7, %tmp6 : tensor<512xi64> loc(#loc123)
    %tmp7 = arith.constant 2 : i32 loc(#loc124)
    %tmp7_30 = arith.constant 2 : i64 loc(#loc124)
    %tmp7_31 = arith.divsi %ks0, %tmp7_30 : i64 loc(#loc124)
    %tmp7_32 = arith.constant -1 : i32 loc(#loc125)
    %tmp7_33 = arith.constant -1 : i64 loc(#loc125)
    %tmp7_34 = arith.muli %tmp7_33, %tmp7_31 : i64 loc(#loc125)
    %tmp7_35 = arith.addi %ks0, %tmp7_34 : i64 loc(#loc126)
    %tmp8 = tt.splat %tmp7_35 : i64 -> tensor<512xi64> loc(#loc127)
    %tmp8_36 = arith.cmpi slt, %x0_7, %tmp8 : tensor<512xi64> loc(#loc127)
    %tmp9 = tt.splat %ks0 : i64 -> tensor<512xi64> loc(#loc128)
    %tmp9_37 = arith.muli %tmp9, %x4_11 : tensor<512xi64> loc(#loc128)
    %tmp9_38 = arith.constant 2 : i32 loc(#loc129)
    %tmp9_39 = arith.constant 2 : i64 loc(#loc129)
    %tmp9_40 = arith.divsi %ks0, %tmp9_39 : i64 loc(#loc129)
    %tmp9_41 = tt.splat %tmp9_40 : i64 -> tensor<512xi64> loc(#loc130)
    %tmp9_42 = arith.addi %tmp9_37, %tmp9_41 : tensor<512xi64> loc(#loc130)
    %tmp9_43 = arith.addi %tmp9_42, %x0_7 : tensor<512xi64> loc(#loc131)
    %tmp9_44 = tt.splat %in_ptr0 : !tt.ptr<bf16> -> tensor<512x!tt.ptr<bf16>> loc(#loc132)
    %tmp9_45 = tt.addptr %tmp9_44, %tmp9_43 : tensor<512x!tt.ptr<bf16>>, tensor<512xi64> loc(#loc132)
    %tmp9_46 = arith.andi %tmp8_36, %xmask_5 : tensor<512xi1> loc(#loc133)
    %tmp9_47 = arith.constant 0.000000e+00 : f32 loc(#loc134)
    %tmp9_48 = arith.constant dense<0.000000e+00> : tensor<512xf32> loc(#loc134)
    %tmp9_49 = arith.truncf %tmp9_48 : tensor<512xf32> to tensor<512xbf16> loc(#loc134)
    %tmp9_50 = tt.load %tmp9_45, %tmp9_46, %tmp9_49 evictionPolicy = evict_last : tensor<512x!tt.ptr<bf16>> loc(#loc134)
    %tmp9_51 = arith.extf %tmp9_50 : tensor<512xbf16> to tensor<512xf32> loc(#loc135)
    %tmp11 = arith.constant 0.000000e+00 : f32 loc(#loc136)
    %tmp11_52 = arith.constant dense<0.000000e+00> : tensor<512xf32> loc(#loc136)
    %tmp11_53 = arith.subf %tmp11_52, %tmp9_51 : tensor<512xf32> loc(#loc136)
    %tmp12 = arith.constant 0.000000e+00 : f32 loc(#loc137)
    %tmp12_54 = arith.constant dense<0.000000e+00> : tensor<512xf32> loc(#loc137)
    %tmp13 = arith.select %tmp8_36, %tmp11_53, %tmp12_54 : tensor<512xi1>, tensor<512xf32> loc(#loc138)
    %tmp14 = tt.splat %tmp7_35 : i64 -> tensor<512xi64> loc(#loc139)
    %tmp14_55 = arith.cmpi sge, %x0_7, %tmp14 : tensor<512xi64> loc(#loc139)
    %tmp16 = tt.splat %ks0 : i64 -> tensor<512xi64> loc(#loc140)
    %tmp16_56 = arith.cmpi slt, %x0_7, %tmp16 : tensor<512xi64> loc(#loc140)
    %tmp17 = tt.splat %ks0 : i64 -> tensor<512xi64> loc(#loc141)
    %tmp17_57 = arith.muli %tmp17, %x4_11 : tensor<512xi64> loc(#loc141)
    %tmp17_58 = arith.constant -1 : i32 loc(#loc142)
    %tmp17_59 = arith.constant -1 : i64 loc(#loc142)
    %tmp17_60 = arith.muli %tmp17_59, %ks0 : i64 loc(#loc142)
    %tmp17_61 = tt.splat %tmp17_60 : i64 -> tensor<512xi64> loc(#loc143)
    %tmp17_62 = arith.addi %x0_7, %tmp17_61 : tensor<512xi64> loc(#loc143)
    %tmp17_63 = arith.constant 2 : i32 loc(#loc144)
    %tmp17_64 = arith.constant 2 : i64 loc(#loc144)
    %tmp17_65 = arith.divsi %ks0, %tmp17_64 : i64 loc(#loc144)
    %tmp17_66 = tt.splat %tmp17_65 : i64 -> tensor<512xi64> loc(#loc145)
    %tmp17_67 = arith.addi %tmp17_62, %tmp17_66 : tensor<512xi64> loc(#loc145)
    %tmp17_68 = arith.addi %tmp17_57, %tmp17_67 : tensor<512xi64> loc(#loc146)
    %tmp17_69 = tt.splat %in_ptr0 : !tt.ptr<bf16> -> tensor<512x!tt.ptr<bf16>> loc(#loc147)
    %tmp17_70 = tt.addptr %tmp17_69, %tmp17_68 : tensor<512x!tt.ptr<bf16>>, tensor<512xi64> loc(#loc147)
    %tmp17_71 = arith.andi %tmp14_55, %xmask_5 : tensor<512xi1> loc(#loc148)
    %tmp17_72 = arith.constant 0.000000e+00 : f32 loc(#loc149)
    %tmp17_73 = arith.constant dense<0.000000e+00> : tensor<512xf32> loc(#loc149)
    %tmp17_74 = arith.truncf %tmp17_73 : tensor<512xf32> to tensor<512xbf16> loc(#loc149)
    %tmp17_75 = tt.load %tmp17_70, %tmp17_71, %tmp17_74 evictionPolicy = evict_last : tensor<512x!tt.ptr<bf16>> loc(#loc149)
    %tmp17_76 = arith.extf %tmp17_75 : tensor<512xbf16> to tensor<512xf32> loc(#loc150)
    %tmp19 = arith.constant 0.000000e+00 : f32 loc(#loc151)
    %tmp19_77 = arith.constant dense<0.000000e+00> : tensor<512xf32> loc(#loc151)
    %tmp20 = arith.select %tmp14_55, %tmp17_76, %tmp19_77 : tensor<512xi1>, tensor<512xf32> loc(#loc152)
    %tmp21 = arith.select %tmp8_36, %tmp13, %tmp20 : tensor<512xi1>, tensor<512xf32> loc(#loc153)
    %tmp23 = arith.mulf %tmp21, %tmp22_24 : tensor<512xf32> loc(#loc154)
    %tmp24 = arith.addf %tmp3, %tmp23 : tensor<512xf32> loc(#loc155)
    %tmp28 = arith.mulf %tmp26_27, %tmp2_19 : tensor<512xf32> loc(#loc156)
    %tmp29 = tt.splat %ks0 : i64 -> tensor<512xi64> loc(#loc157)
    %tmp29_78 = arith.muli %tmp29, %x4_11 : tensor<512xi64> loc(#loc157)
    %tmp29_79 = arith.constant 2 : i32 loc(#loc158)
    %tmp29_80 = arith.constant 2 : i64 loc(#loc158)
    %tmp29_81 = arith.divsi %ks0, %tmp29_80 : i64 loc(#loc158)
    %tmp29_82 = tt.splat %tmp29_81 : i64 -> tensor<512xi64> loc(#loc159)
    %tmp29_83 = arith.addi %tmp29_78, %tmp29_82 : tensor<512xi64> loc(#loc159)
    %tmp29_84 = arith.addi %tmp29_83, %x0_7 : tensor<512xi64> loc(#loc160)
    %tmp29_85 = tt.splat %in_ptr3 : !tt.ptr<bf16> -> tensor<512x!tt.ptr<bf16>> loc(#loc161)
    %tmp29_86 = tt.addptr %tmp29_85, %tmp29_84 : tensor<512x!tt.ptr<bf16>>, tensor<512xi64> loc(#loc161)
    %tmp29_87 = arith.andi %tmp8_36, %xmask_5 : tensor<512xi1> loc(#loc162)
    %tmp29_88 = arith.constant 0.000000e+00 : f32 loc(#loc163)
    %tmp29_89 = arith.constant dense<0.000000e+00> : tensor<512xf32> loc(#loc163)
    %tmp29_90 = arith.truncf %tmp29_89 : tensor<512xf32> to tensor<512xbf16> loc(#loc163)
    %tmp29_91 = tt.load %tmp29_86, %tmp29_87, %tmp29_90 evictionPolicy = evict_last : tensor<512x!tt.ptr<bf16>> loc(#loc163)
    %tmp29_92 = arith.extf %tmp29_91 : tensor<512xbf16> to tensor<512xf32> loc(#loc164)
    %tmp31 = arith.constant 0.000000e+00 : f32 loc(#loc165)
    %tmp31_93 = arith.constant dense<0.000000e+00> : tensor<512xf32> loc(#loc165)
    %tmp31_94 = arith.subf %tmp31_93, %tmp29_92 : tensor<512xf32> loc(#loc165)
    %tmp32 = arith.constant 0.000000e+00 : f32 loc(#loc166)
    %tmp32_95 = arith.constant dense<0.000000e+00> : tensor<512xf32> loc(#loc166)
    %tmp33 = arith.select %tmp8_36, %tmp31_94, %tmp32_95 : tensor<512xi1>, tensor<512xf32> loc(#loc167)
    %tmp34 = tt.splat %ks0 : i64 -> tensor<512xi64> loc(#loc168)
    %tmp34_96 = arith.muli %tmp34, %x4_11 : tensor<512xi64> loc(#loc168)
    %tmp34_97 = arith.constant -1 : i32 loc(#loc169)
    %tmp34_98 = arith.constant -1 : i64 loc(#loc169)
    %tmp34_99 = arith.muli %tmp34_98, %ks0 : i64 loc(#loc169)
    %tmp34_100 = tt.splat %tmp34_99 : i64 -> tensor<512xi64> loc(#loc170)
    %tmp34_101 = arith.addi %x0_7, %tmp34_100 : tensor<512xi64> loc(#loc170)
    %tmp34_102 = arith.constant 2 : i32 loc(#loc171)
    %tmp34_103 = arith.constant 2 : i64 loc(#loc171)
    %tmp34_104 = arith.divsi %ks0, %tmp34_103 : i64 loc(#loc171)
    %tmp34_105 = tt.splat %tmp34_104 : i64 -> tensor<512xi64> loc(#loc172)
    %tmp34_106 = arith.addi %tmp34_101, %tmp34_105 : tensor<512xi64> loc(#loc172)
    %tmp34_107 = arith.addi %tmp34_96, %tmp34_106 : tensor<512xi64> loc(#loc173)
    %tmp34_108 = tt.splat %in_ptr3 : !tt.ptr<bf16> -> tensor<512x!tt.ptr<bf16>> loc(#loc174)
    %tmp34_109 = tt.addptr %tmp34_108, %tmp34_107 : tensor<512x!tt.ptr<bf16>>, tensor<512xi64> loc(#loc174)
    %tmp34_110 = arith.andi %tmp14_55, %xmask_5 : tensor<512xi1> loc(#loc175)
    %tmp34_111 = arith.constant 0.000000e+00 : f32 loc(#loc176)
    %tmp34_112 = arith.constant dense<0.000000e+00> : tensor<512xf32> loc(#loc176)
    %tmp34_113 = arith.truncf %tmp34_112 : tensor<512xf32> to tensor<512xbf16> loc(#loc176)
    %tmp34_114 = tt.load %tmp34_109, %tmp34_110, %tmp34_113 evictionPolicy = evict_last : tensor<512x!tt.ptr<bf16>> loc(#loc176)
    %tmp34_115 = arith.extf %tmp34_114 : tensor<512xbf16> to tensor<512xf32> loc(#loc177)
    %tmp36 = arith.constant 0.000000e+00 : f32 loc(#loc178)
    %tmp36_116 = arith.constant dense<0.000000e+00> : tensor<512xf32> loc(#loc178)
    %tmp37 = arith.select %tmp14_55, %tmp34_115, %tmp36_116 : tensor<512xi1>, tensor<512xf32> loc(#loc179)
    %tmp38 = arith.select %tmp8_36, %tmp33, %tmp37 : tensor<512xi1>, tensor<512xf32> loc(#loc180)
    %tmp39 = arith.mulf %tmp38, %tmp22_24 : tensor<512xf32> loc(#loc181)
    %tmp40 = arith.addf %tmp28, %tmp39 : tensor<512xf32> loc(#loc182)
    %0 = tt.splat %out_ptr0 : !tt.ptr<bf16> -> tensor<512x!tt.ptr<bf16>> loc(#loc85)
    %1 = tt.addptr %0, %xindex_4 : tensor<512x!tt.ptr<bf16>>, tensor<512xi32> loc(#loc85)
    %2 = arith.truncf %tmp24 : tensor<512xf32> to tensor<512xbf16> loc(#loc86)
    tt.store %1, %2, %xmask_5 : tensor<512x!tt.ptr<bf16>> loc(#loc86)
    %3 = tt.splat %out_ptr1 : !tt.ptr<bf16> -> tensor<512x!tt.ptr<bf16>> loc(#loc87)
    %4 = tt.addptr %3, %xindex_4 : tensor<512x!tt.ptr<bf16>>, tensor<512xi32> loc(#loc87)
    %5 = arith.truncf %tmp40 : tensor<512xf32> to tensor<512xbf16> loc(#loc88)
    tt.store %4, %5, %xmask_5 : tensor<512x!tt.ptr<bf16>> loc(#loc88)
    tt.return loc(#loc89)
  } loc(#loc)
} loc(#loc)
#loc1 = loc("/root/.cache/inductor/nf/cnfcy73d2mfc34rtm6erg4xksf4wju32xzdlsab2vdqpomqpng37.py":19:28)
#loc2 = loc("/root/.cache/inductor/nf/cnfcy73d2mfc34rtm6erg4xksf4wju32xzdlsab2vdqpomqpng37.py":19:33)
#loc3 = loc("/root/.cache/inductor/nf/cnfcy73d2mfc34rtm6erg4xksf4wju32xzdlsab2vdqpomqpng37.py":20:36)
#loc4 = loc("/root/.cache/inductor/nf/cnfcy73d2mfc34rtm6erg4xksf4wju32xzdlsab2vdqpomqpng37.py":20:23)
#loc5 = loc("/root/.cache/inductor/nf/cnfcy73d2mfc34rtm6erg4xksf4wju32xzdlsab2vdqpomqpng37.py":21:21)
#loc6 = loc("/root/.cache/inductor/nf/cnfcy73d2mfc34rtm6erg4xksf4wju32xzdlsab2vdqpomqpng37.py":23:19)
#loc7 = loc("/root/.cache/inductor/nf/cnfcy73d2mfc34rtm6erg4xksf4wju32xzdlsab2vdqpomqpng37.py":24:19)
#loc8 = loc("/root/.cache/inductor/nf/cnfcy73d2mfc34rtm6erg4xksf4wju32xzdlsab2vdqpomqpng37.py":25:19)
#loc9 = loc("/root/.cache/inductor/nf/cnfcy73d2mfc34rtm6erg4xksf4wju32xzdlsab2vdqpomqpng37.py":26:30)
#loc10 = loc("/root/.cache/inductor/nf/cnfcy73d2mfc34rtm6erg4xksf4wju32xzdlsab2vdqpomqpng37.py":26:35)
#loc11 = loc("/root/.cache/inductor/nf/cnfcy73d2mfc34rtm6erg4xksf4wju32xzdlsab2vdqpomqpng37.py":26:75)
#loc12 = loc("/root/.cache/inductor/nf/cnfcy73d2mfc34rtm6erg4xksf4wju32xzdlsab2vdqpomqpng37.py":27:39)
#loc13 = loc("/root/.cache/inductor/nf/cnfcy73d2mfc34rtm6erg4xksf4wju32xzdlsab2vdqpomqpng37.py":27:35)
#loc14 = loc("/root/.cache/inductor/nf/cnfcy73d2mfc34rtm6erg4xksf4wju32xzdlsab2vdqpomqpng37.py":27:30)
#loc15 = loc("/root/.cache/inductor/nf/cnfcy73d2mfc34rtm6erg4xksf4wju32xzdlsab2vdqpomqpng37.py":27:44)
#loc16 = loc("/root/.cache/inductor/nf/cnfcy73d2mfc34rtm6erg4xksf4wju32xzdlsab2vdqpomqpng37.py":28:40)
#loc17 = loc("/root/.cache/inductor/nf/cnfcy73d2mfc34rtm6erg4xksf4wju32xzdlsab2vdqpomqpng37.py":28:36)
#loc18 = loc("/root/.cache/inductor/nf/cnfcy73d2mfc34rtm6erg4xksf4wju32xzdlsab2vdqpomqpng37.py":28:31)
#loc19 = loc("/root/.cache/inductor/nf/cnfcy73d2mfc34rtm6erg4xksf4wju32xzdlsab2vdqpomqpng37.py":28:45)
#loc20 = loc("/root/.cache/inductor/nf/cnfcy73d2mfc34rtm6erg4xksf4wju32xzdlsab2vdqpomqpng37.py":29:31)
#loc21 = loc("/root/.cache/inductor/nf/cnfcy73d2mfc34rtm6erg4xksf4wju32xzdlsab2vdqpomqpng37.py":29:36)
#loc22 = loc("/root/.cache/inductor/nf/cnfcy73d2mfc34rtm6erg4xksf4wju32xzdlsab2vdqpomqpng37.py":29:76)
#loc23 = loc("/root/.cache/inductor/nf/cnfcy73d2mfc34rtm6erg4xksf4wju32xzdlsab2vdqpomqpng37.py":31:18)
#loc24 = loc("/root/.cache/inductor/nf/cnfcy73d2mfc34rtm6erg4xksf4wju32xzdlsab2vdqpomqpng37.py":33:27)
#loc25 = loc("/root/.cache/inductor/nf/cnfcy73d2mfc34rtm6erg4xksf4wju32xzdlsab2vdqpomqpng37.py":34:19)
#loc26 = loc("/root/.cache/inductor/nf/cnfcy73d2mfc34rtm6erg4xksf4wju32xzdlsab2vdqpomqpng37.py":35:30)
#loc27 = loc("/root/.cache/inductor/nf/cnfcy73d2mfc34rtm6erg4xksf4wju32xzdlsab2vdqpomqpng37.py":35:23)
#loc28 = loc("/root/.cache/inductor/nf/cnfcy73d2mfc34rtm6erg4xksf4wju32xzdlsab2vdqpomqpng37.py":35:17)
#loc29 = loc("/root/.cache/inductor/nf/cnfcy73d2mfc34rtm6erg4xksf4wju32xzdlsab2vdqpomqpng37.py":36:18)
#loc30 = loc("/root/.cache/inductor/nf/cnfcy73d2mfc34rtm6erg4xksf4wju32xzdlsab2vdqpomqpng37.py":37:34)
#loc31 = loc("/root/.cache/inductor/nf/cnfcy73d2mfc34rtm6erg4xksf4wju32xzdlsab2vdqpomqpng37.py":37:47)
#loc32 = loc("/root/.cache/inductor/nf/cnfcy73d2mfc34rtm6erg4xksf4wju32xzdlsab2vdqpomqpng37.py":37:40)
#loc33 = loc("/root/.cache/inductor/nf/cnfcy73d2mfc34rtm6erg4xksf4wju32xzdlsab2vdqpomqpng37.py":37:53)
#loc34 = loc("/root/.cache/inductor/nf/cnfcy73d2mfc34rtm6erg4xksf4wju32xzdlsab2vdqpomqpng37.py":37:30)
#loc35 = loc("/root/.cache/inductor/nf/cnfcy73d2mfc34rtm6erg4xksf4wju32xzdlsab2vdqpomqpng37.py":37:66)
#loc36 = loc("/root/.cache/inductor/nf/cnfcy73d2mfc34rtm6erg4xksf4wju32xzdlsab2vdqpomqpng37.py":37:59)
#loc37 = loc("/root/.cache/inductor/nf/cnfcy73d2mfc34rtm6erg4xksf4wju32xzdlsab2vdqpomqpng37.py":37:117)
#loc38 = loc("/root/.cache/inductor/nf/cnfcy73d2mfc34rtm6erg4xksf4wju32xzdlsab2vdqpomqpng37.py":39:13)
#loc39 = loc("/root/.cache/inductor/nf/cnfcy73d2mfc34rtm6erg4xksf4wju32xzdlsab2vdqpomqpng37.py":40:38)
#loc40 = loc("/root/.cache/inductor/nf/cnfcy73d2mfc34rtm6erg4xksf4wju32xzdlsab2vdqpomqpng37.py":41:34)
#loc41 = loc("/root/.cache/inductor/nf/cnfcy73d2mfc34rtm6erg4xksf4wju32xzdlsab2vdqpomqpng37.py":42:20)
#loc42 = loc("/root/.cache/inductor/nf/cnfcy73d2mfc34rtm6erg4xksf4wju32xzdlsab2vdqpomqpng37.py":44:19)
#loc43 = loc("/root/.cache/inductor/nf/cnfcy73d2mfc34rtm6erg4xksf4wju32xzdlsab2vdqpomqpng37.py":45:35)
#loc44 = loc("/root/.cache/inductor/nf/cnfcy73d2mfc34rtm6erg4xksf4wju32xzdlsab2vdqpomqpng37.py":45:52)
#loc45 = loc("/root/.cache/inductor/nf/cnfcy73d2mfc34rtm6erg4xksf4wju32xzdlsab2vdqpomqpng37.py":45:47)
#loc46 = loc("/root/.cache/inductor/nf/cnfcy73d2mfc34rtm6erg4xksf4wju32xzdlsab2vdqpomqpng37.py":45:67)
#loc47 = loc("/root/.cache/inductor/nf/cnfcy73d2mfc34rtm6erg4xksf4wju32xzdlsab2vdqpomqpng37.py":45:60)
#loc48 = loc("/root/.cache/inductor/nf/cnfcy73d2mfc34rtm6erg4xksf4wju32xzdlsab2vdqpomqpng37.py":45:41)
#loc49 = loc("/root/.cache/inductor/nf/cnfcy73d2mfc34rtm6erg4xksf4wju32xzdlsab2vdqpomqpng37.py":45:31)
#loc50 = loc("/root/.cache/inductor/nf/cnfcy73d2mfc34rtm6erg4xksf4wju32xzdlsab2vdqpomqpng37.py":45:81)
#loc51 = loc("/root/.cache/inductor/nf/cnfcy73d2mfc34rtm6erg4xksf4wju32xzdlsab2vdqpomqpng37.py":45:73)
#loc52 = loc("/root/.cache/inductor/nf/cnfcy73d2mfc34rtm6erg4xksf4wju32xzdlsab2vdqpomqpng37.py":45:132)
#loc53 = loc("/root/.cache/inductor/nf/cnfcy73d2mfc34rtm6erg4xksf4wju32xzdlsab2vdqpomqpng37.py":47:38)
#loc54 = loc("/root/.cache/inductor/nf/cnfcy73d2mfc34rtm6erg4xksf4wju32xzdlsab2vdqpomqpng37.py":48:35)
#loc55 = loc("/root/.cache/inductor/nf/cnfcy73d2mfc34rtm6erg4xksf4wju32xzdlsab2vdqpomqpng37.py":49:34)
#loc56 = loc("/root/.cache/inductor/nf/cnfcy73d2mfc34rtm6erg4xksf4wju32xzdlsab2vdqpomqpng37.py":50:20)
#loc57 = loc("/root/.cache/inductor/nf/cnfcy73d2mfc34rtm6erg4xksf4wju32xzdlsab2vdqpomqpng37.py":51:19)
#loc58 = loc("/root/.cache/inductor/nf/cnfcy73d2mfc34rtm6erg4xksf4wju32xzdlsab2vdqpomqpng37.py":54:20)
#loc59 = loc("/root/.cache/inductor/nf/cnfcy73d2mfc34rtm6erg4xksf4wju32xzdlsab2vdqpomqpng37.py":55:35)
#loc60 = loc("/root/.cache/inductor/nf/cnfcy73d2mfc34rtm6erg4xksf4wju32xzdlsab2vdqpomqpng37.py":55:48)
#loc61 = loc("/root/.cache/inductor/nf/cnfcy73d2mfc34rtm6erg4xksf4wju32xzdlsab2vdqpomqpng37.py":55:41)
#loc62 = loc("/root/.cache/inductor/nf/cnfcy73d2mfc34rtm6erg4xksf4wju32xzdlsab2vdqpomqpng37.py":55:54)
#loc63 = loc("/root/.cache/inductor/nf/cnfcy73d2mfc34rtm6erg4xksf4wju32xzdlsab2vdqpomqpng37.py":55:31)
#loc64 = loc("/root/.cache/inductor/nf/cnfcy73d2mfc34rtm6erg4xksf4wju32xzdlsab2vdqpomqpng37.py":55:67)
#loc65 = loc("/root/.cache/inductor/nf/cnfcy73d2mfc34rtm6erg4xksf4wju32xzdlsab2vdqpomqpng37.py":55:60)
#loc66 = loc("/root/.cache/inductor/nf/cnfcy73d2mfc34rtm6erg4xksf4wju32xzdlsab2vdqpomqpng37.py":55:118)
#loc67 = loc("/root/.cache/inductor/nf/cnfcy73d2mfc34rtm6erg4xksf4wju32xzdlsab2vdqpomqpng37.py":57:13)
#loc68 = loc("/root/.cache/inductor/nf/cnfcy73d2mfc34rtm6erg4xksf4wju32xzdlsab2vdqpomqpng37.py":58:38)
#loc69 = loc("/root/.cache/inductor/nf/cnfcy73d2mfc34rtm6erg4xksf4wju32xzdlsab2vdqpomqpng37.py":59:34)
#loc70 = loc("/root/.cache/inductor/nf/cnfcy73d2mfc34rtm6erg4xksf4wju32xzdlsab2vdqpomqpng37.py":60:35)
#loc71 = loc("/root/.cache/inductor/nf/cnfcy73d2mfc34rtm6erg4xksf4wju32xzdlsab2vdqpomqpng37.py":60:52)
#loc72 = loc("/root/.cache/inductor/nf/cnfcy73d2mfc34rtm6erg4xksf4wju32xzdlsab2vdqpomqpng37.py":60:47)
#loc73 = loc("/root/.cache/inductor/nf/cnfcy73d2mfc34rtm6erg4xksf4wju32xzdlsab2vdqpomqpng37.py":60:67)
#loc74 = loc("/root/.cache/inductor/nf/cnfcy73d2mfc34rtm6erg4xksf4wju32xzdlsab2vdqpomqpng37.py":60:60)
#loc75 = loc("/root/.cache/inductor/nf/cnfcy73d2mfc34rtm6erg4xksf4wju32xzdlsab2vdqpomqpng37.py":60:41)
#loc76 = loc("/root/.cache/inductor/nf/cnfcy73d2mfc34rtm6erg4xksf4wju32xzdlsab2vdqpomqpng37.py":60:31)
#loc77 = loc("/root/.cache/inductor/nf/cnfcy73d2mfc34rtm6erg4xksf4wju32xzdlsab2vdqpomqpng37.py":60:81)
#loc78 = loc("/root/.cache/inductor/nf/cnfcy73d2mfc34rtm6erg4xksf4wju32xzdlsab2vdqpomqpng37.py":60:73)
#loc79 = loc("/root/.cache/inductor/nf/cnfcy73d2mfc34rtm6erg4xksf4wju32xzdlsab2vdqpomqpng37.py":60:132)
#loc80 = loc("/root/.cache/inductor/nf/cnfcy73d2mfc34rtm6erg4xksf4wju32xzdlsab2vdqpomqpng37.py":62:38)
#loc81 = loc("/root/.cache/inductor/nf/cnfcy73d2mfc34rtm6erg4xksf4wju32xzdlsab2vdqpomqpng37.py":63:35)
#loc82 = loc("/root/.cache/inductor/nf/cnfcy73d2mfc34rtm6erg4xksf4wju32xzdlsab2vdqpomqpng37.py":64:34)
#loc83 = loc("/root/.cache/inductor/nf/cnfcy73d2mfc34rtm6erg4xksf4wju32xzdlsab2vdqpomqpng37.py":65:20)
#loc84 = loc("/root/.cache/inductor/nf/cnfcy73d2mfc34rtm6erg4xksf4wju32xzdlsab2vdqpomqpng37.py":66:20)
#loc85 = loc("/root/.cache/inductor/nf/cnfcy73d2mfc34rtm6erg4xksf4wju32xzdlsab2vdqpomqpng37.py":68:25)
#loc86 = loc("/root/.cache/inductor/nf/cnfcy73d2mfc34rtm6erg4xksf4wju32xzdlsab2vdqpomqpng37.py":68:37)
#loc87 = loc("/root/.cache/inductor/nf/cnfcy73d2mfc34rtm6erg4xksf4wju32xzdlsab2vdqpomqpng37.py":69:25)
#loc88 = loc("/root/.cache/inductor/nf/cnfcy73d2mfc34rtm6erg4xksf4wju32xzdlsab2vdqpomqpng37.py":69:37)
#loc89 = loc("/root/.cache/inductor/nf/cnfcy73d2mfc34rtm6erg4xksf4wju32xzdlsab2vdqpomqpng37.py":69:4)
#loc99 = loc("xoffset"(#loc1))
#loc100 = loc("xoffset"(#loc2))
#loc101 = loc("xindex"(#loc3))
#loc102 = loc("xindex"(#loc4))
#loc103 = loc("xmask"(#loc5))
#loc104 = loc("x0"(#loc6))
#loc105 = loc("x2"(#loc7))
#loc106 = loc("x4"(#loc8))
#loc107 = loc("tmp0"(#loc9))
#loc108 = loc("tmp0"(#loc10))
#loc109 = loc("tmp0"(#loc11))
#loc110 = loc("tmp2"(#loc12))
#loc111 = loc("tmp2"(#loc13))
#loc112 = loc("tmp2"(#loc14))
#loc113 = loc("tmp2"(#loc15))
#loc114 = loc("tmp22"(#loc16))
#loc115 = loc("tmp22"(#loc17))
#loc116 = loc("tmp22"(#loc18))
#loc117 = loc("tmp22"(#loc19))
#loc118 = loc("tmp26"(#loc20))
#loc119 = loc("tmp26"(#loc21))
#loc120 = loc("tmp26"(#loc22))
#loc121 = loc("tmp3"(#loc23))
#loc122 = loc("tmp5"(#loc24))
#loc123 = loc("tmp6"(#loc25))
#loc124 = loc("tmp7"(#loc26))
#loc125 = loc("tmp7"(#loc27))
#loc126 = loc("tmp7"(#loc28))
#loc127 = loc("tmp8"(#loc29))
#loc128 = loc("tmp9"(#loc30))
#loc129 = loc("tmp9"(#loc31))
#loc130 = loc("tmp9"(#loc32))
#loc131 = loc("tmp9"(#loc33))
#loc132 = loc("tmp9"(#loc34))
#loc133 = loc("tmp9"(#loc35))
#loc134 = loc("tmp9"(#loc36))
#loc135 = loc("tmp9"(#loc37))
#loc136 = loc("tmp11"(#loc38))
#loc137 = loc("tmp12"(#loc39))
#loc138 = loc("tmp13"(#loc40))
#loc139 = loc("tmp14"(#loc41))
#loc140 = loc("tmp16"(#loc42))
#loc141 = loc("tmp17"(#loc43))
#loc142 = loc("tmp17"(#loc44))
#loc143 = loc("tmp17"(#loc45))
#loc144 = loc("tmp17"(#loc46))
#loc145 = loc("tmp17"(#loc47))
#loc146 = loc("tmp17"(#loc48))
#loc147 = loc("tmp17"(#loc49))
#loc148 = loc("tmp17"(#loc50))
#loc149 = loc("tmp17"(#loc51))
#loc150 = loc("tmp17"(#loc52))
#loc151 = loc("tmp19"(#loc53))
#loc152 = loc("tmp20"(#loc54))
#loc153 = loc("tmp21"(#loc55))
#loc154 = loc("tmp23"(#loc56))
#loc155 = loc("tmp24"(#loc57))
#loc156 = loc("tmp28"(#loc58))
#loc157 = loc("tmp29"(#loc59))
#loc158 = loc("tmp29"(#loc60))
#loc159 = loc("tmp29"(#loc61))
#loc160 = loc("tmp29"(#loc62))
#loc161 = loc("tmp29"(#loc63))
#loc162 = loc("tmp29"(#loc64))
#loc163 = loc("tmp29"(#loc65))
#loc164 = loc("tmp29"(#loc66))
#loc165 = loc("tmp31"(#loc67))
#loc166 = loc("tmp32"(#loc68))
#loc167 = loc("tmp33"(#loc69))
#loc168 = loc("tmp34"(#loc70))
#loc169 = loc("tmp34"(#loc71))
#loc170 = loc("tmp34"(#loc72))
#loc171 = loc("tmp34"(#loc73))
#loc172 = loc("tmp34"(#loc74))
#loc173 = loc("tmp34"(#loc75))
#loc174 = loc("tmp34"(#loc76))
#loc175 = loc("tmp34"(#loc77))
#loc176 = loc("tmp34"(#loc78))
#loc177 = loc("tmp34"(#loc79))
#loc178 = loc("tmp36"(#loc80))
#loc179 = loc("tmp37"(#loc81))
#loc180 = loc("tmp38"(#loc82))
#loc181 = loc("tmp39"(#loc83))
#loc182 = loc("tmp40"(#loc84))
