#loc = loc("/sgl-workspace/sglang/python/sglang/srt/layers/attention/triton_ops/extend_attention.py":228:0)
#loc105 = loc(unknown)
#loc212 = loc("/usr/local/lib/python3.12/dist-packages/triton/language/standard.py":175:0)
#loc216 = loc("/usr/local/lib/python3.12/dist-packages/triton/language/standard.py":167:0)
#loc220 = loc("/usr/local/lib/python3.12/dist-packages/triton/language/standard.py":285:0)
#loc224 = loc("/usr/local/lib/python3.12/dist-packages/triton/language/standard.py":260:0)
#loc228 = loc("Q_Extend"(#loc))
#loc229 = loc("K_Extend"(#loc))
#loc230 = loc("V_Extend"(#loc))
#loc231 = loc("O_Extend"(#loc))
#loc232 = loc("K_Buffer"(#loc))
#loc233 = loc("V_Buffer"(#loc))
#loc234 = loc("qo_indptr"(#loc))
#loc235 = loc("kv_indptr"(#loc))
#loc236 = loc("kv_indices"(#loc))
#loc237 = loc("mask_ptr"(#loc))
#loc238 = loc("mask_indptr"(#loc))
#loc239 = loc("sm_scale"(#loc))
#loc240 = loc("k_scale"(#loc))
#loc241 = loc("v_scale"(#loc))
#loc242 = loc("kv_group_num"(#loc))
#loc243 = loc("stride_qbs"(#loc))
#loc244 = loc("stride_qh"(#loc))
#loc245 = loc("stride_kbs"(#loc))
#loc246 = loc("stride_kh"(#loc))
#loc247 = loc("stride_vbs"(#loc))
#loc248 = loc("stride_vh"(#loc))
#loc249 = loc("stride_obs"(#loc))
#loc250 = loc("stride_oh"(#loc))
#loc251 = loc("stride_buf_kbs"(#loc))
#loc252 = loc("stride_buf_kh"(#loc))
#loc253 = loc("stride_buf_vbs"(#loc))
#loc254 = loc("stride_buf_vh"(#loc))
#loc447 = loc("input"(#loc212))
#loc448 = loc("a"(#loc216))
#loc449 = loc("b"(#loc216))
#loc450 = loc("input"(#loc220))
#loc451 = loc("a"(#loc224))
#loc452 = loc("b"(#loc224))
module {
  tt.func public @_fwd_kernel(%Q_Extend: !tt.ptr<bf16> {tt.divisibility = 16 : i32} loc("Q_Extend"(#loc)), %K_Extend: !tt.ptr<bf16> {tt.divisibility = 16 : i32} loc("K_Extend"(#loc)), %V_Extend: !tt.ptr<bf16> {tt.divisibility = 16 : i32} loc("V_Extend"(#loc)), %O_Extend: !tt.ptr<bf16> {tt.divisibility = 16 : i32} loc("O_Extend"(#loc)), %K_Buffer: !tt.ptr<bf16> {tt.divisibility = 16 : i32} loc("K_Buffer"(#loc)), %V_Buffer: !tt.ptr<bf16> {tt.divisibility = 16 : i32} loc("V_Buffer"(#loc)), %qo_indptr: !tt.ptr<i32> {tt.divisibility = 16 : i32} loc("qo_indptr"(#loc)), %kv_indptr: !tt.ptr<i32> {tt.divisibility = 16 : i32} loc("kv_indptr"(#loc)), %kv_indices: !tt.ptr<i64> {tt.divisibility = 16 : i32} loc("kv_indices"(#loc)), %mask_ptr: !tt.ptr<i1> {tt.divisibility = 16 : i32} loc("mask_ptr"(#loc)), %mask_indptr: !tt.ptr<i64> {tt.divisibility = 16 : i32} loc("mask_indptr"(#loc)), %sm_scale: f32 loc("sm_scale"(#loc)), %k_scale: f32 loc("k_scale"(#loc)), %v_scale: f32 loc("v_scale"(#loc)), %kv_group_num: i32 loc("kv_group_num"(#loc)), %stride_qbs: i32 {tt.divisibility = 16 : i32} loc("stride_qbs"(#loc)), %stride_qh: i32 {tt.divisibility = 16 : i32} loc("stride_qh"(#loc)), %stride_kbs: i32 {tt.divisibility = 16 : i32} loc("stride_kbs"(#loc)), %stride_kh: i32 {tt.divisibility = 16 : i32} loc("stride_kh"(#loc)), %stride_vbs: i32 {tt.divisibility = 16 : i32} loc("stride_vbs"(#loc)), %stride_vh: i32 {tt.divisibility = 16 : i32} loc("stride_vh"(#loc)), %stride_obs: i32 {tt.divisibility = 16 : i32} loc("stride_obs"(#loc)), %stride_oh: i32 {tt.divisibility = 16 : i32} loc("stride_oh"(#loc)), %stride_buf_kbs: i32 {tt.divisibility = 16 : i32} loc("stride_buf_kbs"(#loc)), %stride_buf_kh: i32 {tt.divisibility = 16 : i32} loc("stride_buf_kh"(#loc)), %stride_buf_vbs: i32 {tt.divisibility = 16 : i32} loc("stride_buf_vbs"(#loc)), %stride_buf_vh: i32 {tt.divisibility = 16 : i32} loc("stride_buf_vh"(#loc))) attributes {noinline = false} {
    %cur_seq = tt.get_program_id x : i32 loc(#loc255)
    %cur_head = tt.get_program_id y : i32 loc(#loc256)
    %cur_block_m = tt.get_program_id z : i32 loc(#loc257)
    %cur_kv_head = arith.divsi %cur_head, %kv_group_num : i32 loc(#loc258)
    %cur_seq_extend_start_idx = tt.addptr %qo_indptr, %cur_seq : !tt.ptr<i32>, i32 loc(#loc259)
    %cur_seq_extend_start_idx_0 = tt.load %cur_seq_extend_start_idx : !tt.ptr<i32> loc(#loc260)
    %cur_seq_len_extend = tt.addptr %qo_indptr, %cur_seq : !tt.ptr<i32>, i32 loc(#loc261)
    %cur_seq_len_extend_1 = arith.constant 1 : i32 loc(#loc262)
    %cur_seq_len_extend_2 = tt.addptr %cur_seq_len_extend, %cur_seq_len_extend_1 : !tt.ptr<i32>, i32 loc(#loc262)
    %cur_seq_len_extend_3 = tt.load %cur_seq_len_extend_2 : !tt.ptr<i32> loc(#loc263)
    %cur_seq_len_extend_4 = arith.extsi %cur_seq_len_extend_3 : i32 to i64 loc(#loc264)
    %cur_seq_len_extend_5 = arith.extsi %cur_seq_extend_start_idx_0 : i32 to i64 loc(#loc264)
    %cur_seq_len_extend_6 = arith.subi %cur_seq_len_extend_4, %cur_seq_len_extend_5 : i64 loc(#loc264)
    %cur_seq_len_extend_7 = arith.constant 2147483647 : i64 loc(#loc264)
    %cur_seq_len_extend_8 = arith.constant -2147483648 : i64 loc(#loc264)
    %cur_seq_len_extend_9 = arith.cmpi sle, %cur_seq_len_extend_6, %cur_seq_len_extend_7 : i64 loc(#loc264)
    %cur_seq_len_extend_10 = arith.cmpi sge, %cur_seq_len_extend_6, %cur_seq_len_extend_8 : i64 loc(#loc264)
    %cur_seq_len_extend_11 = arith.andi %cur_seq_len_extend_9, %cur_seq_len_extend_10 : i1 loc(#loc264)
    %cur_seq_len_extend_12 = arith.subi %cur_seq_len_extend_3, %cur_seq_extend_start_idx_0 : i32 loc(#loc264)
    %cur_seq_kv_start_idx = tt.addptr %kv_indptr, %cur_seq : !tt.ptr<i32>, i32 loc(#loc265)
    %cur_seq_kv_start_idx_13 = tt.load %cur_seq_kv_start_idx : !tt.ptr<i32> loc(#loc266)
    %cur_seq_len_prefix = tt.addptr %kv_indptr, %cur_seq : !tt.ptr<i32>, i32 loc(#loc267)
    %cur_seq_len_prefix_14 = arith.constant 1 : i32 loc(#loc268)
    %cur_seq_len_prefix_15 = tt.addptr %cur_seq_len_prefix, %cur_seq_len_prefix_14 : !tt.ptr<i32>, i32 loc(#loc268)
    %cur_seq_len_prefix_16 = tt.load %cur_seq_len_prefix_15 : !tt.ptr<i32> loc(#loc269)
    %cur_seq_len_prefix_17 = arith.extsi %cur_seq_len_prefix_16 : i32 to i64 loc(#loc270)
    %cur_seq_len_prefix_18 = arith.extsi %cur_seq_kv_start_idx_13 : i32 to i64 loc(#loc270)
    %cur_seq_len_prefix_19 = arith.subi %cur_seq_len_prefix_17, %cur_seq_len_prefix_18 : i64 loc(#loc270)
    %cur_seq_len_prefix_20 = arith.constant 2147483647 : i64 loc(#loc270)
    %cur_seq_len_prefix_21 = arith.constant -2147483648 : i64 loc(#loc270)
    %cur_seq_len_prefix_22 = arith.cmpi sle, %cur_seq_len_prefix_19, %cur_seq_len_prefix_20 : i64 loc(#loc270)
    %cur_seq_len_prefix_23 = arith.cmpi sge, %cur_seq_len_prefix_19, %cur_seq_len_prefix_21 : i64 loc(#loc270)
    %cur_seq_len_prefix_24 = arith.andi %cur_seq_len_prefix_22, %cur_seq_len_prefix_23 : i1 loc(#loc270)
    %cur_seq_len_prefix_25 = arith.subi %cur_seq_len_prefix_16, %cur_seq_kv_start_idx_13 : i32 loc(#loc270)
    %cur_seq_len = arith.extsi %cur_seq_len_prefix_25 : i32 to i64 loc(#loc271)
    %cur_seq_len_26 = arith.extsi %cur_seq_len_extend_12 : i32 to i64 loc(#loc271)
    %cur_seq_len_27 = arith.addi %cur_seq_len, %cur_seq_len_26 : i64 loc(#loc271)
    %cur_seq_len_28 = arith.constant 2147483647 : i64 loc(#loc271)
    %cur_seq_len_29 = arith.constant -2147483648 : i64 loc(#loc271)
    %cur_seq_len_30 = arith.cmpi sle, %cur_seq_len_27, %cur_seq_len_28 : i64 loc(#loc271)
    %cur_seq_len_31 = arith.cmpi sge, %cur_seq_len_27, %cur_seq_len_29 : i64 loc(#loc271)
    %cur_seq_len_32 = arith.andi %cur_seq_len_30, %cur_seq_len_31 : i1 loc(#loc271)
    %cur_seq_len_33 = arith.addi %cur_seq_len_prefix_25, %cur_seq_len_extend_12 : i32 loc(#loc271)
    %cur_seq_mask_start_idx = tt.addptr %mask_indptr, %cur_seq : !tt.ptr<i64>, i32 loc(#loc272)
    %cur_seq_mask_start_idx_34 = tt.load %cur_seq_mask_start_idx : !tt.ptr<i64> loc(#loc273)
    %window_kv_offset = arith.constant 0 : i32 loc(#loc274)
    %offs_d = tt.make_range {end = 256 : i32, start = 0 : i32} : tensor<256xi32> loc(#loc275)
    %offs_dv = tt.make_range {end = 256 : i32, start = 0 : i32} : tensor<256xi32> loc(#loc276)
    %offs_m = tt.make_range {end = 64 : i32, start = 0 : i32} : tensor<64xi32> loc(#loc277)
    %mask_m = arith.constant 64 : i32 loc(#loc278)
    %mask_m_35 = arith.constant 64 : i32 loc(#loc278)
    %mask_m_36 = arith.extsi %cur_block_m : i32 to i64 loc(#loc278)
    %mask_m_37 = arith.extsi %mask_m_35 : i32 to i64 loc(#loc278)
    %mask_m_38 = arith.muli %mask_m_36, %mask_m_37 : i64 loc(#loc278)
    %mask_m_39 = arith.constant 2147483647 : i64 loc(#loc278)
    %mask_m_40 = arith.constant -2147483648 : i64 loc(#loc278)
    %mask_m_41 = arith.cmpi sle, %mask_m_38, %mask_m_39 : i64 loc(#loc278)
    %mask_m_42 = arith.cmpi sge, %mask_m_38, %mask_m_40 : i64 loc(#loc278)
    %mask_m_43 = arith.andi %mask_m_41, %mask_m_42 : i1 loc(#loc278)
    %mask_m_44 = arith.muli %cur_block_m, %mask_m_35 : i32 loc(#loc278)
    %mask_m_45 = tt.splat %mask_m_44 : i32 -> tensor<64xi32> loc(#loc279)
    %mask_m_46 = arith.extsi %mask_m_45 : tensor<64xi32> to tensor<64xi64> loc(#loc279)
    %mask_m_47 = arith.extsi %offs_m : tensor<64xi32> to tensor<64xi64> loc(#loc279)
    %mask_m_48 = arith.addi %mask_m_46, %mask_m_47 : tensor<64xi64> loc(#loc279)
    %mask_m_49 = arith.constant 2147483647 : i64 loc(#loc279)
    %mask_m_50 = arith.constant -2147483648 : i64 loc(#loc279)
    %mask_m_51 = arith.constant dense<2147483647> : tensor<64xi64> loc(#loc279)
    %mask_m_52 = arith.cmpi sle, %mask_m_48, %mask_m_51 : tensor<64xi64> loc(#loc279)
    %mask_m_53 = arith.constant dense<-2147483648> : tensor<64xi64> loc(#loc279)
    %mask_m_54 = arith.cmpi sge, %mask_m_48, %mask_m_53 : tensor<64xi64> loc(#loc279)
    %mask_m_55 = arith.andi %mask_m_52, %mask_m_54 : tensor<64xi1> loc(#loc279)
    %mask_m_56 = arith.addi %mask_m_45, %offs_m : tensor<64xi32> loc(#loc279)
    %mask_m_57 = tt.splat %cur_seq_len_extend_12 : i32 -> tensor<64xi32> loc(#loc280)
    %mask_m_58 = arith.cmpi slt, %mask_m_56, %mask_m_57 : tensor<64xi32> loc(#loc280)
    %mask_d = arith.constant 256 : i32 loc(#loc281)
    %mask_d_59 = arith.constant dense<256> : tensor<256xi32> loc(#loc281)
    %mask_d_60 = arith.cmpi slt, %offs_d, %mask_d_59 : tensor<256xi32> loc(#loc281)
    %mask_dv = arith.constant 256 : i32 loc(#loc282)
    %mask_dv_61 = arith.constant dense<256> : tensor<256xi32> loc(#loc282)
    %mask_dv_62 = arith.cmpi slt, %offs_dv, %mask_dv_61 : tensor<256xi32> loc(#loc282)
    %offs_q = arith.constant 64 : i32 loc(#loc283)
    %offs_q_63 = arith.constant 64 : i32 loc(#loc283)
    %offs_q_64 = arith.extsi %cur_block_m : i32 to i64 loc(#loc283)
    %offs_q_65 = arith.extsi %offs_q_63 : i32 to i64 loc(#loc283)
    %offs_q_66 = arith.muli %offs_q_64, %offs_q_65 : i64 loc(#loc283)
    %offs_q_67 = arith.constant 2147483647 : i64 loc(#loc283)
    %offs_q_68 = arith.constant -2147483648 : i64 loc(#loc283)
    %offs_q_69 = arith.cmpi sle, %offs_q_66, %offs_q_67 : i64 loc(#loc283)
    %offs_q_70 = arith.cmpi sge, %offs_q_66, %offs_q_68 : i64 loc(#loc283)
    %offs_q_71 = arith.andi %offs_q_69, %offs_q_70 : i1 loc(#loc283)
    %offs_q_72 = arith.muli %cur_block_m, %offs_q_63 : i32 loc(#loc283)
    %offs_q_73 = arith.extsi %cur_seq_extend_start_idx_0 : i32 to i64 loc(#loc284)
    %offs_q_74 = arith.extsi %offs_q_72 : i32 to i64 loc(#loc284)
    %offs_q_75 = arith.addi %offs_q_73, %offs_q_74 : i64 loc(#loc284)
    %offs_q_76 = arith.constant 2147483647 : i64 loc(#loc284)
    %offs_q_77 = arith.constant -2147483648 : i64 loc(#loc284)
    %offs_q_78 = arith.cmpi sle, %offs_q_75, %offs_q_76 : i64 loc(#loc284)
    %offs_q_79 = arith.cmpi sge, %offs_q_75, %offs_q_77 : i64 loc(#loc284)
    %offs_q_80 = arith.andi %offs_q_78, %offs_q_79 : i1 loc(#loc284)
    %offs_q_81 = arith.addi %cur_seq_extend_start_idx_0, %offs_q_72 : i32 loc(#loc284)
    %offs_q_82 = tt.expand_dims %offs_m {axis = 1 : i32} : tensor<64xi32> -> tensor<64x1xi32> loc(#loc285)
    %offs_q_83 = tt.splat %offs_q_81 : i32 -> tensor<64x1xi32> loc(#loc286)
    %offs_q_84 = arith.extsi %offs_q_83 : tensor<64x1xi32> to tensor<64x1xi64> loc(#loc286)
    %offs_q_85 = arith.extsi %offs_q_82 : tensor<64x1xi32> to tensor<64x1xi64> loc(#loc286)
    %offs_q_86 = arith.addi %offs_q_84, %offs_q_85 : tensor<64x1xi64> loc(#loc286)
    %offs_q_87 = arith.constant 2147483647 : i64 loc(#loc286)
    %offs_q_88 = arith.constant -2147483648 : i64 loc(#loc286)
    %offs_q_89 = arith.constant dense<2147483647> : tensor<64x1xi64> loc(#loc286)
    %offs_q_90 = arith.cmpi sle, %offs_q_86, %offs_q_89 : tensor<64x1xi64> loc(#loc286)
    %offs_q_91 = arith.constant dense<-2147483648> : tensor<64x1xi64> loc(#loc286)
    %offs_q_92 = arith.cmpi sge, %offs_q_86, %offs_q_91 : tensor<64x1xi64> loc(#loc286)
    %offs_q_93 = arith.andi %offs_q_90, %offs_q_92 : tensor<64x1xi1> loc(#loc286)
    %offs_q_94 = arith.addi %offs_q_83, %offs_q_82 : tensor<64x1xi32> loc(#loc286)
    %offs_q_95 = tt.splat %stride_qbs : i32 -> tensor<64x1xi32> loc(#loc287)
    %offs_q_96 = arith.extsi %offs_q_94 : tensor<64x1xi32> to tensor<64x1xi64> loc(#loc287)
    %offs_q_97 = arith.extsi %offs_q_95 : tensor<64x1xi32> to tensor<64x1xi64> loc(#loc287)
    %offs_q_98 = arith.muli %offs_q_96, %offs_q_97 : tensor<64x1xi64> loc(#loc287)
    %offs_q_99 = arith.constant 2147483647 : i64 loc(#loc287)
    %offs_q_100 = arith.constant -2147483648 : i64 loc(#loc287)
    %offs_q_101 = arith.constant dense<2147483647> : tensor<64x1xi64> loc(#loc287)
    %offs_q_102 = arith.cmpi sle, %offs_q_98, %offs_q_101 : tensor<64x1xi64> loc(#loc287)
    %offs_q_103 = arith.constant dense<-2147483648> : tensor<64x1xi64> loc(#loc287)
    %offs_q_104 = arith.cmpi sge, %offs_q_98, %offs_q_103 : tensor<64x1xi64> loc(#loc287)
    %offs_q_105 = arith.andi %offs_q_102, %offs_q_104 : tensor<64x1xi1> loc(#loc287)
    %offs_q_106 = arith.muli %offs_q_94, %offs_q_95 : tensor<64x1xi32> loc(#loc287)
    %offs_q_107 = arith.extsi %cur_head : i32 to i64 loc(#loc288)
    %offs_q_108 = arith.extsi %stride_qh : i32 to i64 loc(#loc288)
    %offs_q_109 = arith.muli %offs_q_107, %offs_q_108 : i64 loc(#loc288)
    %offs_q_110 = arith.constant 2147483647 : i64 loc(#loc288)
    %offs_q_111 = arith.constant -2147483648 : i64 loc(#loc288)
    %offs_q_112 = arith.cmpi sle, %offs_q_109, %offs_q_110 : i64 loc(#loc288)
    %offs_q_113 = arith.cmpi sge, %offs_q_109, %offs_q_111 : i64 loc(#loc288)
    %offs_q_114 = arith.andi %offs_q_112, %offs_q_113 : i1 loc(#loc288)
    %offs_q_115 = arith.muli %cur_head, %stride_qh : i32 loc(#loc288)
    %offs_q_116 = tt.splat %offs_q_115 : i32 -> tensor<64x1xi32> loc(#loc289)
    %offs_q_117 = arith.extsi %offs_q_106 : tensor<64x1xi32> to tensor<64x1xi64> loc(#loc289)
    %offs_q_118 = arith.extsi %offs_q_116 : tensor<64x1xi32> to tensor<64x1xi64> loc(#loc289)
    %offs_q_119 = arith.addi %offs_q_117, %offs_q_118 : tensor<64x1xi64> loc(#loc289)
    %offs_q_120 = arith.constant 2147483647 : i64 loc(#loc289)
    %offs_q_121 = arith.constant -2147483648 : i64 loc(#loc289)
    %offs_q_122 = arith.constant dense<2147483647> : tensor<64x1xi64> loc(#loc289)
    %offs_q_123 = arith.cmpi sle, %offs_q_119, %offs_q_122 : tensor<64x1xi64> loc(#loc289)
    %offs_q_124 = arith.constant dense<-2147483648> : tensor<64x1xi64> loc(#loc289)
    %offs_q_125 = arith.cmpi sge, %offs_q_119, %offs_q_124 : tensor<64x1xi64> loc(#loc289)
    %offs_q_126 = arith.andi %offs_q_123, %offs_q_125 : tensor<64x1xi1> loc(#loc289)
    %offs_q_127 = arith.addi %offs_q_106, %offs_q_116 : tensor<64x1xi32> loc(#loc289)
    %offs_q_128 = tt.expand_dims %offs_d {axis = 0 : i32} : tensor<256xi32> -> tensor<1x256xi32> loc(#loc290)
    %offs_q_129 = tt.broadcast %offs_q_127 : tensor<64x1xi32> -> tensor<64x256xi32> loc(#loc291)
    %offs_q_130 = tt.broadcast %offs_q_128 : tensor<1x256xi32> -> tensor<64x256xi32> loc(#loc291)
    %offs_q_131 = arith.extsi %offs_q_129 : tensor<64x256xi32> to tensor<64x256xi64> loc(#loc291)
    %offs_q_132 = arith.extsi %offs_q_130 : tensor<64x256xi32> to tensor<64x256xi64> loc(#loc291)
    %offs_q_133 = arith.addi %offs_q_131, %offs_q_132 : tensor<64x256xi64> loc(#loc291)
    %offs_q_134 = arith.constant 2147483647 : i64 loc(#loc291)
    %offs_q_135 = arith.constant -2147483648 : i64 loc(#loc291)
    %offs_q_136 = arith.constant dense<2147483647> : tensor<64x256xi64> loc(#loc291)
    %offs_q_137 = arith.cmpi sle, %offs_q_133, %offs_q_136 : tensor<64x256xi64> loc(#loc291)
    %offs_q_138 = arith.constant dense<-2147483648> : tensor<64x256xi64> loc(#loc291)
    %offs_q_139 = arith.cmpi sge, %offs_q_133, %offs_q_138 : tensor<64x256xi64> loc(#loc291)
    %offs_q_140 = arith.andi %offs_q_137, %offs_q_139 : tensor<64x256xi1> loc(#loc291)
    %offs_q_141 = arith.addi %offs_q_129, %offs_q_130 : tensor<64x256xi32> loc(#loc291)
    %q = tt.expand_dims %mask_m_58 {axis = 1 : i32} : tensor<64xi1> -> tensor<64x1xi1> loc(#loc292)
    %q_142 = tt.expand_dims %mask_d_60 {axis = 0 : i32} : tensor<256xi1> -> tensor<1x256xi1> loc(#loc293)
    %q_143 = tt.broadcast %q : tensor<64x1xi1> -> tensor<64x256xi1> loc(#loc294)
    %q_144 = tt.broadcast %q_142 : tensor<1x256xi1> -> tensor<64x256xi1> loc(#loc294)
    %q_145 = arith.andi %q_143, %q_144 : tensor<64x256xi1> loc(#loc294)
    %q_146 = tt.splat %Q_Extend : !tt.ptr<bf16> -> tensor<64x256x!tt.ptr<bf16>> loc(#loc295)
    %q_147 = tt.addptr %q_146, %offs_q_141 : tensor<64x256x!tt.ptr<bf16>>, tensor<64x256xi32> loc(#loc295)
    %q_148 = arith.constant 0.000000e+00 : f32 loc(#loc296)
    %q_149 = arith.constant dense<0.000000e+00> : tensor<64x256xf32> loc(#loc296)
    %q_150 = arith.truncf %q_149 : tensor<64x256xf32> to tensor<64x256xbf16> loc(#loc296)
    %q_151 = tt.load %q_147, %q_145, %q_150 : tensor<64x256x!tt.ptr<bf16>> loc(#loc296)
    %offs_n = tt.make_range {end = 64 : i32, start = 0 : i32} : tensor<64xi32> loc(#loc297)
    %acc = tt.call @"triton.language.standard.zeros____(0, 0)cconstexpr_64__(0, 1)cconstexpr_256__(1,)cconstexpr_fp32_"() : () -> tensor<64x256xf32> loc(#loc453)
    %deno = tt.call @"triton.language.standard.zeros____(0, 0)cconstexpr_64__(1,)cconstexpr_fp32_"() : () -> tensor<64xf32> loc(#loc454)
    %e_max = tt.call @"triton.language.standard.zeros____(0, 0)cconstexpr_64__(1,)cconstexpr_fp32_"() : () -> tensor<64xf32> loc(#loc300)
    %e_max_152 = arith.constant 0x7F800000 : f32 loc(#loc301)
    %e_max_153 = arith.constant 0x7F800000 : f32 loc(#loc301)
    %e_max_154 = arith.constant dense<0x7F800000> : tensor<64xf32> loc(#loc301)
    %e_max_155 = arith.subf %e_max, %e_max_154 : tensor<64xf32> loc(#loc455)
    %c0_i32 = arith.constant 0 : i32 loc(#loc48)
    %c64_i32 = arith.constant 64 : i32 loc(#loc48)
    %0 = arith.bitcast %c0_i32 : i32 to i32 loc(#loc48)
    %1 = arith.bitcast %cur_seq_len_prefix_25 : i32 to i32 loc(#loc48)
    %2 = arith.bitcast %c64_i32 : i32 to i32 loc(#loc48)
    %3 = ub.poison {tt.divisibility = dense<64> : tensor<1xi32>} : i32 loc(#loc48)
    %e_max_156:3 = scf.for %start_n = %0 to %1 step %2 iter_args(%acc_261 = %acc, %deno_262 = %deno, %e_max_263 = %e_max_155) -> (tensor<64x256xf32>, tensor<64xf32>, tensor<64xf32>)  : i32 {
      %mask_n = tt.splat %start_n : i32 -> tensor<64xi32> loc(#loc303)
      %mask_n_264 = arith.extsi %mask_n : tensor<64xi32> to tensor<64xi64> loc(#loc303)
      %mask_n_265 = arith.extsi %offs_n : tensor<64xi32> to tensor<64xi64> loc(#loc303)
      %mask_n_266 = arith.addi %mask_n_264, %mask_n_265 : tensor<64xi64> loc(#loc303)
      %mask_n_267 = arith.constant 2147483647 : i64 loc(#loc303)
      %mask_n_268 = arith.constant -2147483648 : i64 loc(#loc303)
      %mask_n_269 = arith.constant dense<2147483647> : tensor<64xi64> loc(#loc303)
      %mask_n_270 = arith.cmpi sle, %mask_n_266, %mask_n_269 : tensor<64xi64> loc(#loc303)
      %mask_n_271 = arith.constant dense<-2147483648> : tensor<64xi64> loc(#loc303)
      %mask_n_272 = arith.cmpi sge, %mask_n_266, %mask_n_271 : tensor<64xi64> loc(#loc303)
      %mask_n_273 = arith.andi %mask_n_270, %mask_n_272 : tensor<64xi1> loc(#loc303)
      %mask_n_274 = arith.addi %mask_n, %offs_n : tensor<64xi32> loc(#loc303)
      %mask_n_275 = tt.splat %cur_seq_len_prefix_25 : i32 -> tensor<64xi32> loc(#loc304)
      %mask_n_276 = arith.cmpi slt, %mask_n_274, %mask_n_275 : tensor<64xi32> loc(#loc304)
      %final_mask = tt.expand_dims %mask_m_58 {axis = 1 : i32} : tensor<64xi1> -> tensor<64x1xi1> loc(#loc305)
      %final_mask_277 = tt.expand_dims %mask_n_276 {axis = 0 : i32} : tensor<64xi1> -> tensor<1x64xi1> loc(#loc306)
      %final_mask_278 = tt.broadcast %final_mask : tensor<64x1xi1> -> tensor<64x64xi1> loc(#loc307)
      %final_mask_279 = tt.broadcast %final_mask_277 : tensor<1x64xi1> -> tensor<64x64xi1> loc(#loc307)
      %final_mask_280 = arith.andi %final_mask_278, %final_mask_279 : tensor<64x64xi1> loc(#loc307)
      %SKIP_TILE = arith.constant false loc(#loc308)
      %true = arith.constant true loc(#loc55)
      %19 = arith.xori %SKIP_TILE, %true : i1 loc(#loc55)
      %20:3 = scf.if %19 -> (tensor<64x256xf32>, tensor<64xf32>, tensor<64xf32>) {
        %offs_kv_loc = tt.addptr %kv_indices, %cur_seq_kv_start_idx_13 : !tt.ptr<i64>, i32 loc(#loc309)
        %offs_kv_loc_281 = tt.addptr %offs_kv_loc, %start_n : !tt.ptr<i64>, i32 loc(#loc310)
        %offs_kv_loc_282 = tt.splat %offs_kv_loc_281 : !tt.ptr<i64> -> tensor<64x!tt.ptr<i64>> loc(#loc311)
        %offs_kv_loc_283 = tt.addptr %offs_kv_loc_282, %offs_n : tensor<64x!tt.ptr<i64>>, tensor<64xi32> loc(#loc311)
        %offs_kv_loc_284 = arith.constant 0 : i32 loc(#loc312)
        %offs_kv_loc_285 = arith.constant dense<0> : tensor<64xi32> loc(#loc312)
        %offs_kv_loc_286 = arith.extsi %offs_kv_loc_285 : tensor<64xi32> to tensor<64xi64> loc(#loc312)
        %offs_kv_loc_287 = tt.load %offs_kv_loc_283, %mask_n_276, %offs_kv_loc_286 : tensor<64x!tt.ptr<i64>> loc(#loc312)
        %offs_buf_k = tt.expand_dims %offs_kv_loc_287 {axis = 0 : i32} : tensor<64xi64> -> tensor<1x64xi64> loc(#loc313)
        %offs_buf_k_288 = arith.extsi %stride_buf_kbs : i32 to i64 loc(#loc314)
        %offs_buf_k_289 = tt.splat %offs_buf_k_288 : i64 -> tensor<1x64xi64> loc(#loc314)
        %offs_buf_k_290 = arith.muli %offs_buf_k, %offs_buf_k_289 : tensor<1x64xi64> loc(#loc314)
        %offs_buf_k_291 = arith.extsi %cur_kv_head : i32 to i64 loc(#loc315)
        %offs_buf_k_292 = arith.extsi %stride_buf_kh : i32 to i64 loc(#loc315)
        %offs_buf_k_293 = arith.muli %offs_buf_k_291, %offs_buf_k_292 : i64 loc(#loc315)
        %offs_buf_k_294 = arith.constant 2147483647 : i64 loc(#loc315)
        %offs_buf_k_295 = arith.constant -2147483648 : i64 loc(#loc315)
        %offs_buf_k_296 = arith.cmpi sle, %offs_buf_k_293, %offs_buf_k_294 : i64 loc(#loc315)
        %offs_buf_k_297 = arith.cmpi sge, %offs_buf_k_293, %offs_buf_k_295 : i64 loc(#loc315)
        %offs_buf_k_298 = arith.andi %offs_buf_k_296, %offs_buf_k_297 : i1 loc(#loc315)
        %offs_buf_k_299 = arith.muli %cur_kv_head, %stride_buf_kh : i32 loc(#loc315)
        %offs_buf_k_300 = arith.extsi %offs_buf_k_299 : i32 to i64 loc(#loc316)
        %offs_buf_k_301 = tt.splat %offs_buf_k_300 : i64 -> tensor<1x64xi64> loc(#loc316)
        %offs_buf_k_302 = arith.addi %offs_buf_k_290, %offs_buf_k_301 : tensor<1x64xi64> loc(#loc316)
        %offs_buf_k_303 = tt.expand_dims %offs_d {axis = 1 : i32} : tensor<256xi32> -> tensor<256x1xi32> loc(#loc317)
        %offs_buf_k_304 = arith.extsi %offs_buf_k_303 : tensor<256x1xi32> to tensor<256x1xi64> loc(#loc318)
        %offs_buf_k_305 = tt.broadcast %offs_buf_k_302 : tensor<1x64xi64> -> tensor<256x64xi64> loc(#loc318)
        %offs_buf_k_306 = tt.broadcast %offs_buf_k_304 : tensor<256x1xi64> -> tensor<256x64xi64> loc(#loc318)
        %offs_buf_k_307 = arith.addi %offs_buf_k_305, %offs_buf_k_306 : tensor<256x64xi64> loc(#loc318)
        %k = tt.expand_dims %mask_n_276 {axis = 0 : i32} : tensor<64xi1> -> tensor<1x64xi1> loc(#loc319)
        %k_308 = tt.expand_dims %mask_d_60 {axis = 1 : i32} : tensor<256xi1> -> tensor<256x1xi1> loc(#loc320)
        %k_309 = tt.broadcast %k : tensor<1x64xi1> -> tensor<256x64xi1> loc(#loc321)
        %k_310 = tt.broadcast %k_308 : tensor<256x1xi1> -> tensor<256x64xi1> loc(#loc321)
        %k_311 = arith.andi %k_309, %k_310 : tensor<256x64xi1> loc(#loc321)
        %k_312 = tt.splat %K_Buffer : !tt.ptr<bf16> -> tensor<256x64x!tt.ptr<bf16>> loc(#loc322)
        %k_313 = tt.addptr %k_312, %offs_buf_k_307 : tensor<256x64x!tt.ptr<bf16>>, tensor<256x64xi64> loc(#loc322)
        %k_314 = arith.constant 0.000000e+00 : f32 loc(#loc323)
        %k_315 = arith.constant dense<0.000000e+00> : tensor<256x64xf32> loc(#loc323)
        %k_316 = arith.truncf %k_315 : tensor<256x64xf32> to tensor<256x64xbf16> loc(#loc323)
        %k_317 = tt.load %k_313, %k_311, %k_316 : tensor<256x64x!tt.ptr<bf16>> loc(#loc323)
        %qk = arith.constant 0.000000e+00 : f32 loc(#loc324)
        %qk_318 = arith.constant dense<0.000000e+00> : tensor<64x64xf32> loc(#loc324)
        %qk_319 = tt.dot %q_151, %k_317, %qk_318, inputPrecision = tf32 : tensor<64x256xbf16> * tensor<256x64xbf16> -> tensor<64x64xf32> loc(#loc324)
        %qk_320 = arith.mulf %sm_scale, %k_scale : f32 loc(#loc325)
        %qk_321 = tt.splat %qk_320 : f32 -> tensor<64x64xf32> loc(#loc326)
        %qk_322 = arith.mulf %qk_319, %qk_321 : tensor<64x64xf32> loc(#loc326)
        %qk_323 = arith.constant 0xFF800000 : f32 loc(#loc327)
        %qk_324 = arith.constant 0xFF800000 : f32 loc(#loc327)
        %qk_325 = arith.constant dense<0xFF800000> : tensor<64x64xf32> loc(#loc327)
        %qk_326 = arith.select %final_mask_280, %qk_322, %qk_325 : tensor<64x64xi1>, tensor<64x64xf32> loc(#loc327)
        %row_max = tt.call @"triton.language.standard.max__fp32S64_64S__(1,)cconstexpr_1__(2,)cconstexpr_False__(3,)cconstexpr_True__(4,)cconstexpr_False_"(%qk_326) : (tensor<64x64xf32>) -> tensor<64xf32> loc(#loc328)
        %row_max_fixed = arith.constant 0xFF800000 : f32 loc(#loc329)
        %row_max_fixed_327 = arith.constant dense<0xFF800000> : tensor<64xf32> loc(#loc329)
        %row_max_fixed_328 = arith.cmpf oeq, %row_max, %row_max_fixed_327 : tensor<64xf32> loc(#loc329)
        %row_max_fixed_329 = arith.constant -1.000000e+20 : f32 loc(#loc330)
        %row_max_fixed_330 = arith.constant -1.000000e+20 : f32 loc(#loc330)
        %row_max_fixed_331 = arith.constant dense<-1.000000e+20> : tensor<64xf32> loc(#loc330)
        %row_max_fixed_332 = arith.select %row_max_fixed_328, %row_max_fixed_331, %row_max : tensor<64xi1>, tensor<64xf32> loc(#loc330)
        %e_max_333 = arith.maxnumf %row_max_fixed_332, %e_max_263 : tensor<64xf32> loc(#loc457)
        %re_scale = arith.subf %e_max_263, %e_max_333 : tensor<64xf32> loc(#loc332)
        %re_scale_334 = math.exp %re_scale : tensor<64xf32> loc(#loc333)
        %p = tt.expand_dims %e_max_333 {axis = 1 : i32} : tensor<64xf32> -> tensor<64x1xf32> loc(#loc334)
        %p_335 = tt.broadcast %p : tensor<64x1xf32> -> tensor<64x64xf32> loc(#loc335)
        %p_336 = arith.subf %qk_326, %p_335 : tensor<64x64xf32> loc(#loc335)
        %p_337 = math.exp %p_336 : tensor<64x64xf32> loc(#loc336)
        %deno_338 = arith.mulf %deno_262, %re_scale_334 : tensor<64xf32> loc(#loc337)
        %deno_339 = tt.call @"triton.language.standard.sum__fp32S64_64S__(1,)cconstexpr_1__(2,)cconstexpr_False__(3,)cNone"(%p_337) : (tensor<64x64xf32>) -> tensor<64xf32> loc(#loc338)
        %deno_340 = arith.addf %deno_338, %deno_339 : tensor<64xf32> loc(#loc458)
        %offs_buf_v = tt.expand_dims %offs_kv_loc_287 {axis = 1 : i32} : tensor<64xi64> -> tensor<64x1xi64> loc(#loc340)
        %offs_buf_v_341 = arith.extsi %stride_buf_vbs : i32 to i64 loc(#loc341)
        %offs_buf_v_342 = tt.splat %offs_buf_v_341 : i64 -> tensor<64x1xi64> loc(#loc341)
        %offs_buf_v_343 = arith.muli %offs_buf_v, %offs_buf_v_342 : tensor<64x1xi64> loc(#loc341)
        %offs_buf_v_344 = arith.extsi %cur_kv_head : i32 to i64 loc(#loc342)
        %offs_buf_v_345 = arith.extsi %stride_buf_vh : i32 to i64 loc(#loc342)
        %offs_buf_v_346 = arith.muli %offs_buf_v_344, %offs_buf_v_345 : i64 loc(#loc342)
        %offs_buf_v_347 = arith.constant 2147483647 : i64 loc(#loc342)
        %offs_buf_v_348 = arith.constant -2147483648 : i64 loc(#loc342)
        %offs_buf_v_349 = arith.cmpi sle, %offs_buf_v_346, %offs_buf_v_347 : i64 loc(#loc342)
        %offs_buf_v_350 = arith.cmpi sge, %offs_buf_v_346, %offs_buf_v_348 : i64 loc(#loc342)
        %offs_buf_v_351 = arith.andi %offs_buf_v_349, %offs_buf_v_350 : i1 loc(#loc342)
        %offs_buf_v_352 = arith.muli %cur_kv_head, %stride_buf_vh : i32 loc(#loc342)
        %offs_buf_v_353 = arith.extsi %offs_buf_v_352 : i32 to i64 loc(#loc343)
        %offs_buf_v_354 = tt.splat %offs_buf_v_353 : i64 -> tensor<64x1xi64> loc(#loc343)
        %offs_buf_v_355 = arith.addi %offs_buf_v_343, %offs_buf_v_354 : tensor<64x1xi64> loc(#loc343)
        %offs_buf_v_356 = tt.expand_dims %offs_dv {axis = 0 : i32} : tensor<256xi32> -> tensor<1x256xi32> loc(#loc344)
        %offs_buf_v_357 = arith.extsi %offs_buf_v_356 : tensor<1x256xi32> to tensor<1x256xi64> loc(#loc345)
        %offs_buf_v_358 = tt.broadcast %offs_buf_v_355 : tensor<64x1xi64> -> tensor<64x256xi64> loc(#loc345)
        %offs_buf_v_359 = tt.broadcast %offs_buf_v_357 : tensor<1x256xi64> -> tensor<64x256xi64> loc(#loc345)
        %offs_buf_v_360 = arith.addi %offs_buf_v_358, %offs_buf_v_359 : tensor<64x256xi64> loc(#loc345)
        %v = tt.expand_dims %mask_n_276 {axis = 1 : i32} : tensor<64xi1> -> tensor<64x1xi1> loc(#loc346)
        %v_361 = tt.expand_dims %mask_dv_62 {axis = 0 : i32} : tensor<256xi1> -> tensor<1x256xi1> loc(#loc347)
        %v_362 = tt.broadcast %v : tensor<64x1xi1> -> tensor<64x256xi1> loc(#loc348)
        %v_363 = tt.broadcast %v_361 : tensor<1x256xi1> -> tensor<64x256xi1> loc(#loc348)
        %v_364 = arith.andi %v_362, %v_363 : tensor<64x256xi1> loc(#loc348)
        %v_365 = tt.splat %V_Buffer : !tt.ptr<bf16> -> tensor<64x256x!tt.ptr<bf16>> loc(#loc349)
        %v_366 = tt.addptr %v_365, %offs_buf_v_360 : tensor<64x256x!tt.ptr<bf16>>, tensor<64x256xi64> loc(#loc349)
        %v_367 = arith.constant 0.000000e+00 : f32 loc(#loc350)
        %v_368 = arith.constant dense<0.000000e+00> : tensor<64x256xf32> loc(#loc350)
        %v_369 = arith.truncf %v_368 : tensor<64x256xf32> to tensor<64x256xbf16> loc(#loc350)
        %v_370 = tt.load %v_366, %v_364, %v_369 : tensor<64x256x!tt.ptr<bf16>> loc(#loc350)
        %p_371 = arith.truncf %p_337 : tensor<64x64xf32> to tensor<64x64xbf16> loc(#loc351)
        %acc_372 = tt.expand_dims %re_scale_334 {axis = 1 : i32} : tensor<64xf32> -> tensor<64x1xf32> loc(#loc352)
        %acc_373 = tt.broadcast %acc_372 : tensor<64x1xf32> -> tensor<64x256xf32> loc(#loc353)
        %acc_374 = arith.mulf %acc_261, %acc_373 : tensor<64x256xf32> loc(#loc353)
        %acc_375 = arith.constant 0.000000e+00 : f32 loc(#loc354)
        %acc_376 = arith.constant dense<0.000000e+00> : tensor<64x256xf32> loc(#loc354)
        %acc_377 = tt.dot %p_371, %v_370, %acc_376, inputPrecision = tf32 : tensor<64x64xbf16> * tensor<64x256xbf16> -> tensor<64x256xf32> loc(#loc354)
        %acc_378 = tt.splat %v_scale : f32 -> tensor<64x256xf32> loc(#loc355)
        %acc_379 = arith.mulf %acc_377, %acc_378 : tensor<64x256xf32> loc(#loc355)
        %acc_380 = arith.addf %acc_374, %acc_379 : tensor<64x256xf32> loc(#loc459)
        scf.yield %acc_380, %deno_340, %e_max_333 : tensor<64x256xf32>, tensor<64xf32>, tensor<64xf32> loc(#loc459)
      } else {
        scf.yield %acc_261, %deno_262, %e_max_263 : tensor<64x256xf32>, tensor<64xf32>, tensor<64xf32> loc(#loc105)
      } loc(#loc56)
      scf.yield %20#0, %20#1, %20#2 : tensor<64x256xf32>, tensor<64xf32>, tensor<64xf32> loc(#loc106)
    } loc(#loc468)
    %cur_block_m_end = arith.constant 1 : i32 loc(#loc357)
    %cur_block_m_end_157 = arith.constant 1 : i32 loc(#loc357)
    %cur_block_m_end_158 = arith.extsi %cur_block_m : i32 to i64 loc(#loc357)
    %cur_block_m_end_159 = arith.extsi %cur_block_m_end_157 : i32 to i64 loc(#loc357)
    %cur_block_m_end_160 = arith.addi %cur_block_m_end_158, %cur_block_m_end_159 : i64 loc(#loc357)
    %cur_block_m_end_161 = arith.constant 2147483647 : i64 loc(#loc357)
    %cur_block_m_end_162 = arith.constant -2147483648 : i64 loc(#loc357)
    %cur_block_m_end_163 = arith.cmpi sle, %cur_block_m_end_160, %cur_block_m_end_161 : i64 loc(#loc357)
    %cur_block_m_end_164 = arith.cmpi sge, %cur_block_m_end_160, %cur_block_m_end_162 : i64 loc(#loc357)
    %cur_block_m_end_165 = arith.andi %cur_block_m_end_163, %cur_block_m_end_164 : i1 loc(#loc357)
    %cur_block_m_end_166 = arith.addi %cur_block_m, %cur_block_m_end_157 : i32 loc(#loc357)
    %cur_block_m_end_167 = arith.constant 64 : i32 loc(#loc358)
    %cur_block_m_end_168 = arith.constant 64 : i32 loc(#loc358)
    %cur_block_m_end_169 = arith.extsi %cur_block_m_end_166 : i32 to i64 loc(#loc358)
    %cur_block_m_end_170 = arith.extsi %cur_block_m_end_168 : i32 to i64 loc(#loc358)
    %cur_block_m_end_171 = arith.muli %cur_block_m_end_169, %cur_block_m_end_170 : i64 loc(#loc358)
    %cur_block_m_end_172 = arith.constant 2147483647 : i64 loc(#loc358)
    %cur_block_m_end_173 = arith.constant -2147483648 : i64 loc(#loc358)
    %cur_block_m_end_174 = arith.cmpi sle, %cur_block_m_end_171, %cur_block_m_end_172 : i64 loc(#loc358)
    %cur_block_m_end_175 = arith.cmpi sge, %cur_block_m_end_171, %cur_block_m_end_173 : i64 loc(#loc358)
    %cur_block_m_end_176 = arith.andi %cur_block_m_end_174, %cur_block_m_end_175 : i1 loc(#loc358)
    %cur_block_m_end_177 = arith.muli %cur_block_m_end_166, %cur_block_m_end_168 : i32 loc(#loc358)
    %cur_block_m_end_178 = arith.minsi %cur_seq_len_extend_12, %cur_block_m_end_177 : i32 loc(#loc359)
    %c0_i32_179 = arith.constant 0 : i32 loc(#loc110)
    %c64_i32_180 = arith.constant 64 : i32 loc(#loc110)
    %4 = arith.bitcast %c0_i32_179 : i32 to i32 loc(#loc110)
    %5 = arith.bitcast %cur_block_m_end_178 : i32 to i32 loc(#loc110)
    %6 = arith.bitcast %c64_i32_180 : i32 to i32 loc(#loc110)
    %7 = ub.poison {tt.divisibility = dense<64> : tensor<1xi32>} : i32 loc(#loc110)
    %e_max_181:3 = scf.for %start_n = %4 to %5 step %6 iter_args(%acc_261 = %e_max_156#0, %deno_262 = %e_max_156#1, %e_max_263 = %e_max_156#2) -> (tensor<64x256xf32>, tensor<64xf32>, tensor<64xf32>)  : i32 {
      %mask_n = tt.splat %start_n : i32 -> tensor<64xi32> loc(#loc361)
      %mask_n_264 = arith.extsi %mask_n : tensor<64xi32> to tensor<64xi64> loc(#loc361)
      %mask_n_265 = arith.extsi %offs_n : tensor<64xi32> to tensor<64xi64> loc(#loc361)
      %mask_n_266 = arith.addi %mask_n_264, %mask_n_265 : tensor<64xi64> loc(#loc361)
      %mask_n_267 = arith.constant 2147483647 : i64 loc(#loc361)
      %mask_n_268 = arith.constant -2147483648 : i64 loc(#loc361)
      %mask_n_269 = arith.constant dense<2147483647> : tensor<64xi64> loc(#loc361)
      %mask_n_270 = arith.cmpi sle, %mask_n_266, %mask_n_269 : tensor<64xi64> loc(#loc361)
      %mask_n_271 = arith.constant dense<-2147483648> : tensor<64xi64> loc(#loc361)
      %mask_n_272 = arith.cmpi sge, %mask_n_266, %mask_n_271 : tensor<64xi64> loc(#loc361)
      %mask_n_273 = arith.andi %mask_n_270, %mask_n_272 : tensor<64xi1> loc(#loc361)
      %mask_n_274 = arith.addi %mask_n, %offs_n : tensor<64xi32> loc(#loc361)
      %mask_n_275 = tt.splat %cur_block_m_end_178 : i32 -> tensor<64xi32> loc(#loc362)
      %mask_n_276 = arith.cmpi slt, %mask_n_274, %mask_n_275 : tensor<64xi32> loc(#loc362)
      %final_mask = tt.expand_dims %mask_m_58 {axis = 1 : i32} : tensor<64xi1> -> tensor<64x1xi1> loc(#loc363)
      %final_mask_277 = tt.expand_dims %mask_n_276 {axis = 0 : i32} : tensor<64xi1> -> tensor<1x64xi1> loc(#loc364)
      %final_mask_278 = tt.broadcast %final_mask : tensor<64x1xi1> -> tensor<64x64xi1> loc(#loc365)
      %final_mask_279 = tt.broadcast %final_mask_277 : tensor<1x64xi1> -> tensor<64x64xi1> loc(#loc365)
      %final_mask_280 = arith.andi %final_mask_278, %final_mask_279 : tensor<64x64xi1> loc(#loc365)
      %custom_mask = tt.expand_dims %mask_m_58 {axis = 1 : i32} : tensor<64xi1> -> tensor<64x1xi1> loc(#loc366)
      %custom_mask_281 = tt.expand_dims %mask_n_276 {axis = 0 : i32} : tensor<64xi1> -> tensor<1x64xi1> loc(#loc367)
      %custom_mask_282 = tt.broadcast %custom_mask : tensor<64x1xi1> -> tensor<64x64xi1> loc(#loc368)
      %custom_mask_283 = tt.broadcast %custom_mask_281 : tensor<1x64xi1> -> tensor<64x64xi1> loc(#loc368)
      %custom_mask_284 = arith.andi %custom_mask_282, %custom_mask_283 : tensor<64x64xi1> loc(#loc368)
      %custom_mask_285 = tt.addptr %mask_ptr, %cur_seq_mask_start_idx_34 : !tt.ptr<i1>, i64 loc(#loc369)
      %custom_mask_286 = arith.constant 64 : i32 loc(#loc370)
      %custom_mask_287 = arith.constant 64 : i32 loc(#loc370)
      %custom_mask_288 = arith.extsi %cur_block_m : i32 to i64 loc(#loc370)
      %custom_mask_289 = arith.extsi %custom_mask_287 : i32 to i64 loc(#loc370)
      %custom_mask_290 = arith.muli %custom_mask_288, %custom_mask_289 : i64 loc(#loc370)
      %custom_mask_291 = arith.constant 2147483647 : i64 loc(#loc370)
      %custom_mask_292 = arith.constant -2147483648 : i64 loc(#loc370)
      %custom_mask_293 = arith.cmpi sle, %custom_mask_290, %custom_mask_291 : i64 loc(#loc370)
      %custom_mask_294 = arith.cmpi sge, %custom_mask_290, %custom_mask_292 : i64 loc(#loc370)
      %custom_mask_295 = arith.andi %custom_mask_293, %custom_mask_294 : i1 loc(#loc370)
      %custom_mask_296 = arith.muli %cur_block_m, %custom_mask_287 : i32 loc(#loc370)
      %custom_mask_297 = tt.expand_dims %offs_m {axis = 1 : i32} : tensor<64xi32> -> tensor<64x1xi32> loc(#loc371)
      %custom_mask_298 = tt.splat %custom_mask_296 : i32 -> tensor<64x1xi32> loc(#loc372)
      %custom_mask_299 = arith.extsi %custom_mask_298 : tensor<64x1xi32> to tensor<64x1xi64> loc(#loc372)
      %custom_mask_300 = arith.extsi %custom_mask_297 : tensor<64x1xi32> to tensor<64x1xi64> loc(#loc372)
      %custom_mask_301 = arith.addi %custom_mask_299, %custom_mask_300 : tensor<64x1xi64> loc(#loc372)
      %custom_mask_302 = arith.constant 2147483647 : i64 loc(#loc372)
      %custom_mask_303 = arith.constant -2147483648 : i64 loc(#loc372)
      %custom_mask_304 = arith.constant dense<2147483647> : tensor<64x1xi64> loc(#loc372)
      %custom_mask_305 = arith.cmpi sle, %custom_mask_301, %custom_mask_304 : tensor<64x1xi64> loc(#loc372)
      %custom_mask_306 = arith.constant dense<-2147483648> : tensor<64x1xi64> loc(#loc372)
      %custom_mask_307 = arith.cmpi sge, %custom_mask_301, %custom_mask_306 : tensor<64x1xi64> loc(#loc372)
      %custom_mask_308 = arith.andi %custom_mask_305, %custom_mask_307 : tensor<64x1xi1> loc(#loc372)
      %custom_mask_309 = arith.addi %custom_mask_298, %custom_mask_297 : tensor<64x1xi32> loc(#loc372)
      %custom_mask_310 = arith.extsi %cur_seq_len_33 : i32 to i64 loc(#loc373)
      %custom_mask_311 = arith.extsi %window_kv_offset : i32 to i64 loc(#loc373)
      %custom_mask_312 = arith.addi %custom_mask_310, %custom_mask_311 : i64 loc(#loc373)
      %custom_mask_313 = arith.constant 2147483647 : i64 loc(#loc373)
      %custom_mask_314 = arith.constant -2147483648 : i64 loc(#loc373)
      %custom_mask_315 = arith.cmpi sle, %custom_mask_312, %custom_mask_313 : i64 loc(#loc373)
      %custom_mask_316 = arith.cmpi sge, %custom_mask_312, %custom_mask_314 : i64 loc(#loc373)
      %custom_mask_317 = arith.andi %custom_mask_315, %custom_mask_316 : i1 loc(#loc373)
      %custom_mask_318 = arith.addi %cur_seq_len_33, %window_kv_offset : i32 loc(#loc373)
      %custom_mask_319 = tt.splat %custom_mask_318 : i32 -> tensor<64x1xi32> loc(#loc374)
      %custom_mask_320 = arith.extsi %custom_mask_309 : tensor<64x1xi32> to tensor<64x1xi64> loc(#loc374)
      %custom_mask_321 = arith.extsi %custom_mask_319 : tensor<64x1xi32> to tensor<64x1xi64> loc(#loc374)
      %custom_mask_322 = arith.muli %custom_mask_320, %custom_mask_321 : tensor<64x1xi64> loc(#loc374)
      %custom_mask_323 = arith.constant 2147483647 : i64 loc(#loc374)
      %custom_mask_324 = arith.constant -2147483648 : i64 loc(#loc374)
      %custom_mask_325 = arith.constant dense<2147483647> : tensor<64x1xi64> loc(#loc374)
      %custom_mask_326 = arith.cmpi sle, %custom_mask_322, %custom_mask_325 : tensor<64x1xi64> loc(#loc374)
      %custom_mask_327 = arith.constant dense<-2147483648> : tensor<64x1xi64> loc(#loc374)
      %custom_mask_328 = arith.cmpi sge, %custom_mask_322, %custom_mask_327 : tensor<64x1xi64> loc(#loc374)
      %custom_mask_329 = arith.andi %custom_mask_326, %custom_mask_328 : tensor<64x1xi1> loc(#loc374)
      %custom_mask_330 = arith.muli %custom_mask_309, %custom_mask_319 : tensor<64x1xi32> loc(#loc374)
      %custom_mask_331 = tt.splat %custom_mask_285 : !tt.ptr<i1> -> tensor<64x1x!tt.ptr<i1>> loc(#loc375)
      %custom_mask_332 = tt.addptr %custom_mask_331, %custom_mask_330 : tensor<64x1x!tt.ptr<i1>>, tensor<64x1xi32> loc(#loc375)
      %custom_mask_333 = arith.constant dense<0> : tensor<64x1xi32> loc(#loc376)
      %custom_mask_334 = tt.addptr %custom_mask_332, %custom_mask_333 : tensor<64x1x!tt.ptr<i1>>, tensor<64x1xi32> loc(#loc376)
      %custom_mask_335 = tt.splat %cur_seq_len_prefix_25 : i32 -> tensor<64x1xi32> loc(#loc377)
      %custom_mask_336 = tt.addptr %custom_mask_334, %custom_mask_335 : tensor<64x1x!tt.ptr<i1>>, tensor<64x1xi32> loc(#loc377)
      %custom_mask_337 = tt.splat %start_n : i32 -> tensor<64x1xi32> loc(#loc378)
      %custom_mask_338 = tt.addptr %custom_mask_336, %custom_mask_337 : tensor<64x1x!tt.ptr<i1>>, tensor<64x1xi32> loc(#loc378)
      %custom_mask_339 = tt.expand_dims %offs_n {axis = 0 : i32} : tensor<64xi32> -> tensor<1x64xi32> loc(#loc379)
      %custom_mask_340 = tt.broadcast %custom_mask_338 : tensor<64x1x!tt.ptr<i1>> -> tensor<64x64x!tt.ptr<i1>> loc(#loc380)
      %custom_mask_341 = tt.broadcast %custom_mask_339 : tensor<1x64xi32> -> tensor<64x64xi32> loc(#loc380)
      %custom_mask_342 = tt.addptr %custom_mask_340, %custom_mask_341 : tensor<64x64x!tt.ptr<i1>>, tensor<64x64xi32> loc(#loc380)
      %custom_mask_343 = arith.constant 0 : i32 loc(#loc381)
      %custom_mask_344 = arith.constant dense<0> : tensor<64x64xi32> loc(#loc381)
      %custom_mask_345 = tt.bitcast %custom_mask_342 : tensor<64x64x!tt.ptr<i1>> -> tensor<64x64x!tt.ptr<i8>> loc(#loc381)
      %custom_mask_346 = arith.trunci %custom_mask_344 : tensor<64x64xi32> to tensor<64x64xi8> loc(#loc381)
      %custom_mask_347 = tt.load %custom_mask_345, %custom_mask_284, %custom_mask_346 : tensor<64x64x!tt.ptr<i8>> loc(#loc381)
      %custom_mask_348 = arith.constant 0 : i8 loc(#loc381)
      %custom_mask_349 = arith.constant dense<0> : tensor<64x64xi8> loc(#loc381)
      %custom_mask_350 = arith.cmpi ne, %custom_mask_347, %custom_mask_349 : tensor<64x64xi8> loc(#loc381)
      %custom_mask_351 = tt.expand_dims %mask_m_58 {axis = 1 : i32} : tensor<64xi1> -> tensor<64x1xi1> loc(#loc382)
      %custom_mask_352 = tt.expand_dims %mask_n_276 {axis = 0 : i32} : tensor<64xi1> -> tensor<1x64xi1> loc(#loc383)
      %custom_mask_353 = tt.broadcast %custom_mask_351 : tensor<64x1xi1> -> tensor<64x64xi1> loc(#loc384)
      %custom_mask_354 = tt.broadcast %custom_mask_352 : tensor<1x64xi1> -> tensor<64x64xi1> loc(#loc384)
      %custom_mask_355 = arith.andi %custom_mask_353, %custom_mask_354 : tensor<64x64xi1> loc(#loc384)
      %custom_mask_356 = arith.andi %custom_mask_350, %custom_mask_355 : tensor<64x64xi1> loc(#loc385)
      %final_mask_357 = arith.andi %final_mask_280, %custom_mask_356 : tensor<64x64xi1> loc(#loc386)
      %SKIP_TILE = arith.constant false loc(#loc387)
      %SKIP_TILE_358 = arith.extui %final_mask_357 : tensor<64x64xi1> to tensor<64x64xi32> loc(#loc388)
      %SKIP_TILE_359 = tt.call @"triton.language.standard.max__i32S64_64S__(1,)cconstexpr_1__(2,)cconstexpr_False__(3,)cconstexpr_True__(4,)cconstexpr_False_"(%SKIP_TILE_358) : (tensor<64x64xi32>) -> tensor<64xi32> loc(#loc389)
      %SKIP_TILE_360 = tt.call @"triton.language.standard.max__i32S64S__(1,)cconstexpr_0__(2,)cconstexpr_False__(3,)cconstexpr_True__(4,)cconstexpr_False_"(%SKIP_TILE_359) : (tensor<64xi32>) -> i32 loc(#loc390)
      %SKIP_TILE_361 = arith.constant 0 : i32 loc(#loc391)
      %SKIP_TILE_362 = arith.cmpi eq, %SKIP_TILE_360, %SKIP_TILE_361 : i32 loc(#loc391)
      %true = arith.constant true loc(#loc142)
      %19 = arith.xori %SKIP_TILE_362, %true : i1 loc(#loc142)
      %20:3 = scf.if %19 -> (tensor<64x256xf32>, tensor<64xf32>, tensor<64xf32>) {
        %offs_k = arith.extsi %cur_seq_extend_start_idx_0 : i32 to i64 loc(#loc392)
        %offs_k_363 = arith.extsi %start_n : i32 to i64 loc(#loc392)
        %offs_k_364 = arith.addi %offs_k, %offs_k_363 : i64 loc(#loc392)
        %offs_k_365 = arith.constant 2147483647 : i64 loc(#loc392)
        %offs_k_366 = arith.constant -2147483648 : i64 loc(#loc392)
        %offs_k_367 = arith.cmpi sle, %offs_k_364, %offs_k_365 : i64 loc(#loc392)
        %offs_k_368 = arith.cmpi sge, %offs_k_364, %offs_k_366 : i64 loc(#loc392)
        %offs_k_369 = arith.andi %offs_k_367, %offs_k_368 : i1 loc(#loc392)
        %offs_k_370 = arith.addi %cur_seq_extend_start_idx_0, %start_n : i32 loc(#loc392)
        %offs_k_371 = tt.expand_dims %offs_n {axis = 0 : i32} : tensor<64xi32> -> tensor<1x64xi32> loc(#loc393)
        %offs_k_372 = tt.splat %offs_k_370 : i32 -> tensor<1x64xi32> loc(#loc394)
        %offs_k_373 = arith.extsi %offs_k_372 : tensor<1x64xi32> to tensor<1x64xi64> loc(#loc394)
        %offs_k_374 = arith.extsi %offs_k_371 : tensor<1x64xi32> to tensor<1x64xi64> loc(#loc394)
        %offs_k_375 = arith.addi %offs_k_373, %offs_k_374 : tensor<1x64xi64> loc(#loc394)
        %offs_k_376 = arith.constant 2147483647 : i64 loc(#loc394)
        %offs_k_377 = arith.constant -2147483648 : i64 loc(#loc394)
        %offs_k_378 = arith.constant dense<2147483647> : tensor<1x64xi64> loc(#loc394)
        %offs_k_379 = arith.cmpi sle, %offs_k_375, %offs_k_378 : tensor<1x64xi64> loc(#loc394)
        %offs_k_380 = arith.constant dense<-2147483648> : tensor<1x64xi64> loc(#loc394)
        %offs_k_381 = arith.cmpi sge, %offs_k_375, %offs_k_380 : tensor<1x64xi64> loc(#loc394)
        %offs_k_382 = arith.andi %offs_k_379, %offs_k_381 : tensor<1x64xi1> loc(#loc394)
        %offs_k_383 = arith.addi %offs_k_372, %offs_k_371 : tensor<1x64xi32> loc(#loc394)
        %offs_k_384 = tt.splat %stride_kbs : i32 -> tensor<1x64xi32> loc(#loc395)
        %offs_k_385 = arith.extsi %offs_k_383 : tensor<1x64xi32> to tensor<1x64xi64> loc(#loc395)
        %offs_k_386 = arith.extsi %offs_k_384 : tensor<1x64xi32> to tensor<1x64xi64> loc(#loc395)
        %offs_k_387 = arith.muli %offs_k_385, %offs_k_386 : tensor<1x64xi64> loc(#loc395)
        %offs_k_388 = arith.constant 2147483647 : i64 loc(#loc395)
        %offs_k_389 = arith.constant -2147483648 : i64 loc(#loc395)
        %offs_k_390 = arith.constant dense<2147483647> : tensor<1x64xi64> loc(#loc395)
        %offs_k_391 = arith.cmpi sle, %offs_k_387, %offs_k_390 : tensor<1x64xi64> loc(#loc395)
        %offs_k_392 = arith.constant dense<-2147483648> : tensor<1x64xi64> loc(#loc395)
        %offs_k_393 = arith.cmpi sge, %offs_k_387, %offs_k_392 : tensor<1x64xi64> loc(#loc395)
        %offs_k_394 = arith.andi %offs_k_391, %offs_k_393 : tensor<1x64xi1> loc(#loc395)
        %offs_k_395 = arith.muli %offs_k_383, %offs_k_384 : tensor<1x64xi32> loc(#loc395)
        %offs_k_396 = arith.extsi %cur_kv_head : i32 to i64 loc(#loc396)
        %offs_k_397 = arith.extsi %stride_kh : i32 to i64 loc(#loc396)
        %offs_k_398 = arith.muli %offs_k_396, %offs_k_397 : i64 loc(#loc396)
        %offs_k_399 = arith.constant 2147483647 : i64 loc(#loc396)
        %offs_k_400 = arith.constant -2147483648 : i64 loc(#loc396)
        %offs_k_401 = arith.cmpi sle, %offs_k_398, %offs_k_399 : i64 loc(#loc396)
        %offs_k_402 = arith.cmpi sge, %offs_k_398, %offs_k_400 : i64 loc(#loc396)
        %offs_k_403 = arith.andi %offs_k_401, %offs_k_402 : i1 loc(#loc396)
        %offs_k_404 = arith.muli %cur_kv_head, %stride_kh : i32 loc(#loc396)
        %offs_k_405 = tt.splat %offs_k_404 : i32 -> tensor<1x64xi32> loc(#loc397)
        %offs_k_406 = arith.extsi %offs_k_395 : tensor<1x64xi32> to tensor<1x64xi64> loc(#loc397)
        %offs_k_407 = arith.extsi %offs_k_405 : tensor<1x64xi32> to tensor<1x64xi64> loc(#loc397)
        %offs_k_408 = arith.addi %offs_k_406, %offs_k_407 : tensor<1x64xi64> loc(#loc397)
        %offs_k_409 = arith.constant 2147483647 : i64 loc(#loc397)
        %offs_k_410 = arith.constant -2147483648 : i64 loc(#loc397)
        %offs_k_411 = arith.constant dense<2147483647> : tensor<1x64xi64> loc(#loc397)
        %offs_k_412 = arith.cmpi sle, %offs_k_408, %offs_k_411 : tensor<1x64xi64> loc(#loc397)
        %offs_k_413 = arith.constant dense<-2147483648> : tensor<1x64xi64> loc(#loc397)
        %offs_k_414 = arith.cmpi sge, %offs_k_408, %offs_k_413 : tensor<1x64xi64> loc(#loc397)
        %offs_k_415 = arith.andi %offs_k_412, %offs_k_414 : tensor<1x64xi1> loc(#loc397)
        %offs_k_416 = arith.addi %offs_k_395, %offs_k_405 : tensor<1x64xi32> loc(#loc397)
        %offs_k_417 = tt.expand_dims %offs_d {axis = 1 : i32} : tensor<256xi32> -> tensor<256x1xi32> loc(#loc398)
        %offs_k_418 = tt.broadcast %offs_k_416 : tensor<1x64xi32> -> tensor<256x64xi32> loc(#loc399)
        %offs_k_419 = tt.broadcast %offs_k_417 : tensor<256x1xi32> -> tensor<256x64xi32> loc(#loc399)
        %offs_k_420 = arith.extsi %offs_k_418 : tensor<256x64xi32> to tensor<256x64xi64> loc(#loc399)
        %offs_k_421 = arith.extsi %offs_k_419 : tensor<256x64xi32> to tensor<256x64xi64> loc(#loc399)
        %offs_k_422 = arith.addi %offs_k_420, %offs_k_421 : tensor<256x64xi64> loc(#loc399)
        %offs_k_423 = arith.constant 2147483647 : i64 loc(#loc399)
        %offs_k_424 = arith.constant -2147483648 : i64 loc(#loc399)
        %offs_k_425 = arith.constant dense<2147483647> : tensor<256x64xi64> loc(#loc399)
        %offs_k_426 = arith.cmpi sle, %offs_k_422, %offs_k_425 : tensor<256x64xi64> loc(#loc399)
        %offs_k_427 = arith.constant dense<-2147483648> : tensor<256x64xi64> loc(#loc399)
        %offs_k_428 = arith.cmpi sge, %offs_k_422, %offs_k_427 : tensor<256x64xi64> loc(#loc399)
        %offs_k_429 = arith.andi %offs_k_426, %offs_k_428 : tensor<256x64xi1> loc(#loc399)
        %offs_k_430 = arith.addi %offs_k_418, %offs_k_419 : tensor<256x64xi32> loc(#loc399)
        %k = tt.expand_dims %mask_n_276 {axis = 0 : i32} : tensor<64xi1> -> tensor<1x64xi1> loc(#loc400)
        %k_431 = tt.expand_dims %mask_d_60 {axis = 1 : i32} : tensor<256xi1> -> tensor<256x1xi1> loc(#loc401)
        %k_432 = tt.broadcast %k : tensor<1x64xi1> -> tensor<256x64xi1> loc(#loc402)
        %k_433 = tt.broadcast %k_431 : tensor<256x1xi1> -> tensor<256x64xi1> loc(#loc402)
        %k_434 = arith.andi %k_432, %k_433 : tensor<256x64xi1> loc(#loc402)
        %k_435 = tt.splat %K_Extend : !tt.ptr<bf16> -> tensor<256x64x!tt.ptr<bf16>> loc(#loc403)
        %k_436 = tt.addptr %k_435, %offs_k_430 : tensor<256x64x!tt.ptr<bf16>>, tensor<256x64xi32> loc(#loc403)
        %k_437 = arith.constant 0.000000e+00 : f32 loc(#loc404)
        %k_438 = arith.constant dense<0.000000e+00> : tensor<256x64xf32> loc(#loc404)
        %k_439 = arith.truncf %k_438 : tensor<256x64xf32> to tensor<256x64xbf16> loc(#loc404)
        %k_440 = tt.load %k_436, %k_434, %k_439 : tensor<256x64x!tt.ptr<bf16>> loc(#loc404)
        %qk = arith.constant 0.000000e+00 : f32 loc(#loc405)
        %qk_441 = arith.constant dense<0.000000e+00> : tensor<64x64xf32> loc(#loc405)
        %qk_442 = tt.dot %q_151, %k_440, %qk_441, inputPrecision = tf32 : tensor<64x256xbf16> * tensor<256x64xbf16> -> tensor<64x64xf32> loc(#loc405)
        %qk_443 = tt.splat %sm_scale : f32 -> tensor<64x64xf32> loc(#loc406)
        %qk_444 = arith.mulf %qk_442, %qk_443 : tensor<64x64xf32> loc(#loc406)
        %qk_445 = arith.constant 0xFF800000 : f32 loc(#loc407)
        %qk_446 = arith.constant 0xFF800000 : f32 loc(#loc407)
        %qk_447 = arith.constant dense<0xFF800000> : tensor<64x64xf32> loc(#loc407)
        %qk_448 = arith.select %final_mask_357, %qk_444, %qk_447 : tensor<64x64xi1>, tensor<64x64xf32> loc(#loc407)
        %row_max = tt.call @"triton.language.standard.max__fp32S64_64S__(1,)cconstexpr_1__(2,)cconstexpr_False__(3,)cconstexpr_True__(4,)cconstexpr_False_"(%qk_448) : (tensor<64x64xf32>) -> tensor<64xf32> loc(#loc408)
        %row_max_fixed = arith.constant 0xFF800000 : f32 loc(#loc409)
        %row_max_fixed_449 = arith.constant dense<0xFF800000> : tensor<64xf32> loc(#loc409)
        %row_max_fixed_450 = arith.cmpf oeq, %row_max, %row_max_fixed_449 : tensor<64xf32> loc(#loc409)
        %row_max_fixed_451 = arith.constant -1.000000e+20 : f32 loc(#loc410)
        %row_max_fixed_452 = arith.constant -1.000000e+20 : f32 loc(#loc410)
        %row_max_fixed_453 = arith.constant dense<-1.000000e+20> : tensor<64xf32> loc(#loc410)
        %row_max_fixed_454 = arith.select %row_max_fixed_450, %row_max_fixed_453, %row_max : tensor<64xi1>, tensor<64xf32> loc(#loc410)
        %e_max_455 = arith.maxnumf %row_max_fixed_454, %e_max_263 : tensor<64xf32> loc(#loc461)
        %re_scale = arith.subf %e_max_263, %e_max_455 : tensor<64xf32> loc(#loc412)
        %re_scale_456 = math.exp %re_scale : tensor<64xf32> loc(#loc413)
        %p = tt.expand_dims %e_max_455 {axis = 1 : i32} : tensor<64xf32> -> tensor<64x1xf32> loc(#loc414)
        %p_457 = tt.broadcast %p : tensor<64x1xf32> -> tensor<64x64xf32> loc(#loc415)
        %p_458 = arith.subf %qk_448, %p_457 : tensor<64x64xf32> loc(#loc415)
        %p_459 = math.exp %p_458 : tensor<64x64xf32> loc(#loc416)
        %deno_460 = arith.mulf %deno_262, %re_scale_456 : tensor<64xf32> loc(#loc417)
        %deno_461 = tt.call @"triton.language.standard.sum__fp32S64_64S__(1,)cconstexpr_1__(2,)cconstexpr_False__(3,)cNone"(%p_459) : (tensor<64x64xf32>) -> tensor<64xf32> loc(#loc418)
        %deno_462 = arith.addf %deno_460, %deno_461 : tensor<64xf32> loc(#loc462)
        %offs_v = arith.extsi %cur_seq_extend_start_idx_0 : i32 to i64 loc(#loc420)
        %offs_v_463 = arith.extsi %start_n : i32 to i64 loc(#loc420)
        %offs_v_464 = arith.addi %offs_v, %offs_v_463 : i64 loc(#loc420)
        %offs_v_465 = arith.constant 2147483647 : i64 loc(#loc420)
        %offs_v_466 = arith.constant -2147483648 : i64 loc(#loc420)
        %offs_v_467 = arith.cmpi sle, %offs_v_464, %offs_v_465 : i64 loc(#loc420)
        %offs_v_468 = arith.cmpi sge, %offs_v_464, %offs_v_466 : i64 loc(#loc420)
        %offs_v_469 = arith.andi %offs_v_467, %offs_v_468 : i1 loc(#loc420)
        %offs_v_470 = arith.addi %cur_seq_extend_start_idx_0, %start_n : i32 loc(#loc420)
        %offs_v_471 = tt.expand_dims %offs_n {axis = 1 : i32} : tensor<64xi32> -> tensor<64x1xi32> loc(#loc421)
        %offs_v_472 = tt.splat %offs_v_470 : i32 -> tensor<64x1xi32> loc(#loc422)
        %offs_v_473 = arith.extsi %offs_v_472 : tensor<64x1xi32> to tensor<64x1xi64> loc(#loc422)
        %offs_v_474 = arith.extsi %offs_v_471 : tensor<64x1xi32> to tensor<64x1xi64> loc(#loc422)
        %offs_v_475 = arith.addi %offs_v_473, %offs_v_474 : tensor<64x1xi64> loc(#loc422)
        %offs_v_476 = arith.constant 2147483647 : i64 loc(#loc422)
        %offs_v_477 = arith.constant -2147483648 : i64 loc(#loc422)
        %offs_v_478 = arith.constant dense<2147483647> : tensor<64x1xi64> loc(#loc422)
        %offs_v_479 = arith.cmpi sle, %offs_v_475, %offs_v_478 : tensor<64x1xi64> loc(#loc422)
        %offs_v_480 = arith.constant dense<-2147483648> : tensor<64x1xi64> loc(#loc422)
        %offs_v_481 = arith.cmpi sge, %offs_v_475, %offs_v_480 : tensor<64x1xi64> loc(#loc422)
        %offs_v_482 = arith.andi %offs_v_479, %offs_v_481 : tensor<64x1xi1> loc(#loc422)
        %offs_v_483 = arith.addi %offs_v_472, %offs_v_471 : tensor<64x1xi32> loc(#loc422)
        %offs_v_484 = tt.splat %stride_vbs : i32 -> tensor<64x1xi32> loc(#loc423)
        %offs_v_485 = arith.extsi %offs_v_483 : tensor<64x1xi32> to tensor<64x1xi64> loc(#loc423)
        %offs_v_486 = arith.extsi %offs_v_484 : tensor<64x1xi32> to tensor<64x1xi64> loc(#loc423)
        %offs_v_487 = arith.muli %offs_v_485, %offs_v_486 : tensor<64x1xi64> loc(#loc423)
        %offs_v_488 = arith.constant 2147483647 : i64 loc(#loc423)
        %offs_v_489 = arith.constant -2147483648 : i64 loc(#loc423)
        %offs_v_490 = arith.constant dense<2147483647> : tensor<64x1xi64> loc(#loc423)
        %offs_v_491 = arith.cmpi sle, %offs_v_487, %offs_v_490 : tensor<64x1xi64> loc(#loc423)
        %offs_v_492 = arith.constant dense<-2147483648> : tensor<64x1xi64> loc(#loc423)
        %offs_v_493 = arith.cmpi sge, %offs_v_487, %offs_v_492 : tensor<64x1xi64> loc(#loc423)
        %offs_v_494 = arith.andi %offs_v_491, %offs_v_493 : tensor<64x1xi1> loc(#loc423)
        %offs_v_495 = arith.muli %offs_v_483, %offs_v_484 : tensor<64x1xi32> loc(#loc423)
        %offs_v_496 = arith.extsi %cur_kv_head : i32 to i64 loc(#loc424)
        %offs_v_497 = arith.extsi %stride_vh : i32 to i64 loc(#loc424)
        %offs_v_498 = arith.muli %offs_v_496, %offs_v_497 : i64 loc(#loc424)
        %offs_v_499 = arith.constant 2147483647 : i64 loc(#loc424)
        %offs_v_500 = arith.constant -2147483648 : i64 loc(#loc424)
        %offs_v_501 = arith.cmpi sle, %offs_v_498, %offs_v_499 : i64 loc(#loc424)
        %offs_v_502 = arith.cmpi sge, %offs_v_498, %offs_v_500 : i64 loc(#loc424)
        %offs_v_503 = arith.andi %offs_v_501, %offs_v_502 : i1 loc(#loc424)
        %offs_v_504 = arith.muli %cur_kv_head, %stride_vh : i32 loc(#loc424)
        %offs_v_505 = tt.splat %offs_v_504 : i32 -> tensor<64x1xi32> loc(#loc425)
        %offs_v_506 = arith.extsi %offs_v_495 : tensor<64x1xi32> to tensor<64x1xi64> loc(#loc425)
        %offs_v_507 = arith.extsi %offs_v_505 : tensor<64x1xi32> to tensor<64x1xi64> loc(#loc425)
        %offs_v_508 = arith.addi %offs_v_506, %offs_v_507 : tensor<64x1xi64> loc(#loc425)
        %offs_v_509 = arith.constant 2147483647 : i64 loc(#loc425)
        %offs_v_510 = arith.constant -2147483648 : i64 loc(#loc425)
        %offs_v_511 = arith.constant dense<2147483647> : tensor<64x1xi64> loc(#loc425)
        %offs_v_512 = arith.cmpi sle, %offs_v_508, %offs_v_511 : tensor<64x1xi64> loc(#loc425)
        %offs_v_513 = arith.constant dense<-2147483648> : tensor<64x1xi64> loc(#loc425)
        %offs_v_514 = arith.cmpi sge, %offs_v_508, %offs_v_513 : tensor<64x1xi64> loc(#loc425)
        %offs_v_515 = arith.andi %offs_v_512, %offs_v_514 : tensor<64x1xi1> loc(#loc425)
        %offs_v_516 = arith.addi %offs_v_495, %offs_v_505 : tensor<64x1xi32> loc(#loc425)
        %offs_v_517 = tt.expand_dims %offs_dv {axis = 0 : i32} : tensor<256xi32> -> tensor<1x256xi32> loc(#loc426)
        %offs_v_518 = tt.broadcast %offs_v_516 : tensor<64x1xi32> -> tensor<64x256xi32> loc(#loc427)
        %offs_v_519 = tt.broadcast %offs_v_517 : tensor<1x256xi32> -> tensor<64x256xi32> loc(#loc427)
        %offs_v_520 = arith.extsi %offs_v_518 : tensor<64x256xi32> to tensor<64x256xi64> loc(#loc427)
        %offs_v_521 = arith.extsi %offs_v_519 : tensor<64x256xi32> to tensor<64x256xi64> loc(#loc427)
        %offs_v_522 = arith.addi %offs_v_520, %offs_v_521 : tensor<64x256xi64> loc(#loc427)
        %offs_v_523 = arith.constant 2147483647 : i64 loc(#loc427)
        %offs_v_524 = arith.constant -2147483648 : i64 loc(#loc427)
        %offs_v_525 = arith.constant dense<2147483647> : tensor<64x256xi64> loc(#loc427)
        %offs_v_526 = arith.cmpi sle, %offs_v_522, %offs_v_525 : tensor<64x256xi64> loc(#loc427)
        %offs_v_527 = arith.constant dense<-2147483648> : tensor<64x256xi64> loc(#loc427)
        %offs_v_528 = arith.cmpi sge, %offs_v_522, %offs_v_527 : tensor<64x256xi64> loc(#loc427)
        %offs_v_529 = arith.andi %offs_v_526, %offs_v_528 : tensor<64x256xi1> loc(#loc427)
        %offs_v_530 = arith.addi %offs_v_518, %offs_v_519 : tensor<64x256xi32> loc(#loc427)
        %v = tt.expand_dims %mask_n_276 {axis = 1 : i32} : tensor<64xi1> -> tensor<64x1xi1> loc(#loc428)
        %v_531 = tt.expand_dims %mask_dv_62 {axis = 0 : i32} : tensor<256xi1> -> tensor<1x256xi1> loc(#loc429)
        %v_532 = tt.broadcast %v : tensor<64x1xi1> -> tensor<64x256xi1> loc(#loc430)
        %v_533 = tt.broadcast %v_531 : tensor<1x256xi1> -> tensor<64x256xi1> loc(#loc430)
        %v_534 = arith.andi %v_532, %v_533 : tensor<64x256xi1> loc(#loc430)
        %v_535 = tt.splat %V_Extend : !tt.ptr<bf16> -> tensor<64x256x!tt.ptr<bf16>> loc(#loc431)
        %v_536 = tt.addptr %v_535, %offs_v_530 : tensor<64x256x!tt.ptr<bf16>>, tensor<64x256xi32> loc(#loc431)
        %v_537 = arith.constant 0.000000e+00 : f32 loc(#loc432)
        %v_538 = arith.constant dense<0.000000e+00> : tensor<64x256xf32> loc(#loc432)
        %v_539 = arith.truncf %v_538 : tensor<64x256xf32> to tensor<64x256xbf16> loc(#loc432)
        %v_540 = tt.load %v_536, %v_534, %v_539 : tensor<64x256x!tt.ptr<bf16>> loc(#loc432)
        %p_541 = arith.truncf %p_459 : tensor<64x64xf32> to tensor<64x64xbf16> loc(#loc433)
        %acc_542 = tt.expand_dims %re_scale_456 {axis = 1 : i32} : tensor<64xf32> -> tensor<64x1xf32> loc(#loc434)
        %acc_543 = tt.broadcast %acc_542 : tensor<64x1xf32> -> tensor<64x256xf32> loc(#loc435)
        %acc_544 = arith.mulf %acc_261, %acc_543 : tensor<64x256xf32> loc(#loc435)
        %acc_545 = arith.constant 0.000000e+00 : f32 loc(#loc436)
        %acc_546 = arith.constant dense<0.000000e+00> : tensor<64x256xf32> loc(#loc436)
        %acc_547 = tt.dot %p_541, %v_540, %acc_546, inputPrecision = tf32 : tensor<64x64xbf16> * tensor<64x256xbf16> -> tensor<64x256xf32> loc(#loc436)
        %acc_548 = arith.addf %acc_544, %acc_547 : tensor<64x256xf32> loc(#loc463)
        scf.yield %acc_548, %deno_462, %e_max_455 : tensor<64x256xf32>, tensor<64xf32>, tensor<64xf32> loc(#loc463)
      } else {
        scf.yield %acc_261, %deno_262, %e_max_263 : tensor<64x256xf32>, tensor<64xf32>, tensor<64xf32> loc(#loc105)
      } loc(#loc143)
      scf.yield %20#0, %20#1, %20#2 : tensor<64x256xf32>, tensor<64xf32>, tensor<64xf32> loc(#loc190)
    } loc(#loc465)
    %offs_o = arith.constant 64 : i32 loc(#loc438)
    %offs_o_182 = arith.constant 64 : i32 loc(#loc438)
    %offs_o_183 = arith.extsi %cur_block_m : i32 to i64 loc(#loc438)
    %offs_o_184 = arith.extsi %offs_o_182 : i32 to i64 loc(#loc438)
    %offs_o_185 = arith.muli %offs_o_183, %offs_o_184 : i64 loc(#loc438)
    %offs_o_186 = arith.constant 2147483647 : i64 loc(#loc438)
    %offs_o_187 = arith.constant -2147483648 : i64 loc(#loc438)
    %offs_o_188 = arith.cmpi sle, %offs_o_185, %offs_o_186 : i64 loc(#loc438)
    %offs_o_189 = arith.cmpi sge, %offs_o_185, %offs_o_187 : i64 loc(#loc438)
    %offs_o_190 = arith.andi %offs_o_188, %offs_o_189 : i1 loc(#loc438)
    %offs_o_191 = arith.muli %cur_block_m, %offs_o_182 : i32 loc(#loc438)
    %offs_o_192 = arith.extsi %cur_seq_extend_start_idx_0 : i32 to i64 loc(#loc439)
    %offs_o_193 = arith.extsi %offs_o_191 : i32 to i64 loc(#loc439)
    %offs_o_194 = arith.addi %offs_o_192, %offs_o_193 : i64 loc(#loc439)
    %offs_o_195 = arith.constant 2147483647 : i64 loc(#loc439)
    %offs_o_196 = arith.constant -2147483648 : i64 loc(#loc439)
    %offs_o_197 = arith.cmpi sle, %offs_o_194, %offs_o_195 : i64 loc(#loc439)
    %offs_o_198 = arith.cmpi sge, %offs_o_194, %offs_o_196 : i64 loc(#loc439)
    %offs_o_199 = arith.andi %offs_o_197, %offs_o_198 : i1 loc(#loc439)
    %offs_o_200 = arith.addi %cur_seq_extend_start_idx_0, %offs_o_191 : i32 loc(#loc439)
    %offs_o_201 = tt.expand_dims %offs_m {axis = 1 : i32} : tensor<64xi32> -> tensor<64x1xi32> loc(#loc440)
    %offs_o_202 = tt.splat %offs_o_200 : i32 -> tensor<64x1xi32> loc(#loc441)
    %offs_o_203 = arith.extsi %offs_o_202 : tensor<64x1xi32> to tensor<64x1xi64> loc(#loc441)
    %offs_o_204 = arith.extsi %offs_o_201 : tensor<64x1xi32> to tensor<64x1xi64> loc(#loc441)
    %offs_o_205 = arith.addi %offs_o_203, %offs_o_204 : tensor<64x1xi64> loc(#loc441)
    %offs_o_206 = arith.constant 2147483647 : i64 loc(#loc441)
    %offs_o_207 = arith.constant -2147483648 : i64 loc(#loc441)
    %offs_o_208 = arith.constant dense<2147483647> : tensor<64x1xi64> loc(#loc441)
    %offs_o_209 = arith.cmpi sle, %offs_o_205, %offs_o_208 : tensor<64x1xi64> loc(#loc441)
    %offs_o_210 = arith.constant dense<-2147483648> : tensor<64x1xi64> loc(#loc441)
    %offs_o_211 = arith.cmpi sge, %offs_o_205, %offs_o_210 : tensor<64x1xi64> loc(#loc441)
    %offs_o_212 = arith.andi %offs_o_209, %offs_o_211 : tensor<64x1xi1> loc(#loc441)
    %offs_o_213 = arith.addi %offs_o_202, %offs_o_201 : tensor<64x1xi32> loc(#loc441)
    %offs_o_214 = tt.splat %stride_obs : i32 -> tensor<64x1xi32> loc(#loc442)
    %offs_o_215 = arith.extsi %offs_o_213 : tensor<64x1xi32> to tensor<64x1xi64> loc(#loc442)
    %offs_o_216 = arith.extsi %offs_o_214 : tensor<64x1xi32> to tensor<64x1xi64> loc(#loc442)
    %offs_o_217 = arith.muli %offs_o_215, %offs_o_216 : tensor<64x1xi64> loc(#loc442)
    %offs_o_218 = arith.constant 2147483647 : i64 loc(#loc442)
    %offs_o_219 = arith.constant -2147483648 : i64 loc(#loc442)
    %offs_o_220 = arith.constant dense<2147483647> : tensor<64x1xi64> loc(#loc442)
    %offs_o_221 = arith.cmpi sle, %offs_o_217, %offs_o_220 : tensor<64x1xi64> loc(#loc442)
    %offs_o_222 = arith.constant dense<-2147483648> : tensor<64x1xi64> loc(#loc442)
    %offs_o_223 = arith.cmpi sge, %offs_o_217, %offs_o_222 : tensor<64x1xi64> loc(#loc442)
    %offs_o_224 = arith.andi %offs_o_221, %offs_o_223 : tensor<64x1xi1> loc(#loc442)
    %offs_o_225 = arith.muli %offs_o_213, %offs_o_214 : tensor<64x1xi32> loc(#loc442)
    %offs_o_226 = arith.extsi %cur_head : i32 to i64 loc(#loc443)
    %offs_o_227 = arith.extsi %stride_oh : i32 to i64 loc(#loc443)
    %offs_o_228 = arith.muli %offs_o_226, %offs_o_227 : i64 loc(#loc443)
    %offs_o_229 = arith.constant 2147483647 : i64 loc(#loc443)
    %offs_o_230 = arith.constant -2147483648 : i64 loc(#loc443)
    %offs_o_231 = arith.cmpi sle, %offs_o_228, %offs_o_229 : i64 loc(#loc443)
    %offs_o_232 = arith.cmpi sge, %offs_o_228, %offs_o_230 : i64 loc(#loc443)
    %offs_o_233 = arith.andi %offs_o_231, %offs_o_232 : i1 loc(#loc443)
    %offs_o_234 = arith.muli %cur_head, %stride_oh : i32 loc(#loc443)
    %offs_o_235 = tt.splat %offs_o_234 : i32 -> tensor<64x1xi32> loc(#loc444)
    %offs_o_236 = arith.extsi %offs_o_225 : tensor<64x1xi32> to tensor<64x1xi64> loc(#loc444)
    %offs_o_237 = arith.extsi %offs_o_235 : tensor<64x1xi32> to tensor<64x1xi64> loc(#loc444)
    %offs_o_238 = arith.addi %offs_o_236, %offs_o_237 : tensor<64x1xi64> loc(#loc444)
    %offs_o_239 = arith.constant 2147483647 : i64 loc(#loc444)
    %offs_o_240 = arith.constant -2147483648 : i64 loc(#loc444)
    %offs_o_241 = arith.constant dense<2147483647> : tensor<64x1xi64> loc(#loc444)
    %offs_o_242 = arith.cmpi sle, %offs_o_238, %offs_o_241 : tensor<64x1xi64> loc(#loc444)
    %offs_o_243 = arith.constant dense<-2147483648> : tensor<64x1xi64> loc(#loc444)
    %offs_o_244 = arith.cmpi sge, %offs_o_238, %offs_o_243 : tensor<64x1xi64> loc(#loc444)
    %offs_o_245 = arith.andi %offs_o_242, %offs_o_244 : tensor<64x1xi1> loc(#loc444)
    %offs_o_246 = arith.addi %offs_o_225, %offs_o_235 : tensor<64x1xi32> loc(#loc444)
    %offs_o_247 = tt.expand_dims %offs_dv {axis = 0 : i32} : tensor<256xi32> -> tensor<1x256xi32> loc(#loc445)
    %offs_o_248 = tt.broadcast %offs_o_246 : tensor<64x1xi32> -> tensor<64x256xi32> loc(#loc446)
    %offs_o_249 = tt.broadcast %offs_o_247 : tensor<1x256xi32> -> tensor<64x256xi32> loc(#loc446)
    %offs_o_250 = arith.extsi %offs_o_248 : tensor<64x256xi32> to tensor<64x256xi64> loc(#loc446)
    %offs_o_251 = arith.extsi %offs_o_249 : tensor<64x256xi32> to tensor<64x256xi64> loc(#loc446)
    %offs_o_252 = arith.addi %offs_o_250, %offs_o_251 : tensor<64x256xi64> loc(#loc446)
    %offs_o_253 = arith.constant 2147483647 : i64 loc(#loc446)
    %offs_o_254 = arith.constant -2147483648 : i64 loc(#loc446)
    %offs_o_255 = arith.constant dense<2147483647> : tensor<64x256xi64> loc(#loc446)
    %offs_o_256 = arith.cmpi sle, %offs_o_252, %offs_o_255 : tensor<64x256xi64> loc(#loc446)
    %offs_o_257 = arith.constant dense<-2147483648> : tensor<64x256xi64> loc(#loc446)
    %offs_o_258 = arith.cmpi sge, %offs_o_252, %offs_o_257 : tensor<64x256xi64> loc(#loc446)
    %offs_o_259 = arith.andi %offs_o_256, %offs_o_258 : tensor<64x256xi1> loc(#loc446)
    %offs_o_260 = arith.addi %offs_o_248, %offs_o_249 : tensor<64x256xi32> loc(#loc446)
    %8 = tt.expand_dims %mask_m_58 {axis = 1 : i32} : tensor<64xi1> -> tensor<64x1xi1> loc(#loc200)
    %9 = tt.expand_dims %mask_dv_62 {axis = 0 : i32} : tensor<256xi1> -> tensor<1x256xi1> loc(#loc201)
    %10 = tt.broadcast %8 : tensor<64x1xi1> -> tensor<64x256xi1> loc(#loc202)
    %11 = tt.broadcast %9 : tensor<1x256xi1> -> tensor<64x256xi1> loc(#loc202)
    %12 = arith.andi %10, %11 : tensor<64x256xi1> loc(#loc202)
    %13 = tt.splat %O_Extend : !tt.ptr<bf16> -> tensor<64x256x!tt.ptr<bf16>> loc(#loc203)
    %14 = tt.addptr %13, %offs_o_260 : tensor<64x256x!tt.ptr<bf16>>, tensor<64x256xi32> loc(#loc203)
    %15 = tt.expand_dims %e_max_181#1 {axis = 1 : i32} : tensor<64xf32> -> tensor<64x1xf32> loc(#loc204)
    %16 = tt.broadcast %15 : tensor<64x1xf32> -> tensor<64x256xf32> loc(#loc205)
    %17 = arith.divf %e_max_181#0, %16 : tensor<64x256xf32> loc(#loc205)
    %18 = arith.truncf %17 : tensor<64x256xf32> to tensor<64x256xbf16> loc(#loc206)
    tt.store %14, %18, %12 : tensor<64x256x!tt.ptr<bf16>> loc(#loc206)
    tt.return loc(#loc207)
  } loc(#loc)
  tt.func private @"triton.language.standard.zeros____(0, 0)cconstexpr_64__(0, 1)cconstexpr_256__(1,)cconstexpr_fp32_"() -> tensor<64x256xf32> attributes {noinline = false} {
    %cst = arith.constant 0.000000e+00 : f32 loc(#loc209)
    %cst_0 = arith.constant dense<0.000000e+00> : tensor<64x256xf32> loc(#loc209)
    tt.return %cst_0 : tensor<64x256xf32> loc(#loc210)
  ^bb1:  // no predecessors
    %0 = ub.poison : tensor<64x256xf32> loc(#loc211)
    tt.return %0 : tensor<64x256xf32> loc(#loc211)
  } loc(#loc208)
  tt.func private @"triton.language.standard.zeros____(0, 0)cconstexpr_64__(1,)cconstexpr_fp32_"() -> tensor<64xf32> attributes {noinline = false} {
    %cst = arith.constant 0.000000e+00 : f32 loc(#loc209)
    %cst_0 = arith.constant dense<0.000000e+00> : tensor<64xf32> loc(#loc209)
    tt.return %cst_0 : tensor<64xf32> loc(#loc210)
  ^bb1:  // no predecessors
    %0 = ub.poison : tensor<64xf32> loc(#loc211)
    tt.return %0 : tensor<64xf32> loc(#loc211)
  } loc(#loc208)
  tt.func private @"triton.language.standard.max__fp32S64_64S__(1,)cconstexpr_1__(2,)cconstexpr_False__(3,)cconstexpr_True__(4,)cconstexpr_False_"(%input: tensor<64x64xf32> loc("input"(#loc212))) -> tensor<64xf32> attributes {noinline = false} {
    %0 = "tt.reduce"(%input) <{axis = 1 : i32}> ({
    ^bb0(%arg1: f32 loc(unknown), %arg2: f32 loc(unknown)):
      %2 = tt.call @triton.language.standard._elementwise_max__fp32_fp32__(%arg1, %arg2) : (f32, f32) -> f32 loc(#loc213)
      tt.reduce.return %2 : f32 loc(#loc213)
    }) : (tensor<64x64xf32>) -> tensor<64xf32> loc(#loc213)
    tt.return %0 : tensor<64xf32> loc(#loc214)
  ^bb1:  // no predecessors
    %1 = ub.poison : tensor<64xf32> loc(#loc215)
    tt.return %1 : tensor<64xf32> loc(#loc215)
  } loc(#loc212)
  tt.func private @triton.language.standard._elementwise_max__fp32_fp32__(%a: f32 loc("a"(#loc216)), %b: f32 loc("b"(#loc216))) -> f32 attributes {noinline = false} {
    %0 = arith.maxnumf %a, %b : f32 loc(#loc217)
    tt.return %0 : f32 loc(#loc218)
  ^bb1:  // no predecessors
    %1 = ub.poison : f32 loc(#loc219)
    tt.return %1 : f32 loc(#loc219)
  } loc(#loc216)
  tt.func private @"triton.language.standard.sum__fp32S64_64S__(1,)cconstexpr_1__(2,)cconstexpr_False__(3,)cNone"(%input: tensor<64x64xf32> loc("input"(#loc220))) -> tensor<64xf32> attributes {noinline = false} {
    %0 = "tt.reduce"(%input) <{axis = 1 : i32}> ({
    ^bb0(%arg1: f32 loc(unknown), %arg2: f32 loc(unknown)):
      %2 = tt.call @triton.language.standard._sum_combine__fp32_fp32__(%arg1, %arg2) : (f32, f32) -> f32 loc(#loc221)
      tt.reduce.return %2 : f32 loc(#loc221)
    }) : (tensor<64x64xf32>) -> tensor<64xf32> loc(#loc221)
    tt.return %0 : tensor<64xf32> loc(#loc222)
  ^bb1:  // no predecessors
    %1 = ub.poison : tensor<64xf32> loc(#loc223)
    tt.return %1 : tensor<64xf32> loc(#loc223)
  } loc(#loc220)
  tt.func private @triton.language.standard._sum_combine__fp32_fp32__(%a: f32 loc("a"(#loc224)), %b: f32 loc("b"(#loc224))) -> f32 attributes {noinline = false} {
    %0 = arith.addf %a, %b : f32 loc(#loc225)
    tt.return %0 : f32 loc(#loc226)
  ^bb1:  // no predecessors
    %1 = ub.poison : f32 loc(#loc227)
    tt.return %1 : f32 loc(#loc227)
  } loc(#loc224)
  tt.func private @"triton.language.standard.max__i32S64_64S__(1,)cconstexpr_1__(2,)cconstexpr_False__(3,)cconstexpr_True__(4,)cconstexpr_False_"(%input: tensor<64x64xi32> loc("input"(#loc212))) -> tensor<64xi32> attributes {noinline = false} {
    %0 = "tt.reduce"(%input) <{axis = 1 : i32}> ({
    ^bb0(%arg1: i32 loc(unknown), %arg2: i32 loc(unknown)):
      %2 = tt.call @triton.language.standard._elementwise_max__i32_i32__(%arg1, %arg2) : (i32, i32) -> i32 loc(#loc213)
      tt.reduce.return %2 : i32 loc(#loc213)
    }) : (tensor<64x64xi32>) -> tensor<64xi32> loc(#loc213)
    tt.return %0 : tensor<64xi32> loc(#loc214)
  ^bb1:  // no predecessors
    %1 = ub.poison : tensor<64xi32> loc(#loc215)
    tt.return %1 : tensor<64xi32> loc(#loc215)
  } loc(#loc212)
  tt.func private @triton.language.standard._elementwise_max__i32_i32__(%a: i32 loc("a"(#loc216)), %b: i32 loc("b"(#loc216))) -> i32 attributes {noinline = false} {
    %0 = arith.maxsi %a, %b : i32 loc(#loc217)
    tt.return %0 : i32 loc(#loc218)
  ^bb1:  // no predecessors
    %1 = ub.poison : i32 loc(#loc219)
    tt.return %1 : i32 loc(#loc219)
  } loc(#loc216)
  tt.func private @"triton.language.standard.max__i32S64S__(1,)cconstexpr_0__(2,)cconstexpr_False__(3,)cconstexpr_True__(4,)cconstexpr_False_"(%input: tensor<64xi32> loc("input"(#loc212))) -> i32 attributes {noinline = false} {
    %0 = "tt.reduce"(%input) <{axis = 0 : i32}> ({
    ^bb0(%arg1: i32 loc(unknown), %arg2: i32 loc(unknown)):
      %2 = tt.call @triton.language.standard._elementwise_max__i32_i32__(%arg1, %arg2) : (i32, i32) -> i32 loc(#loc213)
      tt.reduce.return %2 : i32 loc(#loc213)
    }) : (tensor<64xi32>) -> i32 loc(#loc213)
    tt.return %0 : i32 loc(#loc214)
  ^bb1:  // no predecessors
    %1 = ub.poison : i32 loc(#loc215)
    tt.return %1 : i32 loc(#loc215)
  } loc(#loc212)
} loc(#loc)
#loc1 = loc("/sgl-workspace/sglang/python/sglang/srt/layers/attention/triton_ops/extend_attention.py":274:28)
#loc2 = loc("/sgl-workspace/sglang/python/sglang/srt/layers/attention/triton_ops/extend_attention.py":275:29)
#loc3 = loc("/sgl-workspace/sglang/python/sglang/srt/layers/attention/triton_ops/extend_attention.py":276:32)
#loc4 = loc("/sgl-workspace/sglang/python/sglang/srt/layers/attention/triton_ops/extend_attention.py":277:30)
#loc5 = loc("/sgl-workspace/sglang/python/sglang/srt/layers/attention/triton_ops/extend_attention.py":279:51)
#loc6 = loc("/sgl-workspace/sglang/python/sglang/srt/layers/attention/triton_ops/extend_attention.py":279:39)
#loc7 = loc("/sgl-workspace/sglang/python/sglang/srt/layers/attention/triton_ops/extend_attention.py":280:45)
#loc8 = loc("/sgl-workspace/sglang/python/sglang/srt/layers/attention/triton_ops/extend_attention.py":280:55)
#loc9 = loc("/sgl-workspace/sglang/python/sglang/srt/layers/attention/triton_ops/extend_attention.py":280:33)
#loc10 = loc("/sgl-workspace/sglang/python/sglang/srt/layers/attention/triton_ops/extend_attention.py":280:60)
#loc11 = loc("/sgl-workspace/sglang/python/sglang/srt/layers/attention/triton_ops/extend_attention.py":281:47)
#loc12 = loc("/sgl-workspace/sglang/python/sglang/srt/layers/attention/triton_ops/extend_attention.py":281:35)
#loc13 = loc("/sgl-workspace/sglang/python/sglang/srt/layers/attention/triton_ops/extend_attention.py":282:45)
#loc14 = loc("/sgl-workspace/sglang/python/sglang/srt/layers/attention/triton_ops/extend_attention.py":282:55)
#loc15 = loc("/sgl-workspace/sglang/python/sglang/srt/layers/attention/triton_ops/extend_attention.py":282:33)
#loc16 = loc("/sgl-workspace/sglang/python/sglang/srt/layers/attention/triton_ops/extend_attention.py":282:60)
#loc17 = loc("/sgl-workspace/sglang/python/sglang/srt/layers/attention/triton_ops/extend_attention.py":283:39)
#loc18 = loc("/sgl-workspace/sglang/python/sglang/srt/layers/attention/triton_ops/extend_attention.py":286:55)
#loc19 = loc("/sgl-workspace/sglang/python/sglang/srt/layers/attention/triton_ops/extend_attention.py":286:41)
#loc20 = loc("/sgl-workspace/sglang/python/sglang/srt/layers/attention/triton_ops/extend_attention.py":289:23)
#loc21 = loc("/sgl-workspace/sglang/python/sglang/srt/layers/attention/triton_ops/extend_attention.py":293:26)
#loc22 = loc("/sgl-workspace/sglang/python/sglang/srt/layers/attention/triton_ops/extend_attention.py":294:27)
#loc23 = loc("/sgl-workspace/sglang/python/sglang/srt/layers/attention/triton_ops/extend_attention.py":295:26)
#loc24 = loc("/sgl-workspace/sglang/python/sglang/srt/layers/attention/triton_ops/extend_attention.py":296:28)
#loc25 = loc("/sgl-workspace/sglang/python/sglang/srt/layers/attention/triton_ops/extend_attention.py":296:38)
#loc26 = loc("/sgl-workspace/sglang/python/sglang/srt/layers/attention/triton_ops/extend_attention.py":296:48)
#loc27 = loc("/sgl-workspace/sglang/python/sglang/srt/layers/attention/triton_ops/extend_attention.py":298:22)
#loc28 = loc("/sgl-workspace/sglang/python/sglang/srt/layers/attention/triton_ops/extend_attention.py":299:24)
#loc29 = loc("/sgl-workspace/sglang/python/sglang/srt/layers/attention/triton_ops/extend_attention.py":311:50)
#loc30 = loc("/sgl-workspace/sglang/python/sglang/srt/layers/attention/triton_ops/extend_attention.py":311:36)
#loc31 = loc("/sgl-workspace/sglang/python/sglang/srt/layers/attention/triton_ops/extend_attention.py":311:67)
#loc32 = loc("/sgl-workspace/sglang/python/sglang/srt/layers/attention/triton_ops/extend_attention.py":311:60)
#loc33 = loc("/sgl-workspace/sglang/python/sglang/srt/layers/attention/triton_ops/extend_attention.py":312:10)
#loc34 = loc("/sgl-workspace/sglang/python/sglang/srt/layers/attention/triton_ops/extend_attention.py":313:21)
#loc35 = loc("/sgl-workspace/sglang/python/sglang/srt/layers/attention/triton_ops/extend_attention.py":313:10)
#loc36 = loc("/sgl-workspace/sglang/python/sglang/srt/layers/attention/triton_ops/extend_attention.py":314:17)
#loc37 = loc("/sgl-workspace/sglang/python/sglang/srt/layers/attention/triton_ops/extend_attention.py":314:10)
#loc38 = loc("/sgl-workspace/sglang/python/sglang/srt/layers/attention/triton_ops/extend_attention.py":317:40)
#loc39 = loc("/sgl-workspace/sglang/python/sglang/srt/layers/attention/triton_ops/extend_attention.py":317:60)
#loc40 = loc("/sgl-workspace/sglang/python/sglang/srt/layers/attention/triton_ops/extend_attention.py":317:53)
#loc41 = loc("/sgl-workspace/sglang/python/sglang/srt/layers/attention/triton_ops/extend_attention.py":317:19)
#loc42 = loc("/sgl-workspace/sglang/python/sglang/srt/layers/attention/triton_ops/extend_attention.py":317:8)
#loc43 = loc("/sgl-workspace/sglang/python/sglang/srt/layers/attention/triton_ops/extend_attention.py":331:26)
#loc44 = loc("/sgl-workspace/sglang/python/sglang/srt/layers/attention/triton_ops/extend_attention.py":333:19)
#loc45 = loc("/sgl-workspace/sglang/python/sglang/srt/layers/attention/triton_ops/extend_attention.py":334:20)
#loc46 = loc("/sgl-workspace/sglang/python/sglang/srt/layers/attention/triton_ops/extend_attention.py":335:21)
#loc47 = loc("/sgl-workspace/sglang/python/sglang/srt/layers/attention/triton_ops/extend_attention.py":335:52)
#loc48 = loc("/sgl-workspace/sglang/python/sglang/srt/layers/attention/triton_ops/extend_attention.py":337:48)
#loc49 = loc("/sgl-workspace/sglang/python/sglang/srt/layers/attention/triton_ops/extend_attention.py":339:28)
#loc50 = loc("/sgl-workspace/sglang/python/sglang/srt/layers/attention/triton_ops/extend_attention.py":339:38)
#loc51 = loc("/sgl-workspace/sglang/python/sglang/srt/layers/attention/triton_ops/extend_attention.py":341:28)
#loc52 = loc("/sgl-workspace/sglang/python/sglang/srt/layers/attention/triton_ops/extend_attention.py":341:46)
#loc53 = loc("/sgl-workspace/sglang/python/sglang/srt/layers/attention/triton_ops/extend_attention.py":341:39)
#loc54 = loc("/sgl-workspace/sglang/python/sglang/srt/layers/attention/triton_ops/extend_attention.py":363:20)
#loc55 = loc("/sgl-workspace/sglang/python/sglang/srt/layers/attention/triton_ops/extend_attention.py":367:15)
#loc56 = loc("/sgl-workspace/sglang/python/sglang/srt/layers/attention/triton_ops/extend_attention.py":367:11)
#loc57 = loc("/sgl-workspace/sglang/python/sglang/srt/layers/attention/triton_ops/extend_attention.py":369:29)
#loc58 = loc("/sgl-workspace/sglang/python/sglang/srt/layers/attention/triton_ops/extend_attention.py":369:52)
#loc59 = loc("/sgl-workspace/sglang/python/sglang/srt/layers/attention/triton_ops/extend_attention.py":369:62)
#loc60 = loc("/sgl-workspace/sglang/python/sglang/srt/layers/attention/triton_ops/extend_attention.py":369:16)
#loc61 = loc("/sgl-workspace/sglang/python/sglang/srt/layers/attention/triton_ops/extend_attention.py":376:28)
#loc62 = loc("/sgl-workspace/sglang/python/sglang/srt/layers/attention/triton_ops/extend_attention.py":376:39)
#loc63 = loc("/sgl-workspace/sglang/python/sglang/srt/layers/attention/triton_ops/extend_attention.py":377:32)
#loc64 = loc("/sgl-workspace/sglang/python/sglang/srt/layers/attention/triton_ops/extend_attention.py":377:18)
#loc65 = loc("/sgl-workspace/sglang/python/sglang/srt/layers/attention/triton_ops/extend_attention.py":378:25)
#loc66 = loc("/sgl-workspace/sglang/python/sglang/srt/layers/attention/triton_ops/extend_attention.py":378:18)
#loc67 = loc("/sgl-workspace/sglang/python/sglang/srt/layers/attention/triton_ops/extend_attention.py":382:29)
#loc68 = loc("/sgl-workspace/sglang/python/sglang/srt/layers/attention/triton_ops/extend_attention.py":382:49)
#loc69 = loc("/sgl-workspace/sglang/python/sglang/srt/layers/attention/triton_ops/extend_attention.py":382:42)
#loc70 = loc("/sgl-workspace/sglang/python/sglang/srt/layers/attention/triton_ops/extend_attention.py":381:27)
#loc71 = loc("/sgl-workspace/sglang/python/sglang/srt/layers/attention/triton_ops/extend_attention.py":381:16)
#loc72 = loc("/sgl-workspace/sglang/python/sglang/srt/layers/attention/triton_ops/extend_attention.py":386:39)
#loc73 = loc("/sgl-workspace/sglang/python/sglang/srt/layers/attention/triton_ops/extend_attention.py":399:29)
#loc74 = loc("/sgl-workspace/sglang/python/sglang/srt/layers/attention/triton_ops/extend_attention.py":399:18)
#loc75 = loc("/sgl-workspace/sglang/python/sglang/srt/layers/attention/triton_ops/extend_attention.py":407:42)
#loc76 = loc("/sgl-workspace/sglang/python/sglang/srt/layers/attention/triton_ops/extend_attention.py":409:33)
#loc77 = loc("/sgl-workspace/sglang/python/sglang/srt/layers/attention/triton_ops/extend_attention.py":410:48)
#loc78 = loc("/sgl-workspace/sglang/python/sglang/srt/layers/attention/triton_ops/extend_attention.py":410:70)
#loc79 = loc("/sgl-workspace/sglang/python/sglang/srt/layers/attention/triton_ops/extend_attention.py":411:48)
#loc80 = loc("/sgl-workspace/sglang/python/sglang/srt/layers/attention/triton_ops/extend_attention.py":413:38)
#loc81 = loc("/sgl-workspace/sglang/python/sglang/srt/layers/attention/triton_ops/extend_attention.py":413:30)
#loc82 = loc("/sgl-workspace/sglang/python/sglang/srt/layers/attention/triton_ops/extend_attention.py":414:36)
#loc83 = loc("/sgl-workspace/sglang/python/sglang/srt/layers/attention/triton_ops/extend_attention.py":414:28)
#loc84 = loc("/sgl-workspace/sglang/python/sglang/srt/layers/attention/triton_ops/extend_attention.py":414:23)
#loc85 = loc("/sgl-workspace/sglang/python/sglang/srt/layers/attention/triton_ops/extend_attention.py":415:26)
#loc86 = loc("/sgl-workspace/sglang/python/sglang/srt/layers/attention/triton_ops/extend_attention.py":415:47)
#loc87 = loc("/sgl-workspace/sglang/python/sglang/srt/layers/attention/triton_ops/extend_attention.py":415:37)
#loc88 = loc("/sgl-workspace/sglang/python/sglang/srt/layers/attention/triton_ops/extend_attention.py":418:28)
#loc89 = loc("/sgl-workspace/sglang/python/sglang/srt/layers/attention/triton_ops/extend_attention.py":418:39)
#loc90 = loc("/sgl-workspace/sglang/python/sglang/srt/layers/attention/triton_ops/extend_attention.py":419:32)
#loc91 = loc("/sgl-workspace/sglang/python/sglang/srt/layers/attention/triton_ops/extend_attention.py":419:18)
#loc92 = loc("/sgl-workspace/sglang/python/sglang/srt/layers/attention/triton_ops/extend_attention.py":420:26)
#loc93 = loc("/sgl-workspace/sglang/python/sglang/srt/layers/attention/triton_ops/extend_attention.py":420:18)
#loc94 = loc("/sgl-workspace/sglang/python/sglang/srt/layers/attention/triton_ops/extend_attention.py":424:28)
#loc95 = loc("/sgl-workspace/sglang/python/sglang/srt/layers/attention/triton_ops/extend_attention.py":424:47)
#loc96 = loc("/sgl-workspace/sglang/python/sglang/srt/layers/attention/triton_ops/extend_attention.py":424:39)
#loc97 = loc("/sgl-workspace/sglang/python/sglang/srt/layers/attention/triton_ops/extend_attention.py":423:27)
#loc98 = loc("/sgl-workspace/sglang/python/sglang/srt/layers/attention/triton_ops/extend_attention.py":423:16)
#loc99 = loc("/sgl-workspace/sglang/python/sglang/srt/layers/attention/triton_ops/extend_attention.py":427:21)
#loc100 = loc("/sgl-workspace/sglang/python/sglang/srt/layers/attention/triton_ops/extend_attention.py":428:33)
#loc101 = loc("/sgl-workspace/sglang/python/sglang/srt/layers/attention/triton_ops/extend_attention.py":428:24)
#loc102 = loc("/sgl-workspace/sglang/python/sglang/srt/layers/attention/triton_ops/extend_attention.py":428:54)
#loc103 = loc("/sgl-workspace/sglang/python/sglang/srt/layers/attention/triton_ops/extend_attention.py":428:59)
#loc104 = loc("/sgl-workspace/sglang/python/sglang/srt/layers/attention/triton_ops/extend_attention.py":428:44)
#loc106 = loc("/sgl-workspace/sglang/python/sglang/srt/layers/attention/triton_ops/extend_attention.py":367:8)
#loc107 = loc("/sgl-workspace/sglang/python/sglang/srt/layers/attention/triton_ops/extend_attention.py":437:59)
#loc108 = loc("/sgl-workspace/sglang/python/sglang/srt/layers/attention/triton_ops/extend_attention.py":437:64)
#loc109 = loc("/sgl-workspace/sglang/python/sglang/srt/layers/attention/triton_ops/extend_attention.py":437:44)
#loc110 = loc("/sgl-workspace/sglang/python/sglang/srt/layers/attention/triton_ops/extend_attention.py":439:45)
#loc111 = loc("/sgl-workspace/sglang/python/sglang/srt/layers/attention/triton_ops/extend_attention.py":441:28)
#loc112 = loc("/sgl-workspace/sglang/python/sglang/srt/layers/attention/triton_ops/extend_attention.py":441:38)
#loc113 = loc("/sgl-workspace/sglang/python/sglang/srt/layers/attention/triton_ops/extend_attention.py":443:28)
#loc114 = loc("/sgl-workspace/sglang/python/sglang/srt/layers/attention/triton_ops/extend_attention.py":443:46)
#loc115 = loc("/sgl-workspace/sglang/python/sglang/srt/layers/attention/triton_ops/extend_attention.py":443:39)
#loc116 = loc("/sgl-workspace/sglang/python/sglang/srt/layers/attention/triton_ops/extend_attention.py":454:29)
#loc117 = loc("/sgl-workspace/sglang/python/sglang/srt/layers/attention/triton_ops/extend_attention.py":454:47)
#loc118 = loc("/sgl-workspace/sglang/python/sglang/srt/layers/attention/triton_ops/extend_attention.py":454:40)
#loc119 = loc("/sgl-workspace/sglang/python/sglang/srt/layers/attention/triton_ops/extend_attention.py":447:18)
#loc120 = loc("/sgl-workspace/sglang/python/sglang/srt/layers/attention/triton_ops/extend_attention.py":448:33)
#loc121 = loc("/sgl-workspace/sglang/python/sglang/srt/layers/attention/triton_ops/extend_attention.py":448:50)
#loc122 = loc("/sgl-workspace/sglang/python/sglang/srt/layers/attention/triton_ops/extend_attention.py":448:43)
#loc123 = loc("/sgl-workspace/sglang/python/sglang/srt/layers/attention/triton_ops/extend_attention.py":449:33)
#loc124 = loc("/sgl-workspace/sglang/python/sglang/srt/layers/attention/triton_ops/extend_attention.py":449:19)
#loc125 = loc("/sgl-workspace/sglang/python/sglang/srt/layers/attention/triton_ops/extend_attention.py":448:18)
#loc126 = loc("/sgl-workspace/sglang/python/sglang/srt/layers/attention/triton_ops/extend_attention.py":450:18)
#loc127 = loc("/sgl-workspace/sglang/python/sglang/srt/layers/attention/triton_ops/extend_attention.py":451:18)
#loc128 = loc("/sgl-workspace/sglang/python/sglang/srt/layers/attention/triton_ops/extend_attention.py":452:18)
#loc129 = loc("/sgl-workspace/sglang/python/sglang/srt/layers/attention/triton_ops/extend_attention.py":453:25)
#loc130 = loc("/sgl-workspace/sglang/python/sglang/srt/layers/attention/triton_ops/extend_attention.py":453:18)
#loc131 = loc("/sgl-workspace/sglang/python/sglang/srt/layers/attention/triton_ops/extend_attention.py":446:16)
#loc132 = loc("/sgl-workspace/sglang/python/sglang/srt/layers/attention/triton_ops/extend_attention.py":457:34)
#loc133 = loc("/sgl-workspace/sglang/python/sglang/srt/layers/attention/triton_ops/extend_attention.py":457:52)
#loc134 = loc("/sgl-workspace/sglang/python/sglang/srt/layers/attention/triton_ops/extend_attention.py":457:45)
#loc135 = loc("/sgl-workspace/sglang/python/sglang/srt/layers/attention/triton_ops/extend_attention.py":457:27)
#loc136 = loc("/sgl-workspace/sglang/python/sglang/srt/layers/attention/triton_ops/extend_attention.py":458:26)
#loc137 = loc("/sgl-workspace/sglang/python/sglang/srt/layers/attention/triton_ops/extend_attention.py":476:20)
#loc138 = loc("/sgl-workspace/sglang/python/sglang/srt/layers/attention/triton_ops/extend_attention.py":478:52)
#loc139 = loc("/sgl-workspace/sglang/python/sglang/srt/layers/attention/triton_ops/extend_attention.py":478:38)
#loc140 = loc("/sgl-workspace/sglang/python/sglang/srt/layers/attention/triton_ops/extend_attention.py":478:31)
#loc141 = loc("/sgl-workspace/sglang/python/sglang/srt/layers/attention/triton_ops/extend_attention.py":478:83)
#loc142 = loc("/sgl-workspace/sglang/python/sglang/srt/layers/attention/triton_ops/extend_attention.py":480:15)
#loc143 = loc("/sgl-workspace/sglang/python/sglang/srt/layers/attention/triton_ops/extend_attention.py":480:11)
#loc144 = loc("/sgl-workspace/sglang/python/sglang/srt/layers/attention/triton_ops/extend_attention.py":483:44)
#loc145 = loc("/sgl-workspace/sglang/python/sglang/srt/layers/attention/triton_ops/extend_attention.py":483:61)
#loc146 = loc("/sgl-workspace/sglang/python/sglang/srt/layers/attention/triton_ops/extend_attention.py":483:54)
#loc147 = loc("/sgl-workspace/sglang/python/sglang/srt/layers/attention/triton_ops/extend_attention.py":483:73)
#loc148 = loc("/sgl-workspace/sglang/python/sglang/srt/layers/attention/triton_ops/extend_attention.py":484:32)
#loc149 = loc("/sgl-workspace/sglang/python/sglang/srt/layers/attention/triton_ops/extend_attention.py":484:18)
#loc150 = loc("/sgl-workspace/sglang/python/sglang/srt/layers/attention/triton_ops/extend_attention.py":485:25)
#loc151 = loc("/sgl-workspace/sglang/python/sglang/srt/layers/attention/triton_ops/extend_attention.py":485:18)
#loc152 = loc("/sgl-workspace/sglang/python/sglang/srt/layers/attention/triton_ops/extend_attention.py":488:48)
#loc153 = loc("/sgl-workspace/sglang/python/sglang/srt/layers/attention/triton_ops/extend_attention.py":488:68)
#loc154 = loc("/sgl-workspace/sglang/python/sglang/srt/layers/attention/triton_ops/extend_attention.py":488:61)
#loc155 = loc("/sgl-workspace/sglang/python/sglang/srt/layers/attention/triton_ops/extend_attention.py":488:27)
#loc156 = loc("/sgl-workspace/sglang/python/sglang/srt/layers/attention/triton_ops/extend_attention.py":488:16)
#loc157 = loc("/sgl-workspace/sglang/python/sglang/srt/layers/attention/triton_ops/extend_attention.py":491:27)
#loc158 = loc("/sgl-workspace/sglang/python/sglang/srt/layers/attention/triton_ops/extend_attention.py":505:18)
#loc159 = loc("/sgl-workspace/sglang/python/sglang/srt/layers/attention/triton_ops/extend_attention.py":513:42)
#loc160 = loc("/sgl-workspace/sglang/python/sglang/srt/layers/attention/triton_ops/extend_attention.py":515:33)
#loc161 = loc("/sgl-workspace/sglang/python/sglang/srt/layers/attention/triton_ops/extend_attention.py":516:48)
#loc162 = loc("/sgl-workspace/sglang/python/sglang/srt/layers/attention/triton_ops/extend_attention.py":516:70)
#loc163 = loc("/sgl-workspace/sglang/python/sglang/srt/layers/attention/triton_ops/extend_attention.py":517:48)
#loc164 = loc("/sgl-workspace/sglang/python/sglang/srt/layers/attention/triton_ops/extend_attention.py":519:38)
#loc165 = loc("/sgl-workspace/sglang/python/sglang/srt/layers/attention/triton_ops/extend_attention.py":519:30)
#loc166 = loc("/sgl-workspace/sglang/python/sglang/srt/layers/attention/triton_ops/extend_attention.py":520:36)
#loc167 = loc("/sgl-workspace/sglang/python/sglang/srt/layers/attention/triton_ops/extend_attention.py":520:28)
#loc168 = loc("/sgl-workspace/sglang/python/sglang/srt/layers/attention/triton_ops/extend_attention.py":520:23)
#loc169 = loc("/sgl-workspace/sglang/python/sglang/srt/layers/attention/triton_ops/extend_attention.py":521:26)
#loc170 = loc("/sgl-workspace/sglang/python/sglang/srt/layers/attention/triton_ops/extend_attention.py":521:47)
#loc171 = loc("/sgl-workspace/sglang/python/sglang/srt/layers/attention/triton_ops/extend_attention.py":521:37)
#loc172 = loc("/sgl-workspace/sglang/python/sglang/srt/layers/attention/triton_ops/extend_attention.py":524:44)
#loc173 = loc("/sgl-workspace/sglang/python/sglang/srt/layers/attention/triton_ops/extend_attention.py":524:61)
#loc174 = loc("/sgl-workspace/sglang/python/sglang/srt/layers/attention/triton_ops/extend_attention.py":524:54)
#loc175 = loc("/sgl-workspace/sglang/python/sglang/srt/layers/attention/triton_ops/extend_attention.py":524:73)
#loc176 = loc("/sgl-workspace/sglang/python/sglang/srt/layers/attention/triton_ops/extend_attention.py":525:32)
#loc177 = loc("/sgl-workspace/sglang/python/sglang/srt/layers/attention/triton_ops/extend_attention.py":525:18)
#loc178 = loc("/sgl-workspace/sglang/python/sglang/srt/layers/attention/triton_ops/extend_attention.py":526:26)
#loc179 = loc("/sgl-workspace/sglang/python/sglang/srt/layers/attention/triton_ops/extend_attention.py":526:18)
#loc180 = loc("/sgl-workspace/sglang/python/sglang/srt/layers/attention/triton_ops/extend_attention.py":529:47)
#loc181 = loc("/sgl-workspace/sglang/python/sglang/srt/layers/attention/triton_ops/extend_attention.py":529:66)
#loc182 = loc("/sgl-workspace/sglang/python/sglang/srt/layers/attention/triton_ops/extend_attention.py":529:58)
#loc183 = loc("/sgl-workspace/sglang/python/sglang/srt/layers/attention/triton_ops/extend_attention.py":529:27)
#loc184 = loc("/sgl-workspace/sglang/python/sglang/srt/layers/attention/triton_ops/extend_attention.py":529:16)
#loc185 = loc("/sgl-workspace/sglang/python/sglang/srt/layers/attention/triton_ops/extend_attention.py":531:21)
#loc186 = loc("/sgl-workspace/sglang/python/sglang/srt/layers/attention/triton_ops/extend_attention.py":532:33)
#loc187 = loc("/sgl-workspace/sglang/python/sglang/srt/layers/attention/triton_ops/extend_attention.py":532:24)
#loc188 = loc("/sgl-workspace/sglang/python/sglang/srt/layers/attention/triton_ops/extend_attention.py":532:54)
#loc189 = loc("/sgl-workspace/sglang/python/sglang/srt/layers/attention/triton_ops/extend_attention.py":532:44)
#loc190 = loc("/sgl-workspace/sglang/python/sglang/srt/layers/attention/triton_ops/extend_attention.py":480:8)
#loc191 = loc("/sgl-workspace/sglang/python/sglang/srt/layers/attention/triton_ops/extend_attention.py":541:50)
#loc192 = loc("/sgl-workspace/sglang/python/sglang/srt/layers/attention/triton_ops/extend_attention.py":541:36)
#loc193 = loc("/sgl-workspace/sglang/python/sglang/srt/layers/attention/triton_ops/extend_attention.py":541:67)
#loc194 = loc("/sgl-workspace/sglang/python/sglang/srt/layers/attention/triton_ops/extend_attention.py":541:60)
#loc195 = loc("/sgl-workspace/sglang/python/sglang/srt/layers/attention/triton_ops/extend_attention.py":542:10)
#loc196 = loc("/sgl-workspace/sglang/python/sglang/srt/layers/attention/triton_ops/extend_attention.py":543:21)
#loc197 = loc("/sgl-workspace/sglang/python/sglang/srt/layers/attention/triton_ops/extend_attention.py":543:10)
#loc198 = loc("/sgl-workspace/sglang/python/sglang/srt/layers/attention/triton_ops/extend_attention.py":544:18)
#loc199 = loc("/sgl-workspace/sglang/python/sglang/srt/layers/attention/triton_ops/extend_attention.py":544:10)
#loc200 = loc("/sgl-workspace/sglang/python/sglang/srt/layers/attention/triton_ops/extend_attention.py":556:24)
#loc201 = loc("/sgl-workspace/sglang/python/sglang/srt/layers/attention/triton_ops/extend_attention.py":556:43)
#loc202 = loc("/sgl-workspace/sglang/python/sglang/srt/layers/attention/triton_ops/extend_attention.py":556:35)
#loc203 = loc("/sgl-workspace/sglang/python/sglang/srt/layers/attention/triton_ops/extend_attention.py":554:23)
#loc204 = loc("/sgl-workspace/sglang/python/sglang/srt/layers/attention/triton_ops/extend_attention.py":555:23)
#loc205 = loc("/sgl-workspace/sglang/python/sglang/srt/layers/attention/triton_ops/extend_attention.py":555:18)
#loc206 = loc("/sgl-workspace/sglang/python/sglang/srt/layers/attention/triton_ops/extend_attention.py":555:12)
#loc207 = loc("/sgl-workspace/sglang/python/sglang/srt/layers/attention/triton_ops/extend_attention.py":546:4)
#loc208 = loc("/usr/local/lib/python3.12/dist-packages/triton/language/standard.py":118:0)
#loc209 = loc("/usr/local/lib/python3.12/dist-packages/triton/language/standard.py":127:31)
#loc210 = loc("/usr/local/lib/python3.12/dist-packages/triton/language/standard.py":127:11)
#loc211 = loc("/usr/local/lib/python3.12/dist-packages/triton/language/standard.py":127:4)
#loc213 = loc("/usr/local/lib/python3.12/dist-packages/triton/language/standard.py":189:40)
#loc214 = loc("/usr/local/lib/python3.12/dist-packages/triton/language/standard.py":189:15)
#loc215 = loc("/usr/local/lib/python3.12/dist-packages/triton/language/standard.py":177:4)
#loc217 = loc("/usr/local/lib/python3.12/dist-packages/triton/language/standard.py":168:27)
#loc218 = loc("/usr/local/lib/python3.12/dist-packages/triton/language/standard.py":168:11)
#loc219 = loc("/usr/local/lib/python3.12/dist-packages/triton/language/standard.py":168:4)
#loc221 = loc("/usr/local/lib/python3.12/dist-packages/triton/language/standard.py":291:36)
#loc222 = loc("/usr/local/lib/python3.12/dist-packages/triton/language/standard.py":291:11)
#loc223 = loc("/usr/local/lib/python3.12/dist-packages/triton/language/standard.py":291:4)
#loc225 = loc("/usr/local/lib/python3.12/dist-packages/triton/language/standard.py":261:15)
#loc226 = loc("/usr/local/lib/python3.12/dist-packages/triton/language/standard.py":261:11)
#loc227 = loc("/usr/local/lib/python3.12/dist-packages/triton/language/standard.py":261:4)
#loc255 = loc("cur_seq"(#loc1))
#loc256 = loc("cur_head"(#loc2))
#loc257 = loc("cur_block_m"(#loc3))
#loc258 = loc("cur_kv_head"(#loc4))
#loc259 = loc("cur_seq_extend_start_idx"(#loc5))
#loc260 = loc("cur_seq_extend_start_idx"(#loc6))
#loc261 = loc("cur_seq_len_extend"(#loc7))
#loc262 = loc("cur_seq_len_extend"(#loc8))
#loc263 = loc("cur_seq_len_extend"(#loc9))
#loc264 = loc("cur_seq_len_extend"(#loc10))
#loc265 = loc("cur_seq_kv_start_idx"(#loc11))
#loc266 = loc("cur_seq_kv_start_idx"(#loc12))
#loc267 = loc("cur_seq_len_prefix"(#loc13))
#loc268 = loc("cur_seq_len_prefix"(#loc14))
#loc269 = loc("cur_seq_len_prefix"(#loc15))
#loc270 = loc("cur_seq_len_prefix"(#loc16))
#loc271 = loc("cur_seq_len"(#loc17))
#loc272 = loc("cur_seq_mask_start_idx"(#loc18))
#loc273 = loc("cur_seq_mask_start_idx"(#loc19))
#loc274 = loc("window_kv_offset"(#loc20))
#loc275 = loc("offs_d"(#loc21))
#loc276 = loc("offs_dv"(#loc22))
#loc277 = loc("offs_m"(#loc23))
#loc278 = loc("mask_m"(#loc24))
#loc279 = loc("mask_m"(#loc25))
#loc280 = loc("mask_m"(#loc26))
#loc281 = loc("mask_d"(#loc27))
#loc282 = loc("mask_dv"(#loc28))
#loc283 = loc("offs_q"(#loc29))
#loc284 = loc("offs_q"(#loc30))
#loc285 = loc("offs_q"(#loc31))
#loc286 = loc("offs_q"(#loc32))
#loc287 = loc("offs_q"(#loc33))
#loc288 = loc("offs_q"(#loc34))
#loc289 = loc("offs_q"(#loc35))
#loc290 = loc("offs_q"(#loc36))
#loc291 = loc("offs_q"(#loc37))
#loc292 = loc("q"(#loc38))
#loc293 = loc("q"(#loc39))
#loc294 = loc("q"(#loc40))
#loc295 = loc("q"(#loc41))
#loc296 = loc("q"(#loc42))
#loc297 = loc("offs_n"(#loc43))
#loc298 = loc("acc"(#loc44))
#loc299 = loc("deno"(#loc45))
#loc300 = loc("e_max"(#loc46))
#loc301 = loc("e_max"(#loc47))
#loc302 = loc("acc"(#loc48))
#loc303 = loc("mask_n"(#loc49))
#loc304 = loc("mask_n"(#loc50))
#loc305 = loc("final_mask"(#loc51))
#loc306 = loc("final_mask"(#loc52))
#loc307 = loc("final_mask"(#loc53))
#loc308 = loc("SKIP_TILE"(#loc54))
#loc309 = loc("offs_kv_loc"(#loc57))
#loc310 = loc("offs_kv_loc"(#loc58))
#loc311 = loc("offs_kv_loc"(#loc59))
#loc312 = loc("offs_kv_loc"(#loc60))
#loc313 = loc("offs_buf_k"(#loc61))
#loc314 = loc("offs_buf_k"(#loc62))
#loc315 = loc("offs_buf_k"(#loc63))
#loc316 = loc("offs_buf_k"(#loc64))
#loc317 = loc("offs_buf_k"(#loc65))
#loc318 = loc("offs_buf_k"(#loc66))
#loc319 = loc("k"(#loc67))
#loc320 = loc("k"(#loc68))
#loc321 = loc("k"(#loc69))
#loc322 = loc("k"(#loc70))
#loc323 = loc("k"(#loc71))
#loc324 = loc("qk"(#loc72))
#loc325 = loc("qk"(#loc73))
#loc326 = loc("qk"(#loc74))
#loc327 = loc("qk"(#loc75))
#loc328 = loc("row_max"(#loc76))
#loc329 = loc("row_max_fixed"(#loc77))
#loc330 = loc("row_max_fixed"(#loc78))
#loc331 = loc("n_e_max"(#loc79))
#loc332 = loc("re_scale"(#loc80))
#loc333 = loc("re_scale"(#loc81))
#loc334 = loc("p"(#loc82))
#loc335 = loc("p"(#loc83))
#loc336 = loc("p"(#loc84))
#loc337 = loc("deno"(#loc85))
#loc338 = loc("deno"(#loc86))
#loc339 = loc("deno"(#loc87))
#loc340 = loc("offs_buf_v"(#loc88))
#loc341 = loc("offs_buf_v"(#loc89))
#loc342 = loc("offs_buf_v"(#loc90))
#loc343 = loc("offs_buf_v"(#loc91))
#loc344 = loc("offs_buf_v"(#loc92))
#loc345 = loc("offs_buf_v"(#loc93))
#loc346 = loc("v"(#loc94))
#loc347 = loc("v"(#loc95))
#loc348 = loc("v"(#loc96))
#loc349 = loc("v"(#loc97))
#loc350 = loc("v"(#loc98))
#loc351 = loc("p"(#loc99))
#loc352 = loc("acc"(#loc100))
#loc353 = loc("acc"(#loc101))
#loc354 = loc("acc"(#loc102))
#loc355 = loc("acc"(#loc103))
#loc356 = loc("acc"(#loc104))
#loc357 = loc("cur_block_m_end"(#loc107))
#loc358 = loc("cur_block_m_end"(#loc108))
#loc359 = loc("cur_block_m_end"(#loc109))
#loc360 = loc("acc"(#loc110))
#loc361 = loc("mask_n"(#loc111))
#loc362 = loc("mask_n"(#loc112))
#loc363 = loc("final_mask"(#loc113))
#loc364 = loc("final_mask"(#loc114))
#loc365 = loc("final_mask"(#loc115))
#loc366 = loc("custom_mask"(#loc116))
#loc367 = loc("custom_mask"(#loc117))
#loc368 = loc("custom_mask"(#loc118))
#loc369 = loc("custom_mask"(#loc119))
#loc370 = loc("custom_mask"(#loc120))
#loc371 = loc("custom_mask"(#loc121))
#loc372 = loc("custom_mask"(#loc122))
#loc373 = loc("custom_mask"(#loc123))
#loc374 = loc("custom_mask"(#loc124))
#loc375 = loc("custom_mask"(#loc125))
#loc376 = loc("custom_mask"(#loc126))
#loc377 = loc("custom_mask"(#loc127))
#loc378 = loc("custom_mask"(#loc128))
#loc379 = loc("custom_mask"(#loc129))
#loc380 = loc("custom_mask"(#loc130))
#loc381 = loc("custom_mask"(#loc131))
#loc382 = loc("custom_mask"(#loc132))
#loc383 = loc("custom_mask"(#loc133))
#loc384 = loc("custom_mask"(#loc134))
#loc385 = loc("custom_mask"(#loc135))
#loc386 = loc("final_mask"(#loc136))
#loc387 = loc("SKIP_TILE"(#loc137))
#loc388 = loc("SKIP_TILE"(#loc138))
#loc389 = loc("SKIP_TILE"(#loc139))
#loc390 = loc("SKIP_TILE"(#loc140))
#loc391 = loc("SKIP_TILE"(#loc141))
#loc392 = loc("offs_k"(#loc144))
#loc393 = loc("offs_k"(#loc145))
#loc394 = loc("offs_k"(#loc146))
#loc395 = loc("offs_k"(#loc147))
#loc396 = loc("offs_k"(#loc148))
#loc397 = loc("offs_k"(#loc149))
#loc398 = loc("offs_k"(#loc150))
#loc399 = loc("offs_k"(#loc151))
#loc400 = loc("k"(#loc152))
#loc401 = loc("k"(#loc153))
#loc402 = loc("k"(#loc154))
#loc403 = loc("k"(#loc155))
#loc404 = loc("k"(#loc156))
#loc405 = loc("qk"(#loc157))
#loc406 = loc("qk"(#loc158))
#loc407 = loc("qk"(#loc159))
#loc408 = loc("row_max"(#loc160))
#loc409 = loc("row_max_fixed"(#loc161))
#loc410 = loc("row_max_fixed"(#loc162))
#loc411 = loc("n_e_max"(#loc163))
#loc412 = loc("re_scale"(#loc164))
#loc413 = loc("re_scale"(#loc165))
#loc414 = loc("p"(#loc166))
#loc415 = loc("p"(#loc167))
#loc416 = loc("p"(#loc168))
#loc417 = loc("deno"(#loc169))
#loc418 = loc("deno"(#loc170))
#loc419 = loc("deno"(#loc171))
#loc420 = loc("offs_v"(#loc172))
#loc421 = loc("offs_v"(#loc173))
#loc422 = loc("offs_v"(#loc174))
#loc423 = loc("offs_v"(#loc175))
#loc424 = loc("offs_v"(#loc176))
#loc425 = loc("offs_v"(#loc177))
#loc426 = loc("offs_v"(#loc178))
#loc427 = loc("offs_v"(#loc179))
#loc428 = loc("v"(#loc180))
#loc429 = loc("v"(#loc181))
#loc430 = loc("v"(#loc182))
#loc431 = loc("v"(#loc183))
#loc432 = loc("v"(#loc184))
#loc433 = loc("p"(#loc185))
#loc434 = loc("acc"(#loc186))
#loc435 = loc("acc"(#loc187))
#loc436 = loc("acc"(#loc188))
#loc437 = loc("acc"(#loc189))
#loc438 = loc("offs_o"(#loc191))
#loc439 = loc("offs_o"(#loc192))
#loc440 = loc("offs_o"(#loc193))
#loc441 = loc("offs_o"(#loc194))
#loc442 = loc("offs_o"(#loc195))
#loc443 = loc("offs_o"(#loc196))
#loc444 = loc("offs_o"(#loc197))
#loc445 = loc("offs_o"(#loc198))
#loc446 = loc("offs_o"(#loc199))
#loc453 = loc("acc"(#loc298))
#loc454 = loc("deno"(#loc299))
#loc455 = loc("e_max"(#loc301))
#loc456 = loc("deno"(#loc302))
#loc457 = loc("e_max"(#loc331))
#loc458 = loc("deno"(#loc339))
#loc459 = loc("acc"(#loc356))
#loc460 = loc("deno"(#loc360))
#loc461 = loc("e_max"(#loc411))
#loc462 = loc("deno"(#loc419))
#loc463 = loc("acc"(#loc437))
#loc464 = loc("e_max"(#loc456))
#loc465 = loc("e_max"(#loc460))
#loc466 = loc("acc"(#loc464))
#loc467 = loc("deno"(#loc466))
#loc468 = loc("e_max"(#loc467))
