#loc = loc("/sgl-workspace/sglang/python/sglang/srt/layers/attention/fla/chunk_o.py":30:0)
#loc68 = loc("q"(#loc))
#loc69 = loc("k"(#loc))
#loc70 = loc("v"(#loc))
#loc71 = loc("h"(#loc))
#loc72 = loc("g"(#loc))
#loc73 = loc("o"(#loc))
#loc74 = loc("cu_seqlens"(#loc))
#loc75 = loc("chunk_indices"(#loc))
#loc76 = loc("scale"(#loc))
#loc77 = loc("T"(#loc))
module {
  tt.func public @chunk_fwd_kernel_o(%q: !tt.ptr<bf16> {tt.divisibility = 16 : i32} loc("q"(#loc)), %k: !tt.ptr<bf16> {tt.divisibility = 16 : i32} loc("k"(#loc)), %v: !tt.ptr<bf16> {tt.divisibility = 16 : i32} loc("v"(#loc)), %h: !tt.ptr<bf16> {tt.divisibility = 16 : i32} loc("h"(#loc)), %g: !tt.ptr<f32> {tt.divisibility = 16 : i32} loc("g"(#loc)), %o: !tt.ptr<bf16> {tt.divisibility = 16 : i32} loc("o"(#loc)), %cu_seqlens: !tt.ptr<i32> {tt.divisibility = 16 : i32} loc("cu_seqlens"(#loc)), %chunk_indices: !tt.ptr<i32> {tt.divisibility = 16 : i32} loc("chunk_indices"(#loc)), %scale: f32 loc("scale"(#loc)), %T: i32 loc("T"(#loc))) attributes {noinline = false} {
    %cst = arith.constant dense<128> : tensor<1x64xi64> loc(#loc1)
    %cst_0 = arith.constant dense<0> : tensor<1x64xi64> loc(#loc1)
    %cst_1 = arith.constant dense<3072> : tensor<16x1xi64> loc(#loc1)
    %b_g = arith.constant dense<0> : tensor<16xi64> loc(#loc78)
    %b_g_2 = arith.constant dense<24> : tensor<16xi64> loc(#loc78)
    %b_h = arith.constant dense<0> : tensor<64x1xi64> loc(#loc79)
    %cst_3 = arith.constant dense<128> : tensor<64x1xi64> loc(#loc1)
    %b_k = arith.constant dense<0> : tensor<1x16xi64> loc(#loc80)
    %b_k_4 = arith.constant dense<128> : tensor<128x1xi64> loc(#loc80)
    %b_k_5 = arith.constant dense<0> : tensor<128x1xi64> loc(#loc80)
    %b_k_6 = arith.constant dense<1024> : tensor<1x16xi64> loc(#loc80)
    %cst_7 = arith.constant dense<128> : tensor<1x128xi64> loc(#loc1)
    %cst_8 = arith.constant dense<0> : tensor<1x128xi64> loc(#loc1)
    %cst_9 = arith.constant dense<0> : tensor<16x1xi64> loc(#loc1)
    %b_q = arith.constant dense<1024> : tensor<16x1xi64> loc(#loc81)
    %b_A = arith.constant dense<0xFF800000> : tensor<16x16xf32> loc(#loc125)
    %h_10 = arith.constant 16384 : i64 loc(#loc83)
    %cst_11 = arith.constant dense<0.000000e+00> : tensor<16x16xf32> loc(#loc1)
    %cst_12 = arith.constant dense<0.000000e+00> : tensor<16x64xf32> loc(#loc1)
    %c64_i32 = arith.constant 64 : i32 loc(#loc1)
    %c16_i32 = arith.constant 16 : i32 loc(#loc1)
    %c128_i32 = arith.constant 128 : i32 loc(#loc1)
    %c3_i32 = arith.constant 3 : i32 loc(#loc1)
    %c8_i32 = arith.constant 8 : i32 loc(#loc1)
    %c1_i32 = arith.constant 1 : i32 loc(#loc1)
    %c2_i32 = arith.constant 2 : i32 loc(#loc1)
    %c24_i32 = arith.constant 24 : i32 loc(#loc1)
    %0 = tt.get_program_id x : i32 loc(#loc9)
    %1 = tt.get_program_id y : i32 loc(#loc10)
    %2 = tt.get_program_id z : i32 loc(#loc11)
    %3 = arith.remsi %2, %c24_i32 : i32 loc(#loc12)
    %4 = arith.muli %1, %c2_i32 : i32 loc(#loc13)
    %5 = tt.addptr %chunk_indices, %4 : !tt.ptr<i32>, i32 loc(#loc14)
    %6 = tt.load %5 : !tt.ptr<i32> loc(#loc15)
    %7 = tt.addptr %5, %c1_i32 : !tt.ptr<i32>, i32 loc(#loc16)
    %8 = tt.load %7 : !tt.ptr<i32> loc(#loc17)
    %9 = tt.addptr %cu_seqlens, %6 : !tt.ptr<i32>, i32 loc(#loc18)
    %10 = tt.load %9 : !tt.ptr<i32> loc(#loc19)
    %11 = tt.addptr %9, %c1_i32 : !tt.ptr<i32>, i32 loc(#loc20)
    %12 = tt.load %11 : !tt.ptr<i32> loc(#loc21)
    %T_13 = arith.subi %12, %10 : i32 loc(#loc84)
    %q_14 = arith.muli %10, %c8_i32 : i32 loc(#loc85)
    %q_15 = arith.divsi %3, %c3_i32 : i32 loc(#loc86)
    %q_16 = arith.addi %q_14, %q_15 : i32 loc(#loc87)
    %q_17 = arith.muli %q_16, %c128_i32 : i32 loc(#loc88)
    %q_18 = tt.addptr %q, %q_17 : !tt.ptr<bf16>, i32 loc(#loc89)
    %k_19 = tt.addptr %k, %q_17 : !tt.ptr<bf16>, i32 loc(#loc90)
    %v_20 = arith.muli %10, %c24_i32 : i32 loc(#loc91)
    %v_21 = arith.addi %v_20, %3 : i32 loc(#loc92)
    %v_22 = arith.muli %v_21, %c128_i32 : i32 loc(#loc93)
    %v_23 = tt.addptr %v, %v_22 : !tt.ptr<bf16>, i32 loc(#loc94)
    %o_24 = tt.addptr %o, %v_22 : !tt.ptr<bf16>, i32 loc(#loc95)
    %h_25 = arith.muli %1, %c24_i32 : i32 loc(#loc96)
    %h_26 = arith.addi %h_25, %3 : i32 loc(#loc97)
    %h_27 = arith.extsi %h_26 : i32 to i64 loc(#loc98)
    %h_28 = arith.muli %h_27, %h_10 : i64 loc(#loc83)
    %h_29 = tt.addptr %h, %h_28 : !tt.ptr<bf16>, i64 loc(#loc99)
    %p_q = arith.muli %8, %c16_i32 : i32 loc(#loc100)
    %p_q_30 = arith.extsi %T_13 : i32 to i64 loc(#loc101)
    %p_q_31 = arith.extsi %p_q : i32 to i64 loc(#loc101)
    %p_h = arith.muli %0, %c64_i32 : i32 loc(#loc102)
    %p_h_32 = arith.extsi %p_h : i32 to i64 loc(#loc103)
    %b_q_33 = tt.splat %q_18 : !tt.ptr<bf16> -> tensor<16x128x!tt.ptr<bf16>> loc(#loc81)
    %b_q_34 = tt.splat %p_q_31 : i64 -> tensor<16xi64> loc(#loc81)
    %b_q_35 = tt.make_range {end = 16 : i32, start = 0 : i32} : tensor<16xi32> loc(#loc81)
    %b_q_36 = arith.extsi %b_q_35 : tensor<16xi32> to tensor<16xi64> loc(#loc81)
    %b_q_37 = arith.addi %b_q_34, %b_q_36 : tensor<16xi64> loc(#loc81)
    %b_q_38 = tt.expand_dims %b_q_37 {axis = 1 : i32} : tensor<16xi64> -> tensor<16x1xi64> loc(#loc81)
    %b_q_39 = arith.muli %b_q_38, %b_q : tensor<16x1xi64> loc(#loc81)
    %b_q_40 = tt.broadcast %b_q_39 : tensor<16x1xi64> -> tensor<16x128xi64> loc(#loc81)
    %b_q_41 = tt.make_range {end = 128 : i32, start = 0 : i32} : tensor<128xi32> loc(#loc81)
    %b_q_42 = arith.extsi %b_q_41 : tensor<128xi32> to tensor<128xi64> loc(#loc81)
    %b_q_43 = tt.expand_dims %b_q_42 {axis = 0 : i32} : tensor<128xi64> -> tensor<1x128xi64> loc(#loc81)
    %b_q_44 = tt.broadcast %b_q_43 : tensor<1x128xi64> -> tensor<16x128xi64> loc(#loc81)
    %b_q_45 = arith.addi %b_q_40, %b_q_44 : tensor<16x128xi64> loc(#loc81)
    %b_q_46 = tt.addptr %b_q_33, %b_q_45 : tensor<16x128x!tt.ptr<bf16>>, tensor<16x128xi64> loc(#loc81)
    %b_q_47 = arith.cmpi sge, %b_q_38, %cst_9 : tensor<16x1xi64> loc(#loc81)
    %b_q_48 = tt.splat %p_q_30 : i64 -> tensor<16x1xi64> loc(#loc81)
    %b_q_49 = arith.cmpi slt, %b_q_38, %b_q_48 : tensor<16x1xi64> loc(#loc81)
    %b_q_50 = arith.andi %b_q_47, %b_q_49 : tensor<16x1xi1> loc(#loc81)
    %b_q_51 = tt.broadcast %b_q_50 : tensor<16x1xi1> -> tensor<16x128xi1> loc(#loc81)
    %b_q_52 = arith.cmpi sge, %b_q_43, %cst_8 : tensor<1x128xi64> loc(#loc81)
    %b_q_53 = arith.cmpi slt, %b_q_43, %cst_7 : tensor<1x128xi64> loc(#loc81)
    %b_q_54 = arith.andi %b_q_52, %b_q_53 : tensor<1x128xi1> loc(#loc81)
    %b_q_55 = tt.broadcast %b_q_54 : tensor<1x128xi1> -> tensor<16x128xi1> loc(#loc81)
    %b_q_56 = arith.andi %b_q_51, %b_q_55 : tensor<16x128xi1> loc(#loc81)
    %b_q_57 = tt.load %b_q_46, %b_q_56 : tensor<16x128x!tt.ptr<bf16>> loc(#loc81)
    %b_k_58 = tt.splat %k_19 : !tt.ptr<bf16> -> tensor<128x16x!tt.ptr<bf16>> loc(#loc80)
    %b_k_59 = tt.expand_dims %b_q_42 {axis = 1 : i32} : tensor<128xi64> -> tensor<128x1xi64> loc(#loc80)
    %b_k_60 = tt.broadcast %b_k_59 : tensor<128x1xi64> -> tensor<128x16xi64> loc(#loc80)
    %b_k_61 = tt.expand_dims %b_q_37 {axis = 0 : i32} : tensor<16xi64> -> tensor<1x16xi64> loc(#loc80)
    %b_k_62 = arith.muli %b_k_61, %b_k_6 : tensor<1x16xi64> loc(#loc80)
    %b_k_63 = tt.broadcast %b_k_62 : tensor<1x16xi64> -> tensor<128x16xi64> loc(#loc80)
    %b_k_64 = arith.addi %b_k_60, %b_k_63 : tensor<128x16xi64> loc(#loc80)
    %b_k_65 = tt.addptr %b_k_58, %b_k_64 : tensor<128x16x!tt.ptr<bf16>>, tensor<128x16xi64> loc(#loc80)
    %b_k_66 = arith.cmpi sge, %b_k_59, %b_k_5 : tensor<128x1xi64> loc(#loc80)
    %b_k_67 = arith.cmpi slt, %b_k_59, %b_k_4 : tensor<128x1xi64> loc(#loc80)
    %b_k_68 = arith.andi %b_k_66, %b_k_67 : tensor<128x1xi1> loc(#loc80)
    %b_k_69 = tt.broadcast %b_k_68 : tensor<128x1xi1> -> tensor<128x16xi1> loc(#loc80)
    %b_k_70 = arith.cmpi sge, %b_k_61, %b_k : tensor<1x16xi64> loc(#loc80)
    %b_k_71 = tt.splat %p_q_30 : i64 -> tensor<1x16xi64> loc(#loc80)
    %b_k_72 = arith.cmpi slt, %b_k_61, %b_k_71 : tensor<1x16xi64> loc(#loc80)
    %b_k_73 = arith.andi %b_k_70, %b_k_72 : tensor<1x16xi1> loc(#loc80)
    %b_k_74 = tt.broadcast %b_k_73 : tensor<1x16xi1> -> tensor<128x16xi1> loc(#loc80)
    %b_k_75 = arith.andi %b_k_69, %b_k_74 : tensor<128x16xi1> loc(#loc80)
    %b_k_76 = tt.load %b_k_65, %b_k_75 : tensor<128x16x!tt.ptr<bf16>> loc(#loc80)
    %b_h_77 = tt.splat %h_29 : !tt.ptr<bf16> -> tensor<64x128x!tt.ptr<bf16>> loc(#loc79)
    %b_h_78 = tt.splat %p_h_32 : i64 -> tensor<64xi64> loc(#loc79)
    %b_h_79 = tt.make_range {end = 64 : i32, start = 0 : i32} : tensor<64xi32> loc(#loc79)
    %b_h_80 = arith.extsi %b_h_79 : tensor<64xi32> to tensor<64xi64> loc(#loc79)
    %b_h_81 = arith.addi %b_h_78, %b_h_80 : tensor<64xi64> loc(#loc79)
    %b_h_82 = tt.expand_dims %b_h_81 {axis = 1 : i32} : tensor<64xi64> -> tensor<64x1xi64> loc(#loc79)
    %b_h_83 = arith.muli %b_h_82, %cst_3 : tensor<64x1xi64> loc(#loc79)
    %b_h_84 = tt.broadcast %b_h_83 : tensor<64x1xi64> -> tensor<64x128xi64> loc(#loc79)
    %b_h_85 = tt.broadcast %b_q_43 : tensor<1x128xi64> -> tensor<64x128xi64> loc(#loc79)
    %b_h_86 = arith.addi %b_h_84, %b_h_85 : tensor<64x128xi64> loc(#loc79)
    %b_h_87 = tt.addptr %b_h_77, %b_h_86 : tensor<64x128x!tt.ptr<bf16>>, tensor<64x128xi64> loc(#loc79)
    %b_h_88 = arith.cmpi sge, %b_h_82, %b_h : tensor<64x1xi64> loc(#loc79)
    %b_h_89 = arith.cmpi slt, %b_h_82, %cst_3 : tensor<64x1xi64> loc(#loc79)
    %b_h_90 = arith.andi %b_h_88, %b_h_89 : tensor<64x1xi1> loc(#loc79)
    %b_h_91 = tt.broadcast %b_h_90 : tensor<64x1xi1> -> tensor<64x128xi1> loc(#loc79)
    %b_h_92 = tt.broadcast %b_q_54 : tensor<1x128xi1> -> tensor<64x128xi1> loc(#loc79)
    %b_h_93 = arith.andi %b_h_91, %b_h_92 : tensor<64x128xi1> loc(#loc79)
    %b_h_94 = tt.load %b_h_87, %b_h_93 : tensor<64x128x!tt.ptr<bf16>> loc(#loc79)
    %b_o = tt.trans %b_h_94 {order = array<i32: 1, 0>} : tensor<64x128xbf16> -> tensor<128x64xbf16> loc(#loc104)
    %b_o_95 = tt.dot %b_q_57, %b_o, %cst_12, inputPrecision = tf32 : tensor<16x128xbf16> * tensor<128x64xbf16> -> tensor<16x64xf32> loc(#loc105)
    %b_A_96 = tt.dot %b_q_57, %b_k_76, %cst_11, inputPrecision = tf32 : tensor<16x128xbf16> * tensor<128x16xbf16> -> tensor<16x16xf32> loc(#loc106)
    %g_97 = tt.addptr %g, %v_21 : !tt.ptr<f32>, i32 loc(#loc107)
    %b_g_98 = tt.splat %g_97 : !tt.ptr<f32> -> tensor<16x!tt.ptr<f32>> loc(#loc78)
    %b_g_99 = arith.muli %b_q_37, %b_g_2 : tensor<16xi64> loc(#loc78)
    %b_g_100 = tt.addptr %b_g_98, %b_g_99 : tensor<16x!tt.ptr<f32>>, tensor<16xi64> loc(#loc78)
    %b_g_101 = arith.cmpi sge, %b_q_37, %b_g : tensor<16xi64> loc(#loc78)
    %b_g_102 = tt.splat %p_q_30 : i64 -> tensor<16xi64> loc(#loc78)
    %b_g_103 = arith.cmpi slt, %b_q_37, %b_g_102 : tensor<16xi64> loc(#loc78)
    %b_g_104 = arith.andi %b_g_101, %b_g_103 : tensor<16xi1> loc(#loc78)
    %b_g_105 = tt.load %b_g_100, %b_g_104 : tensor<16x!tt.ptr<f32>> loc(#loc78)
    %b_o_106 = math.exp %b_g_105 : tensor<16xf32> loc(#loc108)
    %b_o_107 = tt.expand_dims %b_o_106 {axis = 1 : i32} : tensor<16xf32> -> tensor<16x1xf32> loc(#loc109)
    %b_o_108 = tt.broadcast %b_o_107 : tensor<16x1xf32> -> tensor<16x64xf32> loc(#loc110)
    %b_o_109 = arith.mulf %b_o_95, %b_o_108 : tensor<16x64xf32> loc(#loc110)
    %b_A_110 = tt.expand_dims %b_g_105 {axis = 1 : i32} : tensor<16xf32> -> tensor<16x1xf32> loc(#loc111)
    %b_A_111 = tt.expand_dims %b_g_105 {axis = 0 : i32} : tensor<16xf32> -> tensor<1x16xf32> loc(#loc112)
    %b_A_112 = tt.broadcast %b_A_110 : tensor<16x1xf32> -> tensor<16x16xf32> loc(#loc113)
    %b_A_113 = tt.broadcast %b_A_111 : tensor<1x16xf32> -> tensor<16x16xf32> loc(#loc113)
    %b_A_114 = arith.subf %b_A_112, %b_A_113 : tensor<16x16xf32> loc(#loc113)
    %b_A_115 = arith.cmpf ole, %b_A_114, %cst_11 : tensor<16x16xf32> loc(#loc126)
    %b_A_116 = arith.select %b_A_115, %b_A_114, %b_A : tensor<16x16xi1>, tensor<16x16xf32> loc(#loc125)
    %b_A_117 = math.exp %b_A_116 : tensor<16x16xf32> loc(#loc127)
    %b_A_118 = arith.mulf %b_A_96, %b_A_117 : tensor<16x16xf32> loc(#loc114)
    %m_A = tt.expand_dims %b_q_35 {axis = 1 : i32} : tensor<16xi32> -> tensor<16x1xi32> loc(#loc115)
    %m_A_119 = tt.expand_dims %b_q_35 {axis = 0 : i32} : tensor<16xi32> -> tensor<1x16xi32> loc(#loc116)
    %m_A_120 = tt.broadcast %m_A : tensor<16x1xi32> -> tensor<16x16xi32> loc(#loc117)
    %m_A_121 = tt.broadcast %m_A_119 : tensor<1x16xi32> -> tensor<16x16xi32> loc(#loc117)
    %m_A_122 = arith.cmpi sge, %m_A_120, %m_A_121 : tensor<16x16xi32> loc(#loc117)
    %b_A_123 = arith.select %m_A_122, %b_A_118, %cst_11 : tensor<16x16xi1>, tensor<16x16xf32> loc(#loc118)
    %b_v = tt.splat %v_23 : !tt.ptr<bf16> -> tensor<16x64x!tt.ptr<bf16>> loc(#loc119)
    %b_v_124 = arith.muli %b_q_38, %cst_1 : tensor<16x1xi64> loc(#loc119)
    %b_v_125 = tt.broadcast %b_v_124 : tensor<16x1xi64> -> tensor<16x64xi64> loc(#loc119)
    %b_v_126 = tt.expand_dims %b_h_81 {axis = 0 : i32} : tensor<64xi64> -> tensor<1x64xi64> loc(#loc119)
    %b_v_127 = tt.broadcast %b_v_126 : tensor<1x64xi64> -> tensor<16x64xi64> loc(#loc119)
    %b_v_128 = arith.addi %b_v_125, %b_v_127 : tensor<16x64xi64> loc(#loc119)
    %b_v_129 = tt.addptr %b_v, %b_v_128 : tensor<16x64x!tt.ptr<bf16>>, tensor<16x64xi64> loc(#loc119)
    %b_v_130 = tt.broadcast %b_q_50 : tensor<16x1xi1> -> tensor<16x64xi1> loc(#loc119)
    %b_v_131 = arith.cmpi sge, %b_v_126, %cst_0 : tensor<1x64xi64> loc(#loc119)
    %b_v_132 = arith.cmpi slt, %b_v_126, %cst : tensor<1x64xi64> loc(#loc119)
    %b_v_133 = arith.andi %b_v_131, %b_v_132 : tensor<1x64xi1> loc(#loc119)
    %b_v_134 = tt.broadcast %b_v_133 : tensor<1x64xi1> -> tensor<16x64xi1> loc(#loc119)
    %b_v_135 = arith.andi %b_v_130, %b_v_134 : tensor<16x64xi1> loc(#loc119)
    %b_v_136 = tt.load %b_v_129, %b_v_135 : tensor<16x64x!tt.ptr<bf16>> loc(#loc119)
    %b_o_137 = tt.splat %scale : f32 -> tensor<16x64xf32> loc(#loc120)
    %b_o_138 = arith.mulf %b_o_109, %b_o_137 : tensor<16x64xf32> loc(#loc120)
    %b_o_139 = arith.truncf %b_A_123 : tensor<16x16xf32> to tensor<16x16xbf16> loc(#loc121)
    %b_o_140 = tt.dot %b_o_139, %b_v_136, %cst_12, inputPrecision = tf32 : tensor<16x16xbf16> * tensor<16x64xbf16> -> tensor<16x64xf32> loc(#loc122)
    %b_o_141 = arith.mulf %b_o_140, %b_o_137 : tensor<16x64xf32> loc(#loc123)
    %b_o_142 = arith.addf %b_o_138, %b_o_141 : tensor<16x64xf32> loc(#loc124)
    %13 = arith.truncf %b_o_142 : tensor<16x64xf32> to tensor<16x64xbf16> loc(#loc65)
    %14 = tt.splat %o_24 : !tt.ptr<bf16> -> tensor<16x64x!tt.ptr<bf16>> loc(#loc66)
    %15 = tt.addptr %14, %b_v_128 : tensor<16x64x!tt.ptr<bf16>>, tensor<16x64xi64> loc(#loc66)
    tt.store %15, %13, %b_v_135 : tensor<16x64x!tt.ptr<bf16>> loc(#loc66)
    tt.return loc(#loc67)
  } loc(#loc)
} loc(#loc)
#loc1 = loc(unknown)
#loc2 = loc("/sgl-workspace/sglang/python/sglang/srt/layers/attention/fla/chunk_o.py":104:22)
#loc3 = loc("/sgl-workspace/sglang/python/sglang/srt/layers/attention/fla/chunk_o.py":94:22)
#loc4 = loc("/sgl-workspace/sglang/python/sglang/srt/layers/attention/fla/chunk_o.py":92:22)
#loc5 = loc("/sgl-workspace/sglang/python/sglang/srt/layers/attention/fla/chunk_o.py":90:22)
#loc6 = loc("/sgl-workspace/sglang/python/sglang/srt/layers/attention/fla/op.py":27:35)
#loc7 = loc("/sgl-workspace/sglang/python/sglang/srt/layers/attention/fla/chunk_o.py":106:29)
#loc8 = loc("/sgl-workspace/sglang/python/sglang/srt/layers/attention/fla/chunk_o.py":74:45)
#loc9 = loc("/sgl-workspace/sglang/python/sglang/srt/layers/attention/fla/chunk_o.py":51:35)
#loc10 = loc("/sgl-workspace/sglang/python/sglang/srt/layers/attention/fla/chunk_o.py":51:53)
#loc11 = loc("/sgl-workspace/sglang/python/sglang/srt/layers/attention/fla/chunk_o.py":51:71)
#loc12 = loc("/sgl-workspace/sglang/python/sglang/srt/layers/attention/fla/chunk_o.py":52:33)
#loc13 = loc("/sgl-workspace/sglang/python/sglang/srt/layers/attention/fla/chunk_o.py":56:49)
#loc14 = loc("/sgl-workspace/sglang/python/sglang/srt/layers/attention/fla/chunk_o.py":56:43)
#loc15 = loc("/sgl-workspace/sglang/python/sglang/srt/layers/attention/fla/chunk_o.py":56:27)
#loc16 = loc("/sgl-workspace/sglang/python/sglang/srt/layers/attention/fla/chunk_o.py":57:38)
#loc17 = loc("/sgl-workspace/sglang/python/sglang/srt/layers/attention/fla/chunk_o.py":57:12)
#loc18 = loc("/sgl-workspace/sglang/python/sglang/srt/layers/attention/fla/chunk_o.py":59:40)
#loc19 = loc("/sgl-workspace/sglang/python/sglang/srt/layers/attention/fla/chunk_o.py":59:27)
#loc20 = loc("/sgl-workspace/sglang/python/sglang/srt/layers/attention/fla/chunk_o.py":60:31)
#loc21 = loc("/sgl-workspace/sglang/python/sglang/srt/layers/attention/fla/chunk_o.py":60:12)
#loc22 = loc("/sgl-workspace/sglang/python/sglang/srt/layers/attention/fla/chunk_o.py":62:18)
#loc23 = loc("/sgl-workspace/sglang/python/sglang/srt/layers/attention/fla/chunk_o.py":70:16)
#loc24 = loc("/sgl-workspace/sglang/python/sglang/srt/layers/attention/fla/chunk_o.py":70:29)
#loc25 = loc("/sgl-workspace/sglang/python/sglang/srt/layers/attention/fla/chunk_o.py":70:21)
#loc26 = loc("/sgl-workspace/sglang/python/sglang/srt/layers/attention/fla/chunk_o.py":70:41)
#loc27 = loc("/sgl-workspace/sglang/python/sglang/srt/layers/attention/fla/chunk_o.py":70:9)
#loc28 = loc("/sgl-workspace/sglang/python/sglang/srt/layers/attention/fla/chunk_o.py":71:9)
#loc29 = loc("/sgl-workspace/sglang/python/sglang/srt/layers/attention/fla/chunk_o.py":72:16)
#loc30 = loc("/sgl-workspace/sglang/python/sglang/srt/layers/attention/fla/chunk_o.py":72:20)
#loc31 = loc("/sgl-workspace/sglang/python/sglang/srt/layers/attention/fla/chunk_o.py":72:27)
#loc32 = loc("/sgl-workspace/sglang/python/sglang/srt/layers/attention/fla/chunk_o.py":72:9)
#loc33 = loc("/sgl-workspace/sglang/python/sglang/srt/layers/attention/fla/chunk_o.py":73:9)
#loc34 = loc("/sgl-workspace/sglang/python/sglang/srt/layers/attention/fla/chunk_o.py":74:17)
#loc35 = loc("/sgl-workspace/sglang/python/sglang/srt/layers/attention/fla/chunk_o.py":74:21)
#loc36 = loc("/sgl-workspace/sglang/python/sglang/srt/layers/attention/fla/chunk_o.py":74:29)
#loc37 = loc("/sgl-workspace/sglang/python/sglang/srt/layers/attention/fla/chunk_o.py":74:9)
#loc38 = loc("/sgl-workspace/sglang/python/sglang/srt/layers/attention/fla/chunk_o.py":81:43)
#loc39 = loc("/sgl-workspace/sglang/python/sglang/srt/layers/attention/fla/chunk_o.py":81:68)
#loc40 = loc("/sgl-workspace/sglang/python/sglang/srt/layers/attention/fla/chunk_o.py":87:38)
#loc41 = loc("/sgl-workspace/sglang/python/sglang/srt/layers/attention/fla/chunk_o.py":87:63)
#loc42 = loc("/sgl-workspace/sglang/python/sglang/srt/layers/attention/fla/chunk_o.py":97:36)
#loc43 = loc("/sgl-workspace/sglang/python/sglang/srt/layers/attention/fla/chunk_o.py":97:27)
#loc44 = loc("/sgl-workspace/sglang/python/sglang/srt/layers/attention/fla/chunk_o.py":99:27)
#loc45 = loc("/sgl-workspace/sglang/python/sglang/srt/layers/attention/fla/chunk_o.py":102:13)
#loc46 = loc("/sgl-workspace/sglang/python/sglang/srt/layers/attention/fla/chunk_o.py":105:24)
#loc47 = loc("/sgl-workspace/sglang/python/sglang/srt/layers/attention/fla/chunk_o.py":105:29)
#loc48 = loc("/sgl-workspace/sglang/python/sglang/srt/layers/attention/fla/chunk_o.py":105:20)
#loc49 = loc("/sgl-workspace/sglang/python/sglang/srt/layers/attention/fla/chunk_o.py":106:33)
#loc50 = loc("/sgl-workspace/sglang/python/sglang/srt/layers/attention/fla/chunk_o.py":106:48)
#loc51 = loc("/sgl-workspace/sglang/python/sglang/srt/layers/attention/fla/chunk_o.py":106:44)
#loc52 = loc("/sgl-workspace/sglang/python/sglang/srt/layers/attention/fla/op.py":27:29)
#loc53 = loc("/sgl-workspace/sglang/python/sglang/srt/layers/attention/fla/op.py":27:15)
#loc54 = loc("/sgl-workspace/sglang/python/sglang/srt/layers/attention/fla/chunk_o.py":106:20)
#loc55 = loc("/sgl-workspace/sglang/python/sglang/srt/layers/attention/fla/chunk_o.py":109:14)
#loc56 = loc("/sgl-workspace/sglang/python/sglang/srt/layers/attention/fla/chunk_o.py":109:30)
#loc57 = loc("/sgl-workspace/sglang/python/sglang/srt/layers/attention/fla/chunk_o.py":109:26)
#loc58 = loc("/sgl-workspace/sglang/python/sglang/srt/layers/attention/fla/chunk_o.py":110:29)
#loc59 = loc("/sgl-workspace/sglang/python/sglang/srt/layers/attention/fla/chunk_o.py":118:18)
#loc60 = loc("/sgl-workspace/sglang/python/sglang/srt/layers/attention/fla/chunk_o.py":122:16)
#loc61 = loc("/sgl-workspace/sglang/python/sglang/srt/layers/attention/fla/chunk_o.py":122:38)
#loc62 = loc("/sgl-workspace/sglang/python/sglang/srt/layers/attention/fla/chunk_o.py":122:50)
#loc63 = loc("/sgl-workspace/sglang/python/sglang/srt/layers/attention/fla/chunk_o.py":122:57)
#loc64 = loc("/sgl-workspace/sglang/python/sglang/srt/layers/attention/fla/chunk_o.py":122:24)
#loc65 = loc("/sgl-workspace/sglang/python/sglang/srt/layers/attention/fla/chunk_o.py":123:25)
#loc66 = loc("/sgl-workspace/sglang/python/sglang/srt/layers/attention/fla/chunk_o.py":123:18)
#loc67 = loc("/sgl-workspace/sglang/python/sglang/srt/layers/attention/fla/chunk_o.py":123:4)
#loc78 = loc("b_g"(#loc2))
#loc79 = loc("b_h"(#loc3))
#loc80 = loc("b_k"(#loc4))
#loc81 = loc("b_q"(#loc5))
#loc82 = loc("b_A"(#loc7))
#loc83 = loc("h"(#loc8))
#loc84 = loc("T"(#loc22))
#loc85 = loc("q"(#loc23))
#loc86 = loc("q"(#loc24))
#loc87 = loc("q"(#loc25))
#loc88 = loc("q"(#loc26))
#loc89 = loc("q"(#loc27))
#loc90 = loc("k"(#loc28))
#loc91 = loc("v"(#loc29))
#loc92 = loc("v"(#loc30))
#loc93 = loc("v"(#loc31))
#loc94 = loc("v"(#loc32))
#loc95 = loc("o"(#loc33))
#loc96 = loc("h"(#loc34))
#loc97 = loc("h"(#loc35))
#loc98 = loc("h"(#loc36))
#loc99 = loc("h"(#loc37))
#loc100 = loc("p_q"(#loc38))
#loc101 = loc("p_q"(#loc39))
#loc102 = loc("p_h"(#loc40))
#loc103 = loc("p_h"(#loc41))
#loc104 = loc("b_o"(#loc42))
#loc105 = loc("b_o"(#loc43))
#loc106 = loc("b_A"(#loc44))
#loc107 = loc("g"(#loc45))
#loc108 = loc("b_o"(#loc46))
#loc109 = loc("b_o"(#loc47))
#loc110 = loc("b_o"(#loc48))
#loc111 = loc("b_A"(#loc49))
#loc112 = loc("b_A"(#loc50))
#loc113 = loc("b_A"(#loc51))
#loc114 = loc("b_A"(#loc54))
#loc115 = loc("m_A"(#loc55))
#loc116 = loc("m_A"(#loc56))
#loc117 = loc("m_A"(#loc57))
#loc118 = loc("b_A"(#loc58))
#loc119 = loc("b_v"(#loc59))
#loc120 = loc("b_o"(#loc60))
#loc121 = loc("b_o"(#loc61))
#loc122 = loc("b_o"(#loc62))
#loc123 = loc("b_o"(#loc63))
#loc124 = loc("b_o"(#loc64))
#loc125 = loc(callsite(#loc6 at #loc82))
#loc126 = loc(callsite(#loc52 at #loc82))
#loc127 = loc(callsite(#loc53 at #loc82))
