#loc = loc("/sgl-workspace/sglang/python/sglang/srt/layers/attention/fla/layernorm_gated.py":68:0)
#loc1 = loc(unknown)
#loc30 = loc("/sgl-workspace/sglang/python/sglang/srt/layers/attention/fla/layernorm_gated.py":134:21)
#loc59 = loc("X"(#loc))
#loc60 = loc("Y"(#loc))
#loc61 = loc("W"(#loc))
#loc62 = loc("Z"(#loc))
#loc63 = loc("Rstd"(#loc))
#loc64 = loc("stride_x_row"(#loc))
#loc65 = loc("stride_y_row"(#loc))
#loc66 = loc("stride_z_row"(#loc))
#loc67 = loc("M"(#loc))
#loc68 = loc("eps"(#loc))
#loc96 = loc("var"(#loc30))
#loc118 = loc(callsite(#loc1 at #loc96))
module {
  tt.func public @_layer_norm_fwd_1pass_kernel(%X: !tt.ptr<bf16> {tt.divisibility = 16 : i32} loc("X"(#loc)), %Y: !tt.ptr<bf16> {tt.divisibility = 16 : i32} loc("Y"(#loc)), %W: !tt.ptr<f16> {tt.divisibility = 16 : i32} loc("W"(#loc)), %Z: !tt.ptr<bf16> {tt.divisibility = 16 : i32} loc("Z"(#loc)), %Rstd: !tt.ptr<f32> {tt.divisibility = 16 : i32} loc("Rstd"(#loc)), %stride_x_row: i32 {tt.divisibility = 16 : i32} loc("stride_x_row"(#loc)), %stride_y_row: i32 {tt.divisibility = 16 : i32} loc("stride_y_row"(#loc)), %stride_z_row: i32 {tt.divisibility = 16 : i32} loc("stride_z_row"(#loc)), %M: i32 {tt.divisibility = 16 : i32} loc("M"(#loc)), %eps: f32 loc("eps"(#loc))) attributes {noinline = false} {
    %y = arith.constant dense<1.000000e+00> : tensor<4x128xf32> loc(#loc116)
    %w = arith.constant dense<0.000000e+00> : tensor<128xf16> loc(#loc70)
    %cst = arith.constant dense<0.000000e+00> : tensor<4x128xbf16> loc(#loc1)
    %w_mask = arith.constant dense<128> : tensor<128xi32> loc(#loc71)
    %var = arith.constant dense<1.280000e+02> : tensor<4xf32> loc(#loc72)
    %cst_0 = arith.constant dense<0.000000e+00> : tensor<4x128xf32> loc(#loc1)
    %col_mask = arith.constant dense<128> : tensor<1x128xi32> loc(#loc73)
    %c128_i32 = arith.constant 128 : i32 loc(#loc1)
    %c4_i32 = arith.constant 4 : i32 loc(#loc1)
    %row_start = tt.get_program_id x : i32 loc(#loc74)
    %row_start_1 = arith.muli %row_start, %c4_i32 : i32 loc(#loc75)
    %group = tt.get_program_id y : i32 loc(#loc76)
    %rows = tt.make_range {end = 4 : i32, start = 0 : i32} : tensor<4xi32> loc(#loc77)
    %rows_2 = tt.splat %row_start_1 : i32 -> tensor<4xi32> loc(#loc78)
    %rows_3 = arith.addi %rows_2, %rows : tensor<4xi32> loc(#loc78)
    %cols = tt.make_range {end = 128 : i32, start = 0 : i32} : tensor<128xi32> loc(#loc79)
    %row_offsets = tt.expand_dims %rows_3 {axis = 1 : i32} : tensor<4xi32> -> tensor<4x1xi32> loc(#loc80)
    %row_offsets_4 = tt.splat %stride_x_row : i32 -> tensor<4x1xi32> loc(#loc81)
    %row_offsets_5 = arith.muli %row_offsets, %row_offsets_4 : tensor<4x1xi32> loc(#loc81)
    %col_offsets = tt.expand_dims %cols {axis = 0 : i32} : tensor<128xi32> -> tensor<1x128xi32> loc(#loc82)
    %col_offsets_6 = arith.muli %group, %c128_i32 : i32 loc(#loc83)
    %col_offsets_7 = tt.splat %col_offsets_6 : i32 -> tensor<1x128xi32> loc(#loc84)
    %col_offsets_8 = arith.addi %col_offsets, %col_offsets_7 : tensor<1x128xi32> loc(#loc84)
    %X_base = tt.splat %X : !tt.ptr<bf16> -> tensor<4x1x!tt.ptr<bf16>> loc(#loc85)
    %X_base_9 = tt.addptr %X_base, %row_offsets_5 : tensor<4x1x!tt.ptr<bf16>>, tensor<4x1xi32> loc(#loc85)
    %X_base_10 = tt.broadcast %X_base_9 : tensor<4x1x!tt.ptr<bf16>> -> tensor<4x128x!tt.ptr<bf16>> loc(#loc86)
    %X_base_11 = tt.broadcast %col_offsets_8 : tensor<1x128xi32> -> tensor<4x128xi32> loc(#loc86)
    %X_base_12 = tt.addptr %X_base_10, %X_base_11 : tensor<4x128x!tt.ptr<bf16>>, tensor<4x128xi32> loc(#loc86)
    %Y_base = tt.splat %stride_y_row : i32 -> tensor<4x1xi32> loc(#loc87)
    %Y_base_13 = arith.muli %row_offsets, %Y_base : tensor<4x1xi32> loc(#loc87)
    %Y_base_14 = tt.splat %Y : !tt.ptr<bf16> -> tensor<4x1x!tt.ptr<bf16>> loc(#loc88)
    %Y_base_15 = tt.addptr %Y_base_14, %Y_base_13 : tensor<4x1x!tt.ptr<bf16>>, tensor<4x1xi32> loc(#loc88)
    %Y_base_16 = tt.broadcast %Y_base_15 : tensor<4x1x!tt.ptr<bf16>> -> tensor<4x128x!tt.ptr<bf16>> loc(#loc89)
    %Y_base_17 = tt.addptr %Y_base_16, %X_base_11 : tensor<4x128x!tt.ptr<bf16>>, tensor<4x128xi32> loc(#loc89)
    %row_mask = tt.splat %M : i32 -> tensor<4x1xi32> loc(#loc90)
    %row_mask_18 = arith.cmpi slt, %row_offsets, %row_mask : tensor<4x1xi32> loc(#loc90)
    %col_mask_19 = arith.cmpi slt, %col_offsets, %col_mask : tensor<1x128xi32> loc(#loc73)
    %mask = tt.broadcast %row_mask_18 : tensor<4x1xi1> -> tensor<4x128xi1> loc(#loc91)
    %mask_20 = tt.broadcast %col_mask_19 : tensor<1x128xi1> -> tensor<4x128xi1> loc(#loc91)
    %mask_21 = arith.andi %mask, %mask_20 : tensor<4x128xi1> loc(#loc91)
    %x = tt.load %X_base_12, %mask_21, %cst : tensor<4x128x!tt.ptr<bf16>> loc(#loc92)
    %x_22 = arith.extf %x : tensor<4x128xbf16> to tensor<4x128xf32> loc(#loc93)
    %xbar = arith.select %mask_21, %x_22, %cst_0 : tensor<4x128xi1>, tensor<4x128xf32> loc(#loc94)
    %var_23 = arith.mulf %xbar, %xbar : tensor<4x128xf32> loc(#loc95)
    %var_24 = "tt.reduce"(%var_23) <{axis = 1 : i32}> ({
    ^bb0(%var_54: f32 loc(callsite(#loc1 at #loc96)), %var_55: f32 loc(callsite(#loc1 at #loc96))):
      %var_56 = arith.addf %var_54, %var_55 : f32 loc(#loc123)
      tt.reduce.return %var_56 : f32 loc(#loc117)
    }) : (tensor<4x128xf32>) -> tensor<4xf32> loc(#loc117)
    %var_25 = arith.divf %var_24, %var : tensor<4xf32> loc(#loc72)
    %rstd = tt.splat %eps : f32 -> tensor<4xf32> loc(#loc97)
    %rstd_26 = arith.addf %var_25, %rstd : tensor<4xf32> loc(#loc97)
    %rstd_27 = math.rsqrt %rstd_26 : tensor<4xf32> loc(#loc98)
    %rstd_offsets = arith.muli %group, %M : i32 loc(#loc99)
    %rstd_offsets_28 = tt.splat %rstd_offsets : i32 -> tensor<4xi32> loc(#loc100)
    %rstd_offsets_29 = arith.addi %rstd_offsets_28, %rows_3 : tensor<4xi32> loc(#loc100)
    %rstd_mask = tt.splat %M : i32 -> tensor<4xi32> loc(#loc101)
    %rstd_mask_30 = arith.cmpi slt, %rows_3, %rstd_mask : tensor<4xi32> loc(#loc101)
    %0 = tt.splat %Rstd : !tt.ptr<f32> -> tensor<4x!tt.ptr<f32>> loc(#loc37)
    %1 = tt.addptr %0, %rstd_offsets_29 : tensor<4x!tt.ptr<f32>>, tensor<4xi32> loc(#loc37)
    tt.store %1, %rstd_27, %rstd_mask_30 : tensor<4x!tt.ptr<f32>> loc(#loc38)
    %w_offsets = tt.splat %col_offsets_6 : i32 -> tensor<128xi32> loc(#loc102)
    %w_offsets_31 = arith.addi %cols, %w_offsets : tensor<128xi32> loc(#loc102)
    %w_mask_32 = arith.cmpi slt, %cols, %w_mask : tensor<128xi32> loc(#loc71)
    %w_33 = tt.splat %W : !tt.ptr<f16> -> tensor<128x!tt.ptr<f16>> loc(#loc103)
    %w_34 = tt.addptr %w_33, %w_offsets_31 : tensor<128x!tt.ptr<f16>>, tensor<128xi32> loc(#loc103)
    %w_35 = tt.load %w_34, %w_mask_32, %w : tensor<128x!tt.ptr<f16>> loc(#loc70)
    %w_36 = arith.extf %w_35 : tensor<128xf16> to tensor<128xf32> loc(#loc104)
    %x_hat = tt.expand_dims %rstd_27 {axis = 1 : i32} : tensor<4xf32> -> tensor<4x1xf32> loc(#loc105)
    %x_hat_37 = tt.broadcast %x_hat : tensor<4x1xf32> -> tensor<4x128xf32> loc(#loc106)
    %x_hat_38 = arith.mulf %x_22, %x_hat_37 : tensor<4x128xf32> loc(#loc106)
    %y_39 = tt.expand_dims %w_36 {axis = 0 : i32} : tensor<128xf32> -> tensor<1x128xf32> loc(#loc107)
    %y_40 = tt.broadcast %y_39 : tensor<1x128xf32> -> tensor<4x128xf32> loc(#loc108)
    %y_41 = arith.mulf %x_hat_38, %y_40 : tensor<4x128xf32> loc(#loc108)
    %Z_base = tt.splat %stride_z_row : i32 -> tensor<4x1xi32> loc(#loc109)
    %Z_base_42 = arith.muli %row_offsets, %Z_base : tensor<4x1xi32> loc(#loc109)
    %Z_base_43 = tt.splat %Z : !tt.ptr<bf16> -> tensor<4x1x!tt.ptr<bf16>> loc(#loc110)
    %Z_base_44 = tt.addptr %Z_base_43, %Z_base_42 : tensor<4x1x!tt.ptr<bf16>>, tensor<4x1xi32> loc(#loc110)
    %Z_base_45 = tt.broadcast %Z_base_44 : tensor<4x1x!tt.ptr<bf16>> -> tensor<4x128x!tt.ptr<bf16>> loc(#loc111)
    %Z_base_46 = tt.addptr %Z_base_45, %X_base_11 : tensor<4x128x!tt.ptr<bf16>>, tensor<4x128xi32> loc(#loc111)
    %z = tt.load %Z_base_46, %mask_21, %cst : tensor<4x128x!tt.ptr<bf16>> loc(#loc112)
    %z_47 = arith.extf %z : tensor<4x128xbf16> to tensor<4x128xf32> loc(#loc113)
    %y_48 = arith.subf %cst_0, %z_47 : tensor<4x128xf32> loc(#loc119)
    %y_49 = math.exp %y_48 : tensor<4x128xf32> loc(#loc120)
    %y_50 = arith.addf %y_49, %y : tensor<4x128xf32> loc(#loc121)
    %y_51 = arith.divf %y, %y_50 : tensor<4x128xf32> loc(#loc122)
    %y_52 = arith.mulf %z_47, %y_51 : tensor<4x128xf32> loc(#loc114)
    %y_53 = arith.mulf %y_41, %y_52 : tensor<4x128xf32> loc(#loc115)
    %2 = arith.truncf %y_53 : tensor<4x128xf32> to tensor<4x128xbf16> loc(#loc57)
    tt.store %Y_base_17, %2, %mask_21 : tensor<4x128x!tt.ptr<bf16>> loc(#loc57)
    tt.return loc(#loc58)
  } loc(#loc)
} loc(#loc)
#loc2 = loc("/sgl-workspace/sglang/python/sglang/srt/layers/attention/fla/layernorm_gated.py":164:32)
#loc3 = loc("/sgl-workspace/sglang/python/sglang/srt/layers/attention/fla/layernorm_gated.py":147:16)
#loc4 = loc("/sgl-workspace/sglang/python/sglang/srt/layers/attention/fla/layernorm_gated.py":146:20)
#loc5 = loc("/sgl-workspace/sglang/python/sglang/srt/layers/attention/fla/layernorm_gated.py":134:44)
#loc6 = loc("/sgl-workspace/sglang/python/sglang/srt/layers/attention/fla/layernorm_gated.py":108:31)
#loc7 = loc("/sgl-workspace/sglang/python/sglang/srt/layers/attention/fla/layernorm_gated.py":91:30)
#loc8 = loc("/sgl-workspace/sglang/python/sglang/srt/layers/attention/fla/layernorm_gated.py":91:35)
#loc9 = loc("/sgl-workspace/sglang/python/sglang/srt/layers/attention/fla/layernorm_gated.py":92:26)
#loc10 = loc("/sgl-workspace/sglang/python/sglang/srt/layers/attention/fla/layernorm_gated.py":95:36)
#loc11 = loc("/sgl-workspace/sglang/python/sglang/srt/layers/attention/fla/layernorm_gated.py":95:23)
#loc12 = loc("/sgl-workspace/sglang/python/sglang/srt/layers/attention/fla/layernorm_gated.py":96:24)
#loc13 = loc("/sgl-workspace/sglang/python/sglang/srt/layers/attention/fla/layernorm_gated.py":99:23)
#loc14 = loc("/sgl-workspace/sglang/python/sglang/srt/layers/attention/fla/layernorm_gated.py":99:34)
#loc15 = loc("/sgl-workspace/sglang/python/sglang/srt/layers/attention/fla/layernorm_gated.py":100:23)
#loc16 = loc("/sgl-workspace/sglang/python/sglang/srt/layers/attention/fla/layernorm_gated.py":100:42)
#loc17 = loc("/sgl-workspace/sglang/python/sglang/srt/layers/attention/fla/layernorm_gated.py":100:34)
#loc18 = loc("/sgl-workspace/sglang/python/sglang/srt/layers/attention/fla/layernorm_gated.py":103:17)
#loc19 = loc("/sgl-workspace/sglang/python/sglang/srt/layers/attention/fla/layernorm_gated.py":103:31)
#loc20 = loc("/sgl-workspace/sglang/python/sglang/srt/layers/attention/fla/layernorm_gated.py":104:33)
#loc21 = loc("/sgl-workspace/sglang/python/sglang/srt/layers/attention/fla/layernorm_gated.py":104:17)
#loc22 = loc("/sgl-workspace/sglang/python/sglang/srt/layers/attention/fla/layernorm_gated.py":104:48)
#loc23 = loc("/sgl-workspace/sglang/python/sglang/srt/layers/attention/fla/layernorm_gated.py":107:31)
#loc24 = loc("/sgl-workspace/sglang/python/sglang/srt/layers/attention/fla/layernorm_gated.py":109:22)
#loc25 = loc("/sgl-workspace/sglang/python/sglang/srt/layers/attention/fla/layernorm_gated.py":112:16)
#loc26 = loc("/sgl-workspace/sglang/python/sglang/srt/layers/attention/fla/layernorm_gated.py":112:49)
#loc27 = loc("/sgl-workspace/sglang/python/sglang/srt/layers/attention/fla/layernorm_gated.py":133:33)
#loc28 = loc("/sgl-workspace/sglang/python/sglang/srt/layers/attention/fla/layernorm_gated.py":134:28)
#loc29 = loc("/usr/local/lib/python3.12/dist-packages/triton/language/standard.py":291:36)
#loc31 = loc("/usr/local/lib/python3.12/dist-packages/triton/language/standard.py":261:15)
#loc32 = loc("/sgl-workspace/sglang/python/sglang/srt/layers/attention/fla/layernorm_gated.py":137:26)
#loc33 = loc("/sgl-workspace/sglang/python/sglang/srt/layers/attention/fla/layernorm_gated.py":137:20)
#loc34 = loc("/sgl-workspace/sglang/python/sglang/srt/layers/attention/fla/layernorm_gated.py":140:27)
#loc35 = loc("/sgl-workspace/sglang/python/sglang/srt/layers/attention/fla/layernorm_gated.py":140:31)
#loc36 = loc("/sgl-workspace/sglang/python/sglang/srt/layers/attention/fla/layernorm_gated.py":141:23)
#loc37 = loc("/sgl-workspace/sglang/python/sglang/srt/layers/attention/fla/layernorm_gated.py":142:20)
#loc38 = loc("/sgl-workspace/sglang/python/sglang/srt/layers/attention/fla/layernorm_gated.py":142:34)
#loc39 = loc("/sgl-workspace/sglang/python/sglang/srt/layers/attention/fla/layernorm_gated.py":145:23)
#loc40 = loc("/sgl-workspace/sglang/python/sglang/srt/layers/attention/fla/layernorm_gated.py":147:20)
#loc41 = loc("/sgl-workspace/sglang/python/sglang/srt/layers/attention/fla/layernorm_gated.py":147:58)
#loc42 = loc("/sgl-workspace/sglang/python/sglang/srt/layers/attention/fla/layernorm_gated.py":156:25)
#loc43 = loc("/sgl-workspace/sglang/python/sglang/srt/layers/attention/fla/layernorm_gated.py":156:20)
#loc44 = loc("/sgl-workspace/sglang/python/sglang/srt/layers/attention/fla/layernorm_gated.py":158:67)
#loc45 = loc("/sgl-workspace/sglang/python/sglang/srt/layers/attention/fla/layernorm_gated.py":158:65)
#loc46 = loc("/sgl-workspace/sglang/python/sglang/srt/layers/attention/fla/layernorm_gated.py":161:37)
#loc47 = loc("/sgl-workspace/sglang/python/sglang/srt/layers/attention/fla/layernorm_gated.py":161:21)
#loc48 = loc("/sgl-workspace/sglang/python/sglang/srt/layers/attention/fla/layernorm_gated.py":161:52)
#loc49 = loc("/sgl-workspace/sglang/python/sglang/srt/layers/attention/fla/layernorm_gated.py":162:20)
#loc50 = loc("/sgl-workspace/sglang/python/sglang/srt/layers/attention/fla/layernorm_gated.py":162:53)
#loc51 = loc("/usr/local/lib/python3.12/dist-packages/triton/language/standard.py":48:30)
#loc52 = loc("/usr/local/lib/python3.12/dist-packages/triton/language/standard.py":48:29)
#loc53 = loc("/usr/local/lib/python3.12/dist-packages/triton/language/standard.py":48:20)
#loc54 = loc("/usr/local/lib/python3.12/dist-packages/triton/language/standard.py":48:16)
#loc55 = loc("/sgl-workspace/sglang/python/sglang/srt/layers/attention/fla/layernorm_gated.py":164:21)
#loc56 = loc("/sgl-workspace/sglang/python/sglang/srt/layers/attention/fla/layernorm_gated.py":164:17)
#loc57 = loc("/sgl-workspace/sglang/python/sglang/srt/layers/attention/fla/layernorm_gated.py":169:21)
#loc58 = loc("/sgl-workspace/sglang/python/sglang/srt/layers/attention/fla/layernorm_gated.py":169:4)
#loc69 = loc("y"(#loc2))
#loc70 = loc("w"(#loc3))
#loc71 = loc("w_mask"(#loc4))
#loc72 = loc("var"(#loc5))
#loc73 = loc("col_mask"(#loc6))
#loc74 = loc("row_start"(#loc7))
#loc75 = loc("row_start"(#loc8))
#loc76 = loc("group"(#loc9))
#loc77 = loc("rows"(#loc10))
#loc78 = loc("rows"(#loc11))
#loc79 = loc("cols"(#loc12))
#loc80 = loc("row_offsets"(#loc13))
#loc81 = loc("row_offsets"(#loc14))
#loc82 = loc("col_offsets"(#loc15))
#loc83 = loc("col_offsets"(#loc16))
#loc84 = loc("col_offsets"(#loc17))
#loc85 = loc("X_base"(#loc18))
#loc86 = loc("X_base"(#loc19))
#loc87 = loc("Y_base"(#loc20))
#loc88 = loc("Y_base"(#loc21))
#loc89 = loc("Y_base"(#loc22))
#loc90 = loc("row_mask"(#loc23))
#loc91 = loc("mask"(#loc24))
#loc92 = loc("x"(#loc25))
#loc93 = loc("x"(#loc26))
#loc94 = loc("xbar"(#loc27))
#loc95 = loc("var"(#loc28))
#loc97 = loc("rstd"(#loc32))
#loc98 = loc("rstd"(#loc33))
#loc99 = loc("rstd_offsets"(#loc34))
#loc100 = loc("rstd_offsets"(#loc35))
#loc101 = loc("rstd_mask"(#loc36))
#loc102 = loc("w_offsets"(#loc39))
#loc103 = loc("w"(#loc40))
#loc104 = loc("w"(#loc41))
#loc105 = loc("x_hat"(#loc42))
#loc106 = loc("x_hat"(#loc43))
#loc107 = loc("y"(#loc44))
#loc108 = loc("y"(#loc45))
#loc109 = loc("Z_base"(#loc46))
#loc110 = loc("Z_base"(#loc47))
#loc111 = loc("Z_base"(#loc48))
#loc112 = loc("z"(#loc49))
#loc113 = loc("z"(#loc50))
#loc114 = loc("y"(#loc55))
#loc115 = loc("y"(#loc56))
#loc116 = loc(callsite(#loc1 at #loc69))
#loc117 = loc(callsite(#loc29 at #loc96))
#loc119 = loc(callsite(#loc51 at #loc69))
#loc120 = loc(callsite(#loc52 at #loc69))
#loc121 = loc(callsite(#loc53 at #loc69))
#loc122 = loc(callsite(#loc54 at #loc69))
#loc123 = loc(callsite(#loc31 at #loc117))
