#loc = loc("/sgl-workspace/sglang/python/sglang/srt/layers/attention/fla/layernorm_gated.py":68:0)
#loc58 = loc("/usr/local/lib/python3.12/dist-packages/triton/language/standard.py":285:0)
#loc60 = loc(unknown)
#loc63 = loc("/usr/local/lib/python3.12/dist-packages/triton/language/standard.py":260:0)
#loc67 = loc("/usr/local/lib/python3.12/dist-packages/triton/language/standard.py":47:0)
#loc74 = loc("X"(#loc))
#loc75 = loc("Y"(#loc))
#loc76 = loc("W"(#loc))
#loc77 = loc("Z"(#loc))
#loc78 = loc("Rstd"(#loc))
#loc79 = loc("stride_x_row"(#loc))
#loc80 = loc("stride_y_row"(#loc))
#loc81 = loc("stride_z_row"(#loc))
#loc82 = loc("M"(#loc))
#loc83 = loc("eps"(#loc))
#loc137 = loc("input"(#loc58))
#loc138 = loc("a"(#loc63))
#loc139 = loc("b"(#loc63))
#loc140 = loc("x"(#loc67))
module {
  tt.func public @_layer_norm_fwd_1pass_kernel(%X: !tt.ptr<bf16> {tt.divisibility = 16 : i32} loc("X"(#loc)), %Y: !tt.ptr<bf16> {tt.divisibility = 16 : i32} loc("Y"(#loc)), %W: !tt.ptr<f16> {tt.divisibility = 16 : i32} loc("W"(#loc)), %Z: !tt.ptr<bf16> {tt.divisibility = 16 : i32} loc("Z"(#loc)), %Rstd: !tt.ptr<f32> {tt.divisibility = 16 : i32} loc("Rstd"(#loc)), %stride_x_row: i32 {tt.divisibility = 16 : i32} loc("stride_x_row"(#loc)), %stride_y_row: i32 {tt.divisibility = 16 : i32} loc("stride_y_row"(#loc)), %stride_z_row: i32 {tt.divisibility = 16 : i32} loc("stride_z_row"(#loc)), %M: i32 {tt.divisibility = 16 : i32} loc("M"(#loc)), %eps: f32 loc("eps"(#loc))) attributes {noinline = false} {
    %row_start = tt.get_program_id x : i32 loc(#loc84)
    %row_start_0 = arith.constant 1 : i32 loc(#loc85)
    %row_start_1 = arith.constant 1 : i32 loc(#loc85)
    %row_start_2 = arith.extsi %row_start : i32 to i64 loc(#loc85)
    %row_start_3 = arith.extsi %row_start_1 : i32 to i64 loc(#loc85)
    %row_start_4 = arith.muli %row_start_2, %row_start_3 : i64 loc(#loc85)
    %row_start_5 = arith.constant 2147483647 : i64 loc(#loc85)
    %row_start_6 = arith.constant -2147483648 : i64 loc(#loc85)
    %row_start_7 = arith.cmpi sle, %row_start_4, %row_start_5 : i64 loc(#loc85)
    %row_start_8 = arith.cmpi sge, %row_start_4, %row_start_6 : i64 loc(#loc85)
    %row_start_9 = arith.andi %row_start_7, %row_start_8 : i1 loc(#loc85)
    %row_start_10 = arith.muli %row_start, %row_start_1 : i32 loc(#loc85)
    %group = tt.get_program_id y : i32 loc(#loc86)
    %rows = tt.make_range {end = 1 : i32, start = 0 : i32} : tensor<1xi32> loc(#loc87)
    %rows_11 = tt.splat %row_start_10 : i32 -> tensor<1xi32> loc(#loc88)
    %rows_12 = arith.extsi %rows_11 : tensor<1xi32> to tensor<1xi64> loc(#loc88)
    %rows_13 = arith.extsi %rows : tensor<1xi32> to tensor<1xi64> loc(#loc88)
    %rows_14 = arith.addi %rows_12, %rows_13 : tensor<1xi64> loc(#loc88)
    %rows_15 = arith.constant 2147483647 : i64 loc(#loc88)
    %rows_16 = arith.constant -2147483648 : i64 loc(#loc88)
    %rows_17 = arith.constant dense<2147483647> : tensor<1xi64> loc(#loc88)
    %rows_18 = arith.cmpi sle, %rows_14, %rows_17 : tensor<1xi64> loc(#loc88)
    %rows_19 = arith.constant dense<-2147483648> : tensor<1xi64> loc(#loc88)
    %rows_20 = arith.cmpi sge, %rows_14, %rows_19 : tensor<1xi64> loc(#loc88)
    %rows_21 = arith.andi %rows_18, %rows_20 : tensor<1xi1> loc(#loc88)
    %rows_22 = arith.addi %rows_11, %rows : tensor<1xi32> loc(#loc88)
    %cols = tt.make_range {end = 128 : i32, start = 0 : i32} : tensor<128xi32> loc(#loc89)
    %row_offsets = tt.expand_dims %rows_22 {axis = 1 : i32} : tensor<1xi32> -> tensor<1x1xi32> loc(#loc90)
    %row_offsets_23 = tt.splat %stride_x_row : i32 -> tensor<1x1xi32> loc(#loc91)
    %row_offsets_24 = arith.extsi %row_offsets : tensor<1x1xi32> to tensor<1x1xi64> loc(#loc91)
    %row_offsets_25 = arith.extsi %row_offsets_23 : tensor<1x1xi32> to tensor<1x1xi64> loc(#loc91)
    %row_offsets_26 = arith.muli %row_offsets_24, %row_offsets_25 : tensor<1x1xi64> loc(#loc91)
    %row_offsets_27 = arith.constant 2147483647 : i64 loc(#loc91)
    %row_offsets_28 = arith.constant -2147483648 : i64 loc(#loc91)
    %row_offsets_29 = arith.constant dense<2147483647> : tensor<1x1xi64> loc(#loc91)
    %row_offsets_30 = arith.cmpi sle, %row_offsets_26, %row_offsets_29 : tensor<1x1xi64> loc(#loc91)
    %row_offsets_31 = arith.constant dense<-2147483648> : tensor<1x1xi64> loc(#loc91)
    %row_offsets_32 = arith.cmpi sge, %row_offsets_26, %row_offsets_31 : tensor<1x1xi64> loc(#loc91)
    %row_offsets_33 = arith.andi %row_offsets_30, %row_offsets_32 : tensor<1x1xi1> loc(#loc91)
    %row_offsets_34 = arith.muli %row_offsets, %row_offsets_23 : tensor<1x1xi32> loc(#loc91)
    %col_offsets = tt.expand_dims %cols {axis = 0 : i32} : tensor<128xi32> -> tensor<1x128xi32> loc(#loc92)
    %col_offsets_35 = arith.constant 128 : i32 loc(#loc93)
    %col_offsets_36 = arith.constant 128 : i32 loc(#loc93)
    %col_offsets_37 = arith.extsi %group : i32 to i64 loc(#loc93)
    %col_offsets_38 = arith.extsi %col_offsets_36 : i32 to i64 loc(#loc93)
    %col_offsets_39 = arith.muli %col_offsets_37, %col_offsets_38 : i64 loc(#loc93)
    %col_offsets_40 = arith.constant 2147483647 : i64 loc(#loc93)
    %col_offsets_41 = arith.constant -2147483648 : i64 loc(#loc93)
    %col_offsets_42 = arith.cmpi sle, %col_offsets_39, %col_offsets_40 : i64 loc(#loc93)
    %col_offsets_43 = arith.cmpi sge, %col_offsets_39, %col_offsets_41 : i64 loc(#loc93)
    %col_offsets_44 = arith.andi %col_offsets_42, %col_offsets_43 : i1 loc(#loc93)
    %col_offsets_45 = arith.muli %group, %col_offsets_36 : i32 loc(#loc93)
    %col_offsets_46 = tt.splat %col_offsets_45 : i32 -> tensor<1x128xi32> loc(#loc94)
    %col_offsets_47 = arith.extsi %col_offsets : tensor<1x128xi32> to tensor<1x128xi64> loc(#loc94)
    %col_offsets_48 = arith.extsi %col_offsets_46 : tensor<1x128xi32> to tensor<1x128xi64> loc(#loc94)
    %col_offsets_49 = arith.addi %col_offsets_47, %col_offsets_48 : tensor<1x128xi64> loc(#loc94)
    %col_offsets_50 = arith.constant 2147483647 : i64 loc(#loc94)
    %col_offsets_51 = arith.constant -2147483648 : i64 loc(#loc94)
    %col_offsets_52 = arith.constant dense<2147483647> : tensor<1x128xi64> loc(#loc94)
    %col_offsets_53 = arith.cmpi sle, %col_offsets_49, %col_offsets_52 : tensor<1x128xi64> loc(#loc94)
    %col_offsets_54 = arith.constant dense<-2147483648> : tensor<1x128xi64> loc(#loc94)
    %col_offsets_55 = arith.cmpi sge, %col_offsets_49, %col_offsets_54 : tensor<1x128xi64> loc(#loc94)
    %col_offsets_56 = arith.andi %col_offsets_53, %col_offsets_55 : tensor<1x128xi1> loc(#loc94)
    %col_offsets_57 = arith.addi %col_offsets, %col_offsets_46 : tensor<1x128xi32> loc(#loc94)
    %X_base = tt.splat %X : !tt.ptr<bf16> -> tensor<1x1x!tt.ptr<bf16>> loc(#loc95)
    %X_base_58 = tt.addptr %X_base, %row_offsets_34 : tensor<1x1x!tt.ptr<bf16>>, tensor<1x1xi32> loc(#loc95)
    %X_base_59 = tt.broadcast %X_base_58 : tensor<1x1x!tt.ptr<bf16>> -> tensor<1x128x!tt.ptr<bf16>> loc(#loc96)
    %X_base_60 = tt.addptr %X_base_59, %col_offsets_57 : tensor<1x128x!tt.ptr<bf16>>, tensor<1x128xi32> loc(#loc96)
    %Y_base = tt.expand_dims %rows_22 {axis = 1 : i32} : tensor<1xi32> -> tensor<1x1xi32> loc(#loc97)
    %Y_base_61 = tt.splat %stride_y_row : i32 -> tensor<1x1xi32> loc(#loc98)
    %Y_base_62 = arith.extsi %Y_base : tensor<1x1xi32> to tensor<1x1xi64> loc(#loc98)
    %Y_base_63 = arith.extsi %Y_base_61 : tensor<1x1xi32> to tensor<1x1xi64> loc(#loc98)
    %Y_base_64 = arith.muli %Y_base_62, %Y_base_63 : tensor<1x1xi64> loc(#loc98)
    %Y_base_65 = arith.constant 2147483647 : i64 loc(#loc98)
    %Y_base_66 = arith.constant -2147483648 : i64 loc(#loc98)
    %Y_base_67 = arith.constant dense<2147483647> : tensor<1x1xi64> loc(#loc98)
    %Y_base_68 = arith.cmpi sle, %Y_base_64, %Y_base_67 : tensor<1x1xi64> loc(#loc98)
    %Y_base_69 = arith.constant dense<-2147483648> : tensor<1x1xi64> loc(#loc98)
    %Y_base_70 = arith.cmpi sge, %Y_base_64, %Y_base_69 : tensor<1x1xi64> loc(#loc98)
    %Y_base_71 = arith.andi %Y_base_68, %Y_base_70 : tensor<1x1xi1> loc(#loc98)
    %Y_base_72 = arith.muli %Y_base, %Y_base_61 : tensor<1x1xi32> loc(#loc98)
    %Y_base_73 = tt.splat %Y : !tt.ptr<bf16> -> tensor<1x1x!tt.ptr<bf16>> loc(#loc99)
    %Y_base_74 = tt.addptr %Y_base_73, %Y_base_72 : tensor<1x1x!tt.ptr<bf16>>, tensor<1x1xi32> loc(#loc99)
    %Y_base_75 = tt.broadcast %Y_base_74 : tensor<1x1x!tt.ptr<bf16>> -> tensor<1x128x!tt.ptr<bf16>> loc(#loc100)
    %Y_base_76 = tt.addptr %Y_base_75, %col_offsets_57 : tensor<1x128x!tt.ptr<bf16>>, tensor<1x128xi32> loc(#loc100)
    %row_mask = tt.expand_dims %rows_22 {axis = 1 : i32} : tensor<1xi32> -> tensor<1x1xi32> loc(#loc101)
    %row_mask_77 = tt.splat %M : i32 -> tensor<1x1xi32> loc(#loc102)
    %row_mask_78 = arith.cmpi slt, %row_mask, %row_mask_77 : tensor<1x1xi32> loc(#loc102)
    %col_mask = tt.expand_dims %cols {axis = 0 : i32} : tensor<128xi32> -> tensor<1x128xi32> loc(#loc103)
    %col_mask_79 = arith.constant 128 : i32 loc(#loc104)
    %col_mask_80 = arith.constant dense<128> : tensor<1x128xi32> loc(#loc104)
    %col_mask_81 = arith.cmpi slt, %col_mask, %col_mask_80 : tensor<1x128xi32> loc(#loc104)
    %mask = tt.broadcast %row_mask_78 : tensor<1x1xi1> -> tensor<1x128xi1> loc(#loc105)
    %mask_82 = arith.andi %mask, %col_mask_81 : tensor<1x128xi1> loc(#loc105)
    %x = arith.constant 0.000000e+00 : f32 loc(#loc106)
    %x_83 = arith.constant dense<0.000000e+00> : tensor<1x128xf32> loc(#loc106)
    %x_84 = arith.truncf %x_83 : tensor<1x128xf32> to tensor<1x128xbf16> loc(#loc106)
    %x_85 = tt.load %X_base_60, %mask_82, %x_84 : tensor<1x128x!tt.ptr<bf16>> loc(#loc106)
    %x_86 = arith.extf %x_85 : tensor<1x128xbf16> to tensor<1x128xf32> loc(#loc107)
    %xbar = arith.constant 0.000000e+00 : f32 loc(#loc108)
    %xbar_87 = arith.constant 0.000000e+00 : f32 loc(#loc108)
    %xbar_88 = arith.constant dense<0.000000e+00> : tensor<1x128xf32> loc(#loc108)
    %xbar_89 = arith.select %mask_82, %x_86, %xbar_88 : tensor<1x128xi1>, tensor<1x128xf32> loc(#loc108)
    %var = arith.mulf %xbar_89, %xbar_89 : tensor<1x128xf32> loc(#loc109)
    %var_90 = tt.call @"triton.language.standard.sum__fp32S1_128S__(1,)cconstexpr_1__(2,)cconstexpr_False__(3,)cNone"(%var) : (tensor<1x128xf32>) -> tensor<1xf32> loc(#loc110)
    %var_91 = arith.constant 128 : i32 loc(#loc111)
    %var_92 = arith.constant 1.280000e+02 : f32 loc(#loc111)
    %var_93 = arith.constant dense<1.280000e+02> : tensor<1xf32> loc(#loc111)
    %var_94 = arith.divf %var_90, %var_93 : tensor<1xf32> loc(#loc111)
    %mean = arith.constant 0.000000e+00 : f32 loc(#loc112)
    %rstd = tt.splat %eps : f32 -> tensor<1xf32> loc(#loc113)
    %rstd_95 = arith.addf %var_94, %rstd : tensor<1xf32> loc(#loc113)
    %rstd_96 = math.rsqrt %rstd_95 : tensor<1xf32> loc(#loc114)
    %rstd_offsets = arith.extsi %group : i32 to i64 loc(#loc115)
    %rstd_offsets_97 = arith.extsi %M : i32 to i64 loc(#loc115)
    %rstd_offsets_98 = arith.muli %rstd_offsets, %rstd_offsets_97 : i64 loc(#loc115)
    %rstd_offsets_99 = arith.constant 2147483647 : i64 loc(#loc115)
    %rstd_offsets_100 = arith.constant -2147483648 : i64 loc(#loc115)
    %rstd_offsets_101 = arith.cmpi sle, %rstd_offsets_98, %rstd_offsets_99 : i64 loc(#loc115)
    %rstd_offsets_102 = arith.cmpi sge, %rstd_offsets_98, %rstd_offsets_100 : i64 loc(#loc115)
    %rstd_offsets_103 = arith.andi %rstd_offsets_101, %rstd_offsets_102 : i1 loc(#loc115)
    %rstd_offsets_104 = arith.muli %group, %M : i32 loc(#loc115)
    %rstd_offsets_105 = tt.splat %rstd_offsets_104 : i32 -> tensor<1xi32> loc(#loc116)
    %rstd_offsets_106 = arith.extsi %rstd_offsets_105 : tensor<1xi32> to tensor<1xi64> loc(#loc116)
    %rstd_offsets_107 = arith.extsi %rows_22 : tensor<1xi32> to tensor<1xi64> loc(#loc116)
    %rstd_offsets_108 = arith.addi %rstd_offsets_106, %rstd_offsets_107 : tensor<1xi64> loc(#loc116)
    %rstd_offsets_109 = arith.constant 2147483647 : i64 loc(#loc116)
    %rstd_offsets_110 = arith.constant -2147483648 : i64 loc(#loc116)
    %rstd_offsets_111 = arith.constant dense<2147483647> : tensor<1xi64> loc(#loc116)
    %rstd_offsets_112 = arith.cmpi sle, %rstd_offsets_108, %rstd_offsets_111 : tensor<1xi64> loc(#loc116)
    %rstd_offsets_113 = arith.constant dense<-2147483648> : tensor<1xi64> loc(#loc116)
    %rstd_offsets_114 = arith.cmpi sge, %rstd_offsets_108, %rstd_offsets_113 : tensor<1xi64> loc(#loc116)
    %rstd_offsets_115 = arith.andi %rstd_offsets_112, %rstd_offsets_114 : tensor<1xi1> loc(#loc116)
    %rstd_offsets_116 = arith.addi %rstd_offsets_105, %rows_22 : tensor<1xi32> loc(#loc116)
    %rstd_mask = tt.splat %M : i32 -> tensor<1xi32> loc(#loc117)
    %rstd_mask_117 = arith.cmpi slt, %rows_22, %rstd_mask : tensor<1xi32> loc(#loc117)
    %0 = tt.splat %Rstd : !tt.ptr<f32> -> tensor<1x!tt.ptr<f32>> loc(#loc35)
    %1 = tt.addptr %0, %rstd_offsets_116 : tensor<1x!tt.ptr<f32>>, tensor<1xi32> loc(#loc35)
    tt.store %1, %rstd_96, %rstd_mask_117 : tensor<1x!tt.ptr<f32>> loc(#loc36)
    %w_offsets = arith.constant 128 : i32 loc(#loc118)
    %w_offsets_118 = arith.constant 128 : i32 loc(#loc118)
    %w_offsets_119 = arith.extsi %group : i32 to i64 loc(#loc118)
    %w_offsets_120 = arith.extsi %w_offsets_118 : i32 to i64 loc(#loc118)
    %w_offsets_121 = arith.muli %w_offsets_119, %w_offsets_120 : i64 loc(#loc118)
    %w_offsets_122 = arith.constant 2147483647 : i64 loc(#loc118)
    %w_offsets_123 = arith.constant -2147483648 : i64 loc(#loc118)
    %w_offsets_124 = arith.cmpi sle, %w_offsets_121, %w_offsets_122 : i64 loc(#loc118)
    %w_offsets_125 = arith.cmpi sge, %w_offsets_121, %w_offsets_123 : i64 loc(#loc118)
    %w_offsets_126 = arith.andi %w_offsets_124, %w_offsets_125 : i1 loc(#loc118)
    %w_offsets_127 = arith.muli %group, %w_offsets_118 : i32 loc(#loc118)
    %w_offsets_128 = tt.splat %w_offsets_127 : i32 -> tensor<128xi32> loc(#loc119)
    %w_offsets_129 = arith.extsi %cols : tensor<128xi32> to tensor<128xi64> loc(#loc119)
    %w_offsets_130 = arith.extsi %w_offsets_128 : tensor<128xi32> to tensor<128xi64> loc(#loc119)
    %w_offsets_131 = arith.addi %w_offsets_129, %w_offsets_130 : tensor<128xi64> loc(#loc119)
    %w_offsets_132 = arith.constant 2147483647 : i64 loc(#loc119)
    %w_offsets_133 = arith.constant -2147483648 : i64 loc(#loc119)
    %w_offsets_134 = arith.constant dense<2147483647> : tensor<128xi64> loc(#loc119)
    %w_offsets_135 = arith.cmpi sle, %w_offsets_131, %w_offsets_134 : tensor<128xi64> loc(#loc119)
    %w_offsets_136 = arith.constant dense<-2147483648> : tensor<128xi64> loc(#loc119)
    %w_offsets_137 = arith.cmpi sge, %w_offsets_131, %w_offsets_136 : tensor<128xi64> loc(#loc119)
    %w_offsets_138 = arith.andi %w_offsets_135, %w_offsets_137 : tensor<128xi1> loc(#loc119)
    %w_offsets_139 = arith.addi %cols, %w_offsets_128 : tensor<128xi32> loc(#loc119)
    %w_mask = arith.constant 128 : i32 loc(#loc120)
    %w_mask_140 = arith.constant dense<128> : tensor<128xi32> loc(#loc120)
    %w_mask_141 = arith.cmpi slt, %cols, %w_mask_140 : tensor<128xi32> loc(#loc120)
    %w = tt.splat %W : !tt.ptr<f16> -> tensor<128x!tt.ptr<f16>> loc(#loc121)
    %w_142 = tt.addptr %w, %w_offsets_139 : tensor<128x!tt.ptr<f16>>, tensor<128xi32> loc(#loc121)
    %w_143 = arith.constant 0.000000e+00 : f32 loc(#loc122)
    %w_144 = arith.constant dense<0.000000e+00> : tensor<128xf32> loc(#loc122)
    %w_145 = arith.truncf %w_144 : tensor<128xf32> to tensor<128xf16> loc(#loc122)
    %w_146 = tt.load %w_142, %w_mask_141, %w_145 : tensor<128x!tt.ptr<f16>> loc(#loc122)
    %w_147 = arith.extf %w_146 : tensor<128xf16> to tensor<128xf32> loc(#loc123)
    %x_hat = tt.expand_dims %rstd_96 {axis = 1 : i32} : tensor<1xf32> -> tensor<1x1xf32> loc(#loc124)
    %x_hat_148 = tt.broadcast %x_hat : tensor<1x1xf32> -> tensor<1x128xf32> loc(#loc125)
    %x_hat_149 = arith.mulf %x_86, %x_hat_148 : tensor<1x128xf32> loc(#loc125)
    %y = tt.expand_dims %w_147 {axis = 0 : i32} : tensor<128xf32> -> tensor<1x128xf32> loc(#loc126)
    %y_150 = arith.mulf %x_hat_149, %y : tensor<1x128xf32> loc(#loc127)
    %Z_base = tt.expand_dims %rows_22 {axis = 1 : i32} : tensor<1xi32> -> tensor<1x1xi32> loc(#loc128)
    %Z_base_151 = tt.splat %stride_z_row : i32 -> tensor<1x1xi32> loc(#loc129)
    %Z_base_152 = arith.extsi %Z_base : tensor<1x1xi32> to tensor<1x1xi64> loc(#loc129)
    %Z_base_153 = arith.extsi %Z_base_151 : tensor<1x1xi32> to tensor<1x1xi64> loc(#loc129)
    %Z_base_154 = arith.muli %Z_base_152, %Z_base_153 : tensor<1x1xi64> loc(#loc129)
    %Z_base_155 = arith.constant 2147483647 : i64 loc(#loc129)
    %Z_base_156 = arith.constant -2147483648 : i64 loc(#loc129)
    %Z_base_157 = arith.constant dense<2147483647> : tensor<1x1xi64> loc(#loc129)
    %Z_base_158 = arith.cmpi sle, %Z_base_154, %Z_base_157 : tensor<1x1xi64> loc(#loc129)
    %Z_base_159 = arith.constant dense<-2147483648> : tensor<1x1xi64> loc(#loc129)
    %Z_base_160 = arith.cmpi sge, %Z_base_154, %Z_base_159 : tensor<1x1xi64> loc(#loc129)
    %Z_base_161 = arith.andi %Z_base_158, %Z_base_160 : tensor<1x1xi1> loc(#loc129)
    %Z_base_162 = arith.muli %Z_base, %Z_base_151 : tensor<1x1xi32> loc(#loc129)
    %Z_base_163 = tt.splat %Z : !tt.ptr<bf16> -> tensor<1x1x!tt.ptr<bf16>> loc(#loc130)
    %Z_base_164 = tt.addptr %Z_base_163, %Z_base_162 : tensor<1x1x!tt.ptr<bf16>>, tensor<1x1xi32> loc(#loc130)
    %Z_base_165 = tt.broadcast %Z_base_164 : tensor<1x1x!tt.ptr<bf16>> -> tensor<1x128x!tt.ptr<bf16>> loc(#loc131)
    %Z_base_166 = tt.addptr %Z_base_165, %col_offsets_57 : tensor<1x128x!tt.ptr<bf16>>, tensor<1x128xi32> loc(#loc131)
    %z = arith.constant 0.000000e+00 : f32 loc(#loc132)
    %z_167 = arith.constant dense<0.000000e+00> : tensor<1x128xf32> loc(#loc132)
    %z_168 = arith.truncf %z_167 : tensor<1x128xf32> to tensor<1x128xbf16> loc(#loc132)
    %z_169 = tt.load %Z_base_166, %mask_82, %z_168 : tensor<1x128x!tt.ptr<bf16>> loc(#loc132)
    %z_170 = arith.extf %z_169 : tensor<1x128xbf16> to tensor<1x128xf32> loc(#loc133)
    %y_171 = tt.call @triton.language.standard.sigmoid__fp32S1_128S__(%z_170) : (tensor<1x128xf32>) -> tensor<1x128xf32> loc(#loc134)
    %y_172 = arith.mulf %z_170, %y_171 : tensor<1x128xf32> loc(#loc135)
    %y_173 = arith.mulf %y_150, %y_172 : tensor<1x128xf32> loc(#loc136)
    %2 = arith.truncf %y_173 : tensor<1x128xf32> to tensor<1x128xbf16> loc(#loc56)
    tt.store %Y_base_76, %2, %mask_82 : tensor<1x128x!tt.ptr<bf16>> loc(#loc56)
    tt.return loc(#loc57)
  } loc(#loc)
  tt.func private @"triton.language.standard.sum__fp32S1_128S__(1,)cconstexpr_1__(2,)cconstexpr_False__(3,)cNone"(%input: tensor<1x128xf32> loc("input"(#loc58))) -> tensor<1xf32> attributes {noinline = false} {
    %0 = "tt.reduce"(%input) <{axis = 1 : i32}> ({
    ^bb0(%arg1: f32 loc(unknown), %arg2: f32 loc(unknown)):
      %2 = tt.call @triton.language.standard._sum_combine__fp32_fp32__(%arg1, %arg2) : (f32, f32) -> f32 loc(#loc59)
      tt.reduce.return %2 : f32 loc(#loc59)
    }) : (tensor<1x128xf32>) -> tensor<1xf32> loc(#loc59)
    tt.return %0 : tensor<1xf32> loc(#loc61)
  ^bb1:  // no predecessors
    %1 = ub.poison : tensor<1xf32> loc(#loc62)
    tt.return %1 : tensor<1xf32> loc(#loc62)
  } loc(#loc58)
  tt.func private @triton.language.standard._sum_combine__fp32_fp32__(%a: f32 loc("a"(#loc63)), %b: f32 loc("b"(#loc63))) -> f32 attributes {noinline = false} {
    %0 = arith.addf %a, %b : f32 loc(#loc64)
    tt.return %0 : f32 loc(#loc65)
  ^bb1:  // no predecessors
    %1 = ub.poison : f32 loc(#loc66)
    tt.return %1 : f32 loc(#loc66)
  } loc(#loc63)
  tt.func private @triton.language.standard.sigmoid__fp32S1_128S__(%x: tensor<1x128xf32> loc("x"(#loc67))) -> tensor<1x128xf32> attributes {noinline = false} {
    %cst = arith.constant 0.000000e+00 : f32 loc(#loc68)
    %cst_0 = arith.constant dense<0.000000e+00> : tensor<1x128xf32> loc(#loc68)
    %0 = arith.subf %cst_0, %x : tensor<1x128xf32> loc(#loc68)
    %1 = math.exp %0 : tensor<1x128xf32> loc(#loc69)
    %c1_i32 = arith.constant 1 : i32 loc(#loc70)
    %cst_1 = arith.constant 1.000000e+00 : f32 loc(#loc70)
    %cst_2 = arith.constant dense<1.000000e+00> : tensor<1x128xf32> loc(#loc70)
    %2 = arith.addf %cst_2, %1 : tensor<1x128xf32> loc(#loc70)
    %c1_i32_3 = arith.constant 1 : i32 loc(#loc71)
    %cst_4 = arith.constant 1.000000e+00 : f32 loc(#loc71)
    %cst_5 = arith.constant dense<1.000000e+00> : tensor<1x128xf32> loc(#loc71)
    %3 = arith.divf %cst_5, %2 : tensor<1x128xf32> loc(#loc71)
    tt.return %3 : tensor<1x128xf32> loc(#loc72)
  ^bb1:  // no predecessors
    %4 = ub.poison : tensor<1x128xf32> loc(#loc73)
    tt.return %4 : tensor<1x128xf32> loc(#loc73)
  } loc(#loc67)
} loc(#loc)
#loc1 = loc("/sgl-workspace/sglang/python/sglang/srt/layers/attention/fla/layernorm_gated.py":91:30)
#loc2 = loc("/sgl-workspace/sglang/python/sglang/srt/layers/attention/fla/layernorm_gated.py":91:35)
#loc3 = loc("/sgl-workspace/sglang/python/sglang/srt/layers/attention/fla/layernorm_gated.py":92:26)
#loc4 = loc("/sgl-workspace/sglang/python/sglang/srt/layers/attention/fla/layernorm_gated.py":95:36)
#loc5 = loc("/sgl-workspace/sglang/python/sglang/srt/layers/attention/fla/layernorm_gated.py":95:23)
#loc6 = loc("/sgl-workspace/sglang/python/sglang/srt/layers/attention/fla/layernorm_gated.py":96:24)
#loc7 = loc("/sgl-workspace/sglang/python/sglang/srt/layers/attention/fla/layernorm_gated.py":99:23)
#loc8 = loc("/sgl-workspace/sglang/python/sglang/srt/layers/attention/fla/layernorm_gated.py":99:34)
#loc9 = loc("/sgl-workspace/sglang/python/sglang/srt/layers/attention/fla/layernorm_gated.py":100:23)
#loc10 = loc("/sgl-workspace/sglang/python/sglang/srt/layers/attention/fla/layernorm_gated.py":100:42)
#loc11 = loc("/sgl-workspace/sglang/python/sglang/srt/layers/attention/fla/layernorm_gated.py":100:34)
#loc12 = loc("/sgl-workspace/sglang/python/sglang/srt/layers/attention/fla/layernorm_gated.py":103:17)
#loc13 = loc("/sgl-workspace/sglang/python/sglang/srt/layers/attention/fla/layernorm_gated.py":103:31)
#loc14 = loc("/sgl-workspace/sglang/python/sglang/srt/layers/attention/fla/layernorm_gated.py":104:22)
#loc15 = loc("/sgl-workspace/sglang/python/sglang/srt/layers/attention/fla/layernorm_gated.py":104:33)
#loc16 = loc("/sgl-workspace/sglang/python/sglang/srt/layers/attention/fla/layernorm_gated.py":104:17)
#loc17 = loc("/sgl-workspace/sglang/python/sglang/srt/layers/attention/fla/layernorm_gated.py":104:48)
#loc18 = loc("/sgl-workspace/sglang/python/sglang/srt/layers/attention/fla/layernorm_gated.py":107:20)
#loc19 = loc("/sgl-workspace/sglang/python/sglang/srt/layers/attention/fla/layernorm_gated.py":107:31)
#loc20 = loc("/sgl-workspace/sglang/python/sglang/srt/layers/attention/fla/layernorm_gated.py":108:20)
#loc21 = loc("/sgl-workspace/sglang/python/sglang/srt/layers/attention/fla/layernorm_gated.py":108:31)
#loc22 = loc("/sgl-workspace/sglang/python/sglang/srt/layers/attention/fla/layernorm_gated.py":109:22)
#loc23 = loc("/sgl-workspace/sglang/python/sglang/srt/layers/attention/fla/layernorm_gated.py":112:16)
#loc24 = loc("/sgl-workspace/sglang/python/sglang/srt/layers/attention/fla/layernorm_gated.py":112:49)
#loc25 = loc("/sgl-workspace/sglang/python/sglang/srt/layers/attention/fla/layernorm_gated.py":133:33)
#loc26 = loc("/sgl-workspace/sglang/python/sglang/srt/layers/attention/fla/layernorm_gated.py":134:28)
#loc27 = loc("/sgl-workspace/sglang/python/sglang/srt/layers/attention/fla/layernorm_gated.py":134:21)
#loc28 = loc("/sgl-workspace/sglang/python/sglang/srt/layers/attention/fla/layernorm_gated.py":134:44)
#loc29 = loc("/sgl-workspace/sglang/python/sglang/srt/layers/attention/fla/layernorm_gated.py":135:15)
#loc30 = loc("/sgl-workspace/sglang/python/sglang/srt/layers/attention/fla/layernorm_gated.py":137:26)
#loc31 = loc("/sgl-workspace/sglang/python/sglang/srt/layers/attention/fla/layernorm_gated.py":137:20)
#loc32 = loc("/sgl-workspace/sglang/python/sglang/srt/layers/attention/fla/layernorm_gated.py":140:27)
#loc33 = loc("/sgl-workspace/sglang/python/sglang/srt/layers/attention/fla/layernorm_gated.py":140:31)
#loc34 = loc("/sgl-workspace/sglang/python/sglang/srt/layers/attention/fla/layernorm_gated.py":141:23)
#loc35 = loc("/sgl-workspace/sglang/python/sglang/srt/layers/attention/fla/layernorm_gated.py":142:20)
#loc36 = loc("/sgl-workspace/sglang/python/sglang/srt/layers/attention/fla/layernorm_gated.py":142:34)
#loc37 = loc("/sgl-workspace/sglang/python/sglang/srt/layers/attention/fla/layernorm_gated.py":145:31)
#loc38 = loc("/sgl-workspace/sglang/python/sglang/srt/layers/attention/fla/layernorm_gated.py":145:23)
#loc39 = loc("/sgl-workspace/sglang/python/sglang/srt/layers/attention/fla/layernorm_gated.py":146:20)
#loc40 = loc("/sgl-workspace/sglang/python/sglang/srt/layers/attention/fla/layernorm_gated.py":147:20)
#loc41 = loc("/sgl-workspace/sglang/python/sglang/srt/layers/attention/fla/layernorm_gated.py":147:16)
#loc42 = loc("/sgl-workspace/sglang/python/sglang/srt/layers/attention/fla/layernorm_gated.py":147:58)
#loc43 = loc("/sgl-workspace/sglang/python/sglang/srt/layers/attention/fla/layernorm_gated.py":156:25)
#loc44 = loc("/sgl-workspace/sglang/python/sglang/srt/layers/attention/fla/layernorm_gated.py":156:20)
#loc45 = loc("/sgl-workspace/sglang/python/sglang/srt/layers/attention/fla/layernorm_gated.py":158:67)
#loc46 = loc("/sgl-workspace/sglang/python/sglang/srt/layers/attention/fla/layernorm_gated.py":158:65)
#loc47 = loc("/sgl-workspace/sglang/python/sglang/srt/layers/attention/fla/layernorm_gated.py":161:26)
#loc48 = loc("/sgl-workspace/sglang/python/sglang/srt/layers/attention/fla/layernorm_gated.py":161:37)
#loc49 = loc("/sgl-workspace/sglang/python/sglang/srt/layers/attention/fla/layernorm_gated.py":161:21)
#loc50 = loc("/sgl-workspace/sglang/python/sglang/srt/layers/attention/fla/layernorm_gated.py":161:52)
#loc51 = loc("/sgl-workspace/sglang/python/sglang/srt/layers/attention/fla/layernorm_gated.py":162:20)
#loc52 = loc("/sgl-workspace/sglang/python/sglang/srt/layers/attention/fla/layernorm_gated.py":162:53)
#loc53 = loc("/sgl-workspace/sglang/python/sglang/srt/layers/attention/fla/layernorm_gated.py":164:32)
#loc54 = loc("/sgl-workspace/sglang/python/sglang/srt/layers/attention/fla/layernorm_gated.py":164:21)
#loc55 = loc("/sgl-workspace/sglang/python/sglang/srt/layers/attention/fla/layernorm_gated.py":164:17)
#loc56 = loc("/sgl-workspace/sglang/python/sglang/srt/layers/attention/fla/layernorm_gated.py":169:21)
#loc57 = loc("/sgl-workspace/sglang/python/sglang/srt/layers/attention/fla/layernorm_gated.py":169:4)
#loc59 = loc("/usr/local/lib/python3.12/dist-packages/triton/language/standard.py":291:36)
#loc61 = loc("/usr/local/lib/python3.12/dist-packages/triton/language/standard.py":291:11)
#loc62 = loc("/usr/local/lib/python3.12/dist-packages/triton/language/standard.py":291:4)
#loc64 = loc("/usr/local/lib/python3.12/dist-packages/triton/language/standard.py":261:15)
#loc65 = loc("/usr/local/lib/python3.12/dist-packages/triton/language/standard.py":261:11)
#loc66 = loc("/usr/local/lib/python3.12/dist-packages/triton/language/standard.py":261:4)
#loc68 = loc("/usr/local/lib/python3.12/dist-packages/triton/language/standard.py":48:30)
#loc69 = loc("/usr/local/lib/python3.12/dist-packages/triton/language/standard.py":48:29)
#loc70 = loc("/usr/local/lib/python3.12/dist-packages/triton/language/standard.py":48:20)
#loc71 = loc("/usr/local/lib/python3.12/dist-packages/triton/language/standard.py":48:16)
#loc72 = loc("/usr/local/lib/python3.12/dist-packages/triton/language/standard.py":48:11)
#loc73 = loc("/usr/local/lib/python3.12/dist-packages/triton/language/standard.py":48:4)
#loc84 = loc("row_start"(#loc1))
#loc85 = loc("row_start"(#loc2))
#loc86 = loc("group"(#loc3))
#loc87 = loc("rows"(#loc4))
#loc88 = loc("rows"(#loc5))
#loc89 = loc("cols"(#loc6))
#loc90 = loc("row_offsets"(#loc7))
#loc91 = loc("row_offsets"(#loc8))
#loc92 = loc("col_offsets"(#loc9))
#loc93 = loc("col_offsets"(#loc10))
#loc94 = loc("col_offsets"(#loc11))
#loc95 = loc("X_base"(#loc12))
#loc96 = loc("X_base"(#loc13))
#loc97 = loc("Y_base"(#loc14))
#loc98 = loc("Y_base"(#loc15))
#loc99 = loc("Y_base"(#loc16))
#loc100 = loc("Y_base"(#loc17))
#loc101 = loc("row_mask"(#loc18))
#loc102 = loc("row_mask"(#loc19))
#loc103 = loc("col_mask"(#loc20))
#loc104 = loc("col_mask"(#loc21))
#loc105 = loc("mask"(#loc22))
#loc106 = loc("x"(#loc23))
#loc107 = loc("x"(#loc24))
#loc108 = loc("xbar"(#loc25))
#loc109 = loc("var"(#loc26))
#loc110 = loc("var"(#loc27))
#loc111 = loc("var"(#loc28))
#loc112 = loc("mean"(#loc29))
#loc113 = loc("rstd"(#loc30))
#loc114 = loc("rstd"(#loc31))
#loc115 = loc("rstd_offsets"(#loc32))
#loc116 = loc("rstd_offsets"(#loc33))
#loc117 = loc("rstd_mask"(#loc34))
#loc118 = loc("w_offsets"(#loc37))
#loc119 = loc("w_offsets"(#loc38))
#loc120 = loc("w_mask"(#loc39))
#loc121 = loc("w"(#loc40))
#loc122 = loc("w"(#loc41))
#loc123 = loc("w"(#loc42))
#loc124 = loc("x_hat"(#loc43))
#loc125 = loc("x_hat"(#loc44))
#loc126 = loc("y"(#loc45))
#loc127 = loc("y"(#loc46))
#loc128 = loc("Z_base"(#loc47))
#loc129 = loc("Z_base"(#loc48))
#loc130 = loc("Z_base"(#loc49))
#loc131 = loc("Z_base"(#loc50))
#loc132 = loc("z"(#loc51))
#loc133 = loc("z"(#loc52))
#loc134 = loc("y"(#loc53))
#loc135 = loc("y"(#loc54))
#loc136 = loc("y"(#loc55))
