#loc = loc("/sgl-workspace/sglang/python/sglang/srt/layers/attention/fla/fused_gdn_gating.py":11:0)
#loc47 = loc("/usr/local/lib/python3.12/dist-packages/triton/language/standard.py":47:0)
#loc54 = loc("g"(#loc))
#loc55 = loc("beta_output"(#loc))
#loc56 = loc("A_log"(#loc))
#loc57 = loc("a"(#loc))
#loc58 = loc("b"(#loc))
#loc59 = loc("dt_bias"(#loc))
#loc60 = loc("stride_a"(#loc))
#loc61 = loc("stride_b"(#loc))
#loc99 = loc("x"(#loc47))
module {
  tt.func public @fused_gdn_gating_kernel(%g: !tt.ptr<f32> {tt.divisibility = 16 : i32} loc("g"(#loc)), %beta_output: !tt.ptr<f32> {tt.divisibility = 16 : i32} loc("beta_output"(#loc)), %A_log: !tt.ptr<f32> {tt.divisibility = 16 : i32} loc("A_log"(#loc)), %a: !tt.ptr<bf16> {tt.divisibility = 16 : i32} loc("a"(#loc)), %b: !tt.ptr<bf16> {tt.divisibility = 16 : i32} loc("b"(#loc)), %dt_bias: !tt.ptr<bf16> {tt.divisibility = 16 : i32} loc("dt_bias"(#loc)), %stride_a: i32 {tt.divisibility = 16 : i32} loc("stride_a"(#loc)), %stride_b: i32 {tt.divisibility = 16 : i32} loc("stride_b"(#loc))) attributes {noinline = false} {
    %0 = tt.get_program_id x : i32 loc(#loc1)
    %1 = tt.get_program_id y : i32 loc(#loc2)
    %2 = tt.get_program_id z : i32 loc(#loc3)
    %head_off = arith.constant 8 : i32 loc(#loc62)
    %head_off_0 = arith.constant 8 : i32 loc(#loc62)
    %head_off_1 = arith.extsi %2 : i32 to i64 loc(#loc62)
    %head_off_2 = arith.extsi %head_off_0 : i32 to i64 loc(#loc62)
    %head_off_3 = arith.muli %head_off_1, %head_off_2 : i64 loc(#loc62)
    %head_off_4 = arith.constant 2147483647 : i64 loc(#loc62)
    %head_off_5 = arith.constant -2147483648 : i64 loc(#loc62)
    %head_off_6 = arith.cmpi sle, %head_off_3, %head_off_4 : i64 loc(#loc62)
    %head_off_7 = arith.cmpi sge, %head_off_3, %head_off_5 : i64 loc(#loc62)
    %head_off_8 = arith.andi %head_off_6, %head_off_7 : i1 loc(#loc62)
    %head_off_9 = arith.muli %2, %head_off_0 : i32 loc(#loc62)
    %head_off_10 = tt.make_range {end = 8 : i32, start = 0 : i32} : tensor<8xi32> loc(#loc63)
    %head_off_11 = tt.splat %head_off_9 : i32 -> tensor<8xi32> loc(#loc64)
    %head_off_12 = arith.extsi %head_off_11 : tensor<8xi32> to tensor<8xi64> loc(#loc64)
    %head_off_13 = arith.extsi %head_off_10 : tensor<8xi32> to tensor<8xi64> loc(#loc64)
    %head_off_14 = arith.addi %head_off_12, %head_off_13 : tensor<8xi64> loc(#loc64)
    %head_off_15 = arith.constant 2147483647 : i64 loc(#loc64)
    %head_off_16 = arith.constant -2147483648 : i64 loc(#loc64)
    %head_off_17 = arith.constant dense<2147483647> : tensor<8xi64> loc(#loc64)
    %head_off_18 = arith.cmpi sle, %head_off_14, %head_off_17 : tensor<8xi64> loc(#loc64)
    %head_off_19 = arith.constant dense<-2147483648> : tensor<8xi64> loc(#loc64)
    %head_off_20 = arith.cmpi sge, %head_off_14, %head_off_19 : tensor<8xi64> loc(#loc64)
    %head_off_21 = arith.andi %head_off_18, %head_off_20 : tensor<8xi1> loc(#loc64)
    %head_off_22 = arith.addi %head_off_11, %head_off_10 : tensor<8xi32> loc(#loc64)
    %off = arith.constant 1 : i32 loc(#loc65)
    %off_23 = arith.constant 1 : i32 loc(#loc65)
    %off_24 = arith.extsi %0 : i32 to i64 loc(#loc65)
    %off_25 = arith.extsi %off_23 : i32 to i64 loc(#loc65)
    %off_26 = arith.muli %off_24, %off_25 : i64 loc(#loc65)
    %off_27 = arith.constant 2147483647 : i64 loc(#loc65)
    %off_28 = arith.constant -2147483648 : i64 loc(#loc65)
    %off_29 = arith.cmpi sle, %off_26, %off_27 : i64 loc(#loc65)
    %off_30 = arith.cmpi sge, %off_26, %off_28 : i64 loc(#loc65)
    %off_31 = arith.andi %off_29, %off_30 : i1 loc(#loc65)
    %off_32 = arith.muli %0, %off_23 : i32 loc(#loc65)
    %off_33 = arith.constant 24 : i32 loc(#loc66)
    %off_34 = arith.constant 24 : i32 loc(#loc66)
    %off_35 = arith.extsi %off_32 : i32 to i64 loc(#loc66)
    %off_36 = arith.extsi %off_34 : i32 to i64 loc(#loc66)
    %off_37 = arith.muli %off_35, %off_36 : i64 loc(#loc66)
    %off_38 = arith.constant 2147483647 : i64 loc(#loc66)
    %off_39 = arith.constant -2147483648 : i64 loc(#loc66)
    %off_40 = arith.cmpi sle, %off_37, %off_38 : i64 loc(#loc66)
    %off_41 = arith.cmpi sge, %off_37, %off_39 : i64 loc(#loc66)
    %off_42 = arith.andi %off_40, %off_41 : i1 loc(#loc66)
    %off_43 = arith.muli %off_32, %off_34 : i32 loc(#loc66)
    %off_44 = arith.constant 24 : i32 loc(#loc67)
    %off_45 = arith.constant 24 : i32 loc(#loc67)
    %off_46 = arith.extsi %1 : i32 to i64 loc(#loc67)
    %off_47 = arith.extsi %off_45 : i32 to i64 loc(#loc67)
    %off_48 = arith.muli %off_46, %off_47 : i64 loc(#loc67)
    %off_49 = arith.constant 2147483647 : i64 loc(#loc67)
    %off_50 = arith.constant -2147483648 : i64 loc(#loc67)
    %off_51 = arith.cmpi sle, %off_48, %off_49 : i64 loc(#loc67)
    %off_52 = arith.cmpi sge, %off_48, %off_50 : i64 loc(#loc67)
    %off_53 = arith.andi %off_51, %off_52 : i1 loc(#loc67)
    %off_54 = arith.muli %1, %off_45 : i32 loc(#loc67)
    %off_55 = arith.extsi %off_43 : i32 to i64 loc(#loc68)
    %off_56 = arith.extsi %off_54 : i32 to i64 loc(#loc68)
    %off_57 = arith.addi %off_55, %off_56 : i64 loc(#loc68)
    %off_58 = arith.constant 2147483647 : i64 loc(#loc68)
    %off_59 = arith.constant -2147483648 : i64 loc(#loc68)
    %off_60 = arith.cmpi sle, %off_57, %off_58 : i64 loc(#loc68)
    %off_61 = arith.cmpi sge, %off_57, %off_59 : i64 loc(#loc68)
    %off_62 = arith.andi %off_60, %off_61 : i1 loc(#loc68)
    %off_63 = arith.addi %off_43, %off_54 : i32 loc(#loc68)
    %off_64 = tt.splat %off_63 : i32 -> tensor<8xi32> loc(#loc69)
    %off_65 = arith.extsi %off_64 : tensor<8xi32> to tensor<8xi64> loc(#loc69)
    %off_66 = arith.extsi %head_off_22 : tensor<8xi32> to tensor<8xi64> loc(#loc69)
    %off_67 = arith.addi %off_65, %off_66 : tensor<8xi64> loc(#loc69)
    %off_68 = arith.constant 2147483647 : i64 loc(#loc69)
    %off_69 = arith.constant -2147483648 : i64 loc(#loc69)
    %off_70 = arith.constant dense<2147483647> : tensor<8xi64> loc(#loc69)
    %off_71 = arith.cmpi sle, %off_67, %off_70 : tensor<8xi64> loc(#loc69)
    %off_72 = arith.constant dense<-2147483648> : tensor<8xi64> loc(#loc69)
    %off_73 = arith.cmpi sge, %off_67, %off_72 : tensor<8xi64> loc(#loc69)
    %off_74 = arith.andi %off_71, %off_73 : tensor<8xi1> loc(#loc69)
    %off_75 = arith.addi %off_64, %head_off_22 : tensor<8xi32> loc(#loc69)
    %mask = arith.constant 24 : i32 loc(#loc70)
    %mask_76 = arith.constant dense<24> : tensor<8xi32> loc(#loc70)
    %mask_77 = arith.cmpi slt, %head_off_22, %mask_76 : tensor<8xi32> loc(#loc70)
    %blk_A_log = tt.splat %A_log : !tt.ptr<f32> -> tensor<8x!tt.ptr<f32>> loc(#loc71)
    %blk_A_log_78 = tt.addptr %blk_A_log, %head_off_22 : tensor<8x!tt.ptr<f32>>, tensor<8xi32> loc(#loc71)
    %blk_A_log_79 = tt.load %blk_A_log_78, %mask_77 : tensor<8x!tt.ptr<f32>> loc(#loc72)
    %blk_a = arith.extsi %0 : i32 to i64 loc(#loc73)
    %blk_a_80 = arith.extsi %stride_a : i32 to i64 loc(#loc73)
    %blk_a_81 = arith.muli %blk_a, %blk_a_80 : i64 loc(#loc73)
    %blk_a_82 = arith.constant 2147483647 : i64 loc(#loc73)
    %blk_a_83 = arith.constant -2147483648 : i64 loc(#loc73)
    %blk_a_84 = arith.cmpi sle, %blk_a_81, %blk_a_82 : i64 loc(#loc73)
    %blk_a_85 = arith.cmpi sge, %blk_a_81, %blk_a_83 : i64 loc(#loc73)
    %blk_a_86 = arith.andi %blk_a_84, %blk_a_85 : i1 loc(#loc73)
    %blk_a_87 = arith.muli %0, %stride_a : i32 loc(#loc73)
    %blk_a_88 = tt.addptr %a, %blk_a_87 : !tt.ptr<bf16>, i32 loc(#loc74)
    %blk_a_89 = tt.splat %blk_a_88 : !tt.ptr<bf16> -> tensor<8x!tt.ptr<bf16>> loc(#loc75)
    %blk_a_90 = tt.addptr %blk_a_89, %head_off_22 : tensor<8x!tt.ptr<bf16>>, tensor<8xi32> loc(#loc75)
    %blk_a_91 = tt.load %blk_a_90, %mask_77 : tensor<8x!tt.ptr<bf16>> loc(#loc76)
    %blk_b = arith.extsi %0 : i32 to i64 loc(#loc77)
    %blk_b_92 = arith.extsi %stride_b : i32 to i64 loc(#loc77)
    %blk_b_93 = arith.muli %blk_b, %blk_b_92 : i64 loc(#loc77)
    %blk_b_94 = arith.constant 2147483647 : i64 loc(#loc77)
    %blk_b_95 = arith.constant -2147483648 : i64 loc(#loc77)
    %blk_b_96 = arith.cmpi sle, %blk_b_93, %blk_b_94 : i64 loc(#loc77)
    %blk_b_97 = arith.cmpi sge, %blk_b_93, %blk_b_95 : i64 loc(#loc77)
    %blk_b_98 = arith.andi %blk_b_96, %blk_b_97 : i1 loc(#loc77)
    %blk_b_99 = arith.muli %0, %stride_b : i32 loc(#loc77)
    %blk_b_100 = tt.addptr %b, %blk_b_99 : !tt.ptr<bf16>, i32 loc(#loc78)
    %blk_b_101 = tt.splat %blk_b_100 : !tt.ptr<bf16> -> tensor<8x!tt.ptr<bf16>> loc(#loc79)
    %blk_b_102 = tt.addptr %blk_b_101, %head_off_22 : tensor<8x!tt.ptr<bf16>>, tensor<8xi32> loc(#loc79)
    %blk_b_103 = tt.load %blk_b_102, %mask_77 : tensor<8x!tt.ptr<bf16>> loc(#loc80)
    %blk_bias = tt.splat %dt_bias : !tt.ptr<bf16> -> tensor<8x!tt.ptr<bf16>> loc(#loc81)
    %blk_bias_104 = tt.addptr %blk_bias, %head_off_22 : tensor<8x!tt.ptr<bf16>>, tensor<8xi32> loc(#loc81)
    %blk_bias_105 = tt.load %blk_bias_104, %mask_77 : tensor<8x!tt.ptr<bf16>> loc(#loc82)
    %x = arith.extf %blk_a_91 : tensor<8xbf16> to tensor<8xf32> loc(#loc83)
    %x_106 = arith.extf %blk_bias_105 : tensor<8xbf16> to tensor<8xf32> loc(#loc84)
    %x_107 = arith.addf %x, %x_106 : tensor<8xf32> loc(#loc85)
    %softplus_x = arith.constant 1.000000e+00 : f32 loc(#loc86)
    %softplus_x_108 = arith.constant 1.000000e+00 : f32 loc(#loc86)
    %softplus_x_109 = arith.constant dense<1.000000e+00> : tensor<8xf32> loc(#loc86)
    %softplus_x_110 = arith.mulf %softplus_x_109, %x_107 : tensor<8xf32> loc(#loc86)
    %softplus_x_111 = arith.constant 2.000000e+01 : f32 loc(#loc87)
    %softplus_x_112 = arith.constant dense<2.000000e+01> : tensor<8xf32> loc(#loc87)
    %softplus_x_113 = arith.cmpf ole, %softplus_x_110, %softplus_x_112 : tensor<8xf32> loc(#loc87)
    %softplus_x_114 = arith.constant 1.000000e+00 : f32 loc(#loc88)
    %softplus_x_115 = arith.constant 1.000000e+00 : f32 loc(#loc88)
    %softplus_x_116 = arith.constant dense<1.000000e+00> : tensor<8xf32> loc(#loc88)
    %softplus_x_117 = arith.mulf %softplus_x_116, %x_107 : tensor<8xf32> loc(#loc88)
    %softplus_x_118 = math.exp %softplus_x_117 : tensor<8xf32> loc(#loc89)
    %softplus_x_119 = arith.constant 1 : i32 loc(#loc90)
    %softplus_x_120 = arith.constant 1.000000e+00 : f32 loc(#loc90)
    %softplus_x_121 = arith.constant dense<1.000000e+00> : tensor<8xf32> loc(#loc90)
    %softplus_x_122 = arith.addf %softplus_x_121, %softplus_x_118 : tensor<8xf32> loc(#loc90)
    %softplus_x_123 = math.log %softplus_x_122 : tensor<8xf32> loc(#loc91)
    %softplus_x_124 = arith.constant 1.000000e+00 : f32 loc(#loc92)
    %softplus_x_125 = arith.constant 1.000000e+00 : f32 loc(#loc92)
    %softplus_x_126 = arith.constant dense<1.000000e+00> : tensor<8xf32> loc(#loc92)
    %softplus_x_127 = arith.mulf %softplus_x_126, %softplus_x_123 : tensor<8xf32> loc(#loc92)
    %softplus_x_128 = arith.select %softplus_x_113, %softplus_x_127, %x_107 : tensor<8xi1>, tensor<8xf32> loc(#loc93)
    %blk_g = math.exp %blk_A_log_79 : tensor<8xf32> loc(#loc94)
    %blk_g_129 = arith.constant 0.000000e+00 : f32 loc(#loc95)
    %blk_g_130 = arith.constant dense<0.000000e+00> : tensor<8xf32> loc(#loc95)
    %blk_g_131 = arith.subf %blk_g_130, %blk_g : tensor<8xf32> loc(#loc95)
    %blk_g_132 = arith.mulf %blk_g_131, %softplus_x_128 : tensor<8xf32> loc(#loc96)
    %3 = tt.splat %g : !tt.ptr<f32> -> tensor<8x!tt.ptr<f32>> loc(#loc39)
    %4 = tt.addptr %3, %off_75 : tensor<8x!tt.ptr<f32>>, tensor<8xi32> loc(#loc39)
    tt.store %4, %blk_g_132, %mask_77 : tensor<8x!tt.ptr<f32>> loc(#loc40)
    %blk_beta_output = arith.extf %blk_b_103 : tensor<8xbf16> to tensor<8xf32> loc(#loc97)
    %blk_beta_output_133 = tt.call @triton.language.standard.sigmoid__fp32S8S__(%blk_beta_output) : (tensor<8xf32>) -> tensor<8xf32> loc(#loc98)
    %5 = tt.splat %beta_output : !tt.ptr<f32> -> tensor<8x!tt.ptr<f32>> loc(#loc43)
    %6 = tt.addptr %5, %off_75 : tensor<8x!tt.ptr<f32>>, tensor<8xi32> loc(#loc43)
    %7 = arith.truncf %blk_beta_output_133 : tensor<8xf32> to tensor<8xbf16> loc(#loc44)
    %8 = arith.extf %7 : tensor<8xbf16> to tensor<8xf32> loc(#loc45)
    tt.store %6, %8, %mask_77 : tensor<8x!tt.ptr<f32>> loc(#loc45)
    tt.return loc(#loc46)
  } loc(#loc)
  tt.func private @triton.language.standard.sigmoid__fp32S8S__(%x: tensor<8xf32> loc("x"(#loc47))) -> tensor<8xf32> attributes {noinline = false} {
    %cst = arith.constant 0.000000e+00 : f32 loc(#loc48)
    %cst_0 = arith.constant dense<0.000000e+00> : tensor<8xf32> loc(#loc48)
    %0 = arith.subf %cst_0, %x : tensor<8xf32> loc(#loc48)
    %1 = math.exp %0 : tensor<8xf32> loc(#loc49)
    %c1_i32 = arith.constant 1 : i32 loc(#loc50)
    %cst_1 = arith.constant 1.000000e+00 : f32 loc(#loc50)
    %cst_2 = arith.constant dense<1.000000e+00> : tensor<8xf32> loc(#loc50)
    %2 = arith.addf %cst_2, %1 : tensor<8xf32> loc(#loc50)
    %c1_i32_3 = arith.constant 1 : i32 loc(#loc51)
    %cst_4 = arith.constant 1.000000e+00 : f32 loc(#loc51)
    %cst_5 = arith.constant dense<1.000000e+00> : tensor<8xf32> loc(#loc51)
    %3 = arith.divf %cst_5, %2 : tensor<8xf32> loc(#loc51)
    tt.return %3 : tensor<8xf32> loc(#loc52)
  ^bb1:  // no predecessors
    %4 = ub.poison : tensor<8xf32> loc(#loc53)
    tt.return %4 : tensor<8xf32> loc(#loc53)
  } loc(#loc47)
} loc(#loc)
#loc1 = loc("/sgl-workspace/sglang/python/sglang/srt/layers/attention/fla/fused_gdn_gating.py":26:34)
#loc2 = loc("/sgl-workspace/sglang/python/sglang/srt/layers/attention/fla/fused_gdn_gating.py":26:52)
#loc3 = loc("/sgl-workspace/sglang/python/sglang/srt/layers/attention/fla/fused_gdn_gating.py":26:70)
#loc4 = loc("/sgl-workspace/sglang/python/sglang/srt/layers/attention/fla/fused_gdn_gating.py":27:21)
#loc5 = loc("/sgl-workspace/sglang/python/sglang/srt/layers/attention/fla/fused_gdn_gating.py":27:46)
#loc6 = loc("/sgl-workspace/sglang/python/sglang/srt/layers/attention/fla/fused_gdn_gating.py":27:33)
#loc7 = loc("/sgl-workspace/sglang/python/sglang/srt/layers/attention/fla/fused_gdn_gating.py":28:16)
#loc8 = loc("/sgl-workspace/sglang/python/sglang/srt/layers/attention/fla/fused_gdn_gating.py":28:26)
#loc9 = loc("/sgl-workspace/sglang/python/sglang/srt/layers/attention/fla/fused_gdn_gating.py":28:44)
#loc10 = loc("/sgl-workspace/sglang/python/sglang/srt/layers/attention/fla/fused_gdn_gating.py":28:38)
#loc11 = loc("/sgl-workspace/sglang/python/sglang/srt/layers/attention/fla/fused_gdn_gating.py":28:56)
#loc12 = loc("/sgl-workspace/sglang/python/sglang/srt/layers/attention/fla/fused_gdn_gating.py":29:22)
#loc13 = loc("/sgl-workspace/sglang/python/sglang/srt/layers/attention/fla/fused_gdn_gating.py":30:32)
#loc14 = loc("/sgl-workspace/sglang/python/sglang/srt/layers/attention/fla/fused_gdn_gating.py":30:24)
#loc15 = loc("/sgl-workspace/sglang/python/sglang/srt/layers/attention/fla/fused_gdn_gating.py":31:30)
#loc16 = loc("/sgl-workspace/sglang/python/sglang/srt/layers/attention/fla/fused_gdn_gating.py":31:24)
#loc17 = loc("/sgl-workspace/sglang/python/sglang/srt/layers/attention/fla/fused_gdn_gating.py":31:41)
#loc18 = loc("/sgl-workspace/sglang/python/sglang/srt/layers/attention/fla/fused_gdn_gating.py":31:20)
#loc19 = loc("/sgl-workspace/sglang/python/sglang/srt/layers/attention/fla/fused_gdn_gating.py":32:30)
#loc20 = loc("/sgl-workspace/sglang/python/sglang/srt/layers/attention/fla/fused_gdn_gating.py":32:24)
#loc21 = loc("/sgl-workspace/sglang/python/sglang/srt/layers/attention/fla/fused_gdn_gating.py":32:41)
#loc22 = loc("/sgl-workspace/sglang/python/sglang/srt/layers/attention/fla/fused_gdn_gating.py":32:20)
#loc23 = loc("/sgl-workspace/sglang/python/sglang/srt/layers/attention/fla/fused_gdn_gating.py":33:33)
#loc24 = loc("/sgl-workspace/sglang/python/sglang/srt/layers/attention/fla/fused_gdn_gating.py":33:23)
#loc25 = loc("/sgl-workspace/sglang/python/sglang/srt/layers/attention/fla/fused_gdn_gating.py":34:17)
#loc26 = loc("/sgl-workspace/sglang/python/sglang/srt/layers/attention/fla/fused_gdn_gating.py":34:43)
#loc27 = loc("/sgl-workspace/sglang/python/sglang/srt/layers/attention/fla/fused_gdn_gating.py":34:31)
#loc28 = loc("/sgl-workspace/sglang/python/sglang/srt/layers/attention/fla/fused_gdn_gating.py":36:15)
#loc29 = loc("/sgl-workspace/sglang/python/sglang/srt/layers/attention/fla/fused_gdn_gating.py":36:20)
#loc30 = loc("/sgl-workspace/sglang/python/sglang/srt/layers/attention/fla/fused_gdn_gating.py":36:69)
#loc31 = loc("/sgl-workspace/sglang/python/sglang/srt/layers/attention/fla/fused_gdn_gating.py":36:62)
#loc32 = loc("/sgl-workspace/sglang/python/sglang/srt/layers/attention/fla/fused_gdn_gating.py":36:55)
#loc33 = loc("/sgl-workspace/sglang/python/sglang/srt/layers/attention/fla/fused_gdn_gating.py":36:51)
#loc34 = loc("/sgl-workspace/sglang/python/sglang/srt/layers/attention/fla/fused_gdn_gating.py":36:44)
#loc35 = loc("/sgl-workspace/sglang/python/sglang/srt/layers/attention/fla/fused_gdn_gating.py":36:74)
#loc36 = loc("/sgl-workspace/sglang/python/sglang/srt/layers/attention/fla/fused_gdn_gating.py":38:20)
#loc37 = loc("/sgl-workspace/sglang/python/sglang/srt/layers/attention/fla/fused_gdn_gating.py":38:13)
#loc38 = loc("/sgl-workspace/sglang/python/sglang/srt/layers/attention/fla/fused_gdn_gating.py":38:48)
#loc39 = loc("/sgl-workspace/sglang/python/sglang/srt/layers/attention/fla/fused_gdn_gating.py":39:17)
#loc40 = loc("/sgl-workspace/sglang/python/sglang/srt/layers/attention/fla/fused_gdn_gating.py":39:22)
#loc41 = loc("/sgl-workspace/sglang/python/sglang/srt/layers/attention/fla/fused_gdn_gating.py":40:42)
#loc42 = loc("/sgl-workspace/sglang/python/sglang/srt/layers/attention/fla/fused_gdn_gating.py":40:33)
#loc43 = loc("/sgl-workspace/sglang/python/sglang/srt/layers/attention/fla/fused_gdn_gating.py":41:27)
#loc44 = loc("/sgl-workspace/sglang/python/sglang/srt/layers/attention/fla/fused_gdn_gating.py":41:51)
#loc45 = loc("/sgl-workspace/sglang/python/sglang/srt/layers/attention/fla/fused_gdn_gating.py":41:32)
#loc46 = loc("/sgl-workspace/sglang/python/sglang/srt/layers/attention/fla/fused_gdn_gating.py":41:4)
#loc48 = loc("/usr/local/lib/python3.12/dist-packages/triton/language/standard.py":48:30)
#loc49 = loc("/usr/local/lib/python3.12/dist-packages/triton/language/standard.py":48:29)
#loc50 = loc("/usr/local/lib/python3.12/dist-packages/triton/language/standard.py":48:20)
#loc51 = loc("/usr/local/lib/python3.12/dist-packages/triton/language/standard.py":48:16)
#loc52 = loc("/usr/local/lib/python3.12/dist-packages/triton/language/standard.py":48:11)
#loc53 = loc("/usr/local/lib/python3.12/dist-packages/triton/language/standard.py":48:4)
#loc62 = loc("head_off"(#loc4))
#loc63 = loc("head_off"(#loc5))
#loc64 = loc("head_off"(#loc6))
#loc65 = loc("off"(#loc7))
#loc66 = loc("off"(#loc8))
#loc67 = loc("off"(#loc9))
#loc68 = loc("off"(#loc10))
#loc69 = loc("off"(#loc11))
#loc70 = loc("mask"(#loc12))
#loc71 = loc("blk_A_log"(#loc13))
#loc72 = loc("blk_A_log"(#loc14))
#loc73 = loc("blk_a"(#loc15))
#loc74 = loc("blk_a"(#loc16))
#loc75 = loc("blk_a"(#loc17))
#loc76 = loc("blk_a"(#loc18))
#loc77 = loc("blk_b"(#loc19))
#loc78 = loc("blk_b"(#loc20))
#loc79 = loc("blk_b"(#loc21))
#loc80 = loc("blk_b"(#loc22))
#loc81 = loc("blk_bias"(#loc23))
#loc82 = loc("blk_bias"(#loc24))
#loc83 = loc("x"(#loc25))
#loc84 = loc("x"(#loc26))
#loc85 = loc("x"(#loc27))
#loc86 = loc("softplus_x"(#loc28))
#loc87 = loc("softplus_x"(#loc29))
#loc88 = loc("softplus_x"(#loc30))
#loc89 = loc("softplus_x"(#loc31))
#loc90 = loc("softplus_x"(#loc32))
#loc91 = loc("softplus_x"(#loc33))
#loc92 = loc("softplus_x"(#loc34))
#loc93 = loc("softplus_x"(#loc35))
#loc94 = loc("blk_g"(#loc36))
#loc95 = loc("blk_g"(#loc37))
#loc96 = loc("blk_g"(#loc38))
#loc97 = loc("blk_beta_output"(#loc41))
#loc98 = loc("blk_beta_output"(#loc42))
