#loc = loc("/sgl-workspace/sglang/python/sglang/srt/layers/attention/fla/wy_fast.py":23:0)
#loc61 = loc("k"(#loc))
#loc62 = loc("v"(#loc))
#loc63 = loc("beta"(#loc))
#loc64 = loc("w"(#loc))
#loc65 = loc("u"(#loc))
#loc66 = loc("A"(#loc))
#loc67 = loc("g"(#loc))
#loc68 = loc("cu_seqlens"(#loc))
#loc69 = loc("chunk_indices"(#loc))
#loc70 = loc("T"(#loc))
module {
  tt.func public @recompute_w_u_fwd_kernel(%k: !tt.ptr<bf16> {tt.divisibility = 16 : i32} loc("k"(#loc)), %v: !tt.ptr<bf16> {tt.divisibility = 16 : i32} loc("v"(#loc)), %beta: !tt.ptr<f32> {tt.divisibility = 16 : i32} loc("beta"(#loc)), %w: !tt.ptr<bf16> {tt.divisibility = 16 : i32} loc("w"(#loc)), %u: !tt.ptr<bf16> {tt.divisibility = 16 : i32} loc("u"(#loc)), %A: !tt.ptr<bf16> {tt.divisibility = 16 : i32} loc("A"(#loc)), %g: !tt.ptr<f32> {tt.divisibility = 16 : i32} loc("g"(#loc)), %cu_seqlens: !tt.ptr<i32> {tt.divisibility = 16 : i32} loc("cu_seqlens"(#loc)), %chunk_indices: !tt.ptr<i32> {tt.divisibility = 16 : i32} loc("chunk_indices"(#loc)), %T: i32 loc("T"(#loc))) attributes {noinline = false} {
    %cst = arith.constant dense<1024> : tensor<64x1xi64> loc(#loc1)
    %cst_0 = arith.constant dense<128> : tensor<1x64xi64> loc(#loc1)
    %cst_1 = arith.constant dense<3072> : tensor<64x1xi64> loc(#loc1)
    %b_A = arith.constant dense<64> : tensor<1x64xi64> loc(#loc71)
    %cst_2 = arith.constant dense<0> : tensor<1x64xi64> loc(#loc1)
    %cst_3 = arith.constant dense<0> : tensor<64x1xi64> loc(#loc1)
    %b_A_4 = arith.constant dense<1536> : tensor<64x1xi64> loc(#loc71)
    %cst_5 = arith.constant dense<0> : tensor<64xi64> loc(#loc1)
    %cst_6 = arith.constant dense<24> : tensor<64xi64> loc(#loc1)
    %c3_i32 = arith.constant 3 : i32 loc(#loc1)
    %c8_i32 = arith.constant 8 : i32 loc(#loc1)
    %cst_7 = arith.constant dense<0.000000e+00> : tensor<64x64xf32> loc(#loc1)
    %c128_i32 = arith.constant 128 : i32 loc(#loc1)
    %c0_i32 = arith.constant 0 : i32 loc(#loc1)
    %c64_i32 = arith.constant 64 : i32 loc(#loc1)
    %c1_i32 = arith.constant 1 : i32 loc(#loc1)
    %c2_i32 = arith.constant 2 : i32 loc(#loc1)
    %c24_i32 = arith.constant 24 : i32 loc(#loc1)
    %0 = tt.get_program_id x : i32 loc(#loc3)
    %1 = tt.get_program_id y : i32 loc(#loc4)
    %2 = arith.remsi %1, %c24_i32 : i32 loc(#loc5)
    %3 = arith.muli %0, %c2_i32 : i32 loc(#loc6)
    %4 = tt.addptr %chunk_indices, %3 : !tt.ptr<i32>, i32 loc(#loc7)
    %5 = tt.load %4 : !tt.ptr<i32> loc(#loc8)
    %6 = tt.addptr %4, %c1_i32 : !tt.ptr<i32>, i32 loc(#loc9)
    %7 = tt.load %6 : !tt.ptr<i32> loc(#loc10)
    %8 = tt.addptr %cu_seqlens, %5 : !tt.ptr<i32>, i32 loc(#loc11)
    %9 = tt.load %8 : !tt.ptr<i32> loc(#loc12)
    %10 = tt.addptr %8, %c1_i32 : !tt.ptr<i32>, i32 loc(#loc13)
    %11 = tt.load %10 : !tt.ptr<i32> loc(#loc14)
    %T_8 = arith.subi %11, %9 : i32 loc(#loc72)
    %p_beta = arith.muli %9, %c24_i32 : i32 loc(#loc73)
    %p_beta_9 = tt.addptr %beta, %p_beta : !tt.ptr<f32>, i32 loc(#loc74)
    %p_beta_10 = tt.addptr %p_beta_9, %2 : !tt.ptr<f32>, i32 loc(#loc75)
    %p_beta_11 = arith.muli %7, %c64_i32 : i32 loc(#loc76)
    %p_beta_12 = arith.extsi %T_8 : i32 to i64 loc(#loc77)
    %p_beta_13 = arith.extsi %p_beta_11 : i32 to i64 loc(#loc77)
    %p_g = arith.addi %p_beta, %2 : i32 loc(#loc78)
    %p_g_14 = tt.addptr %g, %p_g : !tt.ptr<f32>, i32 loc(#loc79)
    %p_A = arith.muli %p_g, %c64_i32 : i32 loc(#loc80)
    %p_A_15 = tt.addptr %A, %p_A : !tt.ptr<bf16>, i32 loc(#loc81)
    %b_beta = tt.splat %p_beta_10 : !tt.ptr<f32> -> tensor<64x!tt.ptr<f32>> loc(#loc82)
    %b_beta_16 = tt.splat %p_beta_13 : i64 -> tensor<64xi64> loc(#loc82)
    %b_beta_17 = tt.make_range {end = 64 : i32, start = 0 : i32} : tensor<64xi32> loc(#loc82)
    %b_beta_18 = arith.extsi %b_beta_17 : tensor<64xi32> to tensor<64xi64> loc(#loc82)
    %b_beta_19 = arith.addi %b_beta_16, %b_beta_18 : tensor<64xi64> loc(#loc82)
    %b_beta_20 = arith.muli %b_beta_19, %cst_6 : tensor<64xi64> loc(#loc82)
    %b_beta_21 = tt.addptr %b_beta, %b_beta_20 : tensor<64x!tt.ptr<f32>>, tensor<64xi64> loc(#loc82)
    %b_beta_22 = arith.cmpi sge, %b_beta_19, %cst_5 : tensor<64xi64> loc(#loc82)
    %b_beta_23 = tt.splat %p_beta_12 : i64 -> tensor<64xi64> loc(#loc82)
    %b_beta_24 = arith.cmpi slt, %b_beta_19, %b_beta_23 : tensor<64xi64> loc(#loc82)
    %b_beta_25 = arith.andi %b_beta_22, %b_beta_24 : tensor<64xi1> loc(#loc82)
    %b_beta_26 = tt.load %b_beta_21, %b_beta_25 : tensor<64x!tt.ptr<f32>> loc(#loc82)
    %b_A_27 = tt.splat %p_A_15 : !tt.ptr<bf16> -> tensor<64x64x!tt.ptr<bf16>> loc(#loc71)
    %b_A_28 = tt.expand_dims %b_beta_19 {axis = 1 : i32} : tensor<64xi64> -> tensor<64x1xi64> loc(#loc71)
    %b_A_29 = arith.muli %b_A_28, %b_A_4 : tensor<64x1xi64> loc(#loc71)
    %b_A_30 = tt.broadcast %b_A_29 : tensor<64x1xi64> -> tensor<64x64xi64> loc(#loc71)
    %b_A_31 = tt.expand_dims %b_beta_18 {axis = 0 : i32} : tensor<64xi64> -> tensor<1x64xi64> loc(#loc71)
    %b_A_32 = tt.broadcast %b_A_31 : tensor<1x64xi64> -> tensor<64x64xi64> loc(#loc71)
    %b_A_33 = arith.addi %b_A_30, %b_A_32 : tensor<64x64xi64> loc(#loc71)
    %b_A_34 = tt.addptr %b_A_27, %b_A_33 : tensor<64x64x!tt.ptr<bf16>>, tensor<64x64xi64> loc(#loc71)
    %b_A_35 = arith.cmpi sge, %b_A_28, %cst_3 : tensor<64x1xi64> loc(#loc71)
    %b_A_36 = tt.splat %p_beta_12 : i64 -> tensor<64x1xi64> loc(#loc71)
    %b_A_37 = arith.cmpi slt, %b_A_28, %b_A_36 : tensor<64x1xi64> loc(#loc71)
    %b_A_38 = arith.andi %b_A_35, %b_A_37 : tensor<64x1xi1> loc(#loc71)
    %b_A_39 = tt.broadcast %b_A_38 : tensor<64x1xi1> -> tensor<64x64xi1> loc(#loc71)
    %b_A_40 = arith.cmpi sge, %b_A_31, %cst_2 : tensor<1x64xi64> loc(#loc71)
    %b_A_41 = arith.cmpi slt, %b_A_31, %b_A : tensor<1x64xi64> loc(#loc71)
    %b_A_42 = arith.andi %b_A_40, %b_A_41 : tensor<1x64xi1> loc(#loc71)
    %b_A_43 = tt.broadcast %b_A_42 : tensor<1x64xi1> -> tensor<64x64xi1> loc(#loc71)
    %b_A_44 = arith.andi %b_A_39, %b_A_43 : tensor<64x64xi1> loc(#loc71)
    %b_A_45 = tt.load %b_A_34, %b_A_44 : tensor<64x64x!tt.ptr<bf16>> loc(#loc71)
    %b_g = tt.splat %p_g_14 : !tt.ptr<f32> -> tensor<64x!tt.ptr<f32>> loc(#loc83)
    %b_g_46 = tt.addptr %b_g, %b_beta_20 : tensor<64x!tt.ptr<f32>>, tensor<64xi64> loc(#loc83)
    %b_g_47 = tt.load %b_g_46, %b_beta_25 : tensor<64x!tt.ptr<f32>> loc(#loc83)
    %b_g_48 = math.exp %b_g_47 : tensor<64xf32> loc(#loc84)
    scf.for %i_v = %c0_i32 to %c2_i32 step %c1_i32  : i32 {
      %p_v = arith.muli %p_g, %c128_i32 : i32 loc(#loc85)
      %p_v_49 = tt.addptr %v, %p_v : !tt.ptr<bf16>, i32 loc(#loc86)
      %p_v_50 = arith.muli %i_v, %c64_i32 : i32 loc(#loc87)
      %p_v_51 = arith.extsi %p_v_50 : i32 to i64 loc(#loc88)
      %p_u = tt.addptr %u, %p_v : !tt.ptr<bf16>, i32 loc(#loc89)
      %b_v = tt.splat %p_v_49 : !tt.ptr<bf16> -> tensor<64x64x!tt.ptr<bf16>> loc(#loc90)
      %b_v_52 = arith.muli %b_A_28, %cst_1 : tensor<64x1xi64> loc(#loc90)
      %b_v_53 = tt.broadcast %b_v_52 : tensor<64x1xi64> -> tensor<64x64xi64> loc(#loc90)
      %b_v_54 = tt.splat %p_v_51 : i64 -> tensor<64xi64> loc(#loc90)
      %b_v_55 = arith.addi %b_v_54, %b_beta_18 : tensor<64xi64> loc(#loc90)
      %b_v_56 = tt.expand_dims %b_v_55 {axis = 0 : i32} : tensor<64xi64> -> tensor<1x64xi64> loc(#loc90)
      %b_v_57 = tt.broadcast %b_v_56 : tensor<1x64xi64> -> tensor<64x64xi64> loc(#loc90)
      %b_v_58 = arith.addi %b_v_53, %b_v_57 : tensor<64x64xi64> loc(#loc90)
      %b_v_59 = tt.addptr %b_v, %b_v_58 : tensor<64x64x!tt.ptr<bf16>>, tensor<64x64xi64> loc(#loc90)
      %b_v_60 = arith.cmpi sge, %b_v_56, %cst_2 : tensor<1x64xi64> loc(#loc90)
      %b_v_61 = arith.cmpi slt, %b_v_56, %cst_0 : tensor<1x64xi64> loc(#loc90)
      %b_v_62 = arith.andi %b_v_60, %b_v_61 : tensor<1x64xi1> loc(#loc90)
      %b_v_63 = tt.broadcast %b_v_62 : tensor<1x64xi1> -> tensor<64x64xi1> loc(#loc90)
      %b_v_64 = arith.andi %b_A_39, %b_v_63 : tensor<64x64xi1> loc(#loc90)
      %b_v_65 = tt.load %b_v_59, %b_v_64 : tensor<64x64x!tt.ptr<bf16>> loc(#loc90)
      %b_vb = tt.expand_dims %b_beta_26 {axis = 1 : i32} : tensor<64xf32> -> tensor<64x1xf32> loc(#loc91)
      %b_vb_66 = arith.extf %b_v_65 : tensor<64x64xbf16> to tensor<64x64xf32> loc(#loc92)
      %b_vb_67 = tt.broadcast %b_vb : tensor<64x1xf32> -> tensor<64x64xf32> loc(#loc92)
      %b_vb_68 = arith.mulf %b_vb_66, %b_vb_67 : tensor<64x64xf32> loc(#loc92)
      %b_vb_69 = arith.truncf %b_vb_68 : tensor<64x64xf32> to tensor<64x64xbf16> loc(#loc93)
      %b_u = tt.dot %b_A_45, %b_vb_69, %cst_7 : tensor<64x64xbf16> * tensor<64x64xbf16> -> tensor<64x64xf32> loc(#loc94)
      %12 = arith.truncf %b_u : tensor<64x64xf32> to tensor<64x64xbf16> loc(#loc39)
      %13 = tt.splat %p_u : !tt.ptr<bf16> -> tensor<64x64x!tt.ptr<bf16>> loc(#loc40)
      %14 = tt.addptr %13, %b_v_58 : tensor<64x64x!tt.ptr<bf16>>, tensor<64x64xi64> loc(#loc40)
      tt.store %14, %12, %b_v_64 : tensor<64x64x!tt.ptr<bf16>> loc(#loc40)
    } loc(#loc28)
    scf.for %i_k = %c0_i32 to %c2_i32 step %c1_i32  : i32 {
      %p_k = arith.muli %9, %c8_i32 : i32 loc(#loc95)
      %p_k_49 = arith.divsi %2, %c3_i32 : i32 loc(#loc96)
      %p_k_50 = arith.addi %p_k, %p_k_49 : i32 loc(#loc97)
      %p_k_51 = arith.muli %p_k_50, %c128_i32 : i32 loc(#loc98)
      %p_k_52 = tt.addptr %k, %p_k_51 : !tt.ptr<bf16>, i32 loc(#loc99)
      %p_k_53 = arith.muli %i_k, %c64_i32 : i32 loc(#loc100)
      %p_k_54 = arith.extsi %p_k_53 : i32 to i64 loc(#loc101)
      %p_w = arith.muli %p_g, %c128_i32 : i32 loc(#loc102)
      %p_w_55 = tt.addptr %w, %p_w : !tt.ptr<bf16>, i32 loc(#loc103)
      %b_k = tt.splat %p_k_52 : !tt.ptr<bf16> -> tensor<64x64x!tt.ptr<bf16>> loc(#loc104)
      %b_k_56 = arith.muli %b_A_28, %cst : tensor<64x1xi64> loc(#loc104)
      %b_k_57 = tt.broadcast %b_k_56 : tensor<64x1xi64> -> tensor<64x64xi64> loc(#loc104)
      %b_k_58 = tt.splat %p_k_54 : i64 -> tensor<64xi64> loc(#loc104)
      %b_k_59 = arith.addi %b_k_58, %b_beta_18 : tensor<64xi64> loc(#loc104)
      %b_k_60 = tt.expand_dims %b_k_59 {axis = 0 : i32} : tensor<64xi64> -> tensor<1x64xi64> loc(#loc104)
      %b_k_61 = tt.broadcast %b_k_60 : tensor<1x64xi64> -> tensor<64x64xi64> loc(#loc104)
      %b_k_62 = arith.addi %b_k_57, %b_k_61 : tensor<64x64xi64> loc(#loc104)
      %b_k_63 = tt.addptr %b_k, %b_k_62 : tensor<64x64x!tt.ptr<bf16>>, tensor<64x64xi64> loc(#loc104)
      %b_k_64 = arith.cmpi sge, %b_k_60, %cst_2 : tensor<1x64xi64> loc(#loc104)
      %b_k_65 = arith.cmpi slt, %b_k_60, %cst_0 : tensor<1x64xi64> loc(#loc104)
      %b_k_66 = arith.andi %b_k_64, %b_k_65 : tensor<1x64xi1> loc(#loc104)
      %b_k_67 = tt.broadcast %b_k_66 : tensor<1x64xi1> -> tensor<64x64xi1> loc(#loc104)
      %b_k_68 = arith.andi %b_A_39, %b_k_67 : tensor<64x64xi1> loc(#loc104)
      %b_k_69 = tt.load %b_k_63, %b_k_68 : tensor<64x64x!tt.ptr<bf16>> loc(#loc104)
      %b_kb = tt.expand_dims %b_beta_26 {axis = 1 : i32} : tensor<64xf32> -> tensor<64x1xf32> loc(#loc105)
      %b_kb_70 = arith.extf %b_k_69 : tensor<64x64xbf16> to tensor<64x64xf32> loc(#loc106)
      %b_kb_71 = tt.broadcast %b_kb : tensor<64x1xf32> -> tensor<64x64xf32> loc(#loc106)
      %b_kb_72 = arith.mulf %b_kb_70, %b_kb_71 : tensor<64x64xf32> loc(#loc106)
      %b_kb_73 = tt.expand_dims %b_g_48 {axis = 1 : i32} : tensor<64xf32> -> tensor<64x1xf32> loc(#loc107)
      %b_kb_74 = tt.broadcast %b_kb_73 : tensor<64x1xf32> -> tensor<64x64xf32> loc(#loc108)
      %b_kb_75 = arith.mulf %b_kb_72, %b_kb_74 : tensor<64x64xf32> loc(#loc108)
      %b_kb_76 = arith.truncf %b_kb_75 : tensor<64x64xf32> to tensor<64x64xbf16> loc(#loc109)
      %b_w = tt.dot %b_A_45, %b_kb_76, %cst_7, inputPrecision = tf32 : tensor<64x64xbf16> * tensor<64x64xbf16> -> tensor<64x64xf32> loc(#loc110)
      %12 = arith.truncf %b_w : tensor<64x64xf32> to tensor<64x64xbf16> loc(#loc58)
      %13 = tt.splat %p_w_55 : !tt.ptr<bf16> -> tensor<64x64x!tt.ptr<bf16>> loc(#loc59)
      %14 = arith.muli %b_A_28, %cst_1 : tensor<64x1xi64> loc(#loc59)
      %15 = tt.broadcast %14 : tensor<64x1xi64> -> tensor<64x64xi64> loc(#loc59)
      %16 = arith.addi %15, %b_k_61 : tensor<64x64xi64> loc(#loc59)
      %17 = tt.addptr %13, %16 : tensor<64x64x!tt.ptr<bf16>>, tensor<64x64xi64> loc(#loc59)
      tt.store %17, %12, %b_k_68 : tensor<64x64x!tt.ptr<bf16>> loc(#loc59)
    } loc(#loc41)
    tt.return loc(#loc60)
  } loc(#loc)
} loc(#loc)
#loc1 = loc(unknown)
#loc2 = loc("/sgl-workspace/sglang/python/sglang/srt/layers/attention/fla/wy_fast.py":63:18)
#loc3 = loc("/sgl-workspace/sglang/python/sglang/srt/layers/attention/fla/wy_fast.py":43:30)
#loc4 = loc("/sgl-workspace/sglang/python/sglang/srt/layers/attention/fla/wy_fast.py":43:48)
#loc5 = loc("/sgl-workspace/sglang/python/sglang/srt/layers/attention/fla/wy_fast.py":44:33)
#loc6 = loc("/sgl-workspace/sglang/python/sglang/srt/layers/attention/fla/wy_fast.py":46:49)
#loc7 = loc("/sgl-workspace/sglang/python/sglang/srt/layers/attention/fla/wy_fast.py":46:43)
#loc8 = loc("/sgl-workspace/sglang/python/sglang/srt/layers/attention/fla/wy_fast.py":46:27)
#loc9 = loc("/sgl-workspace/sglang/python/sglang/srt/layers/attention/fla/wy_fast.py":47:38)
#loc10 = loc("/sgl-workspace/sglang/python/sglang/srt/layers/attention/fla/wy_fast.py":47:12)
#loc11 = loc("/sgl-workspace/sglang/python/sglang/srt/layers/attention/fla/wy_fast.py":49:40)
#loc12 = loc("/sgl-workspace/sglang/python/sglang/srt/layers/attention/fla/wy_fast.py":49:27)
#loc13 = loc("/sgl-workspace/sglang/python/sglang/srt/layers/attention/fla/wy_fast.py":50:31)
#loc14 = loc("/sgl-workspace/sglang/python/sglang/srt/layers/attention/fla/wy_fast.py":50:12)
#loc15 = loc("/sgl-workspace/sglang/python/sglang/srt/layers/attention/fla/wy_fast.py":52:18)
#loc16 = loc("/sgl-workspace/sglang/python/sglang/srt/layers/attention/fla/wy_fast.py":56:21)
#loc17 = loc("/sgl-workspace/sglang/python/sglang/srt/layers/attention/fla/wy_fast.py":56:15)
#loc18 = loc("/sgl-workspace/sglang/python/sglang/srt/layers/attention/fla/wy_fast.py":56:25)
#loc19 = loc("/sgl-workspace/sglang/python/sglang/srt/layers/attention/fla/wy_fast.py":56:49)
#loc20 = loc("/sgl-workspace/sglang/python/sglang/srt/layers/attention/fla/wy_fast.py":56:62)
#loc21 = loc("/sgl-workspace/sglang/python/sglang/srt/layers/attention/fla/wy_fast.py":58:43)
#loc22 = loc("/sgl-workspace/sglang/python/sglang/srt/layers/attention/fla/wy_fast.py":58:33)
#loc23 = loc("/sgl-workspace/sglang/python/sglang/srt/layers/attention/fla/wy_fast.py":60:30)
#loc24 = loc("/sgl-workspace/sglang/python/sglang/srt/layers/attention/fla/wy_fast.py":60:12)
#loc25 = loc("/sgl-workspace/sglang/python/sglang/srt/layers/attention/fla/wy_fast.py":62:21)
#loc26 = loc("/sgl-workspace/sglang/python/sglang/srt/layers/attention/fla/wy_fast.py":64:25)
#loc27 = loc("/sgl-workspace/sglang/python/sglang/srt/layers/attention/fla/wy_fast.py":64:17)
#loc28 = loc("/sgl-workspace/sglang/python/sglang/srt/layers/attention/fla/wy_fast.py":66:21)
#loc29 = loc("/sgl-workspace/sglang/python/sglang/srt/layers/attention/fla/wy_fast.py":68:34)
#loc30 = loc("/sgl-workspace/sglang/python/sglang/srt/layers/attention/fla/wy_fast.py":68:16)
#loc31 = loc("/sgl-workspace/sglang/python/sglang/srt/layers/attention/fla/wy_fast.py":71:29)
#loc32 = loc("/sgl-workspace/sglang/python/sglang/srt/layers/attention/fla/wy_fast.py":73:12)
#loc33 = loc("/sgl-workspace/sglang/python/sglang/srt/layers/attention/fla/wy_fast.py":76:16)
#loc34 = loc("/sgl-workspace/sglang/python/sglang/srt/layers/attention/fla/wy_fast.py":83:22)
#loc35 = loc("/sgl-workspace/sglang/python/sglang/srt/layers/attention/fla/wy_fast.py":84:29)
#loc36 = loc("/sgl-workspace/sglang/python/sglang/srt/layers/attention/fla/wy_fast.py":84:22)
#loc37 = loc("/sgl-workspace/sglang/python/sglang/srt/layers/attention/fla/wy_fast.py":84:42)
#loc38 = loc("/sgl-workspace/sglang/python/sglang/srt/layers/attention/fla/wy_fast.py":85:26)
#loc39 = loc("/sgl-workspace/sglang/python/sglang/srt/layers/attention/fla/wy_fast.py":86:29)
#loc40 = loc("/sgl-workspace/sglang/python/sglang/srt/layers/attention/fla/wy_fast.py":86:22)
#loc41 = loc("/sgl-workspace/sglang/python/sglang/srt/layers/attention/fla/wy_fast.py":88:21)
#loc42 = loc("/sgl-workspace/sglang/python/sglang/srt/layers/attention/fla/wy_fast.py":90:23)
#loc43 = loc("/sgl-workspace/sglang/python/sglang/srt/layers/attention/fla/wy_fast.py":90:36)
#loc44 = loc("/sgl-workspace/sglang/python/sglang/srt/layers/attention/fla/wy_fast.py":90:28)
#loc45 = loc("/sgl-workspace/sglang/python/sglang/srt/layers/attention/fla/wy_fast.py":90:48)
#loc46 = loc("/sgl-workspace/sglang/python/sglang/srt/layers/attention/fla/wy_fast.py":90:16)
#loc47 = loc("/sgl-workspace/sglang/python/sglang/srt/layers/attention/fla/wy_fast.py":93:29)
#loc48 = loc("/sgl-workspace/sglang/python/sglang/srt/layers/attention/fla/wy_fast.py":95:12)
#loc49 = loc("/sgl-workspace/sglang/python/sglang/srt/layers/attention/fla/wy_fast.py":98:34)
#loc50 = loc("/sgl-workspace/sglang/python/sglang/srt/layers/attention/fla/wy_fast.py":98:16)
#loc51 = loc("/sgl-workspace/sglang/python/sglang/srt/layers/attention/fla/wy_fast.py":105:22)
#loc52 = loc("/sgl-workspace/sglang/python/sglang/srt/layers/attention/fla/wy_fast.py":106:29)
#loc53 = loc("/sgl-workspace/sglang/python/sglang/srt/layers/attention/fla/wy_fast.py":106:22)
#loc54 = loc("/sgl-workspace/sglang/python/sglang/srt/layers/attention/fla/wy_fast.py":106:44)
#loc55 = loc("/sgl-workspace/sglang/python/sglang/srt/layers/attention/fla/wy_fast.py":106:40)
#loc56 = loc("/sgl-workspace/sglang/python/sglang/srt/layers/attention/fla/wy_fast.py":106:57)
#loc57 = loc("/sgl-workspace/sglang/python/sglang/srt/layers/attention/fla/wy_fast.py":107:26)
#loc58 = loc("/sgl-workspace/sglang/python/sglang/srt/layers/attention/fla/wy_fast.py":108:29)
#loc59 = loc("/sgl-workspace/sglang/python/sglang/srt/layers/attention/fla/wy_fast.py":108:22)
#loc60 = loc("/sgl-workspace/sglang/python/sglang/srt/layers/attention/fla/wy_fast.py":88:4)
#loc71 = loc("b_A"(#loc2))
#loc72 = loc("T"(#loc15))
#loc73 = loc("p_beta"(#loc16))
#loc74 = loc("p_beta"(#loc17))
#loc75 = loc("p_beta"(#loc18))
#loc76 = loc("p_beta"(#loc19))
#loc77 = loc("p_beta"(#loc20))
#loc78 = loc("p_g"(#loc21))
#loc79 = loc("p_g"(#loc22))
#loc80 = loc("p_A"(#loc23))
#loc81 = loc("p_A"(#loc24))
#loc82 = loc("b_beta"(#loc25))
#loc83 = loc("b_g"(#loc26))
#loc84 = loc("b_g"(#loc27))
#loc85 = loc("p_v"(#loc29))
#loc86 = loc("p_v"(#loc30))
#loc87 = loc("p_v"(#loc31))
#loc88 = loc("p_v"(#loc32))
#loc89 = loc("p_u"(#loc33))
#loc90 = loc("b_v"(#loc34))
#loc91 = loc("b_vb"(#loc35))
#loc92 = loc("b_vb"(#loc36))
#loc93 = loc("b_vb"(#loc37))
#loc94 = loc("b_u"(#loc38))
#loc95 = loc("p_k"(#loc42))
#loc96 = loc("p_k"(#loc43))
#loc97 = loc("p_k"(#loc44))
#loc98 = loc("p_k"(#loc45))
#loc99 = loc("p_k"(#loc46))
#loc100 = loc("p_k"(#loc47))
#loc101 = loc("p_k"(#loc48))
#loc102 = loc("p_w"(#loc49))
#loc103 = loc("p_w"(#loc50))
#loc104 = loc("b_k"(#loc51))
#loc105 = loc("b_kb"(#loc52))
#loc106 = loc("b_kb"(#loc53))
#loc107 = loc("b_kb"(#loc54))
#loc108 = loc("b_kb"(#loc55))
#loc109 = loc("b_kb"(#loc56))
#loc110 = loc("b_w"(#loc57))
