#loc = loc("/sgl-workspace/sglang/python/sglang/srt/layers/rotary_embedding/triton_kernels.py":13:0)
#loc92 = loc("q_ptr"(#loc))
#loc93 = loc("k_ptr"(#loc))
#loc94 = loc("cos_sin_cache_ptr"(#loc))
#loc95 = loc("positions_ptr"(#loc))
#loc96 = loc("q_stride"(#loc))
#loc97 = loc("k_stride"(#loc))
#loc98 = loc("positions_stride"(#loc))
module {
  tt.func public @_triton_mrope_forward_fused(%q_ptr: !tt.ptr<bf16> {tt.divisibility = 16 : i32} loc("q_ptr"(#loc)), %k_ptr: !tt.ptr<bf16> {tt.divisibility = 16 : i32} loc("k_ptr"(#loc)), %cos_sin_cache_ptr: !tt.ptr<bf16> {tt.divisibility = 16 : i32} loc("cos_sin_cache_ptr"(#loc)), %positions_ptr: !tt.ptr<i64> {tt.divisibility = 16 : i32} loc("positions_ptr"(#loc)), %q_stride: i32 {tt.divisibility = 16 : i32} loc("q_stride"(#loc)), %k_stride: i32 {tt.divisibility = 16 : i32} loc("k_stride"(#loc)), %positions_stride: i32 loc("positions_stride"(#loc))) attributes {noinline = false} {
    %cst = arith.constant dense<0.000000e+00> : tensor<2x128xbf16> loc(#loc1)
    %cst_0 = arith.constant dense<0.000000e+00> : tensor<16x128xbf16> loc(#loc1)
    %cst_1 = arith.constant dense<0.000000e+00> : tensor<128xbf16> loc(#loc1)
    %shk = arith.constant dense<32> : tensor<2x128xi32> loc(#loc99)
    %shq = arith.constant dense<32> : tensor<16x128xi32> loc(#loc100)
    %fkm = arith.constant dense<2> : tensor<2x1xi32> loc(#loc101)
    %cst_2 = arith.constant dense<32> : tensor<1x128xi32> loc(#loc1)
    %fqm = arith.constant dense<12> : tensor<16x1xi32> loc(#loc102)
    %fhk = arith.constant dense<256> : tensor<2x1xi32> loc(#loc103)
    %fhq = arith.constant dense<256> : tensor<16x1xi32> loc(#loc104)
    %t_mask = arith.constant dense<true> : tensor<128xi1> loc(#loc105)
    %w_mask = arith.constant dense<30> : tensor<128xi32> loc(#loc106)
    %w_mask_3 = arith.constant dense<2> : tensor<128xi32> loc(#loc107)
    %h_mask = arith.constant dense<33> : tensor<128xi32> loc(#loc108)
    %h_mask_4 = arith.constant dense<1> : tensor<128xi32> loc(#loc109)
    %cst_5 = arith.constant dense<3> : tensor<128xi32> loc(#loc1)
    %c64_i64 = arith.constant 64 : i64 loc(#loc1)
    %c2_i32 = arith.constant 2 : i32 loc(#loc1)
    %c32_i32 = arith.constant 32 : i32 loc(#loc1)
    %pid = tt.get_program_id x : i32 loc(#loc110)
    %q_ptr_6 = arith.muli %pid, %q_stride : i32 loc(#loc111)
    %q_ptr_7 = tt.addptr %q_ptr, %q_ptr_6 : !tt.ptr<bf16>, i32 loc(#loc112)
    %k_ptr_8 = arith.muli %pid, %k_stride : i32 loc(#loc113)
    %k_ptr_9 = tt.addptr %k_ptr, %k_ptr_8 : !tt.ptr<bf16>, i32 loc(#loc114)
    %t = tt.addptr %positions_ptr, %pid : !tt.ptr<i64>, i32 loc(#loc115)
    %t_10 = tt.load %t : !tt.ptr<i64> loc(#loc116)
    %h = tt.addptr %positions_ptr, %positions_stride : !tt.ptr<i64>, i32 loc(#loc117)
    %h_11 = tt.addptr %h, %pid : !tt.ptr<i64>, i32 loc(#loc118)
    %h_12 = tt.load %h_11 : !tt.ptr<i64> loc(#loc119)
    %w = arith.muli %positions_stride, %c2_i32 : i32 loc(#loc120)
    %w_13 = tt.addptr %positions_ptr, %w : !tt.ptr<i64>, i32 loc(#loc121)
    %w_14 = tt.addptr %w_13, %pid : !tt.ptr<i64>, i32 loc(#loc122)
    %w_15 = tt.load %w_14 : !tt.ptr<i64> loc(#loc123)
    %t_cos = arith.muli %t_10, %c64_i64 : i64 loc(#loc124)
    %t_cos_16 = tt.addptr %cos_sin_cache_ptr, %t_cos : !tt.ptr<bf16>, i64 loc(#loc125)
    %h_cos = arith.muli %h_12, %c64_i64 : i64 loc(#loc126)
    %h_cos_17 = tt.addptr %cos_sin_cache_ptr, %h_cos : !tt.ptr<bf16>, i64 loc(#loc127)
    %w_cos = arith.muli %w_15, %c64_i64 : i64 loc(#loc128)
    %w_cos_18 = tt.addptr %cos_sin_cache_ptr, %w_cos : !tt.ptr<bf16>, i64 loc(#loc129)
    %t_sin = tt.addptr %t_cos_16, %c32_i32 : !tt.ptr<bf16>, i32 loc(#loc130)
    %h_sin = tt.addptr %h_cos_17, %c32_i32 : !tt.ptr<bf16>, i32 loc(#loc131)
    %w_sin = tt.addptr %w_cos_18, %c32_i32 : !tt.ptr<bf16>, i32 loc(#loc132)
    %cos_offsets = tt.make_range {end = 128 : i32, start = 0 : i32} : tensor<128xi32> loc(#loc133)
    %h_mask_19 = arith.remsi %cos_offsets, %cst_5 : tensor<128xi32> loc(#loc134)
    %h_mask_20 = arith.cmpi eq, %h_mask_19, %h_mask_4 : tensor<128xi32> loc(#loc109)
    %h_mask_21 = arith.cmpi sle, %cos_offsets, %h_mask : tensor<128xi32> loc(#loc108)
    %h_mask_22 = arith.andi %h_mask_20, %h_mask_21 : tensor<128xi1> loc(#loc135)
    %w_mask_23 = arith.cmpi eq, %h_mask_19, %w_mask_3 : tensor<128xi32> loc(#loc107)
    %w_mask_24 = arith.cmpi sle, %cos_offsets, %w_mask : tensor<128xi32> loc(#loc106)
    %w_mask_25 = arith.andi %w_mask_23, %w_mask_24 : tensor<128xi1> loc(#loc136)
    %t_mask_26 = arith.ori %h_mask_22, %w_mask_25 : tensor<128xi1> loc(#loc137)
    %t_mask_27 = arith.xori %t_mask_26, %t_mask : tensor<128xi1> loc(#loc105)
    %t_cos_row = tt.splat %t_cos_16 : !tt.ptr<bf16> -> tensor<128x!tt.ptr<bf16>> loc(#loc138)
    %t_cos_row_28 = tt.addptr %t_cos_row, %cos_offsets : tensor<128x!tt.ptr<bf16>>, tensor<128xi32> loc(#loc138)
    %t_cos_row_29 = tt.load %t_cos_row_28, %t_mask_27, %cst_1 : tensor<128x!tt.ptr<bf16>> loc(#loc139)
    %t_sin_row = tt.splat %t_sin : !tt.ptr<bf16> -> tensor<128x!tt.ptr<bf16>> loc(#loc140)
    %t_sin_row_30 = tt.addptr %t_sin_row, %cos_offsets : tensor<128x!tt.ptr<bf16>>, tensor<128xi32> loc(#loc140)
    %t_sin_row_31 = tt.load %t_sin_row_30, %t_mask_27, %cst_1 : tensor<128x!tt.ptr<bf16>> loc(#loc141)
    %h_cos_row = tt.splat %h_cos_17 : !tt.ptr<bf16> -> tensor<128x!tt.ptr<bf16>> loc(#loc142)
    %h_cos_row_32 = tt.addptr %h_cos_row, %cos_offsets : tensor<128x!tt.ptr<bf16>>, tensor<128xi32> loc(#loc142)
    %h_cos_row_33 = tt.load %h_cos_row_32, %h_mask_22, %cst_1 : tensor<128x!tt.ptr<bf16>> loc(#loc143)
    %h_sin_row = tt.splat %h_sin : !tt.ptr<bf16> -> tensor<128x!tt.ptr<bf16>> loc(#loc144)
    %h_sin_row_34 = tt.addptr %h_sin_row, %cos_offsets : tensor<128x!tt.ptr<bf16>>, tensor<128xi32> loc(#loc144)
    %h_sin_row_35 = tt.load %h_sin_row_34, %h_mask_22, %cst_1 : tensor<128x!tt.ptr<bf16>> loc(#loc145)
    %w_cos_row = tt.splat %w_cos_18 : !tt.ptr<bf16> -> tensor<128x!tt.ptr<bf16>> loc(#loc146)
    %w_cos_row_36 = tt.addptr %w_cos_row, %cos_offsets : tensor<128x!tt.ptr<bf16>>, tensor<128xi32> loc(#loc146)
    %w_cos_row_37 = tt.load %w_cos_row_36, %w_mask_25, %cst_1 : tensor<128x!tt.ptr<bf16>> loc(#loc147)
    %w_sin_row = tt.splat %w_sin : !tt.ptr<bf16> -> tensor<128x!tt.ptr<bf16>> loc(#loc148)
    %w_sin_row_38 = tt.addptr %w_sin_row, %cos_offsets : tensor<128x!tt.ptr<bf16>>, tensor<128xi32> loc(#loc148)
    %w_sin_row_39 = tt.load %w_sin_row_38, %w_mask_25, %cst_1 : tensor<128x!tt.ptr<bf16>> loc(#loc149)
    %cos_row = arith.addf %t_cos_row_29, %h_cos_row_33 : tensor<128xbf16> loc(#loc150)
    %cos_row_40 = arith.addf %cos_row, %w_cos_row_37 : tensor<128xbf16> loc(#loc151)
    %sin_row = arith.addf %t_sin_row_31, %h_sin_row_35 : tensor<128xbf16> loc(#loc152)
    %sin_row_41 = arith.addf %sin_row, %w_sin_row_39 : tensor<128xbf16> loc(#loc153)
    %fhq_42 = tt.make_range {end = 16 : i32, start = 0 : i32} : tensor<16xi32> loc(#loc154)
    %fhq_43 = tt.expand_dims %fhq_42 {axis = 1 : i32} : tensor<16xi32> -> tensor<16x1xi32> loc(#loc155)
    %fhq_44 = arith.muli %fhq_43, %fhq : tensor<16x1xi32> loc(#loc104)
    %fhq_45 = tt.expand_dims %cos_offsets {axis = 0 : i32} : tensor<128xi32> -> tensor<1x128xi32> loc(#loc156)
    %fhq_46 = tt.broadcast %fhq_44 : tensor<16x1xi32> -> tensor<16x128xi32> loc(#loc157)
    %fhq_47 = tt.broadcast %fhq_45 : tensor<1x128xi32> -> tensor<16x128xi32> loc(#loc157)
    %fhq_48 = arith.addi %fhq_46, %fhq_47 : tensor<16x128xi32> loc(#loc157)
    %fhk_49 = tt.make_range {end = 2 : i32, start = 0 : i32} : tensor<2xi32> loc(#loc158)
    %fhk_50 = tt.expand_dims %fhk_49 {axis = 1 : i32} : tensor<2xi32> -> tensor<2x1xi32> loc(#loc159)
    %fhk_51 = arith.muli %fhk_50, %fhk : tensor<2x1xi32> loc(#loc103)
    %fhk_52 = tt.broadcast %fhk_51 : tensor<2x1xi32> -> tensor<2x128xi32> loc(#loc160)
    %fhk_53 = tt.broadcast %fhq_45 : tensor<1x128xi32> -> tensor<2x128xi32> loc(#loc160)
    %fhk_54 = arith.addi %fhk_52, %fhk_53 : tensor<2x128xi32> loc(#loc160)
    %fqm_55 = arith.cmpi slt, %fhq_43, %fqm : tensor<16x1xi32> loc(#loc102)
    %fqm_56 = arith.cmpi slt, %fhq_45, %cst_2 : tensor<1x128xi32> loc(#loc161)
    %fqm_57 = tt.broadcast %fqm_55 : tensor<16x1xi1> -> tensor<16x128xi1> loc(#loc162)
    %fqm_58 = tt.broadcast %fqm_56 : tensor<1x128xi1> -> tensor<16x128xi1> loc(#loc162)
    %fqm_59 = arith.andi %fqm_57, %fqm_58 : tensor<16x128xi1> loc(#loc162)
    %fkm_60 = arith.cmpi slt, %fhk_50, %fkm : tensor<2x1xi32> loc(#loc101)
    %fkm_61 = tt.broadcast %fkm_60 : tensor<2x1xi1> -> tensor<2x128xi1> loc(#loc163)
    %fkm_62 = tt.broadcast %fqm_56 : tensor<1x128xi1> -> tensor<2x128xi1> loc(#loc163)
    %fkm_63 = arith.andi %fkm_61, %fkm_62 : tensor<2x128xi1> loc(#loc163)
    %q1 = tt.splat %q_ptr_7 : !tt.ptr<bf16> -> tensor<16x128x!tt.ptr<bf16>> loc(#loc164)
    %q1_64 = tt.addptr %q1, %fhq_48 : tensor<16x128x!tt.ptr<bf16>>, tensor<16x128xi32> loc(#loc164)
    %q1_65 = tt.load %q1_64, %fqm_59, %cst_0 : tensor<16x128x!tt.ptr<bf16>> loc(#loc165)
    %k1 = tt.splat %k_ptr_9 : !tt.ptr<bf16> -> tensor<2x128x!tt.ptr<bf16>> loc(#loc166)
    %k1_66 = tt.addptr %k1, %fhk_54 : tensor<2x128x!tt.ptr<bf16>>, tensor<2x128xi32> loc(#loc166)
    %k1_67 = tt.load %k1_66, %fkm_63, %cst : tensor<2x128x!tt.ptr<bf16>> loc(#loc167)
    %shq_68 = arith.addi %fhq_48, %shq : tensor<16x128xi32> loc(#loc100)
    %shk_69 = arith.addi %fhk_54, %shk : tensor<2x128xi32> loc(#loc99)
    %q2 = tt.addptr %q1, %shq_68 : tensor<16x128x!tt.ptr<bf16>>, tensor<16x128xi32> loc(#loc168)
    %q2_70 = tt.load %q2, %fqm_59, %cst_0 : tensor<16x128x!tt.ptr<bf16>> loc(#loc169)
    %k2 = tt.addptr %k1, %shk_69 : tensor<2x128x!tt.ptr<bf16>>, tensor<2x128xi32> loc(#loc170)
    %k2_71 = tt.load %k2, %fkm_63, %cst : tensor<2x128x!tt.ptr<bf16>> loc(#loc171)
    %0 = tt.expand_dims %cos_row_40 {axis = 0 : i32} : tensor<128xbf16> -> tensor<1x128xbf16> loc(#loc75)
    %1 = tt.broadcast %0 : tensor<1x128xbf16> -> tensor<16x128xbf16> loc(#loc75)
    %2 = arith.mulf %q1_65, %1 : tensor<16x128xbf16> loc(#loc75)
    %3 = tt.expand_dims %sin_row_41 {axis = 0 : i32} : tensor<128xbf16> -> tensor<1x128xbf16> loc(#loc76)
    %4 = tt.broadcast %3 : tensor<1x128xbf16> -> tensor<16x128xbf16> loc(#loc76)
    %5 = arith.mulf %q2_70, %4 : tensor<16x128xbf16> loc(#loc76)
    %6 = arith.subf %2, %5 : tensor<16x128xbf16> loc(#loc77)
    tt.store %q1_64, %6, %fqm_59 : tensor<16x128x!tt.ptr<bf16>> loc(#loc78)
    %7 = arith.mulf %q2_70, %1 : tensor<16x128xbf16> loc(#loc79)
    %8 = arith.mulf %q1_65, %4 : tensor<16x128xbf16> loc(#loc80)
    %9 = arith.addf %7, %8 : tensor<16x128xbf16> loc(#loc81)
    tt.store %q2, %9, %fqm_59 : tensor<16x128x!tt.ptr<bf16>> loc(#loc82)
    %10 = tt.broadcast %0 : tensor<1x128xbf16> -> tensor<2x128xbf16> loc(#loc83)
    %11 = arith.mulf %k1_67, %10 : tensor<2x128xbf16> loc(#loc83)
    %12 = tt.broadcast %3 : tensor<1x128xbf16> -> tensor<2x128xbf16> loc(#loc84)
    %13 = arith.mulf %k2_71, %12 : tensor<2x128xbf16> loc(#loc84)
    %14 = arith.subf %11, %13 : tensor<2x128xbf16> loc(#loc85)
    tt.store %k1_66, %14, %fkm_63 : tensor<2x128x!tt.ptr<bf16>> loc(#loc86)
    %15 = arith.mulf %k2_71, %10 : tensor<2x128xbf16> loc(#loc87)
    %16 = arith.mulf %k1_67, %12 : tensor<2x128xbf16> loc(#loc88)
    %17 = arith.addf %15, %16 : tensor<2x128xbf16> loc(#loc89)
    tt.store %k2, %17, %fkm_63 : tensor<2x128x!tt.ptr<bf16>> loc(#loc90)
    tt.return loc(#loc91)
  } loc(#loc)
} loc(#loc)
#loc1 = loc(unknown)
#loc2 = loc("/sgl-workspace/sglang/python/sglang/srt/layers/rotary_embedding/triton_kernels.py":86:21)
#loc3 = loc("/sgl-workspace/sglang/python/sglang/srt/layers/rotary_embedding/triton_kernels.py":85:21)
#loc4 = loc("/sgl-workspace/sglang/python/sglang/srt/layers/rotary_embedding/triton_kernels.py":80:49)
#loc5 = loc("/sgl-workspace/sglang/python/sglang/srt/layers/rotary_embedding/triton_kernels.py":77:49)
#loc6 = loc("/sgl-workspace/sglang/python/sglang/srt/layers/rotary_embedding/triton_kernels.py":76:48)
#loc7 = loc("/sgl-workspace/sglang/python/sglang/srt/layers/rotary_embedding/triton_kernels.py":75:48)
#loc8 = loc("/sgl-workspace/sglang/python/sglang/srt/layers/rotary_embedding/triton_kernels.py":59:23)
#loc9 = loc("/sgl-workspace/sglang/python/sglang/srt/layers/rotary_embedding/triton_kernels.py":58:64)
#loc10 = loc("/sgl-workspace/sglang/python/sglang/srt/layers/rotary_embedding/triton_kernels.py":58:43)
#loc11 = loc("/sgl-workspace/sglang/python/sglang/srt/layers/rotary_embedding/triton_kernels.py":57:64)
#loc12 = loc("/sgl-workspace/sglang/python/sglang/srt/layers/rotary_embedding/triton_kernels.py":57:43)
#loc13 = loc("/sgl-workspace/sglang/python/sglang/srt/layers/rotary_embedding/triton_kernels.py":36:24)
#loc14 = loc("/sgl-workspace/sglang/python/sglang/srt/layers/rotary_embedding/triton_kernels.py":37:26)
#loc15 = loc("/sgl-workspace/sglang/python/sglang/srt/layers/rotary_embedding/triton_kernels.py":37:20)
#loc16 = loc("/sgl-workspace/sglang/python/sglang/srt/layers/rotary_embedding/triton_kernels.py":38:26)
#loc17 = loc("/sgl-workspace/sglang/python/sglang/srt/layers/rotary_embedding/triton_kernels.py":38:20)
#loc18 = loc("/sgl-workspace/sglang/python/sglang/srt/layers/rotary_embedding/triton_kernels.py":40:55)
#loc19 = loc("/sgl-workspace/sglang/python/sglang/srt/layers/rotary_embedding/triton_kernels.py":40:16)
#loc20 = loc("/sgl-workspace/sglang/python/sglang/srt/layers/rotary_embedding/triton_kernels.py":41:32)
#loc21 = loc("/sgl-workspace/sglang/python/sglang/srt/layers/rotary_embedding/triton_kernels.py":41:55)
#loc22 = loc("/sgl-workspace/sglang/python/sglang/srt/layers/rotary_embedding/triton_kernels.py":41:16)
#loc23 = loc("/sgl-workspace/sglang/python/sglang/srt/layers/rotary_embedding/triton_kernels.py":42:36)
#loc24 = loc("/sgl-workspace/sglang/python/sglang/srt/layers/rotary_embedding/triton_kernels.py":42:32)
#loc25 = loc("/sgl-workspace/sglang/python/sglang/srt/layers/rotary_embedding/triton_kernels.py":42:55)
#loc26 = loc("/sgl-workspace/sglang/python/sglang/srt/layers/rotary_embedding/triton_kernels.py":42:16)
#loc27 = loc("/sgl-workspace/sglang/python/sglang/srt/layers/rotary_embedding/triton_kernels.py":43:36)
#loc28 = loc("/sgl-workspace/sglang/python/sglang/srt/layers/rotary_embedding/triton_kernels.py":43:32)
#loc29 = loc("/sgl-workspace/sglang/python/sglang/srt/layers/rotary_embedding/triton_kernels.py":44:36)
#loc30 = loc("/sgl-workspace/sglang/python/sglang/srt/layers/rotary_embedding/triton_kernels.py":44:32)
#loc31 = loc("/sgl-workspace/sglang/python/sglang/srt/layers/rotary_embedding/triton_kernels.py":45:36)
#loc32 = loc("/sgl-workspace/sglang/python/sglang/srt/layers/rotary_embedding/triton_kernels.py":45:32)
#loc33 = loc("/sgl-workspace/sglang/python/sglang/srt/layers/rotary_embedding/triton_kernels.py":46:20)
#loc34 = loc("/sgl-workspace/sglang/python/sglang/srt/layers/rotary_embedding/triton_kernels.py":47:20)
#loc35 = loc("/sgl-workspace/sglang/python/sglang/srt/layers/rotary_embedding/triton_kernels.py":48:20)
#loc36 = loc("/sgl-workspace/sglang/python/sglang/srt/layers/rotary_embedding/triton_kernels.py":49:31)
#loc37 = loc("/sgl-workspace/sglang/python/sglang/srt/layers/rotary_embedding/triton_kernels.py":57:37)
#loc38 = loc("/sgl-workspace/sglang/python/sglang/srt/layers/rotary_embedding/triton_kernels.py":57:49)
#loc39 = loc("/sgl-workspace/sglang/python/sglang/srt/layers/rotary_embedding/triton_kernels.py":58:49)
#loc40 = loc("/sgl-workspace/sglang/python/sglang/srt/layers/rotary_embedding/triton_kernels.py":59:32)
#loc41 = loc("/sgl-workspace/sglang/python/sglang/srt/layers/rotary_embedding/triton_kernels.py":66:32)
#loc42 = loc("/sgl-workspace/sglang/python/sglang/srt/layers/rotary_embedding/triton_kernels.py":66:24)
#loc43 = loc("/sgl-workspace/sglang/python/sglang/srt/layers/rotary_embedding/triton_kernels.py":67:32)
#loc44 = loc("/sgl-workspace/sglang/python/sglang/srt/layers/rotary_embedding/triton_kernels.py":67:24)
#loc45 = loc("/sgl-workspace/sglang/python/sglang/srt/layers/rotary_embedding/triton_kernels.py":68:32)
#loc46 = loc("/sgl-workspace/sglang/python/sglang/srt/layers/rotary_embedding/triton_kernels.py":68:24)
#loc47 = loc("/sgl-workspace/sglang/python/sglang/srt/layers/rotary_embedding/triton_kernels.py":69:32)
#loc48 = loc("/sgl-workspace/sglang/python/sglang/srt/layers/rotary_embedding/triton_kernels.py":69:24)
#loc49 = loc("/sgl-workspace/sglang/python/sglang/srt/layers/rotary_embedding/triton_kernels.py":70:32)
#loc50 = loc("/sgl-workspace/sglang/python/sglang/srt/layers/rotary_embedding/triton_kernels.py":70:24)
#loc51 = loc("/sgl-workspace/sglang/python/sglang/srt/layers/rotary_embedding/triton_kernels.py":71:32)
#loc52 = loc("/sgl-workspace/sglang/python/sglang/srt/layers/rotary_embedding/triton_kernels.py":71:24)
#loc53 = loc("/sgl-workspace/sglang/python/sglang/srt/layers/rotary_embedding/triton_kernels.py":72:26)
#loc54 = loc("/sgl-workspace/sglang/python/sglang/srt/layers/rotary_embedding/triton_kernels.py":72:38)
#loc55 = loc("/sgl-workspace/sglang/python/sglang/srt/layers/rotary_embedding/triton_kernels.py":73:26)
#loc56 = loc("/sgl-workspace/sglang/python/sglang/srt/layers/rotary_embedding/triton_kernels.py":73:38)
#loc57 = loc("/sgl-workspace/sglang/python/sglang/srt/layers/rotary_embedding/triton_kernels.py":75:27)
#loc58 = loc("/sgl-workspace/sglang/python/sglang/srt/layers/rotary_embedding/triton_kernels.py":75:37)
#loc59 = loc("/sgl-workspace/sglang/python/sglang/srt/layers/rotary_embedding/triton_kernels.py":75:79)
#loc60 = loc("/sgl-workspace/sglang/python/sglang/srt/layers/rotary_embedding/triton_kernels.py":75:53)
#loc61 = loc("/sgl-workspace/sglang/python/sglang/srt/layers/rotary_embedding/triton_kernels.py":76:27)
#loc62 = loc("/sgl-workspace/sglang/python/sglang/srt/layers/rotary_embedding/triton_kernels.py":76:37)
#loc63 = loc("/sgl-workspace/sglang/python/sglang/srt/layers/rotary_embedding/triton_kernels.py":76:53)
#loc64 = loc("/sgl-workspace/sglang/python/sglang/srt/layers/rotary_embedding/triton_kernels.py":78:49)
#loc65 = loc("/sgl-workspace/sglang/python/sglang/srt/layers/rotary_embedding/triton_kernels.py":78:12)
#loc66 = loc("/sgl-workspace/sglang/python/sglang/srt/layers/rotary_embedding/triton_kernels.py":81:12)
#loc67 = loc("/sgl-workspace/sglang/python/sglang/srt/layers/rotary_embedding/triton_kernels.py":83:29)
#loc68 = loc("/sgl-workspace/sglang/python/sglang/srt/layers/rotary_embedding/triton_kernels.py":83:21)
#loc69 = loc("/sgl-workspace/sglang/python/sglang/srt/layers/rotary_embedding/triton_kernels.py":84:29)
#loc70 = loc("/sgl-workspace/sglang/python/sglang/srt/layers/rotary_embedding/triton_kernels.py":84:21)
#loc71 = loc("/sgl-workspace/sglang/python/sglang/srt/layers/rotary_embedding/triton_kernels.py":87:29)
#loc72 = loc("/sgl-workspace/sglang/python/sglang/srt/layers/rotary_embedding/triton_kernels.py":87:21)
#loc73 = loc("/sgl-workspace/sglang/python/sglang/srt/layers/rotary_embedding/triton_kernels.py":88:29)
#loc74 = loc("/sgl-workspace/sglang/python/sglang/srt/layers/rotary_embedding/triton_kernels.py":88:21)
#loc75 = loc("/sgl-workspace/sglang/python/sglang/srt/layers/rotary_embedding/triton_kernels.py":89:35)
#loc76 = loc("/sgl-workspace/sglang/python/sglang/srt/layers/rotary_embedding/triton_kernels.py":89:50)
#loc77 = loc("/sgl-workspace/sglang/python/sglang/srt/layers/rotary_embedding/triton_kernels.py":89:45)
#loc78 = loc("/sgl-workspace/sglang/python/sglang/srt/layers/rotary_embedding/triton_kernels.py":89:30)
#loc79 = loc("/sgl-workspace/sglang/python/sglang/srt/layers/rotary_embedding/triton_kernels.py":90:35)
#loc80 = loc("/sgl-workspace/sglang/python/sglang/srt/layers/rotary_embedding/triton_kernels.py":90:50)
#loc81 = loc("/sgl-workspace/sglang/python/sglang/srt/layers/rotary_embedding/triton_kernels.py":90:45)
#loc82 = loc("/sgl-workspace/sglang/python/sglang/srt/layers/rotary_embedding/triton_kernels.py":90:30)
#loc83 = loc("/sgl-workspace/sglang/python/sglang/srt/layers/rotary_embedding/triton_kernels.py":91:35)
#loc84 = loc("/sgl-workspace/sglang/python/sglang/srt/layers/rotary_embedding/triton_kernels.py":91:50)
#loc85 = loc("/sgl-workspace/sglang/python/sglang/srt/layers/rotary_embedding/triton_kernels.py":91:45)
#loc86 = loc("/sgl-workspace/sglang/python/sglang/srt/layers/rotary_embedding/triton_kernels.py":91:30)
#loc87 = loc("/sgl-workspace/sglang/python/sglang/srt/layers/rotary_embedding/triton_kernels.py":92:35)
#loc88 = loc("/sgl-workspace/sglang/python/sglang/srt/layers/rotary_embedding/triton_kernels.py":92:50)
#loc89 = loc("/sgl-workspace/sglang/python/sglang/srt/layers/rotary_embedding/triton_kernels.py":92:45)
#loc90 = loc("/sgl-workspace/sglang/python/sglang/srt/layers/rotary_embedding/triton_kernels.py":92:30)
#loc91 = loc("/sgl-workspace/sglang/python/sglang/srt/layers/rotary_embedding/triton_kernels.py":74:4)
#loc99 = loc("shk"(#loc2))
#loc100 = loc("shq"(#loc3))
#loc101 = loc("fkm"(#loc4))
#loc102 = loc("fqm"(#loc5))
#loc103 = loc("fhk"(#loc6))
#loc104 = loc("fhq"(#loc7))
#loc105 = loc("t_mask"(#loc8))
#loc106 = loc("w_mask"(#loc9))
#loc107 = loc("w_mask"(#loc10))
#loc108 = loc("h_mask"(#loc11))
#loc109 = loc("h_mask"(#loc12))
#loc110 = loc("pid"(#loc13))
#loc111 = loc("q_ptr"(#loc14))
#loc112 = loc("q_ptr"(#loc15))
#loc113 = loc("k_ptr"(#loc16))
#loc114 = loc("k_ptr"(#loc17))
#loc115 = loc("t"(#loc18))
#loc116 = loc("t"(#loc19))
#loc117 = loc("h"(#loc20))
#loc118 = loc("h"(#loc21))
#loc119 = loc("h"(#loc22))
#loc120 = loc("w"(#loc23))
#loc121 = loc("w"(#loc24))
#loc122 = loc("w"(#loc25))
#loc123 = loc("w"(#loc26))
#loc124 = loc("t_cos"(#loc27))
#loc125 = loc("t_cos"(#loc28))
#loc126 = loc("h_cos"(#loc29))
#loc127 = loc("h_cos"(#loc30))
#loc128 = loc("w_cos"(#loc31))
#loc129 = loc("w_cos"(#loc32))
#loc130 = loc("t_sin"(#loc33))
#loc131 = loc("h_sin"(#loc34))
#loc132 = loc("w_sin"(#loc35))
#loc133 = loc("cos_offsets"(#loc36))
#loc134 = loc("h_mask"(#loc37))
#loc135 = loc("h_mask"(#loc38))
#loc136 = loc("w_mask"(#loc39))
#loc137 = loc("t_mask"(#loc40))
#loc138 = loc("t_cos_row"(#loc41))
#loc139 = loc("t_cos_row"(#loc42))
#loc140 = loc("t_sin_row"(#loc43))
#loc141 = loc("t_sin_row"(#loc44))
#loc142 = loc("h_cos_row"(#loc45))
#loc143 = loc("h_cos_row"(#loc46))
#loc144 = loc("h_sin_row"(#loc47))
#loc145 = loc("h_sin_row"(#loc48))
#loc146 = loc("w_cos_row"(#loc49))
#loc147 = loc("w_cos_row"(#loc50))
#loc148 = loc("w_sin_row"(#loc51))
#loc149 = loc("w_sin_row"(#loc52))
#loc150 = loc("cos_row"(#loc53))
#loc151 = loc("cos_row"(#loc54))
#loc152 = loc("sin_row"(#loc55))
#loc153 = loc("sin_row"(#loc56))
#loc154 = loc("fhq"(#loc57))
#loc155 = loc("fhq"(#loc58))
#loc156 = loc("fhq"(#loc59))
#loc157 = loc("fhq"(#loc60))
#loc158 = loc("fhk"(#loc61))
#loc159 = loc("fhk"(#loc62))
#loc160 = loc("fhk"(#loc63))
#loc161 = loc("fqm"(#loc64))
#loc162 = loc("fqm"(#loc65))
#loc163 = loc("fkm"(#loc66))
#loc164 = loc("q1"(#loc67))
#loc165 = loc("q1"(#loc68))
#loc166 = loc("k1"(#loc69))
#loc167 = loc("k1"(#loc70))
#loc168 = loc("q2"(#loc71))
#loc169 = loc("q2"(#loc72))
#loc170 = loc("k2"(#loc73))
#loc171 = loc("k2"(#loc74))
