#loc = loc("/sgl-workspace/sglang/python/sglang/srt/layers/attention/fla/l2norm.py":55:0)
#loc17 = loc("/usr/local/lib/python3.12/dist-packages/triton/language/standard.py":285:0)
#loc19 = loc(unknown)
#loc22 = loc("/usr/local/lib/python3.12/dist-packages/triton/language/standard.py":260:0)
#loc26 = loc("x"(#loc))
#loc27 = loc("y"(#loc))
#loc28 = loc("eps"(#loc))
#loc42 = loc("input"(#loc17))
#loc43 = loc("a"(#loc22))
#loc44 = loc("b"(#loc22))
module {
  tt.func public @l2norm_fwd_kernel(%x: !tt.ptr<bf16> {tt.divisibility = 16 : i32} loc("x"(#loc)), %y: !tt.ptr<bf16> {tt.divisibility = 16 : i32} loc("y"(#loc)), %eps: f32 loc("eps"(#loc))) attributes {noinline = false} {
    %i_t = tt.get_program_id x : i32 loc(#loc29)
    %p_x = arith.constant 16 : i32 loc(#loc30)
    %p_x_0 = arith.constant 16 : i32 loc(#loc30)
    %p_x_1 = arith.extsi %i_t : i32 to i64 loc(#loc30)
    %p_x_2 = arith.extsi %p_x_0 : i32 to i64 loc(#loc30)
    %p_x_3 = arith.muli %p_x_1, %p_x_2 : i64 loc(#loc30)
    %p_x_4 = arith.constant 2147483647 : i64 loc(#loc30)
    %p_x_5 = arith.constant -2147483648 : i64 loc(#loc30)
    %p_x_6 = arith.cmpi sle, %p_x_3, %p_x_4 : i64 loc(#loc30)
    %p_x_7 = arith.cmpi sge, %p_x_3, %p_x_5 : i64 loc(#loc30)
    %p_x_8 = arith.andi %p_x_6, %p_x_7 : i1 loc(#loc30)
    %p_x_9 = arith.muli %i_t, %p_x_0 : i32 loc(#loc30)
    %p_x_10 = arith.constant 8 : i64 loc(#loc31)
    %p_x_11 = arith.constant 128 : i64 loc(#loc31)
    %p_x_12 = arith.constant 128 : i64 loc(#loc31)
    %p_x_13 = arith.constant 1 : i64 loc(#loc31)
    %p_x_14 = arith.constant 0 : i32 loc(#loc31)
    %p_x_15 = tt.make_tensor_ptr %x, [%p_x_10, %p_x_11], [%p_x_12, %p_x_13], [%p_x_9, %p_x_14] {order = array<i32: 1, 0>} : <tensor<16x128xbf16>> loc(#loc31)
    %b_x = tt.load %p_x_15 {boundaryCheck = array<i32: 0, 1>} : !tt.ptr<tensor<16x128xbf16>> loc(#loc32)
    %b_x_16 = arith.extf %b_x : tensor<16x128xbf16> to tensor<16x128xf32> loc(#loc33)
    %b_var = arith.mulf %b_x_16, %b_x_16 : tensor<16x128xf32> loc(#loc34)
    %b_var_17 = tt.call @"triton.language.standard.sum__fp32S16_128S__(1,)cconstexpr_1__(2,)cconstexpr_False__(3,)cNone"(%b_var) : (tensor<16x128xf32>) -> tensor<16xf32> loc(#loc35)
    %b_y = tt.splat %eps : f32 -> tensor<16xf32> loc(#loc36)
    %b_y_18 = arith.addf %b_var_17, %b_y : tensor<16xf32> loc(#loc36)
    %b_y_19 = math.sqrt %b_y_18 : tensor<16xf32> loc(#loc37)
    %b_y_20 = tt.expand_dims %b_y_19 {axis = 1 : i32} : tensor<16xf32> -> tensor<16x1xf32> loc(#loc38)
    %b_y_21 = tt.broadcast %b_y_20 : tensor<16x1xf32> -> tensor<16x128xf32> loc(#loc39)
    %b_y_22 = arith.divf %b_x_16, %b_y_21 : tensor<16x128xf32> loc(#loc39)
    %p_y = arith.constant 16 : i32 loc(#loc40)
    %p_y_23 = arith.constant 16 : i32 loc(#loc40)
    %p_y_24 = arith.extsi %i_t : i32 to i64 loc(#loc40)
    %p_y_25 = arith.extsi %p_y_23 : i32 to i64 loc(#loc40)
    %p_y_26 = arith.muli %p_y_24, %p_y_25 : i64 loc(#loc40)
    %p_y_27 = arith.constant 2147483647 : i64 loc(#loc40)
    %p_y_28 = arith.constant -2147483648 : i64 loc(#loc40)
    %p_y_29 = arith.cmpi sle, %p_y_26, %p_y_27 : i64 loc(#loc40)
    %p_y_30 = arith.cmpi sge, %p_y_26, %p_y_28 : i64 loc(#loc40)
    %p_y_31 = arith.andi %p_y_29, %p_y_30 : i1 loc(#loc40)
    %p_y_32 = arith.muli %i_t, %p_y_23 : i32 loc(#loc40)
    %p_y_33 = arith.constant 8 : i64 loc(#loc41)
    %p_y_34 = arith.constant 128 : i64 loc(#loc41)
    %p_y_35 = arith.constant 128 : i64 loc(#loc41)
    %p_y_36 = arith.constant 1 : i64 loc(#loc41)
    %p_y_37 = arith.constant 0 : i32 loc(#loc41)
    %p_y_38 = tt.make_tensor_ptr %y, [%p_y_33, %p_y_34], [%p_y_35, %p_y_36], [%p_y_32, %p_y_37] {order = array<i32: 1, 0>} : <tensor<16x128xbf16>> loc(#loc41)
    %0 = arith.truncf %b_y_22 : tensor<16x128xf32> to tensor<16x128xbf16> loc(#loc14)
    tt.store %p_y_38, %0 {boundaryCheck = array<i32: 0, 1>} : !tt.ptr<tensor<16x128xbf16>> loc(#loc15)
    tt.return loc(#loc16)
  } loc(#loc)
  tt.func private @"triton.language.standard.sum__fp32S16_128S__(1,)cconstexpr_1__(2,)cconstexpr_False__(3,)cNone"(%input: tensor<16x128xf32> loc("input"(#loc17))) -> tensor<16xf32> attributes {noinline = false} {
    %0 = "tt.reduce"(%input) <{axis = 1 : i32}> ({
    ^bb0(%arg1: f32 loc(unknown), %arg2: f32 loc(unknown)):
      %2 = tt.call @triton.language.standard._sum_combine__fp32_fp32__(%arg1, %arg2) : (f32, f32) -> f32 loc(#loc18)
      tt.reduce.return %2 : f32 loc(#loc18)
    }) : (tensor<16x128xf32>) -> tensor<16xf32> loc(#loc18)
    tt.return %0 : tensor<16xf32> loc(#loc20)
  ^bb1:  // no predecessors
    %1 = ub.poison : tensor<16xf32> loc(#loc21)
    tt.return %1 : tensor<16xf32> loc(#loc21)
  } loc(#loc17)
  tt.func private @triton.language.standard._sum_combine__fp32_fp32__(%a: f32 loc("a"(#loc22)), %b: f32 loc("b"(#loc22))) -> f32 attributes {noinline = false} {
    %0 = arith.addf %a, %b : f32 loc(#loc23)
    tt.return %0 : f32 loc(#loc24)
  ^bb1:  // no predecessors
    %1 = ub.poison : f32 loc(#loc25)
    tt.return %1 : f32 loc(#loc25)
  } loc(#loc22)
} loc(#loc)
#loc1 = loc("/sgl-workspace/sglang/python/sglang/srt/layers/attention/fla/l2norm.py":65:24)
#loc2 = loc("/sgl-workspace/sglang/python/sglang/srt/layers/attention/fla/l2norm.py":66:54)
#loc3 = loc("/sgl-workspace/sglang/python/sglang/srt/layers/attention/fla/l2norm.py":66:72)
#loc4 = loc("/sgl-workspace/sglang/python/sglang/srt/layers/attention/fla/l2norm.py":67:18)
#loc5 = loc("/sgl-workspace/sglang/python/sglang/srt/layers/attention/fla/l2norm.py":67:49)
#loc6 = loc("/sgl-workspace/sglang/python/sglang/srt/layers/attention/fla/l2norm.py":68:25)
#loc7 = loc("/sgl-workspace/sglang/python/sglang/srt/layers/attention/fla/l2norm.py":68:19)
#loc8 = loc("/sgl-workspace/sglang/python/sglang/srt/layers/attention/fla/l2norm.py":69:32)
#loc9 = loc("/sgl-workspace/sglang/python/sglang/srt/layers/attention/fla/l2norm.py":69:24)
#loc10 = loc("/sgl-workspace/sglang/python/sglang/srt/layers/attention/fla/l2norm.py":69:37)
#loc11 = loc("/sgl-workspace/sglang/python/sglang/srt/layers/attention/fla/l2norm.py":69:16)
#loc12 = loc("/sgl-workspace/sglang/python/sglang/srt/layers/attention/fla/l2norm.py":70:54)
#loc13 = loc("/sgl-workspace/sglang/python/sglang/srt/layers/attention/fla/l2norm.py":70:72)
#loc14 = loc("/sgl-workspace/sglang/python/sglang/srt/layers/attention/fla/l2norm.py":71:25)
#loc15 = loc("/sgl-workspace/sglang/python/sglang/srt/layers/attention/fla/l2norm.py":71:18)
#loc16 = loc("/sgl-workspace/sglang/python/sglang/srt/layers/attention/fla/l2norm.py":71:4)
#loc18 = loc("/usr/local/lib/python3.12/dist-packages/triton/language/standard.py":291:36)
#loc20 = loc("/usr/local/lib/python3.12/dist-packages/triton/language/standard.py":291:11)
#loc21 = loc("/usr/local/lib/python3.12/dist-packages/triton/language/standard.py":291:4)
#loc23 = loc("/usr/local/lib/python3.12/dist-packages/triton/language/standard.py":261:15)
#loc24 = loc("/usr/local/lib/python3.12/dist-packages/triton/language/standard.py":261:11)
#loc25 = loc("/usr/local/lib/python3.12/dist-packages/triton/language/standard.py":261:4)
#loc29 = loc("i_t"(#loc1))
#loc30 = loc("p_x"(#loc2))
#loc31 = loc("p_x"(#loc3))
#loc32 = loc("b_x"(#loc4))
#loc33 = loc("b_x"(#loc5))
#loc34 = loc("b_var"(#loc6))
#loc35 = loc("b_var"(#loc7))
#loc36 = loc("b_y"(#loc8))
#loc37 = loc("b_y"(#loc9))
#loc38 = loc("b_y"(#loc10))
#loc39 = loc("b_y"(#loc11))
#loc40 = loc("p_y"(#loc12))
#loc41 = loc("p_y"(#loc13))
