#loc = loc("/sgl-workspace/sglang/python/sglang/srt/layers/attention/mamba/causal_conv1d_triton.py":15:0)
#loc218 = loc("x_ptr"(#loc))
#loc219 = loc("w_ptr"(#loc))
#loc220 = loc("initial_states_ptr"(#loc))
#loc221 = loc("cache_indices_ptr"(#loc))
#loc222 = loc("has_initial_states_ptr"(#loc))
#loc223 = loc("query_start_loc_ptr"(#loc))
#loc224 = loc("o_ptr"(#loc))
#loc225 = loc("seqlen"(#loc))
module {
  tt.func public @_causal_conv1d_fwd_kernel(%x_ptr: !tt.ptr<bf16> {tt.divisibility = 16 : i32} loc("x_ptr"(#loc)), %w_ptr: !tt.ptr<bf16> {tt.divisibility = 16 : i32} loc("w_ptr"(#loc)), %initial_states_ptr: !tt.ptr<bf16> {tt.divisibility = 16 : i32} loc("initial_states_ptr"(#loc)), %cache_indices_ptr: !tt.ptr<i32> {tt.divisibility = 16 : i32} loc("cache_indices_ptr"(#loc)), %has_initial_states_ptr: !tt.ptr<i1> {tt.divisibility = 16 : i32} loc("has_initial_states_ptr"(#loc)), %query_start_loc_ptr: !tt.ptr<i32> {tt.divisibility = 16 : i32} loc("query_start_loc_ptr"(#loc)), %o_ptr: !tt.ptr<bf16> {tt.divisibility = 16 : i32} loc("o_ptr"(#loc)), %seqlen: i32 loc("seqlen"(#loc))) attributes {noinline = false} {
    %stride_conv_state_seq = arith.constant 15360 : i32 loc(#loc226)
    %stride_conv_state_dim = arith.constant 3 : i32 loc(#loc227)
    %stride_conv_state_tok = arith.constant 1 : i32 loc(#loc228)
    %state_len = arith.constant 3 : i32 loc(#loc229)
    %idx_seq = tt.get_program_id x : i32 loc(#loc230)
    %chunk_offset = tt.get_program_id y : i32 loc(#loc231)
    %idx_feats = tt.get_program_id z : i32 loc(#loc232)
    %idx_feats_0 = arith.constant 256 : i32 loc(#loc233)
    %idx_feats_1 = arith.constant 256 : i32 loc(#loc233)
    %idx_feats_2 = arith.extsi %idx_feats : i32 to i64 loc(#loc233)
    %idx_feats_3 = arith.extsi %idx_feats_1 : i32 to i64 loc(#loc233)
    %idx_feats_4 = arith.muli %idx_feats_2, %idx_feats_3 : i64 loc(#loc233)
    %idx_feats_5 = arith.constant 2147483647 : i64 loc(#loc233)
    %idx_feats_6 = arith.constant -2147483648 : i64 loc(#loc233)
    %idx_feats_7 = arith.cmpi sle, %idx_feats_4, %idx_feats_5 : i64 loc(#loc233)
    %idx_feats_8 = arith.cmpi sge, %idx_feats_4, %idx_feats_6 : i64 loc(#loc233)
    %idx_feats_9 = arith.andi %idx_feats_7, %idx_feats_8 : i1 loc(#loc233)
    %idx_feats_10 = arith.muli %idx_feats, %idx_feats_1 : i32 loc(#loc233)
    %idx_feats_11 = tt.make_range {end = 256 : i32, start = 0 : i32} : tensor<256xi32> loc(#loc234)
    %idx_feats_12 = tt.splat %idx_feats_10 : i32 -> tensor<256xi32> loc(#loc235)
    %idx_feats_13 = arith.extsi %idx_feats_12 : tensor<256xi32> to tensor<256xi64> loc(#loc235)
    %idx_feats_14 = arith.extsi %idx_feats_11 : tensor<256xi32> to tensor<256xi64> loc(#loc235)
    %idx_feats_15 = arith.addi %idx_feats_13, %idx_feats_14 : tensor<256xi64> loc(#loc235)
    %idx_feats_16 = arith.constant 2147483647 : i64 loc(#loc235)
    %idx_feats_17 = arith.constant -2147483648 : i64 loc(#loc235)
    %idx_feats_18 = arith.constant dense<2147483647> : tensor<256xi64> loc(#loc235)
    %idx_feats_19 = arith.cmpi sle, %idx_feats_15, %idx_feats_18 : tensor<256xi64> loc(#loc235)
    %idx_feats_20 = arith.constant dense<-2147483648> : tensor<256xi64> loc(#loc235)
    %idx_feats_21 = arith.cmpi sge, %idx_feats_15, %idx_feats_20 : tensor<256xi64> loc(#loc235)
    %idx_feats_22 = arith.andi %idx_feats_19, %idx_feats_21 : tensor<256xi1> loc(#loc235)
    %idx_feats_23 = arith.addi %idx_feats_12, %idx_feats_11 : tensor<256xi32> loc(#loc235)
    %c-1_i32 = arith.constant -1 : i32 loc(#loc11)
    %0 = arith.cmpi eq, %idx_seq, %c-1_i32 : i32 loc(#loc11)
    cf.cond_br %0, ^bb1, ^bb2 loc(#loc11)
  ^bb1:  // pred: ^bb0
    tt.return loc(#loc12)
  ^bb2:  // pred: ^bb0
    cf.br ^bb4 loc(#loc13)
  ^bb3:  // no predecessors
    cf.br ^bb4 loc(#loc13)
  ^bb4:  // 2 preds: ^bb2, ^bb3
    %sequence_start_index = tt.addptr %query_start_loc_ptr, %idx_seq : !tt.ptr<i32>, i32 loc(#loc236)
    %sequence_start_index_24 = tt.load %sequence_start_index : !tt.ptr<i32> loc(#loc237)
    %sequence_end_index = tt.addptr %query_start_loc_ptr, %idx_seq : !tt.ptr<i32>, i32 loc(#loc238)
    %sequence_end_index_25 = arith.constant 1 : i32 loc(#loc239)
    %sequence_end_index_26 = tt.addptr %sequence_end_index, %sequence_end_index_25 : !tt.ptr<i32>, i32 loc(#loc239)
    %sequence_end_index_27 = tt.load %sequence_end_index_26 : !tt.ptr<i32> loc(#loc240)
    %seqlen_28 = arith.extsi %sequence_end_index_27 : i32 to i64 loc(#loc241)
    %seqlen_29 = arith.extsi %sequence_start_index_24 : i32 to i64 loc(#loc241)
    %seqlen_30 = arith.subi %seqlen_28, %seqlen_29 : i64 loc(#loc241)
    %seqlen_31 = arith.constant 2147483647 : i64 loc(#loc241)
    %seqlen_32 = arith.constant -2147483648 : i64 loc(#loc241)
    %seqlen_33 = arith.cmpi sle, %seqlen_30, %seqlen_31 : i64 loc(#loc241)
    %seqlen_34 = arith.cmpi sge, %seqlen_30, %seqlen_32 : i64 loc(#loc241)
    %seqlen_35 = arith.andi %seqlen_33, %seqlen_34 : i1 loc(#loc241)
    %seqlen_36 = arith.subi %sequence_end_index_27, %sequence_start_index_24 : i32 loc(#loc241)
    %token_offset = arith.constant 8 : i32 loc(#loc242)
    %token_offset_37 = arith.constant 8 : i32 loc(#loc242)
    %token_offset_38 = arith.extsi %token_offset_37 : i32 to i64 loc(#loc242)
    %token_offset_39 = arith.extsi %chunk_offset : i32 to i64 loc(#loc242)
    %token_offset_40 = arith.muli %token_offset_38, %token_offset_39 : i64 loc(#loc242)
    %token_offset_41 = arith.constant 2147483647 : i64 loc(#loc242)
    %token_offset_42 = arith.constant -2147483648 : i64 loc(#loc242)
    %token_offset_43 = arith.cmpi sle, %token_offset_40, %token_offset_41 : i64 loc(#loc242)
    %token_offset_44 = arith.cmpi sge, %token_offset_40, %token_offset_42 : i64 loc(#loc242)
    %token_offset_45 = arith.andi %token_offset_43, %token_offset_44 : i1 loc(#loc242)
    %token_offset_46 = arith.muli %token_offset_37, %chunk_offset : i32 loc(#loc242)
    %segment_len = arith.extsi %seqlen_36 : i32 to i64 loc(#loc243)
    %segment_len_47 = arith.extsi %token_offset_46 : i32 to i64 loc(#loc243)
    %segment_len_48 = arith.subi %segment_len, %segment_len_47 : i64 loc(#loc243)
    %segment_len_49 = arith.constant 2147483647 : i64 loc(#loc243)
    %segment_len_50 = arith.constant -2147483648 : i64 loc(#loc243)
    %segment_len_51 = arith.cmpi sle, %segment_len_48, %segment_len_49 : i64 loc(#loc243)
    %segment_len_52 = arith.cmpi sge, %segment_len_48, %segment_len_50 : i64 loc(#loc243)
    %segment_len_53 = arith.andi %segment_len_51, %segment_len_52 : i1 loc(#loc243)
    %segment_len_54 = arith.subi %seqlen_36, %token_offset_46 : i32 loc(#loc243)
    %segment_len_55 = arith.constant 8 : i32 loc(#loc244)
    %segment_len_56 = arith.minsi %segment_len_55, %segment_len_54 : i32 loc(#loc244)
    %c0_i32 = arith.constant 0 : i32 loc(#loc23)
    %1 = arith.cmpi sle, %segment_len_56, %c0_i32 : i32 loc(#loc23)
    cf.cond_br %1, ^bb5, ^bb6 loc(#loc23)
  ^bb5:  // pred: ^bb4
    tt.return loc(#loc24)
  ^bb6:  // pred: ^bb4
    cf.br ^bb8 loc(#loc13)
  ^bb7:  // no predecessors
    cf.br ^bb8 loc(#loc13)
  ^bb8:  // 2 preds: ^bb6, ^bb7
    %x_base = arith.constant 5120 : i32 loc(#loc245)
    %x_base_57 = arith.constant 5120 : i32 loc(#loc245)
    %x_base_58 = arith.extsi %sequence_start_index_24 : i32 to i64 loc(#loc245)
    %x_base_59 = arith.extsi %x_base_57 : i32 to i64 loc(#loc245)
    %x_base_60 = arith.muli %x_base_58, %x_base_59 : i64 loc(#loc245)
    %x_base_61 = arith.constant 2147483647 : i64 loc(#loc245)
    %x_base_62 = arith.constant -2147483648 : i64 loc(#loc245)
    %x_base_63 = arith.cmpi sle, %x_base_60, %x_base_61 : i64 loc(#loc245)
    %x_base_64 = arith.cmpi sge, %x_base_60, %x_base_62 : i64 loc(#loc245)
    %x_base_65 = arith.andi %x_base_63, %x_base_64 : i1 loc(#loc245)
    %x_base_66 = arith.muli %sequence_start_index_24, %x_base_57 : i32 loc(#loc245)
    %x_base_67 = tt.addptr %x_ptr, %x_base_66 : !tt.ptr<bf16>, i32 loc(#loc246)
    %x_base_68 = arith.constant 1 : i32 loc(#loc247)
    %x_base_69 = arith.constant 1 : i32 loc(#loc247)
    %x_base_70 = arith.constant dense<1> : tensor<256xi32> loc(#loc247)
    %x_base_71 = arith.extsi %idx_feats_23 : tensor<256xi32> to tensor<256xi64> loc(#loc247)
    %x_base_72 = arith.extsi %x_base_70 : tensor<256xi32> to tensor<256xi64> loc(#loc247)
    %x_base_73 = arith.muli %x_base_71, %x_base_72 : tensor<256xi64> loc(#loc247)
    %x_base_74 = arith.constant 2147483647 : i64 loc(#loc247)
    %x_base_75 = arith.constant -2147483648 : i64 loc(#loc247)
    %x_base_76 = arith.constant dense<2147483647> : tensor<256xi64> loc(#loc247)
    %x_base_77 = arith.cmpi sle, %x_base_73, %x_base_76 : tensor<256xi64> loc(#loc247)
    %x_base_78 = arith.constant dense<-2147483648> : tensor<256xi64> loc(#loc247)
    %x_base_79 = arith.cmpi sge, %x_base_73, %x_base_78 : tensor<256xi64> loc(#loc247)
    %x_base_80 = arith.andi %x_base_77, %x_base_79 : tensor<256xi1> loc(#loc247)
    %x_base_81 = arith.muli %idx_feats_23, %x_base_70 : tensor<256xi32> loc(#loc247)
    %x_base_82 = tt.splat %x_base_67 : !tt.ptr<bf16> -> tensor<256x!tt.ptr<bf16>> loc(#loc248)
    %x_base_83 = tt.addptr %x_base_82, %x_base_81 : tensor<256x!tt.ptr<bf16>>, tensor<256xi32> loc(#loc248)
    %conv_state_batch_coord = tt.addptr %cache_indices_ptr, %idx_seq : !tt.ptr<i32>, i32 loc(#loc249)
    %conv_state_batch_coord_84 = tt.load %conv_state_batch_coord : !tt.ptr<i32> loc(#loc250)
    %conv_state_batch_coord_85 = arith.extsi %conv_state_batch_coord_84 : i32 to i64 loc(#loc251)
    %c-1_i32_86 = arith.constant -1 : i32 loc(#loc32)
    %2 = arith.extsi %c-1_i32_86 : i32 to i64 loc(#loc32)
    %3 = arith.cmpi eq, %conv_state_batch_coord_85, %2 : i64 loc(#loc32)
    cf.cond_br %3, ^bb9, ^bb10 loc(#loc32)
  ^bb9:  // pred: ^bb8
    tt.return loc(#loc33)
  ^bb10:  // pred: ^bb8
    cf.br ^bb12 loc(#loc13)
  ^bb11:  // no predecessors
    cf.br ^bb12 loc(#loc13)
  ^bb12:  // 2 preds: ^bb10, ^bb11
    %conv_states_base = arith.extsi %stride_conv_state_seq : i32 to i64 loc(#loc252)
    %conv_states_base_87 = arith.muli %conv_state_batch_coord_85, %conv_states_base : i64 loc(#loc252)
    %conv_states_base_88 = tt.addptr %initial_states_ptr, %conv_states_base_87 : !tt.ptr<bf16>, i64 loc(#loc253)
    %conv_states_base_89 = arith.constant dense<3> : tensor<256xi32> loc(#loc254)
    %conv_states_base_90 = arith.extsi %idx_feats_23 : tensor<256xi32> to tensor<256xi64> loc(#loc254)
    %conv_states_base_91 = arith.extsi %conv_states_base_89 : tensor<256xi32> to tensor<256xi64> loc(#loc254)
    %conv_states_base_92 = arith.muli %conv_states_base_90, %conv_states_base_91 : tensor<256xi64> loc(#loc254)
    %conv_states_base_93 = arith.constant 2147483647 : i64 loc(#loc254)
    %conv_states_base_94 = arith.constant -2147483648 : i64 loc(#loc254)
    %conv_states_base_95 = arith.constant dense<2147483647> : tensor<256xi64> loc(#loc254)
    %conv_states_base_96 = arith.cmpi sle, %conv_states_base_92, %conv_states_base_95 : tensor<256xi64> loc(#loc254)
    %conv_states_base_97 = arith.constant dense<-2147483648> : tensor<256xi64> loc(#loc254)
    %conv_states_base_98 = arith.cmpi sge, %conv_states_base_92, %conv_states_base_97 : tensor<256xi64> loc(#loc254)
    %conv_states_base_99 = arith.andi %conv_states_base_96, %conv_states_base_98 : tensor<256xi1> loc(#loc254)
    %conv_states_base_100 = arith.muli %idx_feats_23, %conv_states_base_89 : tensor<256xi32> loc(#loc254)
    %conv_states_base_101 = tt.splat %conv_states_base_88 : !tt.ptr<bf16> -> tensor<256x!tt.ptr<bf16>> loc(#loc255)
    %conv_states_base_102 = tt.addptr %conv_states_base_101, %conv_states_base_100 : tensor<256x!tt.ptr<bf16>>, tensor<256xi32> loc(#loc255)
    %w_base = arith.constant 4 : i32 loc(#loc256)
    %w_base_103 = arith.constant 4 : i32 loc(#loc256)
    %w_base_104 = arith.constant dense<4> : tensor<256xi32> loc(#loc256)
    %w_base_105 = arith.extsi %idx_feats_23 : tensor<256xi32> to tensor<256xi64> loc(#loc256)
    %w_base_106 = arith.extsi %w_base_104 : tensor<256xi32> to tensor<256xi64> loc(#loc256)
    %w_base_107 = arith.muli %w_base_105, %w_base_106 : tensor<256xi64> loc(#loc256)
    %w_base_108 = arith.constant 2147483647 : i64 loc(#loc256)
    %w_base_109 = arith.constant -2147483648 : i64 loc(#loc256)
    %w_base_110 = arith.constant dense<2147483647> : tensor<256xi64> loc(#loc256)
    %w_base_111 = arith.cmpi sle, %w_base_107, %w_base_110 : tensor<256xi64> loc(#loc256)
    %w_base_112 = arith.constant dense<-2147483648> : tensor<256xi64> loc(#loc256)
    %w_base_113 = arith.cmpi sge, %w_base_107, %w_base_112 : tensor<256xi64> loc(#loc256)
    %w_base_114 = arith.andi %w_base_111, %w_base_113 : tensor<256xi1> loc(#loc256)
    %w_base_115 = arith.muli %idx_feats_23, %w_base_104 : tensor<256xi32> loc(#loc256)
    %w_base_116 = tt.splat %w_ptr : !tt.ptr<bf16> -> tensor<256x!tt.ptr<bf16>> loc(#loc257)
    %w_base_117 = tt.addptr %w_base_116, %w_base_115 : tensor<256x!tt.ptr<bf16>>, tensor<256xi32> loc(#loc257)
    %c0_i32_118 = arith.constant 0 : i32 loc(#loc40)
    %4 = arith.cmpi eq, %chunk_offset, %c0_i32_118 : i32 loc(#loc40)
    %5:4 = scf.if %4 -> (tensor<256xbf16>, tensor<256xbf16>, tensor<256xbf16>, i1) {
      %load_init_state = arith.constant false loc(#loc258)
      %load_init_state_159 = tt.addptr %has_initial_states_ptr, %idx_seq : !tt.ptr<i1>, i32 loc(#loc259)
      %load_init_state_160 = tt.bitcast %load_init_state_159 : !tt.ptr<i1> -> !tt.ptr<i8> loc(#loc260)
      %load_init_state_161 = tt.load %load_init_state_160 : !tt.ptr<i8> loc(#loc260)
      %load_init_state_162 = arith.constant 0 : i8 loc(#loc260)
      %load_init_state_163 = arith.cmpi ne, %load_init_state_161, %load_init_state_162 : i8 loc(#loc420)
      %col2_164:3 = scf.if %load_init_state_163 -> (tensor<256xbf16>, tensor<256xbf16>, tensor<256xbf16>) {
        %prior_tokens = arith.constant 1 : i32 loc(#loc262)
        %prior_tokens_165 = arith.constant 1 : i32 loc(#loc262)
        %prior_tokens_166 = arith.extsi %state_len : i32 to i64 loc(#loc262)
        %prior_tokens_167 = arith.extsi %prior_tokens_165 : i32 to i64 loc(#loc262)
        %prior_tokens_168 = arith.subi %prior_tokens_166, %prior_tokens_167 : i64 loc(#loc262)
        %prior_tokens_169 = arith.constant 2147483647 : i64 loc(#loc262)
        %prior_tokens_170 = arith.constant -2147483648 : i64 loc(#loc262)
        %prior_tokens_171 = arith.cmpi sle, %prior_tokens_168, %prior_tokens_169 : i64 loc(#loc262)
        %prior_tokens_172 = arith.cmpi sge, %prior_tokens_168, %prior_tokens_170 : i64 loc(#loc262)
        %prior_tokens_173 = arith.andi %prior_tokens_171, %prior_tokens_172 : i1 loc(#loc262)
        %prior_tokens_174 = arith.subi %state_len, %prior_tokens_165 : i32 loc(#loc262)
        %prior_tokens_175 = arith.extsi %prior_tokens_174 : i32 to i64 loc(#loc263)
        %prior_tokens_176 = arith.extsi %stride_conv_state_tok : i32 to i64 loc(#loc263)
        %prior_tokens_177 = arith.muli %prior_tokens_175, %prior_tokens_176 : i64 loc(#loc263)
        %prior_tokens_178 = arith.constant 2147483647 : i64 loc(#loc263)
        %prior_tokens_179 = arith.constant -2147483648 : i64 loc(#loc263)
        %prior_tokens_180 = arith.cmpi sle, %prior_tokens_177, %prior_tokens_178 : i64 loc(#loc263)
        %prior_tokens_181 = arith.cmpi sge, %prior_tokens_177, %prior_tokens_179 : i64 loc(#loc263)
        %prior_tokens_182 = arith.andi %prior_tokens_180, %prior_tokens_181 : i1 loc(#loc263)
        %prior_tokens_183 = arith.muli %prior_tokens_174, %stride_conv_state_tok : i32 loc(#loc263)
        %prior_tokens_184 = tt.splat %prior_tokens_183 : i32 -> tensor<256xi32> loc(#loc264)
        %prior_tokens_185 = tt.addptr %conv_states_base_102, %prior_tokens_184 : tensor<256x!tt.ptr<bf16>>, tensor<256xi32> loc(#loc264)
        %mask_w_186 = arith.constant 5120 : i32 loc(#loc265)
        %mask_w_187 = arith.constant dense<5120> : tensor<256xi32> loc(#loc265)
        %mask_w_188 = arith.cmpi slt, %idx_feats_23, %mask_w_187 : tensor<256xi32> loc(#loc265)
        %col2_189 = arith.constant 0.000000e+00 : f32 loc(#loc266)
        %col2_190 = arith.constant dense<0.000000e+00> : tensor<256xf32> loc(#loc266)
        %col2_191 = arith.truncf %col2_190 : tensor<256xf32> to tensor<256xbf16> loc(#loc266)
        %col2_192 = tt.load %prior_tokens_185, %mask_w_188, %col2_191 : tensor<256x!tt.ptr<bf16>> loc(#loc422)
        %conv_states_ptrs = arith.constant 1 : i32 loc(#loc267)
        %conv_states_ptrs_193 = arith.constant 1 : i32 loc(#loc267)
        %conv_states_ptrs_194 = arith.extsi %conv_states_ptrs_193 : i32 to i64 loc(#loc267)
        %conv_states_ptrs_195 = arith.extsi %stride_conv_state_tok : i32 to i64 loc(#loc267)
        %conv_states_ptrs_196 = arith.muli %conv_states_ptrs_194, %conv_states_ptrs_195 : i64 loc(#loc267)
        %conv_states_ptrs_197 = arith.constant 2147483647 : i64 loc(#loc267)
        %conv_states_ptrs_198 = arith.constant -2147483648 : i64 loc(#loc267)
        %conv_states_ptrs_199 = arith.cmpi sle, %conv_states_ptrs_196, %conv_states_ptrs_197 : i64 loc(#loc267)
        %conv_states_ptrs_200 = arith.cmpi sge, %conv_states_ptrs_196, %conv_states_ptrs_198 : i64 loc(#loc267)
        %conv_states_ptrs_201 = arith.andi %conv_states_ptrs_199, %conv_states_ptrs_200 : i1 loc(#loc267)
        %conv_states_ptrs_202 = arith.muli %conv_states_ptrs_193, %stride_conv_state_tok : i32 loc(#loc267)
        %conv_states_ptrs_203 = tt.splat %conv_states_ptrs_202 : i32 -> tensor<256xi32> loc(#loc268)
        %conv_states_ptrs_204 = arith.constant 0 : i32 loc(#loc268)
        %conv_states_ptrs_205 = arith.constant dense<0> : tensor<256xi32> loc(#loc268)
        %conv_states_ptrs_206 = arith.extsi %conv_states_ptrs_205 : tensor<256xi32> to tensor<256xi64> loc(#loc268)
        %conv_states_ptrs_207 = arith.extsi %conv_states_ptrs_203 : tensor<256xi32> to tensor<256xi64> loc(#loc268)
        %conv_states_ptrs_208 = arith.subi %conv_states_ptrs_206, %conv_states_ptrs_207 : tensor<256xi64> loc(#loc268)
        %conv_states_ptrs_209 = arith.constant 2147483647 : i64 loc(#loc268)
        %conv_states_ptrs_210 = arith.constant -2147483648 : i64 loc(#loc268)
        %conv_states_ptrs_211 = arith.constant dense<2147483647> : tensor<256xi64> loc(#loc268)
        %conv_states_ptrs_212 = arith.cmpi sle, %conv_states_ptrs_208, %conv_states_ptrs_211 : tensor<256xi64> loc(#loc268)
        %conv_states_ptrs_213 = arith.constant dense<-2147483648> : tensor<256xi64> loc(#loc268)
        %conv_states_ptrs_214 = arith.cmpi sge, %conv_states_ptrs_208, %conv_states_ptrs_213 : tensor<256xi64> loc(#loc268)
        %conv_states_ptrs_215 = arith.andi %conv_states_ptrs_212, %conv_states_ptrs_214 : tensor<256xi1> loc(#loc268)
        %conv_states_ptrs_216 = arith.subi %conv_states_ptrs_205, %conv_states_ptrs_203 : tensor<256xi32> loc(#loc268)
        %conv_states_ptrs_217 = tt.addptr %prior_tokens_185, %conv_states_ptrs_216 : tensor<256x!tt.ptr<bf16>>, tensor<256xi32> loc(#loc268)
        %col1 = arith.constant 0.000000e+00 : f32 loc(#loc269)
        %col1_218 = arith.constant dense<0.000000e+00> : tensor<256xf32> loc(#loc269)
        %col1_219 = arith.truncf %col1_218 : tensor<256xf32> to tensor<256xbf16> loc(#loc269)
        %col1_220 = tt.load %conv_states_ptrs_217, %mask_w_188, %col1_219 : tensor<256x!tt.ptr<bf16>> loc(#loc423)
        %conv_states_ptrs_221 = arith.constant 2 : i32 loc(#loc270)
        %conv_states_ptrs_222 = arith.constant 2 : i32 loc(#loc270)
        %conv_states_ptrs_223 = arith.extsi %conv_states_ptrs_222 : i32 to i64 loc(#loc270)
        %conv_states_ptrs_224 = arith.extsi %stride_conv_state_tok : i32 to i64 loc(#loc270)
        %conv_states_ptrs_225 = arith.muli %conv_states_ptrs_223, %conv_states_ptrs_224 : i64 loc(#loc270)
        %conv_states_ptrs_226 = arith.constant 2147483647 : i64 loc(#loc270)
        %conv_states_ptrs_227 = arith.constant -2147483648 : i64 loc(#loc270)
        %conv_states_ptrs_228 = arith.cmpi sle, %conv_states_ptrs_225, %conv_states_ptrs_226 : i64 loc(#loc270)
        %conv_states_ptrs_229 = arith.cmpi sge, %conv_states_ptrs_225, %conv_states_ptrs_227 : i64 loc(#loc270)
        %conv_states_ptrs_230 = arith.andi %conv_states_ptrs_228, %conv_states_ptrs_229 : i1 loc(#loc270)
        %conv_states_ptrs_231 = arith.muli %conv_states_ptrs_222, %stride_conv_state_tok : i32 loc(#loc270)
        %conv_states_ptrs_232 = tt.splat %conv_states_ptrs_231 : i32 -> tensor<256xi32> loc(#loc271)
        %conv_states_ptrs_233 = arith.constant 0 : i32 loc(#loc271)
        %conv_states_ptrs_234 = arith.constant dense<0> : tensor<256xi32> loc(#loc271)
        %conv_states_ptrs_235 = arith.extsi %conv_states_ptrs_234 : tensor<256xi32> to tensor<256xi64> loc(#loc271)
        %conv_states_ptrs_236 = arith.extsi %conv_states_ptrs_232 : tensor<256xi32> to tensor<256xi64> loc(#loc271)
        %conv_states_ptrs_237 = arith.subi %conv_states_ptrs_235, %conv_states_ptrs_236 : tensor<256xi64> loc(#loc271)
        %conv_states_ptrs_238 = arith.constant 2147483647 : i64 loc(#loc271)
        %conv_states_ptrs_239 = arith.constant -2147483648 : i64 loc(#loc271)
        %conv_states_ptrs_240 = arith.constant dense<2147483647> : tensor<256xi64> loc(#loc271)
        %conv_states_ptrs_241 = arith.cmpi sle, %conv_states_ptrs_237, %conv_states_ptrs_240 : tensor<256xi64> loc(#loc271)
        %conv_states_ptrs_242 = arith.constant dense<-2147483648> : tensor<256xi64> loc(#loc271)
        %conv_states_ptrs_243 = arith.cmpi sge, %conv_states_ptrs_237, %conv_states_ptrs_242 : tensor<256xi64> loc(#loc271)
        %conv_states_ptrs_244 = arith.andi %conv_states_ptrs_241, %conv_states_ptrs_243 : tensor<256xi1> loc(#loc271)
        %conv_states_ptrs_245 = arith.subi %conv_states_ptrs_234, %conv_states_ptrs_232 : tensor<256xi32> loc(#loc271)
        %conv_states_ptrs_246 = tt.addptr %prior_tokens_185, %conv_states_ptrs_245 : tensor<256x!tt.ptr<bf16>>, tensor<256xi32> loc(#loc271)
        %col0 = arith.constant 0.000000e+00 : f32 loc(#loc272)
        %col0_247 = arith.constant dense<0.000000e+00> : tensor<256xf32> loc(#loc272)
        %col0_248 = arith.truncf %col0_247 : tensor<256xf32> to tensor<256xbf16> loc(#loc272)
        %col0_249 = tt.load %conv_states_ptrs_246, %mask_w_188, %col0_248 : tensor<256x!tt.ptr<bf16>> loc(#loc424)
        scf.yield %col0_249, %col1_220, %col2_192 : tensor<256xbf16>, tensor<256xbf16>, tensor<256xbf16> loc(#loc424)
      } else {
        %col0 = tt.call @"triton.language.standard.zeros____(0, 0)cconstexpr_256__(1,)cconstexpr_bf16_"() : () -> tensor<256xbf16> loc(#loc425)
        %col1 = tt.call @"triton.language.standard.zeros____(0, 0)cconstexpr_256__(1,)cconstexpr_bf16_"() : () -> tensor<256xbf16> loc(#loc426)
        %col2_165 = tt.call @"triton.language.standard.zeros____(0, 0)cconstexpr_256__(1,)cconstexpr_bf16_"() : () -> tensor<256xbf16> loc(#loc427)
        scf.yield %col0, %col1, %col2_165 : tensor<256xbf16>, tensor<256xbf16>, tensor<256xbf16> loc(#loc275)
      } loc(#loc454)
      %10 = arith.cmpi sle, %state_len, %seqlen_36 : i32 loc(#loc60)
      %11:6 = scf.if %10 -> (tensor<4x256x!tt.ptr<bf16>>, tensor<4xi32>, tensor<4x256xi1>, tensor<4x256xi1>, tensor<4x256xbf16>, tensor<4x256x!tt.ptr<bf16>>) {
        %idx_tokens_last = arith.extsi %seqlen_36 : i32 to i64 loc(#loc276)
        %idx_tokens_last_165 = arith.extsi %state_len : i32 to i64 loc(#loc276)
        %idx_tokens_last_166 = arith.subi %idx_tokens_last, %idx_tokens_last_165 : i64 loc(#loc276)
        %idx_tokens_last_167 = arith.constant 2147483647 : i64 loc(#loc276)
        %idx_tokens_last_168 = arith.constant -2147483648 : i64 loc(#loc276)
        %idx_tokens_last_169 = arith.cmpi sle, %idx_tokens_last_166, %idx_tokens_last_167 : i64 loc(#loc276)
        %idx_tokens_last_170 = arith.cmpi sge, %idx_tokens_last_166, %idx_tokens_last_168 : i64 loc(#loc276)
        %idx_tokens_last_171 = arith.andi %idx_tokens_last_169, %idx_tokens_last_170 : i1 loc(#loc276)
        %idx_tokens_last_172 = arith.subi %seqlen_36, %state_len : i32 loc(#loc276)
        %idx_tokens_last_173 = tt.make_range {end = 4 : i32, start = 0 : i32} : tensor<4xi32> loc(#loc277)
        %idx_tokens_last_174 = tt.splat %idx_tokens_last_172 : i32 -> tensor<4xi32> loc(#loc278)
        %idx_tokens_last_175 = arith.extsi %idx_tokens_last_174 : tensor<4xi32> to tensor<4xi64> loc(#loc278)
        %idx_tokens_last_176 = arith.extsi %idx_tokens_last_173 : tensor<4xi32> to tensor<4xi64> loc(#loc278)
        %idx_tokens_last_177 = arith.addi %idx_tokens_last_175, %idx_tokens_last_176 : tensor<4xi64> loc(#loc278)
        %idx_tokens_last_178 = arith.constant 2147483647 : i64 loc(#loc278)
        %idx_tokens_last_179 = arith.constant -2147483648 : i64 loc(#loc278)
        %idx_tokens_last_180 = arith.constant dense<2147483647> : tensor<4xi64> loc(#loc278)
        %idx_tokens_last_181 = arith.cmpi sle, %idx_tokens_last_177, %idx_tokens_last_180 : tensor<4xi64> loc(#loc278)
        %idx_tokens_last_182 = arith.constant dense<-2147483648> : tensor<4xi64> loc(#loc278)
        %idx_tokens_last_183 = arith.cmpi sge, %idx_tokens_last_177, %idx_tokens_last_182 : tensor<4xi64> loc(#loc278)
        %idx_tokens_last_184 = arith.andi %idx_tokens_last_181, %idx_tokens_last_183 : tensor<4xi1> loc(#loc278)
        %idx_tokens_last_185 = arith.addi %idx_tokens_last_174, %idx_tokens_last_173 : tensor<4xi32> loc(#loc278)
        %x_ptrs = tt.splat %sequence_start_index_24 : i32 -> tensor<4xi32> loc(#loc279)
        %x_ptrs_186 = arith.extsi %x_ptrs : tensor<4xi32> to tensor<4xi64> loc(#loc279)
        %x_ptrs_187 = arith.extsi %idx_tokens_last_185 : tensor<4xi32> to tensor<4xi64> loc(#loc279)
        %x_ptrs_188 = arith.addi %x_ptrs_186, %x_ptrs_187 : tensor<4xi64> loc(#loc279)
        %x_ptrs_189 = arith.constant 2147483647 : i64 loc(#loc279)
        %x_ptrs_190 = arith.constant -2147483648 : i64 loc(#loc279)
        %x_ptrs_191 = arith.constant dense<2147483647> : tensor<4xi64> loc(#loc279)
        %x_ptrs_192 = arith.cmpi sle, %x_ptrs_188, %x_ptrs_191 : tensor<4xi64> loc(#loc279)
        %x_ptrs_193 = arith.constant dense<-2147483648> : tensor<4xi64> loc(#loc279)
        %x_ptrs_194 = arith.cmpi sge, %x_ptrs_188, %x_ptrs_193 : tensor<4xi64> loc(#loc279)
        %x_ptrs_195 = arith.andi %x_ptrs_192, %x_ptrs_194 : tensor<4xi1> loc(#loc279)
        %x_ptrs_196 = arith.addi %x_ptrs, %idx_tokens_last_185 : tensor<4xi32> loc(#loc279)
        %x_ptrs_197 = arith.constant 5120 : i32 loc(#loc280)
        %x_ptrs_198 = arith.constant 5120 : i32 loc(#loc280)
        %x_ptrs_199 = arith.constant dense<5120> : tensor<4xi32> loc(#loc280)
        %x_ptrs_200 = arith.extsi %x_ptrs_196 : tensor<4xi32> to tensor<4xi64> loc(#loc280)
        %x_ptrs_201 = arith.extsi %x_ptrs_199 : tensor<4xi32> to tensor<4xi64> loc(#loc280)
        %x_ptrs_202 = arith.muli %x_ptrs_200, %x_ptrs_201 : tensor<4xi64> loc(#loc280)
        %x_ptrs_203 = arith.constant 2147483647 : i64 loc(#loc280)
        %x_ptrs_204 = arith.constant -2147483648 : i64 loc(#loc280)
        %x_ptrs_205 = arith.constant dense<2147483647> : tensor<4xi64> loc(#loc280)
        %x_ptrs_206 = arith.cmpi sle, %x_ptrs_202, %x_ptrs_205 : tensor<4xi64> loc(#loc280)
        %x_ptrs_207 = arith.constant dense<-2147483648> : tensor<4xi64> loc(#loc280)
        %x_ptrs_208 = arith.cmpi sge, %x_ptrs_202, %x_ptrs_207 : tensor<4xi64> loc(#loc280)
        %x_ptrs_209 = arith.andi %x_ptrs_206, %x_ptrs_208 : tensor<4xi1> loc(#loc280)
        %x_ptrs_210 = arith.muli %x_ptrs_196, %x_ptrs_199 : tensor<4xi32> loc(#loc280)
        %x_ptrs_211 = tt.expand_dims %x_ptrs_210 {axis = 1 : i32} : tensor<4xi32> -> tensor<4x1xi32> loc(#loc281)
        %x_ptrs_212 = tt.splat %x_ptr : !tt.ptr<bf16> -> tensor<4x1x!tt.ptr<bf16>> loc(#loc282)
        %x_ptrs_213 = tt.addptr %x_ptrs_212, %x_ptrs_211 : tensor<4x1x!tt.ptr<bf16>>, tensor<4x1xi32> loc(#loc282)
        %x_ptrs_214 = arith.constant 1 : i32 loc(#loc283)
        %x_ptrs_215 = arith.constant 1 : i32 loc(#loc283)
        %x_ptrs_216 = arith.constant dense<1> : tensor<256xi32> loc(#loc283)
        %x_ptrs_217 = arith.extsi %idx_feats_23 : tensor<256xi32> to tensor<256xi64> loc(#loc283)
        %x_ptrs_218 = arith.extsi %x_ptrs_216 : tensor<256xi32> to tensor<256xi64> loc(#loc283)
        %x_ptrs_219 = arith.muli %x_ptrs_217, %x_ptrs_218 : tensor<256xi64> loc(#loc283)
        %x_ptrs_220 = arith.constant 2147483647 : i64 loc(#loc283)
        %x_ptrs_221 = arith.constant -2147483648 : i64 loc(#loc283)
        %x_ptrs_222 = arith.constant dense<2147483647> : tensor<256xi64> loc(#loc283)
        %x_ptrs_223 = arith.cmpi sle, %x_ptrs_219, %x_ptrs_222 : tensor<256xi64> loc(#loc283)
        %x_ptrs_224 = arith.constant dense<-2147483648> : tensor<256xi64> loc(#loc283)
        %x_ptrs_225 = arith.cmpi sge, %x_ptrs_219, %x_ptrs_224 : tensor<256xi64> loc(#loc283)
        %x_ptrs_226 = arith.andi %x_ptrs_223, %x_ptrs_225 : tensor<256xi1> loc(#loc283)
        %x_ptrs_227 = arith.muli %idx_feats_23, %x_ptrs_216 : tensor<256xi32> loc(#loc283)
        %x_ptrs_228 = tt.expand_dims %x_ptrs_227 {axis = 0 : i32} : tensor<256xi32> -> tensor<1x256xi32> loc(#loc284)
        %x_ptrs_229 = tt.broadcast %x_ptrs_213 : tensor<4x1x!tt.ptr<bf16>> -> tensor<4x256x!tt.ptr<bf16>> loc(#loc285)
        %x_ptrs_230 = tt.broadcast %x_ptrs_228 : tensor<1x256xi32> -> tensor<4x256xi32> loc(#loc285)
        %x_ptrs_231 = tt.addptr %x_ptrs_229, %x_ptrs_230 : tensor<4x256x!tt.ptr<bf16>>, tensor<4x256xi32> loc(#loc428)
        %mask_x = arith.constant 0 : i32 loc(#loc286)
        %mask_x_232 = arith.constant dense<0> : tensor<4xi32> loc(#loc286)
        %mask_x_233 = arith.cmpi sge, %idx_tokens_last_185, %mask_x_232 : tensor<4xi32> loc(#loc286)
        %mask_x_234 = tt.expand_dims %mask_x_233 {axis = 1 : i32} : tensor<4xi1> -> tensor<4x1xi1> loc(#loc287)
        %mask_x_235 = tt.splat %seqlen_36 : i32 -> tensor<4xi32> loc(#loc288)
        %mask_x_236 = arith.cmpi slt, %idx_tokens_last_185, %mask_x_235 : tensor<4xi32> loc(#loc288)
        %mask_x_237 = tt.expand_dims %mask_x_236 {axis = 1 : i32} : tensor<4xi1> -> tensor<4x1xi1> loc(#loc289)
        %mask_x_238 = arith.andi %mask_x_234, %mask_x_237 : tensor<4x1xi1> loc(#loc290)
        %mask_x_239 = arith.constant 5120 : i32 loc(#loc291)
        %mask_x_240 = arith.constant dense<5120> : tensor<256xi32> loc(#loc291)
        %mask_x_241 = arith.cmpi slt, %idx_feats_23, %mask_x_240 : tensor<256xi32> loc(#loc291)
        %mask_x_242 = tt.expand_dims %mask_x_241 {axis = 0 : i32} : tensor<256xi1> -> tensor<1x256xi1> loc(#loc292)
        %mask_x_243 = tt.broadcast %mask_x_238 : tensor<4x1xi1> -> tensor<4x256xi1> loc(#loc293)
        %mask_x_244 = tt.broadcast %mask_x_242 : tensor<1x256xi1> -> tensor<4x256xi1> loc(#loc293)
        %mask_x_245 = arith.andi %mask_x_243, %mask_x_244 : tensor<4x256xi1> loc(#loc429)
        %loaded_x = arith.constant 0.000000e+00 : f32 loc(#loc294)
        %loaded_x_246 = arith.constant dense<0.000000e+00> : tensor<4x256xf32> loc(#loc294)
        %loaded_x_247 = arith.truncf %loaded_x_246 : tensor<4x256xf32> to tensor<4x256xbf16> loc(#loc294)
        %loaded_x_248 = tt.load %x_ptrs_231, %mask_x_245, %loaded_x_247 : tensor<4x256x!tt.ptr<bf16>> loc(#loc294)
        %new_conv_state = arith.constant 0.000000e+00 : f32 loc(#loc295)
        %new_conv_state_249 = arith.constant dense<0.000000e+00> : tensor<4x256xf32> loc(#loc295)
        %new_conv_state_250 = arith.truncf %new_conv_state_249 : tensor<4x256xf32> to tensor<4x256xbf16> loc(#loc295)
        %new_conv_state_251 = tt.load %x_ptrs_231, %mask_x_245, %new_conv_state_250 : tensor<4x256x!tt.ptr<bf16>> loc(#loc430)
        %idx_tokens_conv = tt.make_range {end = 4 : i32, start = 0 : i32} : tensor<4xi32> loc(#loc431)
        %conv_states_ptrs_target = tt.expand_dims %conv_states_base_102 {axis = 0 : i32} : tensor<256x!tt.ptr<bf16>> -> tensor<1x256x!tt.ptr<bf16>> loc(#loc297)
        %conv_states_ptrs_target_252 = arith.constant dense<1> : tensor<4xi32> loc(#loc298)
        %conv_states_ptrs_target_253 = arith.extsi %idx_tokens_conv : tensor<4xi32> to tensor<4xi64> loc(#loc298)
        %conv_states_ptrs_target_254 = arith.extsi %conv_states_ptrs_target_252 : tensor<4xi32> to tensor<4xi64> loc(#loc298)
        %conv_states_ptrs_target_255 = arith.muli %conv_states_ptrs_target_253, %conv_states_ptrs_target_254 : tensor<4xi64> loc(#loc298)
        %conv_states_ptrs_target_256 = arith.constant 2147483647 : i64 loc(#loc298)
        %conv_states_ptrs_target_257 = arith.constant -2147483648 : i64 loc(#loc298)
        %conv_states_ptrs_target_258 = arith.constant dense<2147483647> : tensor<4xi64> loc(#loc298)
        %conv_states_ptrs_target_259 = arith.cmpi sle, %conv_states_ptrs_target_255, %conv_states_ptrs_target_258 : tensor<4xi64> loc(#loc298)
        %conv_states_ptrs_target_260 = arith.constant dense<-2147483648> : tensor<4xi64> loc(#loc298)
        %conv_states_ptrs_target_261 = arith.cmpi sge, %conv_states_ptrs_target_255, %conv_states_ptrs_target_260 : tensor<4xi64> loc(#loc298)
        %conv_states_ptrs_target_262 = arith.andi %conv_states_ptrs_target_259, %conv_states_ptrs_target_261 : tensor<4xi1> loc(#loc298)
        %conv_states_ptrs_target_263 = arith.muli %idx_tokens_conv, %conv_states_ptrs_target_252 : tensor<4xi32> loc(#loc298)
        %conv_states_ptrs_target_264 = tt.expand_dims %conv_states_ptrs_target_263 {axis = 1 : i32} : tensor<4xi32> -> tensor<4x1xi32> loc(#loc299)
        %conv_states_ptrs_target_265 = tt.broadcast %conv_states_ptrs_target : tensor<1x256x!tt.ptr<bf16>> -> tensor<4x256x!tt.ptr<bf16>> loc(#loc300)
        %conv_states_ptrs_target_266 = tt.broadcast %conv_states_ptrs_target_264 : tensor<4x1xi32> -> tensor<4x256xi32> loc(#loc300)
        %conv_states_ptrs_target_267 = tt.addptr %conv_states_ptrs_target_265, %conv_states_ptrs_target_266 : tensor<4x256x!tt.ptr<bf16>>, tensor<4x256xi32> loc(#loc432)
        %mask = arith.constant dense<3> : tensor<4xi32> loc(#loc301)
        %mask_268 = arith.cmpi slt, %idx_tokens_conv, %mask : tensor<4xi32> loc(#loc301)
        %mask_269 = tt.expand_dims %mask_268 {axis = 1 : i32} : tensor<4xi1> -> tensor<4x1xi1> loc(#loc302)
        %mask_270 = arith.constant 5120 : i32 loc(#loc303)
        %mask_271 = arith.constant dense<5120> : tensor<256xi32> loc(#loc303)
        %mask_272 = arith.cmpi slt, %idx_feats_23, %mask_271 : tensor<256xi32> loc(#loc303)
        %mask_273 = tt.expand_dims %mask_272 {axis = 0 : i32} : tensor<256xi1> -> tensor<1x256xi1> loc(#loc304)
        %mask_274 = tt.broadcast %mask_269 : tensor<4x1xi1> -> tensor<4x256xi1> loc(#loc305)
        %mask_275 = tt.broadcast %mask_273 : tensor<1x256xi1> -> tensor<4x256xi1> loc(#loc305)
        %mask_276 = arith.andi %mask_274, %mask_275 : tensor<4x256xi1> loc(#loc433)
        gpu.barrier loc(#loc92)
        tt.store %conv_states_ptrs_target_267, %new_conv_state_251, %mask_276 : tensor<4x256x!tt.ptr<bf16>> loc(#loc93)
        scf.yield %conv_states_ptrs_target_267, %idx_tokens_conv, %mask_276, %mask_x_245, %new_conv_state_251, %x_ptrs_231 : tensor<4x256x!tt.ptr<bf16>>, tensor<4xi32>, tensor<4x256xi1>, tensor<4x256xi1>, tensor<4x256xbf16>, tensor<4x256x!tt.ptr<bf16>> loc(#loc93)
      } else {
        %x_ptrs:7 = scf.if %load_init_state_163 -> (i32, tensor<4x256x!tt.ptr<bf16>>, tensor<4xi32>, tensor<4x256xi1>, tensor<4x256xi1>, tensor<4x256xbf16>, tensor<4x256x!tt.ptr<bf16>>) {
          %idx_tokens_conv = tt.make_range {end = 4 : i32, start = 0 : i32} : tensor<4xi32> loc(#loc435)
          %conv_states_ptrs_source = arith.extsi %stride_conv_state_seq : i32 to i64 loc(#loc308)
          %conv_states_ptrs_source_165 = arith.muli %conv_state_batch_coord_85, %conv_states_ptrs_source : i64 loc(#loc308)
          %conv_states_ptrs_source_166 = tt.addptr %initial_states_ptr, %conv_states_ptrs_source_165 : !tt.ptr<bf16>, i64 loc(#loc309)
          %conv_states_ptrs_source_167 = arith.constant dense<3> : tensor<256xi32> loc(#loc310)
          %conv_states_ptrs_source_168 = arith.extsi %idx_feats_23 : tensor<256xi32> to tensor<256xi64> loc(#loc310)
          %conv_states_ptrs_source_169 = arith.extsi %conv_states_ptrs_source_167 : tensor<256xi32> to tensor<256xi64> loc(#loc310)
          %conv_states_ptrs_source_170 = arith.muli %conv_states_ptrs_source_168, %conv_states_ptrs_source_169 : tensor<256xi64> loc(#loc310)
          %conv_states_ptrs_source_171 = arith.constant 2147483647 : i64 loc(#loc310)
          %conv_states_ptrs_source_172 = arith.constant -2147483648 : i64 loc(#loc310)
          %conv_states_ptrs_source_173 = arith.constant dense<2147483647> : tensor<256xi64> loc(#loc310)
          %conv_states_ptrs_source_174 = arith.cmpi sle, %conv_states_ptrs_source_170, %conv_states_ptrs_source_173 : tensor<256xi64> loc(#loc310)
          %conv_states_ptrs_source_175 = arith.constant dense<-2147483648> : tensor<256xi64> loc(#loc310)
          %conv_states_ptrs_source_176 = arith.cmpi sge, %conv_states_ptrs_source_170, %conv_states_ptrs_source_175 : tensor<256xi64> loc(#loc310)
          %conv_states_ptrs_source_177 = arith.andi %conv_states_ptrs_source_174, %conv_states_ptrs_source_176 : tensor<256xi1> loc(#loc310)
          %conv_states_ptrs_source_178 = arith.muli %idx_feats_23, %conv_states_ptrs_source_167 : tensor<256xi32> loc(#loc310)
          %conv_states_ptrs_source_179 = tt.expand_dims %conv_states_ptrs_source_178 {axis = 0 : i32} : tensor<256xi32> -> tensor<1x256xi32> loc(#loc311)
          %conv_states_ptrs_source_180 = tt.splat %conv_states_ptrs_source_166 : !tt.ptr<bf16> -> tensor<1x256x!tt.ptr<bf16>> loc(#loc312)
          %conv_states_ptrs_source_181 = tt.addptr %conv_states_ptrs_source_180, %conv_states_ptrs_source_179 : tensor<1x256x!tt.ptr<bf16>>, tensor<1x256xi32> loc(#loc312)
          %conv_states_ptrs_source_182 = tt.splat %seqlen_36 : i32 -> tensor<4xi32> loc(#loc313)
          %conv_states_ptrs_source_183 = arith.extsi %idx_tokens_conv : tensor<4xi32> to tensor<4xi64> loc(#loc313)
          %conv_states_ptrs_source_184 = arith.extsi %conv_states_ptrs_source_182 : tensor<4xi32> to tensor<4xi64> loc(#loc313)
          %conv_states_ptrs_source_185 = arith.addi %conv_states_ptrs_source_183, %conv_states_ptrs_source_184 : tensor<4xi64> loc(#loc313)
          %conv_states_ptrs_source_186 = arith.constant 2147483647 : i64 loc(#loc313)
          %conv_states_ptrs_source_187 = arith.constant -2147483648 : i64 loc(#loc313)
          %conv_states_ptrs_source_188 = arith.constant dense<2147483647> : tensor<4xi64> loc(#loc313)
          %conv_states_ptrs_source_189 = arith.cmpi sle, %conv_states_ptrs_source_185, %conv_states_ptrs_source_188 : tensor<4xi64> loc(#loc313)
          %conv_states_ptrs_source_190 = arith.constant dense<-2147483648> : tensor<4xi64> loc(#loc313)
          %conv_states_ptrs_source_191 = arith.cmpi sge, %conv_states_ptrs_source_185, %conv_states_ptrs_source_190 : tensor<4xi64> loc(#loc313)
          %conv_states_ptrs_source_192 = arith.andi %conv_states_ptrs_source_189, %conv_states_ptrs_source_191 : tensor<4xi1> loc(#loc313)
          %conv_states_ptrs_source_193 = arith.addi %idx_tokens_conv, %conv_states_ptrs_source_182 : tensor<4xi32> loc(#loc313)
          %conv_states_ptrs_source_194 = arith.constant dense<1> : tensor<4xi32> loc(#loc314)
          %conv_states_ptrs_source_195 = arith.extsi %conv_states_ptrs_source_193 : tensor<4xi32> to tensor<4xi64> loc(#loc314)
          %conv_states_ptrs_source_196 = arith.extsi %conv_states_ptrs_source_194 : tensor<4xi32> to tensor<4xi64> loc(#loc314)
          %conv_states_ptrs_source_197 = arith.muli %conv_states_ptrs_source_195, %conv_states_ptrs_source_196 : tensor<4xi64> loc(#loc314)
          %conv_states_ptrs_source_198 = arith.constant 2147483647 : i64 loc(#loc314)
          %conv_states_ptrs_source_199 = arith.constant -2147483648 : i64 loc(#loc314)
          %conv_states_ptrs_source_200 = arith.constant dense<2147483647> : tensor<4xi64> loc(#loc314)
          %conv_states_ptrs_source_201 = arith.cmpi sle, %conv_states_ptrs_source_197, %conv_states_ptrs_source_200 : tensor<4xi64> loc(#loc314)
          %conv_states_ptrs_source_202 = arith.constant dense<-2147483648> : tensor<4xi64> loc(#loc314)
          %conv_states_ptrs_source_203 = arith.cmpi sge, %conv_states_ptrs_source_197, %conv_states_ptrs_source_202 : tensor<4xi64> loc(#loc314)
          %conv_states_ptrs_source_204 = arith.andi %conv_states_ptrs_source_201, %conv_states_ptrs_source_203 : tensor<4xi1> loc(#loc314)
          %conv_states_ptrs_source_205 = arith.muli %conv_states_ptrs_source_193, %conv_states_ptrs_source_194 : tensor<4xi32> loc(#loc314)
          %conv_states_ptrs_source_206 = tt.expand_dims %conv_states_ptrs_source_205 {axis = 1 : i32} : tensor<4xi32> -> tensor<4x1xi32> loc(#loc315)
          %conv_states_ptrs_source_207 = tt.broadcast %conv_states_ptrs_source_181 : tensor<1x256x!tt.ptr<bf16>> -> tensor<4x256x!tt.ptr<bf16>> loc(#loc316)
          %conv_states_ptrs_source_208 = tt.broadcast %conv_states_ptrs_source_206 : tensor<4x1xi32> -> tensor<4x256xi32> loc(#loc316)
          %conv_states_ptrs_source_209 = tt.addptr %conv_states_ptrs_source_207, %conv_states_ptrs_source_208 : tensor<4x256x!tt.ptr<bf16>>, tensor<4x256xi32> loc(#loc316)
          %mask = arith.constant 26 : i32 loc(#loc317)
          %mask_210 = arith.extsi %mask : i32 to i64 loc(#loc317)
          %mask_211 = arith.cmpi slt, %conv_state_batch_coord_85, %mask_210 : i64 loc(#loc317)
          %mask_212 = tt.splat %seqlen_36 : i32 -> tensor<4xi32> loc(#loc318)
          %mask_213 = arith.extsi %idx_tokens_conv : tensor<4xi32> to tensor<4xi64> loc(#loc318)
          %mask_214 = arith.extsi %mask_212 : tensor<4xi32> to tensor<4xi64> loc(#loc318)
          %mask_215 = arith.addi %mask_213, %mask_214 : tensor<4xi64> loc(#loc318)
          %mask_216 = arith.constant 2147483647 : i64 loc(#loc318)
          %mask_217 = arith.constant -2147483648 : i64 loc(#loc318)
          %mask_218 = arith.constant dense<2147483647> : tensor<4xi64> loc(#loc318)
          %mask_219 = arith.cmpi sle, %mask_215, %mask_218 : tensor<4xi64> loc(#loc318)
          %mask_220 = arith.constant dense<-2147483648> : tensor<4xi64> loc(#loc318)
          %mask_221 = arith.cmpi sge, %mask_215, %mask_220 : tensor<4xi64> loc(#loc318)
          %mask_222 = arith.andi %mask_219, %mask_221 : tensor<4xi1> loc(#loc318)
          %mask_223 = arith.addi %idx_tokens_conv, %mask_212 : tensor<4xi32> loc(#loc318)
          %mask_224 = arith.constant dense<3> : tensor<4xi32> loc(#loc319)
          %mask_225 = arith.cmpi slt, %mask_223, %mask_224 : tensor<4xi32> loc(#loc319)
          %mask_226 = tt.expand_dims %mask_225 {axis = 1 : i32} : tensor<4xi1> -> tensor<4x1xi1> loc(#loc320)
          %mask_227 = tt.splat %mask_211 : i1 -> tensor<4x1xi1> loc(#loc321)
          %mask_228 = arith.andi %mask_227, %mask_226 : tensor<4x1xi1> loc(#loc321)
          %mask_229 = arith.constant 5120 : i32 loc(#loc322)
          %mask_230 = arith.constant dense<5120> : tensor<256xi32> loc(#loc322)
          %mask_231 = arith.cmpi slt, %idx_feats_23, %mask_230 : tensor<256xi32> loc(#loc322)
          %mask_232 = tt.expand_dims %mask_231 {axis = 0 : i32} : tensor<256xi1> -> tensor<1x256xi1> loc(#loc323)
          %mask_233 = tt.broadcast %mask_228 : tensor<4x1xi1> -> tensor<4x256xi1> loc(#loc324)
          %mask_234 = tt.broadcast %mask_232 : tensor<1x256xi1> -> tensor<4x256xi1> loc(#loc324)
          %mask_235 = arith.andi %mask_233, %mask_234 : tensor<4x256xi1> loc(#loc324)
          %conv_state = arith.constant 0.000000e+00 : f32 loc(#loc325)
          %conv_state_236 = arith.constant dense<0.000000e+00> : tensor<4x256xf32> loc(#loc325)
          %conv_state_237 = arith.truncf %conv_state_236 : tensor<4x256xf32> to tensor<4x256xbf16> loc(#loc325)
          %conv_state_238 = tt.load %conv_states_ptrs_source_209, %mask_235, %conv_state_237 : tensor<4x256x!tt.ptr<bf16>> loc(#loc325)
          %VAL = arith.extsi %state_len : i32 to i64 loc(#loc326)
          %VAL_239 = arith.extsi %seqlen_36 : i32 to i64 loc(#loc326)
          %VAL_240 = arith.subi %VAL, %VAL_239 : i64 loc(#loc326)
          %VAL_241 = arith.constant 2147483647 : i64 loc(#loc326)
          %VAL_242 = arith.constant -2147483648 : i64 loc(#loc326)
          %VAL_243 = arith.cmpi sle, %VAL_240, %VAL_241 : i64 loc(#loc326)
          %VAL_244 = arith.cmpi sge, %VAL_240, %VAL_242 : i64 loc(#loc326)
          %VAL_245 = arith.andi %VAL_243, %VAL_244 : i1 loc(#loc326)
          %VAL_246 = arith.subi %state_len, %seqlen_36 : i32 loc(#loc436)
          %x_ptrs_247 = tt.expand_dims %x_base_83 {axis = 0 : i32} : tensor<256x!tt.ptr<bf16>> -> tensor<1x256x!tt.ptr<bf16>> loc(#loc327)
          %x_ptrs_248 = tt.splat %VAL_246 : i32 -> tensor<4xi32> loc(#loc328)
          %x_ptrs_249 = arith.extsi %idx_tokens_conv : tensor<4xi32> to tensor<4xi64> loc(#loc328)
          %x_ptrs_250 = arith.extsi %x_ptrs_248 : tensor<4xi32> to tensor<4xi64> loc(#loc328)
          %x_ptrs_251 = arith.subi %x_ptrs_249, %x_ptrs_250 : tensor<4xi64> loc(#loc328)
          %x_ptrs_252 = arith.constant 2147483647 : i64 loc(#loc328)
          %x_ptrs_253 = arith.constant -2147483648 : i64 loc(#loc328)
          %x_ptrs_254 = arith.constant dense<2147483647> : tensor<4xi64> loc(#loc328)
          %x_ptrs_255 = arith.cmpi sle, %x_ptrs_251, %x_ptrs_254 : tensor<4xi64> loc(#loc328)
          %x_ptrs_256 = arith.constant dense<-2147483648> : tensor<4xi64> loc(#loc328)
          %x_ptrs_257 = arith.cmpi sge, %x_ptrs_251, %x_ptrs_256 : tensor<4xi64> loc(#loc328)
          %x_ptrs_258 = arith.andi %x_ptrs_255, %x_ptrs_257 : tensor<4xi1> loc(#loc328)
          %x_ptrs_259 = arith.subi %idx_tokens_conv, %x_ptrs_248 : tensor<4xi32> loc(#loc328)
          %x_ptrs_260 = arith.constant 5120 : i32 loc(#loc329)
          %x_ptrs_261 = arith.constant 5120 : i32 loc(#loc329)
          %x_ptrs_262 = arith.constant dense<5120> : tensor<4xi32> loc(#loc329)
          %x_ptrs_263 = arith.extsi %x_ptrs_259 : tensor<4xi32> to tensor<4xi64> loc(#loc329)
          %x_ptrs_264 = arith.extsi %x_ptrs_262 : tensor<4xi32> to tensor<4xi64> loc(#loc329)
          %x_ptrs_265 = arith.muli %x_ptrs_263, %x_ptrs_264 : tensor<4xi64> loc(#loc329)
          %x_ptrs_266 = arith.constant 2147483647 : i64 loc(#loc329)
          %x_ptrs_267 = arith.constant -2147483648 : i64 loc(#loc329)
          %x_ptrs_268 = arith.constant dense<2147483647> : tensor<4xi64> loc(#loc329)
          %x_ptrs_269 = arith.cmpi sle, %x_ptrs_265, %x_ptrs_268 : tensor<4xi64> loc(#loc329)
          %x_ptrs_270 = arith.constant dense<-2147483648> : tensor<4xi64> loc(#loc329)
          %x_ptrs_271 = arith.cmpi sge, %x_ptrs_265, %x_ptrs_270 : tensor<4xi64> loc(#loc329)
          %x_ptrs_272 = arith.andi %x_ptrs_269, %x_ptrs_271 : tensor<4xi1> loc(#loc329)
          %x_ptrs_273 = arith.muli %x_ptrs_259, %x_ptrs_262 : tensor<4xi32> loc(#loc329)
          %x_ptrs_274 = tt.expand_dims %x_ptrs_273 {axis = 1 : i32} : tensor<4xi32> -> tensor<4x1xi32> loc(#loc330)
          %x_ptrs_275 = tt.broadcast %x_ptrs_247 : tensor<1x256x!tt.ptr<bf16>> -> tensor<4x256x!tt.ptr<bf16>> loc(#loc331)
          %x_ptrs_276 = tt.broadcast %x_ptrs_274 : tensor<4x1xi32> -> tensor<4x256xi32> loc(#loc331)
          %x_ptrs_277 = tt.addptr %x_ptrs_275, %x_ptrs_276 : tensor<4x256x!tt.ptr<bf16>>, tensor<4x256xi32> loc(#loc437)
          %mask_x = tt.splat %VAL_246 : i32 -> tensor<4xi32> loc(#loc332)
          %mask_x_278 = arith.extsi %idx_tokens_conv : tensor<4xi32> to tensor<4xi64> loc(#loc332)
          %mask_x_279 = arith.extsi %mask_x : tensor<4xi32> to tensor<4xi64> loc(#loc332)
          %mask_x_280 = arith.subi %mask_x_278, %mask_x_279 : tensor<4xi64> loc(#loc332)
          %mask_x_281 = arith.constant 2147483647 : i64 loc(#loc332)
          %mask_x_282 = arith.constant -2147483648 : i64 loc(#loc332)
          %mask_x_283 = arith.constant dense<2147483647> : tensor<4xi64> loc(#loc332)
          %mask_x_284 = arith.cmpi sle, %mask_x_280, %mask_x_283 : tensor<4xi64> loc(#loc332)
          %mask_x_285 = arith.constant dense<-2147483648> : tensor<4xi64> loc(#loc332)
          %mask_x_286 = arith.cmpi sge, %mask_x_280, %mask_x_285 : tensor<4xi64> loc(#loc332)
          %mask_x_287 = arith.andi %mask_x_284, %mask_x_286 : tensor<4xi1> loc(#loc332)
          %mask_x_288 = arith.subi %idx_tokens_conv, %mask_x : tensor<4xi32> loc(#loc332)
          %mask_x_289 = arith.constant 0 : i32 loc(#loc333)
          %mask_x_290 = arith.constant dense<0> : tensor<4xi32> loc(#loc333)
          %mask_x_291 = arith.cmpi sge, %mask_x_288, %mask_x_290 : tensor<4xi32> loc(#loc333)
          %mask_x_292 = tt.expand_dims %mask_x_291 {axis = 1 : i32} : tensor<4xi1> -> tensor<4x1xi1> loc(#loc334)
          %mask_x_293 = tt.splat %VAL_246 : i32 -> tensor<4xi32> loc(#loc335)
          %mask_x_294 = arith.extsi %idx_tokens_conv : tensor<4xi32> to tensor<4xi64> loc(#loc335)
          %mask_x_295 = arith.extsi %mask_x_293 : tensor<4xi32> to tensor<4xi64> loc(#loc335)
          %mask_x_296 = arith.subi %mask_x_294, %mask_x_295 : tensor<4xi64> loc(#loc335)
          %mask_x_297 = arith.constant 2147483647 : i64 loc(#loc335)
          %mask_x_298 = arith.constant -2147483648 : i64 loc(#loc335)
          %mask_x_299 = arith.constant dense<2147483647> : tensor<4xi64> loc(#loc335)
          %mask_x_300 = arith.cmpi sle, %mask_x_296, %mask_x_299 : tensor<4xi64> loc(#loc335)
          %mask_x_301 = arith.constant dense<-2147483648> : tensor<4xi64> loc(#loc335)
          %mask_x_302 = arith.cmpi sge, %mask_x_296, %mask_x_301 : tensor<4xi64> loc(#loc335)
          %mask_x_303 = arith.andi %mask_x_300, %mask_x_302 : tensor<4xi1> loc(#loc335)
          %mask_x_304 = arith.subi %idx_tokens_conv, %mask_x_293 : tensor<4xi32> loc(#loc335)
          %mask_x_305 = tt.splat %seqlen_36 : i32 -> tensor<4xi32> loc(#loc336)
          %mask_x_306 = arith.cmpi slt, %mask_x_304, %mask_x_305 : tensor<4xi32> loc(#loc336)
          %mask_x_307 = tt.expand_dims %mask_x_306 {axis = 1 : i32} : tensor<4xi1> -> tensor<4x1xi1> loc(#loc337)
          %mask_x_308 = arith.andi %mask_x_292, %mask_x_307 : tensor<4x1xi1> loc(#loc338)
          %mask_x_309 = arith.constant 5120 : i32 loc(#loc339)
          %mask_x_310 = arith.constant dense<5120> : tensor<256xi32> loc(#loc339)
          %mask_x_311 = arith.cmpi slt, %idx_feats_23, %mask_x_310 : tensor<256xi32> loc(#loc339)
          %mask_x_312 = tt.expand_dims %mask_x_311 {axis = 0 : i32} : tensor<256xi1> -> tensor<1x256xi1> loc(#loc340)
          %mask_x_313 = tt.broadcast %mask_x_308 : tensor<4x1xi1> -> tensor<4x256xi1> loc(#loc341)
          %mask_x_314 = tt.broadcast %mask_x_312 : tensor<1x256xi1> -> tensor<4x256xi1> loc(#loc341)
          %mask_x_315 = arith.andi %mask_x_313, %mask_x_314 : tensor<4x256xi1> loc(#loc438)
          %loaded_x = arith.constant 0.000000e+00 : f32 loc(#loc342)
          %loaded_x_316 = arith.constant dense<0.000000e+00> : tensor<4x256xf32> loc(#loc342)
          %loaded_x_317 = arith.truncf %loaded_x_316 : tensor<4x256xf32> to tensor<4x256xbf16> loc(#loc342)
          %loaded_x_318 = tt.load %x_ptrs_277, %mask_x_315, %loaded_x_317 : tensor<4x256x!tt.ptr<bf16>> loc(#loc342)
          gpu.barrier loc(#loc131)
          %new_conv_state = arith.select %mask_235, %conv_state_238, %loaded_x_318 : tensor<4x256xi1>, tensor<4x256xbf16> loc(#loc439)
          %conv_states_ptrs_target = arith.constant dense<1> : tensor<4xi32> loc(#loc344)
          %conv_states_ptrs_target_319 = arith.extsi %idx_tokens_conv : tensor<4xi32> to tensor<4xi64> loc(#loc344)
          %conv_states_ptrs_target_320 = arith.extsi %conv_states_ptrs_target : tensor<4xi32> to tensor<4xi64> loc(#loc344)
          %conv_states_ptrs_target_321 = arith.muli %conv_states_ptrs_target_319, %conv_states_ptrs_target_320 : tensor<4xi64> loc(#loc344)
          %conv_states_ptrs_target_322 = arith.constant 2147483647 : i64 loc(#loc344)
          %conv_states_ptrs_target_323 = arith.constant -2147483648 : i64 loc(#loc344)
          %conv_states_ptrs_target_324 = arith.constant dense<2147483647> : tensor<4xi64> loc(#loc344)
          %conv_states_ptrs_target_325 = arith.cmpi sle, %conv_states_ptrs_target_321, %conv_states_ptrs_target_324 : tensor<4xi64> loc(#loc344)
          %conv_states_ptrs_target_326 = arith.constant dense<-2147483648> : tensor<4xi64> loc(#loc344)
          %conv_states_ptrs_target_327 = arith.cmpi sge, %conv_states_ptrs_target_321, %conv_states_ptrs_target_326 : tensor<4xi64> loc(#loc344)
          %conv_states_ptrs_target_328 = arith.andi %conv_states_ptrs_target_325, %conv_states_ptrs_target_327 : tensor<4xi1> loc(#loc344)
          %conv_states_ptrs_target_329 = arith.muli %idx_tokens_conv, %conv_states_ptrs_target : tensor<4xi32> loc(#loc344)
          %conv_states_ptrs_target_330 = tt.expand_dims %conv_states_ptrs_target_329 {axis = 1 : i32} : tensor<4xi32> -> tensor<4x1xi32> loc(#loc345)
          %conv_states_ptrs_target_331 = tt.expand_dims %conv_states_base_102 {axis = 0 : i32} : tensor<256x!tt.ptr<bf16>> -> tensor<1x256x!tt.ptr<bf16>> loc(#loc346)
          %conv_states_ptrs_target_332 = tt.broadcast %conv_states_ptrs_target_331 : tensor<1x256x!tt.ptr<bf16>> -> tensor<4x256x!tt.ptr<bf16>> loc(#loc346)
          %conv_states_ptrs_target_333 = tt.broadcast %conv_states_ptrs_target_330 : tensor<4x1xi32> -> tensor<4x256xi32> loc(#loc346)
          %conv_states_ptrs_target_334 = tt.addptr %conv_states_ptrs_target_332, %conv_states_ptrs_target_333 : tensor<4x256x!tt.ptr<bf16>>, tensor<4x256xi32> loc(#loc440)
          %mask_335 = arith.constant dense<3> : tensor<4xi32> loc(#loc347)
          %mask_336 = arith.cmpi slt, %idx_tokens_conv, %mask_335 : tensor<4xi32> loc(#loc347)
          %mask_337 = tt.expand_dims %mask_336 {axis = 1 : i32} : tensor<4xi1> -> tensor<4x1xi1> loc(#loc348)
          %mask_338 = arith.constant 5120 : i32 loc(#loc349)
          %mask_339 = arith.constant dense<5120> : tensor<256xi32> loc(#loc349)
          %mask_340 = arith.cmpi slt, %idx_feats_23, %mask_339 : tensor<256xi32> loc(#loc349)
          %mask_341 = tt.expand_dims %mask_340 {axis = 0 : i32} : tensor<256xi1> -> tensor<1x256xi1> loc(#loc350)
          %mask_342 = tt.broadcast %mask_337 : tensor<4x1xi1> -> tensor<4x256xi1> loc(#loc351)
          %mask_343 = tt.broadcast %mask_341 : tensor<1x256xi1> -> tensor<4x256xi1> loc(#loc351)
          %mask_344 = arith.andi %mask_342, %mask_343 : tensor<4x256xi1> loc(#loc441)
          tt.store %conv_states_ptrs_target_334, %new_conv_state, %mask_344 : tensor<4x256x!tt.ptr<bf16>> loc(#loc141)
          scf.yield %VAL_246, %conv_states_ptrs_target_334, %idx_tokens_conv, %mask_344, %mask_x_315, %new_conv_state, %x_ptrs_277 : i32, tensor<4x256x!tt.ptr<bf16>>, tensor<4xi32>, tensor<4x256xi1>, tensor<4x256xi1>, tensor<4x256xbf16>, tensor<4x256x!tt.ptr<bf16>> loc(#loc141)
        } else {
          %idx_tokens_conv = tt.make_range {end = 4 : i32, start = 0 : i32} : tensor<4xi32> loc(#loc442)
          %VAL = arith.extsi %state_len : i32 to i64 loc(#loc353)
          %VAL_165 = arith.extsi %seqlen_36 : i32 to i64 loc(#loc353)
          %VAL_166 = arith.subi %VAL, %VAL_165 : i64 loc(#loc353)
          %VAL_167 = arith.constant 2147483647 : i64 loc(#loc353)
          %VAL_168 = arith.constant -2147483648 : i64 loc(#loc353)
          %VAL_169 = arith.cmpi sle, %VAL_166, %VAL_167 : i64 loc(#loc353)
          %VAL_170 = arith.cmpi sge, %VAL_166, %VAL_168 : i64 loc(#loc353)
          %VAL_171 = arith.andi %VAL_169, %VAL_170 : i1 loc(#loc353)
          %VAL_172 = arith.subi %state_len, %seqlen_36 : i32 loc(#loc443)
          %x_ptrs_173 = tt.expand_dims %x_base_83 {axis = 0 : i32} : tensor<256x!tt.ptr<bf16>> -> tensor<1x256x!tt.ptr<bf16>> loc(#loc354)
          %x_ptrs_174 = tt.splat %VAL_172 : i32 -> tensor<4xi32> loc(#loc355)
          %x_ptrs_175 = arith.extsi %idx_tokens_conv : tensor<4xi32> to tensor<4xi64> loc(#loc355)
          %x_ptrs_176 = arith.extsi %x_ptrs_174 : tensor<4xi32> to tensor<4xi64> loc(#loc355)
          %x_ptrs_177 = arith.subi %x_ptrs_175, %x_ptrs_176 : tensor<4xi64> loc(#loc355)
          %x_ptrs_178 = arith.constant 2147483647 : i64 loc(#loc355)
          %x_ptrs_179 = arith.constant -2147483648 : i64 loc(#loc355)
          %x_ptrs_180 = arith.constant dense<2147483647> : tensor<4xi64> loc(#loc355)
          %x_ptrs_181 = arith.cmpi sle, %x_ptrs_177, %x_ptrs_180 : tensor<4xi64> loc(#loc355)
          %x_ptrs_182 = arith.constant dense<-2147483648> : tensor<4xi64> loc(#loc355)
          %x_ptrs_183 = arith.cmpi sge, %x_ptrs_177, %x_ptrs_182 : tensor<4xi64> loc(#loc355)
          %x_ptrs_184 = arith.andi %x_ptrs_181, %x_ptrs_183 : tensor<4xi1> loc(#loc355)
          %x_ptrs_185 = arith.subi %idx_tokens_conv, %x_ptrs_174 : tensor<4xi32> loc(#loc355)
          %x_ptrs_186 = arith.constant 5120 : i32 loc(#loc356)
          %x_ptrs_187 = arith.constant 5120 : i32 loc(#loc356)
          %x_ptrs_188 = arith.constant dense<5120> : tensor<4xi32> loc(#loc356)
          %x_ptrs_189 = arith.extsi %x_ptrs_185 : tensor<4xi32> to tensor<4xi64> loc(#loc356)
          %x_ptrs_190 = arith.extsi %x_ptrs_188 : tensor<4xi32> to tensor<4xi64> loc(#loc356)
          %x_ptrs_191 = arith.muli %x_ptrs_189, %x_ptrs_190 : tensor<4xi64> loc(#loc356)
          %x_ptrs_192 = arith.constant 2147483647 : i64 loc(#loc356)
          %x_ptrs_193 = arith.constant -2147483648 : i64 loc(#loc356)
          %x_ptrs_194 = arith.constant dense<2147483647> : tensor<4xi64> loc(#loc356)
          %x_ptrs_195 = arith.cmpi sle, %x_ptrs_191, %x_ptrs_194 : tensor<4xi64> loc(#loc356)
          %x_ptrs_196 = arith.constant dense<-2147483648> : tensor<4xi64> loc(#loc356)
          %x_ptrs_197 = arith.cmpi sge, %x_ptrs_191, %x_ptrs_196 : tensor<4xi64> loc(#loc356)
          %x_ptrs_198 = arith.andi %x_ptrs_195, %x_ptrs_197 : tensor<4xi1> loc(#loc356)
          %x_ptrs_199 = arith.muli %x_ptrs_185, %x_ptrs_188 : tensor<4xi32> loc(#loc356)
          %x_ptrs_200 = tt.expand_dims %x_ptrs_199 {axis = 1 : i32} : tensor<4xi32> -> tensor<4x1xi32> loc(#loc357)
          %x_ptrs_201 = tt.broadcast %x_ptrs_173 : tensor<1x256x!tt.ptr<bf16>> -> tensor<4x256x!tt.ptr<bf16>> loc(#loc358)
          %x_ptrs_202 = tt.broadcast %x_ptrs_200 : tensor<4x1xi32> -> tensor<4x256xi32> loc(#loc358)
          %x_ptrs_203 = tt.addptr %x_ptrs_201, %x_ptrs_202 : tensor<4x256x!tt.ptr<bf16>>, tensor<4x256xi32> loc(#loc444)
          %mask_x = tt.splat %VAL_172 : i32 -> tensor<4xi32> loc(#loc359)
          %mask_x_204 = arith.extsi %idx_tokens_conv : tensor<4xi32> to tensor<4xi64> loc(#loc359)
          %mask_x_205 = arith.extsi %mask_x : tensor<4xi32> to tensor<4xi64> loc(#loc359)
          %mask_x_206 = arith.subi %mask_x_204, %mask_x_205 : tensor<4xi64> loc(#loc359)
          %mask_x_207 = arith.constant 2147483647 : i64 loc(#loc359)
          %mask_x_208 = arith.constant -2147483648 : i64 loc(#loc359)
          %mask_x_209 = arith.constant dense<2147483647> : tensor<4xi64> loc(#loc359)
          %mask_x_210 = arith.cmpi sle, %mask_x_206, %mask_x_209 : tensor<4xi64> loc(#loc359)
          %mask_x_211 = arith.constant dense<-2147483648> : tensor<4xi64> loc(#loc359)
          %mask_x_212 = arith.cmpi sge, %mask_x_206, %mask_x_211 : tensor<4xi64> loc(#loc359)
          %mask_x_213 = arith.andi %mask_x_210, %mask_x_212 : tensor<4xi1> loc(#loc359)
          %mask_x_214 = arith.subi %idx_tokens_conv, %mask_x : tensor<4xi32> loc(#loc359)
          %mask_x_215 = arith.constant 0 : i32 loc(#loc360)
          %mask_x_216 = arith.constant dense<0> : tensor<4xi32> loc(#loc360)
          %mask_x_217 = arith.cmpi sge, %mask_x_214, %mask_x_216 : tensor<4xi32> loc(#loc360)
          %mask_x_218 = tt.expand_dims %mask_x_217 {axis = 1 : i32} : tensor<4xi1> -> tensor<4x1xi1> loc(#loc361)
          %mask_x_219 = tt.splat %VAL_172 : i32 -> tensor<4xi32> loc(#loc362)
          %mask_x_220 = arith.extsi %idx_tokens_conv : tensor<4xi32> to tensor<4xi64> loc(#loc362)
          %mask_x_221 = arith.extsi %mask_x_219 : tensor<4xi32> to tensor<4xi64> loc(#loc362)
          %mask_x_222 = arith.subi %mask_x_220, %mask_x_221 : tensor<4xi64> loc(#loc362)
          %mask_x_223 = arith.constant 2147483647 : i64 loc(#loc362)
          %mask_x_224 = arith.constant -2147483648 : i64 loc(#loc362)
          %mask_x_225 = arith.constant dense<2147483647> : tensor<4xi64> loc(#loc362)
          %mask_x_226 = arith.cmpi sle, %mask_x_222, %mask_x_225 : tensor<4xi64> loc(#loc362)
          %mask_x_227 = arith.constant dense<-2147483648> : tensor<4xi64> loc(#loc362)
          %mask_x_228 = arith.cmpi sge, %mask_x_222, %mask_x_227 : tensor<4xi64> loc(#loc362)
          %mask_x_229 = arith.andi %mask_x_226, %mask_x_228 : tensor<4xi1> loc(#loc362)
          %mask_x_230 = arith.subi %idx_tokens_conv, %mask_x_219 : tensor<4xi32> loc(#loc362)
          %mask_x_231 = tt.splat %seqlen_36 : i32 -> tensor<4xi32> loc(#loc363)
          %mask_x_232 = arith.cmpi slt, %mask_x_230, %mask_x_231 : tensor<4xi32> loc(#loc363)
          %mask_x_233 = tt.expand_dims %mask_x_232 {axis = 1 : i32} : tensor<4xi1> -> tensor<4x1xi1> loc(#loc364)
          %mask_x_234 = arith.andi %mask_x_218, %mask_x_233 : tensor<4x1xi1> loc(#loc365)
          %mask_x_235 = arith.constant 5120 : i32 loc(#loc366)
          %mask_x_236 = arith.constant dense<5120> : tensor<256xi32> loc(#loc366)
          %mask_x_237 = arith.cmpi slt, %idx_feats_23, %mask_x_236 : tensor<256xi32> loc(#loc366)
          %mask_x_238 = tt.expand_dims %mask_x_237 {axis = 0 : i32} : tensor<256xi1> -> tensor<1x256xi1> loc(#loc367)
          %mask_x_239 = tt.broadcast %mask_x_234 : tensor<4x1xi1> -> tensor<4x256xi1> loc(#loc368)
          %mask_x_240 = tt.broadcast %mask_x_238 : tensor<1x256xi1> -> tensor<4x256xi1> loc(#loc368)
          %mask_x_241 = arith.andi %mask_x_239, %mask_x_240 : tensor<4x256xi1> loc(#loc445)
          %new_conv_state = arith.constant 0.000000e+00 : f32 loc(#loc369)
          %new_conv_state_242 = arith.constant dense<0.000000e+00> : tensor<4x256xf32> loc(#loc369)
          %new_conv_state_243 = arith.truncf %new_conv_state_242 : tensor<4x256xf32> to tensor<4x256xbf16> loc(#loc369)
          %new_conv_state_244 = tt.load %x_ptrs_203, %mask_x_241, %new_conv_state_243 : tensor<4x256x!tt.ptr<bf16>> loc(#loc446)
          %conv_states_ptrs_target = arith.constant dense<1> : tensor<4xi32> loc(#loc370)
          %conv_states_ptrs_target_245 = arith.extsi %idx_tokens_conv : tensor<4xi32> to tensor<4xi64> loc(#loc370)
          %conv_states_ptrs_target_246 = arith.extsi %conv_states_ptrs_target : tensor<4xi32> to tensor<4xi64> loc(#loc370)
          %conv_states_ptrs_target_247 = arith.muli %conv_states_ptrs_target_245, %conv_states_ptrs_target_246 : tensor<4xi64> loc(#loc370)
          %conv_states_ptrs_target_248 = arith.constant 2147483647 : i64 loc(#loc370)
          %conv_states_ptrs_target_249 = arith.constant -2147483648 : i64 loc(#loc370)
          %conv_states_ptrs_target_250 = arith.constant dense<2147483647> : tensor<4xi64> loc(#loc370)
          %conv_states_ptrs_target_251 = arith.cmpi sle, %conv_states_ptrs_target_247, %conv_states_ptrs_target_250 : tensor<4xi64> loc(#loc370)
          %conv_states_ptrs_target_252 = arith.constant dense<-2147483648> : tensor<4xi64> loc(#loc370)
          %conv_states_ptrs_target_253 = arith.cmpi sge, %conv_states_ptrs_target_247, %conv_states_ptrs_target_252 : tensor<4xi64> loc(#loc370)
          %conv_states_ptrs_target_254 = arith.andi %conv_states_ptrs_target_251, %conv_states_ptrs_target_253 : tensor<4xi1> loc(#loc370)
          %conv_states_ptrs_target_255 = arith.muli %idx_tokens_conv, %conv_states_ptrs_target : tensor<4xi32> loc(#loc370)
          %conv_states_ptrs_target_256 = tt.expand_dims %conv_states_ptrs_target_255 {axis = 1 : i32} : tensor<4xi32> -> tensor<4x1xi32> loc(#loc371)
          %conv_states_ptrs_target_257 = tt.expand_dims %conv_states_base_102 {axis = 0 : i32} : tensor<256x!tt.ptr<bf16>> -> tensor<1x256x!tt.ptr<bf16>> loc(#loc372)
          %conv_states_ptrs_target_258 = tt.broadcast %conv_states_ptrs_target_257 : tensor<1x256x!tt.ptr<bf16>> -> tensor<4x256x!tt.ptr<bf16>> loc(#loc372)
          %conv_states_ptrs_target_259 = tt.broadcast %conv_states_ptrs_target_256 : tensor<4x1xi32> -> tensor<4x256xi32> loc(#loc372)
          %conv_states_ptrs_target_260 = tt.addptr %conv_states_ptrs_target_258, %conv_states_ptrs_target_259 : tensor<4x256x!tt.ptr<bf16>>, tensor<4x256xi32> loc(#loc447)
          %mask = arith.constant dense<3> : tensor<4xi32> loc(#loc373)
          %mask_261 = arith.cmpi slt, %idx_tokens_conv, %mask : tensor<4xi32> loc(#loc373)
          %mask_262 = tt.expand_dims %mask_261 {axis = 1 : i32} : tensor<4xi1> -> tensor<4x1xi1> loc(#loc374)
          %mask_263 = arith.constant 5120 : i32 loc(#loc375)
          %mask_264 = arith.constant dense<5120> : tensor<256xi32> loc(#loc375)
          %mask_265 = arith.cmpi slt, %idx_feats_23, %mask_264 : tensor<256xi32> loc(#loc375)
          %mask_266 = tt.expand_dims %mask_265 {axis = 0 : i32} : tensor<256xi1> -> tensor<1x256xi1> loc(#loc376)
          %mask_267 = tt.broadcast %mask_262 : tensor<4x1xi1> -> tensor<4x256xi1> loc(#loc377)
          %mask_268 = tt.broadcast %mask_266 : tensor<1x256xi1> -> tensor<4x256xi1> loc(#loc377)
          %mask_269 = arith.andi %mask_267, %mask_268 : tensor<4x256xi1> loc(#loc448)
          tt.store %conv_states_ptrs_target_260, %new_conv_state_244, %mask_269 : tensor<4x256x!tt.ptr<bf16>> loc(#loc168)
          scf.yield %VAL_172, %conv_states_ptrs_target_260, %idx_tokens_conv, %mask_269, %mask_x_241, %new_conv_state_244, %x_ptrs_203 : i32, tensor<4x256x!tt.ptr<bf16>>, tensor<4xi32>, tensor<4x256xi1>, tensor<4x256xi1>, tensor<4x256xbf16>, tensor<4x256x!tt.ptr<bf16>> loc(#loc168)
        } loc(#loc459)
        scf.yield %x_ptrs#1, %x_ptrs#2, %x_ptrs#3, %x_ptrs#4, %x_ptrs#5, %x_ptrs#6 : tensor<4x256x!tt.ptr<bf16>>, tensor<4xi32>, tensor<4x256xi1>, tensor<4x256xi1>, tensor<4x256xbf16>, tensor<4x256x!tt.ptr<bf16>> loc(#loc94)
      } loc(#loc61)
      scf.yield %col2_164#0, %col2_164#1, %col2_164#2, %load_init_state_163 : tensor<256xbf16>, tensor<256xbf16>, tensor<256xbf16>, i1 loc(#loc61)
    } else {
      %load_init_state = arith.constant true loc(#loc449)
      %prior_tokens = arith.constant 1 : i32 loc(#loc379)
      %prior_tokens_159 = arith.constant 1 : i32 loc(#loc379)
      %prior_tokens_160 = arith.extsi %token_offset_46 : i32 to i64 loc(#loc379)
      %prior_tokens_161 = arith.extsi %prior_tokens_159 : i32 to i64 loc(#loc379)
      %prior_tokens_162 = arith.subi %prior_tokens_160, %prior_tokens_161 : i64 loc(#loc379)
      %prior_tokens_163 = arith.constant 2147483647 : i64 loc(#loc379)
      %prior_tokens_164 = arith.constant -2147483648 : i64 loc(#loc379)
      %prior_tokens_165 = arith.cmpi sle, %prior_tokens_162, %prior_tokens_163 : i64 loc(#loc379)
      %prior_tokens_166 = arith.cmpi sge, %prior_tokens_162, %prior_tokens_164 : i64 loc(#loc379)
      %prior_tokens_167 = arith.andi %prior_tokens_165, %prior_tokens_166 : i1 loc(#loc379)
      %prior_tokens_168 = arith.subi %token_offset_46, %prior_tokens_159 : i32 loc(#loc379)
      %prior_tokens_169 = arith.constant 5120 : i32 loc(#loc380)
      %prior_tokens_170 = arith.constant 5120 : i32 loc(#loc380)
      %prior_tokens_171 = arith.extsi %prior_tokens_168 : i32 to i64 loc(#loc380)
      %prior_tokens_172 = arith.extsi %prior_tokens_170 : i32 to i64 loc(#loc380)
      %prior_tokens_173 = arith.muli %prior_tokens_171, %prior_tokens_172 : i64 loc(#loc380)
      %prior_tokens_174 = arith.constant 2147483647 : i64 loc(#loc380)
      %prior_tokens_175 = arith.constant -2147483648 : i64 loc(#loc380)
      %prior_tokens_176 = arith.cmpi sle, %prior_tokens_173, %prior_tokens_174 : i64 loc(#loc380)
      %prior_tokens_177 = arith.cmpi sge, %prior_tokens_173, %prior_tokens_175 : i64 loc(#loc380)
      %prior_tokens_178 = arith.andi %prior_tokens_176, %prior_tokens_177 : i1 loc(#loc380)
      %prior_tokens_179 = arith.muli %prior_tokens_168, %prior_tokens_170 : i32 loc(#loc380)
      %prior_tokens_180 = tt.splat %prior_tokens_179 : i32 -> tensor<256xi32> loc(#loc381)
      %prior_tokens_181 = tt.addptr %x_base_83, %prior_tokens_180 : tensor<256x!tt.ptr<bf16>>, tensor<256xi32> loc(#loc381)
      %mask_w_182 = arith.constant 5120 : i32 loc(#loc382)
      %mask_w_183 = arith.constant dense<5120> : tensor<256xi32> loc(#loc382)
      %mask_w_184 = arith.cmpi slt, %idx_feats_23, %mask_w_183 : tensor<256xi32> loc(#loc382)
      %col2_185 = arith.constant 0.000000e+00 : f32 loc(#loc383)
      %col2_186 = arith.constant dense<0.000000e+00> : tensor<256xf32> loc(#loc383)
      %col2_187 = arith.truncf %col2_186 : tensor<256xf32> to tensor<256xbf16> loc(#loc383)
      %col2_188 = tt.load %prior_tokens_181, %mask_w_184, %col2_187 cacheModifier = ca : tensor<256x!tt.ptr<bf16>> loc(#loc450)
      %conv_states_ptrs = arith.constant 5120 : i32 loc(#loc384)
      %conv_states_ptrs_189 = arith.constant dense<5120> : tensor<256xi32> loc(#loc384)
      %conv_states_ptrs_190 = arith.constant 0 : i32 loc(#loc384)
      %conv_states_ptrs_191 = arith.constant dense<0> : tensor<256xi32> loc(#loc384)
      %conv_states_ptrs_192 = arith.extsi %conv_states_ptrs_191 : tensor<256xi32> to tensor<256xi64> loc(#loc384)
      %conv_states_ptrs_193 = arith.extsi %conv_states_ptrs_189 : tensor<256xi32> to tensor<256xi64> loc(#loc384)
      %conv_states_ptrs_194 = arith.subi %conv_states_ptrs_192, %conv_states_ptrs_193 : tensor<256xi64> loc(#loc384)
      %conv_states_ptrs_195 = arith.constant 2147483647 : i64 loc(#loc384)
      %conv_states_ptrs_196 = arith.constant -2147483648 : i64 loc(#loc384)
      %conv_states_ptrs_197 = arith.constant dense<2147483647> : tensor<256xi64> loc(#loc384)
      %conv_states_ptrs_198 = arith.cmpi sle, %conv_states_ptrs_194, %conv_states_ptrs_197 : tensor<256xi64> loc(#loc384)
      %conv_states_ptrs_199 = arith.constant dense<-2147483648> : tensor<256xi64> loc(#loc384)
      %conv_states_ptrs_200 = arith.cmpi sge, %conv_states_ptrs_194, %conv_states_ptrs_199 : tensor<256xi64> loc(#loc384)
      %conv_states_ptrs_201 = arith.andi %conv_states_ptrs_198, %conv_states_ptrs_200 : tensor<256xi1> loc(#loc384)
      %conv_states_ptrs_202 = arith.subi %conv_states_ptrs_191, %conv_states_ptrs_189 : tensor<256xi32> loc(#loc384)
      %conv_states_ptrs_203 = tt.addptr %prior_tokens_181, %conv_states_ptrs_202 : tensor<256x!tt.ptr<bf16>>, tensor<256xi32> loc(#loc384)
      %col1 = arith.constant 0.000000e+00 : f32 loc(#loc385)
      %col1_204 = arith.constant dense<0.000000e+00> : tensor<256xf32> loc(#loc385)
      %col1_205 = arith.truncf %col1_204 : tensor<256xf32> to tensor<256xbf16> loc(#loc385)
      %col1_206 = tt.load %conv_states_ptrs_203, %mask_w_184, %col1_205 cacheModifier = ca : tensor<256x!tt.ptr<bf16>> loc(#loc451)
      %conv_states_ptrs_207 = arith.constant 10240 : i32 loc(#loc386)
      %conv_states_ptrs_208 = arith.constant dense<10240> : tensor<256xi32> loc(#loc386)
      %conv_states_ptrs_209 = arith.constant 0 : i32 loc(#loc386)
      %conv_states_ptrs_210 = arith.constant dense<0> : tensor<256xi32> loc(#loc386)
      %conv_states_ptrs_211 = arith.extsi %conv_states_ptrs_210 : tensor<256xi32> to tensor<256xi64> loc(#loc386)
      %conv_states_ptrs_212 = arith.extsi %conv_states_ptrs_208 : tensor<256xi32> to tensor<256xi64> loc(#loc386)
      %conv_states_ptrs_213 = arith.subi %conv_states_ptrs_211, %conv_states_ptrs_212 : tensor<256xi64> loc(#loc386)
      %conv_states_ptrs_214 = arith.constant 2147483647 : i64 loc(#loc386)
      %conv_states_ptrs_215 = arith.constant -2147483648 : i64 loc(#loc386)
      %conv_states_ptrs_216 = arith.constant dense<2147483647> : tensor<256xi64> loc(#loc386)
      %conv_states_ptrs_217 = arith.cmpi sle, %conv_states_ptrs_213, %conv_states_ptrs_216 : tensor<256xi64> loc(#loc386)
      %conv_states_ptrs_218 = arith.constant dense<-2147483648> : tensor<256xi64> loc(#loc386)
      %conv_states_ptrs_219 = arith.cmpi sge, %conv_states_ptrs_213, %conv_states_ptrs_218 : tensor<256xi64> loc(#loc386)
      %conv_states_ptrs_220 = arith.andi %conv_states_ptrs_217, %conv_states_ptrs_219 : tensor<256xi1> loc(#loc386)
      %conv_states_ptrs_221 = arith.subi %conv_states_ptrs_210, %conv_states_ptrs_208 : tensor<256xi32> loc(#loc386)
      %conv_states_ptrs_222 = tt.addptr %prior_tokens_181, %conv_states_ptrs_221 : tensor<256x!tt.ptr<bf16>>, tensor<256xi32> loc(#loc386)
      %col0 = arith.constant 0.000000e+00 : f32 loc(#loc387)
      %col0_223 = arith.constant dense<0.000000e+00> : tensor<256xf32> loc(#loc387)
      %col0_224 = arith.truncf %col0_223 : tensor<256xf32> to tensor<256xbf16> loc(#loc387)
      %col0_225 = tt.load %conv_states_ptrs_222, %mask_w_184, %col0_224 cacheModifier = ca : tensor<256x!tt.ptr<bf16>> loc(#loc452)
      scf.yield %col0_225, %col1_206, %col2_188, %load_init_state : tensor<256xbf16>, tensor<256xbf16>, tensor<256xbf16>, i1 loc(#loc387)
    } loc(#loc41)
    %acc_preload = tt.call @"triton.language.standard.zeros____(0, 0)cconstexpr_256__(1,)cconstexpr_fp32_"() : () -> tensor<256xf32> loc(#loc388)
    %x_base_1d = arith.constant 5120 : i32 loc(#loc389)
    %x_base_1d_119 = arith.constant 5120 : i32 loc(#loc389)
    %x_base_1d_120 = arith.extsi %token_offset_46 : i32 to i64 loc(#loc389)
    %x_base_1d_121 = arith.extsi %x_base_1d_119 : i32 to i64 loc(#loc389)
    %x_base_1d_122 = arith.muli %x_base_1d_120, %x_base_1d_121 : i64 loc(#loc389)
    %x_base_1d_123 = arith.constant 2147483647 : i64 loc(#loc389)
    %x_base_1d_124 = arith.constant -2147483648 : i64 loc(#loc389)
    %x_base_1d_125 = arith.cmpi sle, %x_base_1d_122, %x_base_1d_123 : i64 loc(#loc389)
    %x_base_1d_126 = arith.cmpi sge, %x_base_1d_122, %x_base_1d_124 : i64 loc(#loc389)
    %x_base_1d_127 = arith.andi %x_base_1d_125, %x_base_1d_126 : i1 loc(#loc389)
    %x_base_1d_128 = arith.muli %token_offset_46, %x_base_1d_119 : i32 loc(#loc389)
    %x_base_1d_129 = tt.splat %x_base_1d_128 : i32 -> tensor<256xi32> loc(#loc390)
    %x_base_1d_130 = tt.addptr %x_base_83, %x_base_1d_129 : tensor<256x!tt.ptr<bf16>>, tensor<256xi32> loc(#loc390)
    %mask_w = arith.constant 5120 : i32 loc(#loc391)
    %mask_w_131 = arith.constant dense<5120> : tensor<256xi32> loc(#loc391)
    %mask_w_132 = arith.cmpi slt, %idx_feats_23, %mask_w_131 : tensor<256xi32> loc(#loc391)
    %w_ptrs = arith.constant 0 : i32 loc(#loc392)
    %w_ptrs_133 = arith.constant dense<0> : tensor<256xi32> loc(#loc392)
    %w_ptrs_134 = tt.addptr %w_base_117, %w_ptrs_133 : tensor<256x!tt.ptr<bf16>>, tensor<256xi32> loc(#loc392)
    %w_col0 = arith.constant 0.000000e+00 : f32 loc(#loc393)
    %w_col0_135 = arith.constant dense<0.000000e+00> : tensor<256xf32> loc(#loc393)
    %w_col0_136 = arith.truncf %w_col0_135 : tensor<256xf32> to tensor<256xbf16> loc(#loc393)
    %w_col0_137 = tt.load %w_ptrs_134, %mask_w_132, %w_col0_136 : tensor<256x!tt.ptr<bf16>> loc(#loc393)
    %w_ptrs_138 = arith.constant 1 : i32 loc(#loc394)
    %w_ptrs_139 = arith.constant dense<1> : tensor<256xi32> loc(#loc394)
    %w_ptrs_140 = tt.addptr %w_base_117, %w_ptrs_139 : tensor<256x!tt.ptr<bf16>>, tensor<256xi32> loc(#loc394)
    %w_col1 = arith.constant 0.000000e+00 : f32 loc(#loc395)
    %w_col1_141 = arith.constant dense<0.000000e+00> : tensor<256xf32> loc(#loc395)
    %w_col1_142 = arith.truncf %w_col1_141 : tensor<256xf32> to tensor<256xbf16> loc(#loc395)
    %w_col1_143 = tt.load %w_ptrs_140, %mask_w_132, %w_col1_142 : tensor<256x!tt.ptr<bf16>> loc(#loc395)
    %w_ptrs_144 = arith.constant 2 : i32 loc(#loc396)
    %w_ptrs_145 = arith.constant dense<2> : tensor<256xi32> loc(#loc396)
    %w_ptrs_146 = tt.addptr %w_base_117, %w_ptrs_145 : tensor<256x!tt.ptr<bf16>>, tensor<256xi32> loc(#loc396)
    %w_col2 = arith.constant 0.000000e+00 : f32 loc(#loc397)
    %w_col2_147 = arith.constant dense<0.000000e+00> : tensor<256xf32> loc(#loc397)
    %w_col2_148 = arith.truncf %w_col2_147 : tensor<256xf32> to tensor<256xbf16> loc(#loc397)
    %w_col2_149 = tt.load %w_ptrs_146, %mask_w_132, %w_col2_148 : tensor<256x!tt.ptr<bf16>> loc(#loc397)
    %w_ptrs_150 = arith.constant 3 : i32 loc(#loc398)
    %w_ptrs_151 = arith.constant dense<3> : tensor<256xi32> loc(#loc398)
    %w_ptrs_152 = tt.addptr %w_base_117, %w_ptrs_151 : tensor<256x!tt.ptr<bf16>>, tensor<256xi32> loc(#loc398)
    %w_col3 = arith.constant 0.000000e+00 : f32 loc(#loc399)
    %w_col3_153 = arith.constant dense<0.000000e+00> : tensor<256xf32> loc(#loc399)
    %w_col3_154 = arith.truncf %w_col3_153 : tensor<256xf32> to tensor<256xbf16> loc(#loc399)
    %w_col3_155 = tt.load %w_ptrs_152, %mask_w_132, %w_col3_154 : tensor<256x!tt.ptr<bf16>> loc(#loc399)
    %mask_x_1d = arith.constant 5120 : i32 loc(#loc400)
    %mask_x_1d_156 = arith.constant dense<5120> : tensor<256xi32> loc(#loc400)
    %mask_x_1d_157 = arith.cmpi slt, %idx_feats_23, %mask_x_1d_156 : tensor<256xi32> loc(#loc400)
    %c0_i32_158 = arith.constant 0 : i32 loc(#loc192)
    %c1_i32 = arith.constant 1 : i32 loc(#loc192)
    %6 = arith.bitcast %c0_i32_158 : i32 to i32 loc(#loc192)
    %7 = arith.bitcast %segment_len_56 : i32 to i32 loc(#loc192)
    %8 = arith.bitcast %c1_i32 : i32 to i32 loc(#loc192)
    %9 = ub.poison : i32 loc(#loc192)
    %col2:3 = scf.for %idx_token = %6 to %7 step %8 iter_args(%col0 = %5#0, %col1 = %5#1, %col2_159 = %5#2) -> (tensor<256xbf16>, tensor<256xbf16>, tensor<256xbf16>)  : i32 {
      %acc = arith.mulf %col0, %w_col0_137 : tensor<256xbf16> loc(#loc402)
      %acc_160 = arith.extf %acc : tensor<256xbf16> to tensor<256xf32> loc(#loc403)
      %acc_161 = arith.addf %acc_preload, %acc_160 : tensor<256xf32> loc(#loc403)
      %acc_162 = arith.mulf %col1, %w_col1_143 : tensor<256xbf16> loc(#loc402)
      %acc_163 = arith.extf %acc_162 : tensor<256xbf16> to tensor<256xf32> loc(#loc403)
      %acc_164 = arith.addf %acc_161, %acc_163 : tensor<256xf32> loc(#loc403)
      %acc_165 = arith.mulf %col2_159, %w_col2_149 : tensor<256xbf16> loc(#loc402)
      %acc_166 = arith.extf %acc_165 : tensor<256xbf16> to tensor<256xf32> loc(#loc403)
      %acc_167 = arith.addf %acc_164, %acc_166 : tensor<256xf32> loc(#loc403)
      %x_ptrs_1d = arith.constant 5120 : i32 loc(#loc404)
      %x_ptrs_1d_168 = arith.constant 5120 : i32 loc(#loc404)
      %x_ptrs_1d_169 = arith.extsi %idx_token : i32 to i64 loc(#loc404)
      %x_ptrs_1d_170 = arith.extsi %x_ptrs_1d_168 : i32 to i64 loc(#loc404)
      %x_ptrs_1d_171 = arith.muli %x_ptrs_1d_169, %x_ptrs_1d_170 : i64 loc(#loc404)
      %x_ptrs_1d_172 = arith.constant 2147483647 : i64 loc(#loc404)
      %x_ptrs_1d_173 = arith.constant -2147483648 : i64 loc(#loc404)
      %x_ptrs_1d_174 = arith.cmpi sle, %x_ptrs_1d_171, %x_ptrs_1d_172 : i64 loc(#loc404)
      %x_ptrs_1d_175 = arith.cmpi sge, %x_ptrs_1d_171, %x_ptrs_1d_173 : i64 loc(#loc404)
      %x_ptrs_1d_176 = arith.andi %x_ptrs_1d_174, %x_ptrs_1d_175 : i1 loc(#loc404)
      %x_ptrs_1d_177 = arith.muli %idx_token, %x_ptrs_1d_168 : i32 loc(#loc404)
      %x_ptrs_1d_178 = tt.splat %x_ptrs_1d_177 : i32 -> tensor<256xi32> loc(#loc405)
      %x_ptrs_1d_179 = tt.addptr %x_base_1d_130, %x_ptrs_1d_178 : tensor<256x!tt.ptr<bf16>>, tensor<256xi32> loc(#loc405)
      %matrix_x = tt.load %x_ptrs_1d_179, %mask_x_1d_157 : tensor<256x!tt.ptr<bf16>> loc(#loc406)
      %acc_180 = arith.mulf %matrix_x, %w_col3_155 : tensor<256xbf16> loc(#loc402)
      %acc_181 = arith.extf %acc_180 : tensor<256xbf16> to tensor<256xf32> loc(#loc403)
      %acc_182 = arith.addf %acc_167, %acc_181 : tensor<256xf32> loc(#loc403)
      %acc_183 = arith.constant 0.000000e+00 : f32 loc(#loc407)
      %acc_184 = arith.constant dense<0.000000e+00> : tensor<256xf32> loc(#loc407)
      %acc_185 = arith.subf %acc_184, %acc_182 : tensor<256xf32> loc(#loc407)
      %acc_186 = math.exp %acc_185 : tensor<256xf32> loc(#loc408)
      %acc_187 = arith.constant 1 : i32 loc(#loc409)
      %acc_188 = arith.constant 1.000000e+00 : f32 loc(#loc409)
      %acc_189 = arith.constant dense<1.000000e+00> : tensor<256xf32> loc(#loc409)
      %acc_190 = arith.addf %acc_189, %acc_186 : tensor<256xf32> loc(#loc409)
      %acc_191 = arith.divf %acc_182, %acc_190 : tensor<256xf32> loc(#loc410)
      %mask_1d = arith.cmpi slt, %idx_token, %segment_len_56 : i32 loc(#loc411)
      %mask_1d_192 = arith.constant 5120 : i32 loc(#loc412)
      %mask_1d_193 = arith.constant dense<5120> : tensor<256xi32> loc(#loc412)
      %mask_1d_194 = arith.cmpi slt, %idx_feats_23, %mask_1d_193 : tensor<256xi32> loc(#loc412)
      %mask_1d_195 = tt.splat %mask_1d : i1 -> tensor<256xi1> loc(#loc413)
      %mask_1d_196 = arith.andi %mask_1d_195, %mask_1d_194 : tensor<256xi1> loc(#loc413)
      %o_ptrs = arith.extsi %sequence_start_index_24 : i32 to i64 loc(#loc414)
      %o_ptrs_197 = arith.extsi %token_offset_46 : i32 to i64 loc(#loc414)
      %o_ptrs_198 = arith.addi %o_ptrs, %o_ptrs_197 : i64 loc(#loc414)
      %o_ptrs_199 = arith.constant 2147483647 : i64 loc(#loc414)
      %o_ptrs_200 = arith.constant -2147483648 : i64 loc(#loc414)
      %o_ptrs_201 = arith.cmpi sle, %o_ptrs_198, %o_ptrs_199 : i64 loc(#loc414)
      %o_ptrs_202 = arith.cmpi sge, %o_ptrs_198, %o_ptrs_200 : i64 loc(#loc414)
      %o_ptrs_203 = arith.andi %o_ptrs_201, %o_ptrs_202 : i1 loc(#loc414)
      %o_ptrs_204 = arith.addi %sequence_start_index_24, %token_offset_46 : i32 loc(#loc414)
      %o_ptrs_205 = arith.extsi %o_ptrs_204 : i32 to i64 loc(#loc415)
      %o_ptrs_206 = arith.extsi %idx_token : i32 to i64 loc(#loc415)
      %o_ptrs_207 = arith.addi %o_ptrs_205, %o_ptrs_206 : i64 loc(#loc415)
      %o_ptrs_208 = arith.constant 2147483647 : i64 loc(#loc415)
      %o_ptrs_209 = arith.constant -2147483648 : i64 loc(#loc415)
      %o_ptrs_210 = arith.cmpi sle, %o_ptrs_207, %o_ptrs_208 : i64 loc(#loc415)
      %o_ptrs_211 = arith.cmpi sge, %o_ptrs_207, %o_ptrs_209 : i64 loc(#loc415)
      %o_ptrs_212 = arith.andi %o_ptrs_210, %o_ptrs_211 : i1 loc(#loc415)
      %o_ptrs_213 = arith.addi %o_ptrs_204, %idx_token : i32 loc(#loc415)
      %o_ptrs_214 = arith.constant 5120 : i32 loc(#loc416)
      %o_ptrs_215 = arith.constant 5120 : i32 loc(#loc416)
      %o_ptrs_216 = arith.extsi %o_ptrs_213 : i32 to i64 loc(#loc416)
      %o_ptrs_217 = arith.extsi %o_ptrs_215 : i32 to i64 loc(#loc416)
      %o_ptrs_218 = arith.muli %o_ptrs_216, %o_ptrs_217 : i64 loc(#loc416)
      %o_ptrs_219 = arith.constant 2147483647 : i64 loc(#loc416)
      %o_ptrs_220 = arith.constant -2147483648 : i64 loc(#loc416)
      %o_ptrs_221 = arith.cmpi sle, %o_ptrs_218, %o_ptrs_219 : i64 loc(#loc416)
      %o_ptrs_222 = arith.cmpi sge, %o_ptrs_218, %o_ptrs_220 : i64 loc(#loc416)
      %o_ptrs_223 = arith.andi %o_ptrs_221, %o_ptrs_222 : i1 loc(#loc416)
      %o_ptrs_224 = arith.muli %o_ptrs_213, %o_ptrs_215 : i32 loc(#loc416)
      %o_ptrs_225 = tt.addptr %o_ptr, %o_ptrs_224 : !tt.ptr<bf16>, i32 loc(#loc417)
      %o_ptrs_226 = arith.constant 1 : i32 loc(#loc418)
      %o_ptrs_227 = arith.constant 1 : i32 loc(#loc418)
      %o_ptrs_228 = arith.constant dense<1> : tensor<256xi32> loc(#loc418)
      %o_ptrs_229 = arith.extsi %idx_feats_23 : tensor<256xi32> to tensor<256xi64> loc(#loc418)
      %o_ptrs_230 = arith.extsi %o_ptrs_228 : tensor<256xi32> to tensor<256xi64> loc(#loc418)
      %o_ptrs_231 = arith.muli %o_ptrs_229, %o_ptrs_230 : tensor<256xi64> loc(#loc418)
      %o_ptrs_232 = arith.constant 2147483647 : i64 loc(#loc418)
      %o_ptrs_233 = arith.constant -2147483648 : i64 loc(#loc418)
      %o_ptrs_234 = arith.constant dense<2147483647> : tensor<256xi64> loc(#loc418)
      %o_ptrs_235 = arith.cmpi sle, %o_ptrs_231, %o_ptrs_234 : tensor<256xi64> loc(#loc418)
      %o_ptrs_236 = arith.constant dense<-2147483648> : tensor<256xi64> loc(#loc418)
      %o_ptrs_237 = arith.cmpi sge, %o_ptrs_231, %o_ptrs_236 : tensor<256xi64> loc(#loc418)
      %o_ptrs_238 = arith.andi %o_ptrs_235, %o_ptrs_237 : tensor<256xi1> loc(#loc418)
      %o_ptrs_239 = arith.muli %idx_feats_23, %o_ptrs_228 : tensor<256xi32> loc(#loc418)
      %o_ptrs_240 = tt.splat %o_ptrs_225 : !tt.ptr<bf16> -> tensor<256x!tt.ptr<bf16>> loc(#loc419)
      %o_ptrs_241 = tt.addptr %o_ptrs_240, %o_ptrs_239 : tensor<256x!tt.ptr<bf16>>, tensor<256xi32> loc(#loc419)
      %10 = arith.truncf %acc_191 : tensor<256xf32> to tensor<256xbf16> loc(#loc211)
      tt.store %o_ptrs_241, %10, %mask_1d_196 : tensor<256x!tt.ptr<bf16>> loc(#loc211)
      scf.yield %col1, %col2_159, %matrix_x : tensor<256xbf16>, tensor<256xbf16>, tensor<256xbf16> loc(#loc212)
    } loc(#loc456)
    tt.return loc(#loc213)
  } loc(#loc)
  tt.func private @"triton.language.standard.zeros____(0, 0)cconstexpr_256__(1,)cconstexpr_bf16_"() -> tensor<256xbf16> attributes {noinline = false} {
    %cst = arith.constant 0.000000e+00 : bf16 loc(#loc215)
    %cst_0 = arith.constant dense<0.000000e+00> : tensor<256xbf16> loc(#loc215)
    tt.return %cst_0 : tensor<256xbf16> loc(#loc216)
  ^bb1:  // no predecessors
    %0 = ub.poison : tensor<256xbf16> loc(#loc217)
    tt.return %0 : tensor<256xbf16> loc(#loc217)
  } loc(#loc214)
  tt.func private @"triton.language.standard.zeros____(0, 0)cconstexpr_256__(1,)cconstexpr_fp32_"() -> tensor<256xf32> attributes {noinline = false} {
    %cst = arith.constant 0.000000e+00 : f32 loc(#loc215)
    %cst_0 = arith.constant dense<0.000000e+00> : tensor<256xf32> loc(#loc215)
    tt.return %cst_0 : tensor<256xf32> loc(#loc216)
  ^bb1:  // no predecessors
    %0 = ub.poison : tensor<256xf32> loc(#loc217)
    tt.return %0 : tensor<256xf32> loc(#loc217)
  } loc(#loc214)
} loc(#loc)
#loc1 = loc("/sgl-workspace/sglang/python/sglang/srt/layers/attention/mamba/causal_conv1d_triton.py":57:28)
#loc2 = loc("/sgl-workspace/sglang/python/sglang/srt/layers/attention/mamba/causal_conv1d_triton.py":58:28)
#loc3 = loc("/sgl-workspace/sglang/python/sglang/srt/layers/attention/mamba/causal_conv1d_triton.py":59:28)
#loc4 = loc("/sgl-workspace/sglang/python/sglang/srt/layers/attention/mamba/causal_conv1d_triton.py":61:8)
#loc5 = loc("/sgl-workspace/sglang/python/sglang/srt/layers/attention/mamba/causal_conv1d_triton.py":68:28)
#loc6 = loc("/sgl-workspace/sglang/python/sglang/srt/layers/attention/mamba/causal_conv1d_triton.py":69:33)
#loc7 = loc("/sgl-workspace/sglang/python/sglang/srt/layers/attention/mamba/causal_conv1d_triton.py":72:30)
#loc8 = loc("/sgl-workspace/sglang/python/sglang/srt/layers/attention/mamba/causal_conv1d_triton.py":72:35)
#loc9 = loc("/sgl-workspace/sglang/python/sglang/srt/layers/attention/mamba/causal_conv1d_triton.py":72:58)
#loc10 = loc("/sgl-workspace/sglang/python/sglang/srt/layers/attention/mamba/causal_conv1d_triton.py":72:45)
#loc11 = loc("/sgl-workspace/sglang/python/sglang/srt/layers/attention/mamba/causal_conv1d_triton.py":74:18)
#loc12 = loc("/sgl-workspace/sglang/python/sglang/srt/layers/attention/mamba/causal_conv1d_triton.py":75:8)
#loc13 = loc(unknown)
#loc14 = loc("/sgl-workspace/sglang/python/sglang/srt/layers/attention/mamba/causal_conv1d_triton.py":77:57)
#loc15 = loc("/sgl-workspace/sglang/python/sglang/srt/layers/attention/mamba/causal_conv1d_triton.py":77:35)
#loc16 = loc("/sgl-workspace/sglang/python/sglang/srt/layers/attention/mamba/causal_conv1d_triton.py":78:55)
#loc17 = loc("/sgl-workspace/sglang/python/sglang/srt/layers/attention/mamba/causal_conv1d_triton.py":78:65)
#loc18 = loc("/sgl-workspace/sglang/python/sglang/srt/layers/attention/mamba/causal_conv1d_triton.py":78:33)
#loc19 = loc("/sgl-workspace/sglang/python/sglang/srt/layers/attention/mamba/causal_conv1d_triton.py":80:34)
#loc20 = loc("/sgl-workspace/sglang/python/sglang/srt/layers/attention/mamba/causal_conv1d_triton.py":82:29)
#loc21 = loc("/sgl-workspace/sglang/python/sglang/srt/layers/attention/mamba/causal_conv1d_triton.py":83:40)
#loc22 = loc("/sgl-workspace/sglang/python/sglang/srt/layers/attention/mamba/causal_conv1d_triton.py":83:31)
#loc23 = loc("/sgl-workspace/sglang/python/sglang/srt/layers/attention/mamba/causal_conv1d_triton.py":85:22)
#loc24 = loc("/sgl-workspace/sglang/python/sglang/srt/layers/attention/mamba/causal_conv1d_triton.py":86:8)
#loc25 = loc("/sgl-workspace/sglang/python/sglang/srt/layers/attention/mamba/causal_conv1d_triton.py":90:39)
#loc26 = loc("/sgl-workspace/sglang/python/sglang/srt/layers/attention/mamba/causal_conv1d_triton.py":90:16)
#loc27 = loc("/sgl-workspace/sglang/python/sglang/srt/layers/attention/mamba/causal_conv1d_triton.py":90:68)
#loc28 = loc("/sgl-workspace/sglang/python/sglang/srt/layers/attention/mamba/causal_conv1d_triton.py":90:56)
#loc29 = loc("/sgl-workspace/sglang/python/sglang/srt/layers/attention/mamba/causal_conv1d_triton.py":95:66)
#loc30 = loc("/sgl-workspace/sglang/python/sglang/srt/layers/attention/mamba/causal_conv1d_triton.py":95:41)
#loc31 = loc("/sgl-workspace/sglang/python/sglang/srt/layers/attention/mamba/causal_conv1d_triton.py":95:78)
#loc32 = loc("/sgl-workspace/sglang/python/sglang/srt/layers/attention/mamba/causal_conv1d_triton.py":100:37)
#loc33 = loc("/sgl-workspace/sglang/python/sglang/srt/layers/attention/mamba/causal_conv1d_triton.py":102:12)
#loc34 = loc("/sgl-workspace/sglang/python/sglang/srt/layers/attention/mamba/causal_conv1d_triton.py":105:36)
#loc35 = loc("/sgl-workspace/sglang/python/sglang/srt/layers/attention/mamba/causal_conv1d_triton.py":105:11)
#loc36 = loc("/sgl-workspace/sglang/python/sglang/srt/layers/attention/mamba/causal_conv1d_triton.py":106:23)
#loc37 = loc("/sgl-workspace/sglang/python/sglang/srt/layers/attention/mamba/causal_conv1d_triton.py":106:11)
#loc38 = loc("/sgl-workspace/sglang/python/sglang/srt/layers/attention/mamba/causal_conv1d_triton.py":109:34)
#loc39 = loc("/sgl-workspace/sglang/python/sglang/srt/layers/attention/mamba/causal_conv1d_triton.py":109:22)
#loc40 = loc("/sgl-workspace/sglang/python/sglang/srt/layers/attention/mamba/causal_conv1d_triton.py":114:23)
#loc41 = loc("/sgl-workspace/sglang/python/sglang/srt/layers/attention/mamba/causal_conv1d_triton.py":114:7)
#loc42 = loc("/sgl-workspace/sglang/python/sglang/srt/layers/attention/mamba/causal_conv1d_triton.py":116:26)
#loc43 = loc("/sgl-workspace/sglang/python/sglang/srt/layers/attention/mamba/causal_conv1d_triton.py":118:63)
#loc44 = loc("/sgl-workspace/sglang/python/sglang/srt/layers/attention/mamba/causal_conv1d_triton.py":118:38)
#loc45 = loc("/sgl-workspace/sglang/python/sglang/srt/layers/attention/mamba/causal_conv1d_triton.py":119:11)
#loc46 = loc("/sgl-workspace/sglang/python/sglang/srt/layers/attention/mamba/causal_conv1d_triton.py":121:59)
#loc47 = loc("/sgl-workspace/sglang/python/sglang/srt/layers/attention/mamba/causal_conv1d_triton.py":121:64)
#loc48 = loc("/sgl-workspace/sglang/python/sglang/srt/layers/attention/mamba/causal_conv1d_triton.py":121:46)
#loc49 = loc("/sgl-workspace/sglang/python/sglang/srt/layers/attention/mamba/causal_conv1d_triton.py":122:33)
#loc50 = loc("/sgl-workspace/sglang/python/sglang/srt/layers/attention/mamba/causal_conv1d_triton.py":133:57)
#loc51 = loc("/sgl-workspace/sglang/python/sglang/srt/layers/attention/mamba/causal_conv1d_triton.py":134:54)
#loc52 = loc("/sgl-workspace/sglang/python/sglang/srt/layers/attention/mamba/causal_conv1d_triton.py":134:50)
#loc53 = loc("/sgl-workspace/sglang/python/sglang/srt/layers/attention/mamba/causal_conv1d_triton.py":135:57)
#loc54 = loc("/sgl-workspace/sglang/python/sglang/srt/layers/attention/mamba/causal_conv1d_triton.py":136:54)
#loc55 = loc("/sgl-workspace/sglang/python/sglang/srt/layers/attention/mamba/causal_conv1d_triton.py":136:50)
#loc56 = loc("/sgl-workspace/sglang/python/sglang/srt/layers/attention/mamba/causal_conv1d_triton.py":137:57)
#loc57 = loc("/sgl-workspace/sglang/python/sglang/srt/layers/attention/mamba/causal_conv1d_triton.py":151:32)
#loc58 = loc("/sgl-workspace/sglang/python/sglang/srt/layers/attention/mamba/causal_conv1d_triton.py":153:32)
#loc59 = loc("/sgl-workspace/sglang/python/sglang/srt/layers/attention/mamba/causal_conv1d_triton.py":155:32)
#loc60 = loc("/sgl-workspace/sglang/python/sglang/srt/layers/attention/mamba/causal_conv1d_triton.py":162:25)
#loc61 = loc("/sgl-workspace/sglang/python/sglang/srt/layers/attention/mamba/causal_conv1d_triton.py":162:12)
#loc62 = loc("/sgl-workspace/sglang/python/sglang/srt/layers/attention/mamba/causal_conv1d_triton.py":167:40)
#loc63 = loc("/sgl-workspace/sglang/python/sglang/srt/layers/attention/mamba/causal_conv1d_triton.py":168:19)
#loc64 = loc("/sgl-workspace/sglang/python/sglang/srt/layers/attention/mamba/causal_conv1d_triton.py":167:53)
#loc65 = loc("/sgl-workspace/sglang/python/sglang/srt/layers/attention/mamba/causal_conv1d_triton.py":172:43)
#loc66 = loc("/sgl-workspace/sglang/python/sglang/srt/layers/attention/mamba/causal_conv1d_triton.py":172:62)
#loc67 = loc("/sgl-workspace/sglang/python/sglang/srt/layers/attention/mamba/causal_conv1d_triton.py":172:78)
#loc68 = loc("/sgl-workspace/sglang/python/sglang/srt/layers/attention/mamba/causal_conv1d_triton.py":172:18)
#loc69 = loc("/sgl-workspace/sglang/python/sglang/srt/layers/attention/mamba/causal_conv1d_triton.py":173:31)
#loc70 = loc("/sgl-workspace/sglang/python/sglang/srt/layers/attention/mamba/causal_conv1d_triton.py":173:45)
#loc71 = loc("/sgl-workspace/sglang/python/sglang/srt/layers/attention/mamba/causal_conv1d_triton.py":173:18)
#loc72 = loc("/sgl-workspace/sglang/python/sglang/srt/layers/attention/mamba/causal_conv1d_triton.py":176:36)
#loc73 = loc("/sgl-workspace/sglang/python/sglang/srt/layers/attention/mamba/causal_conv1d_triton.py":176:39)
#loc74 = loc("/sgl-workspace/sglang/python/sglang/srt/layers/attention/mamba/causal_conv1d_triton.py":177:37)
#loc75 = loc("/sgl-workspace/sglang/python/sglang/srt/layers/attention/mamba/causal_conv1d_triton.py":177:45)
#loc76 = loc("/sgl-workspace/sglang/python/sglang/srt/layers/attention/mamba/causal_conv1d_triton.py":177:18)
#loc77 = loc("/sgl-workspace/sglang/python/sglang/srt/layers/attention/mamba/causal_conv1d_triton.py":178:31)
#loc78 = loc("/sgl-workspace/sglang/python/sglang/srt/layers/attention/mamba/causal_conv1d_triton.py":178:36)
#loc79 = loc("/sgl-workspace/sglang/python/sglang/srt/layers/attention/mamba/causal_conv1d_triton.py":178:18)
#loc80 = loc("/sgl-workspace/sglang/python/sglang/srt/layers/attention/mamba/causal_conv1d_triton.py":180:47)
#loc81 = loc("/sgl-workspace/sglang/python/sglang/srt/layers/attention/mamba/causal_conv1d_triton.py":181:53)
#loc82 = loc("/sgl-workspace/sglang/python/sglang/srt/layers/attention/mamba/causal_conv1d_triton.py":182:43)
#loc83 = loc("/sgl-workspace/sglang/python/sglang/srt/layers/attention/mamba/causal_conv1d_triton.py":184:33)
#loc84 = loc("/sgl-workspace/sglang/python/sglang/srt/layers/attention/mamba/causal_conv1d_triton.py":185:37)
#loc85 = loc("/sgl-workspace/sglang/python/sglang/srt/layers/attention/mamba/causal_conv1d_triton.py":185:60)
#loc86 = loc("/sgl-workspace/sglang/python/sglang/srt/layers/attention/mamba/causal_conv1d_triton.py":185:18)
#loc87 = loc("/sgl-workspace/sglang/python/sglang/srt/layers/attention/mamba/causal_conv1d_triton.py":188:38)
#loc88 = loc("/sgl-workspace/sglang/python/sglang/srt/layers/attention/mamba/causal_conv1d_triton.py":188:49)
#loc89 = loc("/sgl-workspace/sglang/python/sglang/srt/layers/attention/mamba/causal_conv1d_triton.py":188:73)
#loc90 = loc("/sgl-workspace/sglang/python/sglang/srt/layers/attention/mamba/causal_conv1d_triton.py":188:78)
#loc91 = loc("/sgl-workspace/sglang/python/sglang/srt/layers/attention/mamba/causal_conv1d_triton.py":188:60)
#loc92 = loc("/sgl-workspace/sglang/python/sglang/srt/layers/attention/mamba/causal_conv1d_triton.py":189:12)
#loc93 = loc("/sgl-workspace/sglang/python/sglang/srt/layers/attention/mamba/causal_conv1d_triton.py":190:62)
#loc94 = loc("/sgl-workspace/sglang/python/sglang/srt/layers/attention/mamba/causal_conv1d_triton.py":193:15)
#loc95 = loc("/sgl-workspace/sglang/python/sglang/srt/layers/attention/mamba/causal_conv1d_triton.py":195:47)
#loc96 = loc("/sgl-workspace/sglang/python/sglang/srt/layers/attention/mamba/causal_conv1d_triton.py":199:48)
#loc97 = loc("/sgl-workspace/sglang/python/sglang/srt/layers/attention/mamba/causal_conv1d_triton.py":199:23)
#loc98 = loc("/sgl-workspace/sglang/python/sglang/srt/layers/attention/mamba/causal_conv1d_triton.py":200:35)
#loc99 = loc("/sgl-workspace/sglang/python/sglang/srt/layers/attention/mamba/causal_conv1d_triton.py":200:58)
#loc100 = loc("/sgl-workspace/sglang/python/sglang/srt/layers/attention/mamba/causal_conv1d_triton.py":200:22)
#loc101 = loc("/sgl-workspace/sglang/python/sglang/srt/layers/attention/mamba/causal_conv1d_triton.py":201:42)
#loc102 = loc("/sgl-workspace/sglang/python/sglang/srt/layers/attention/mamba/causal_conv1d_triton.py":201:52)
#loc103 = loc("/sgl-workspace/sglang/python/sglang/srt/layers/attention/mamba/causal_conv1d_triton.py":201:75)
#loc104 = loc("/sgl-workspace/sglang/python/sglang/srt/layers/attention/mamba/causal_conv1d_triton.py":201:22)
#loc105 = loc("/sgl-workspace/sglang/python/sglang/srt/layers/attention/mamba/causal_conv1d_triton.py":204:46)
#loc106 = loc("/sgl-workspace/sglang/python/sglang/srt/layers/attention/mamba/causal_conv1d_triton.py":205:42)
#loc107 = loc("/sgl-workspace/sglang/python/sglang/srt/layers/attention/mamba/causal_conv1d_triton.py":205:52)
#loc108 = loc("/sgl-workspace/sglang/python/sglang/srt/layers/attention/mamba/causal_conv1d_triton.py":205:63)
#loc109 = loc("/sgl-workspace/sglang/python/sglang/srt/layers/attention/mamba/causal_conv1d_triton.py":205:22)
#loc110 = loc("/sgl-workspace/sglang/python/sglang/srt/layers/attention/mamba/causal_conv1d_triton.py":206:35)
#loc111 = loc("/sgl-workspace/sglang/python/sglang/srt/layers/attention/mamba/causal_conv1d_triton.py":206:40)
#loc112 = loc("/sgl-workspace/sglang/python/sglang/srt/layers/attention/mamba/causal_conv1d_triton.py":206:22)
#loc113 = loc("/sgl-workspace/sglang/python/sglang/srt/layers/attention/mamba/causal_conv1d_triton.py":208:62)
#loc114 = loc("/sgl-workspace/sglang/python/sglang/srt/layers/attention/mamba/causal_conv1d_triton.py":210:34)
#loc115 = loc("/sgl-workspace/sglang/python/sglang/srt/layers/attention/mamba/causal_conv1d_triton.py":213:27)
#loc116 = loc("/sgl-workspace/sglang/python/sglang/srt/layers/attention/mamba/causal_conv1d_triton.py":214:42)
#loc117 = loc("/sgl-workspace/sglang/python/sglang/srt/layers/attention/mamba/causal_conv1d_triton.py":214:49)
#loc118 = loc("/sgl-workspace/sglang/python/sglang/srt/layers/attention/mamba/causal_conv1d_triton.py":214:65)
#loc119 = loc("/sgl-workspace/sglang/python/sglang/srt/layers/attention/mamba/causal_conv1d_triton.py":214:22)
#loc120 = loc("/sgl-workspace/sglang/python/sglang/srt/layers/attention/mamba/causal_conv1d_triton.py":218:39)
#loc121 = loc("/sgl-workspace/sglang/python/sglang/srt/layers/attention/mamba/causal_conv1d_triton.py":218:46)
#loc122 = loc("/sgl-workspace/sglang/python/sglang/srt/layers/attention/mamba/causal_conv1d_triton.py":218:49)
#loc123 = loc("/sgl-workspace/sglang/python/sglang/srt/layers/attention/mamba/causal_conv1d_triton.py":219:41)
#loc124 = loc("/sgl-workspace/sglang/python/sglang/srt/layers/attention/mamba/causal_conv1d_triton.py":219:47)
#loc125 = loc("/sgl-workspace/sglang/python/sglang/srt/layers/attention/mamba/causal_conv1d_triton.py":219:55)
#loc126 = loc("/sgl-workspace/sglang/python/sglang/srt/layers/attention/mamba/causal_conv1d_triton.py":219:22)
#loc127 = loc("/sgl-workspace/sglang/python/sglang/srt/layers/attention/mamba/causal_conv1d_triton.py":220:35)
#loc128 = loc("/sgl-workspace/sglang/python/sglang/srt/layers/attention/mamba/causal_conv1d_triton.py":220:40)
#loc129 = loc("/sgl-workspace/sglang/python/sglang/srt/layers/attention/mamba/causal_conv1d_triton.py":220:22)
#loc130 = loc("/sgl-workspace/sglang/python/sglang/srt/layers/attention/mamba/causal_conv1d_triton.py":222:51)
#loc131 = loc("/sgl-workspace/sglang/python/sglang/srt/layers/attention/mamba/causal_conv1d_triton.py":224:16)
#loc132 = loc("/sgl-workspace/sglang/python/sglang/srt/layers/attention/mamba/causal_conv1d_triton.py":226:38)
#loc133 = loc("/sgl-workspace/sglang/python/sglang/srt/layers/attention/mamba/causal_conv1d_triton.py":230:41)
#loc134 = loc("/sgl-workspace/sglang/python/sglang/srt/layers/attention/mamba/causal_conv1d_triton.py":230:64)
#loc135 = loc("/sgl-workspace/sglang/python/sglang/srt/layers/attention/mamba/causal_conv1d_triton.py":230:22)
#loc136 = loc("/sgl-workspace/sglang/python/sglang/srt/layers/attention/mamba/causal_conv1d_triton.py":232:42)
#loc137 = loc("/sgl-workspace/sglang/python/sglang/srt/layers/attention/mamba/causal_conv1d_triton.py":232:53)
#loc138 = loc("/sgl-workspace/sglang/python/sglang/srt/layers/attention/mamba/causal_conv1d_triton.py":232:77)
#loc139 = loc("/sgl-workspace/sglang/python/sglang/srt/layers/attention/mamba/causal_conv1d_triton.py":233:20)
#loc140 = loc("/sgl-workspace/sglang/python/sglang/srt/layers/attention/mamba/causal_conv1d_triton.py":232:64)
#loc141 = loc("/sgl-workspace/sglang/python/sglang/srt/layers/attention/mamba/causal_conv1d_triton.py":235:66)
#loc142 = loc("/sgl-workspace/sglang/python/sglang/srt/layers/attention/mamba/causal_conv1d_triton.py":239:47)
#loc143 = loc("/sgl-workspace/sglang/python/sglang/srt/layers/attention/mamba/causal_conv1d_triton.py":241:34)
#loc144 = loc("/sgl-workspace/sglang/python/sglang/srt/layers/attention/mamba/causal_conv1d_triton.py":244:27)
#loc145 = loc("/sgl-workspace/sglang/python/sglang/srt/layers/attention/mamba/causal_conv1d_triton.py":245:42)
#loc146 = loc("/sgl-workspace/sglang/python/sglang/srt/layers/attention/mamba/causal_conv1d_triton.py":245:49)
#loc147 = loc("/sgl-workspace/sglang/python/sglang/srt/layers/attention/mamba/causal_conv1d_triton.py":245:65)
#loc148 = loc("/sgl-workspace/sglang/python/sglang/srt/layers/attention/mamba/causal_conv1d_triton.py":245:22)
#loc149 = loc("/sgl-workspace/sglang/python/sglang/srt/layers/attention/mamba/causal_conv1d_triton.py":249:39)
#loc150 = loc("/sgl-workspace/sglang/python/sglang/srt/layers/attention/mamba/causal_conv1d_triton.py":249:46)
#loc151 = loc("/sgl-workspace/sglang/python/sglang/srt/layers/attention/mamba/causal_conv1d_triton.py":249:49)
#loc152 = loc("/sgl-workspace/sglang/python/sglang/srt/layers/attention/mamba/causal_conv1d_triton.py":250:41)
#loc153 = loc("/sgl-workspace/sglang/python/sglang/srt/layers/attention/mamba/causal_conv1d_triton.py":250:47)
#loc154 = loc("/sgl-workspace/sglang/python/sglang/srt/layers/attention/mamba/causal_conv1d_triton.py":250:55)
#loc155 = loc("/sgl-workspace/sglang/python/sglang/srt/layers/attention/mamba/causal_conv1d_triton.py":250:22)
#loc156 = loc("/sgl-workspace/sglang/python/sglang/srt/layers/attention/mamba/causal_conv1d_triton.py":251:35)
#loc157 = loc("/sgl-workspace/sglang/python/sglang/srt/layers/attention/mamba/causal_conv1d_triton.py":251:40)
#loc158 = loc("/sgl-workspace/sglang/python/sglang/srt/layers/attention/mamba/causal_conv1d_triton.py":251:22)
#loc159 = loc("/sgl-workspace/sglang/python/sglang/srt/layers/attention/mamba/causal_conv1d_triton.py":253:57)
#loc160 = loc("/sgl-workspace/sglang/python/sglang/srt/layers/attention/mamba/causal_conv1d_triton.py":257:41)
#loc161 = loc("/sgl-workspace/sglang/python/sglang/srt/layers/attention/mamba/causal_conv1d_triton.py":257:64)
#loc162 = loc("/sgl-workspace/sglang/python/sglang/srt/layers/attention/mamba/causal_conv1d_triton.py":257:22)
#loc163 = loc("/sgl-workspace/sglang/python/sglang/srt/layers/attention/mamba/causal_conv1d_triton.py":259:42)
#loc164 = loc("/sgl-workspace/sglang/python/sglang/srt/layers/attention/mamba/causal_conv1d_triton.py":259:53)
#loc165 = loc("/sgl-workspace/sglang/python/sglang/srt/layers/attention/mamba/causal_conv1d_triton.py":259:77)
#loc166 = loc("/sgl-workspace/sglang/python/sglang/srt/layers/attention/mamba/causal_conv1d_triton.py":260:20)
#loc167 = loc("/sgl-workspace/sglang/python/sglang/srt/layers/attention/mamba/causal_conv1d_triton.py":259:64)
#loc168 = loc("/sgl-workspace/sglang/python/sglang/srt/layers/attention/mamba/causal_conv1d_triton.py":262:66)
#loc169 = loc("/sgl-workspace/sglang/python/sglang/srt/layers/attention/mamba/causal_conv1d_triton.py":266:26)
#loc170 = loc("/sgl-workspace/sglang/python/sglang/srt/layers/attention/mamba/causal_conv1d_triton.py":267:48)
#loc171 = loc("/sgl-workspace/sglang/python/sglang/srt/layers/attention/mamba/causal_conv1d_triton.py":267:53)
#loc172 = loc("/sgl-workspace/sglang/python/sglang/srt/layers/attention/mamba/causal_conv1d_triton.py":267:32)
#loc173 = loc("/sgl-workspace/sglang/python/sglang/srt/layers/attention/mamba/causal_conv1d_triton.py":268:29)
#loc174 = loc("/sgl-workspace/sglang/python/sglang/srt/layers/attention/mamba/causal_conv1d_triton.py":279:53)
#loc175 = loc("/sgl-workspace/sglang/python/sglang/srt/layers/attention/mamba/causal_conv1d_triton.py":280:46)
#loc176 = loc("/sgl-workspace/sglang/python/sglang/srt/layers/attention/mamba/causal_conv1d_triton.py":281:53)
#loc177 = loc("/sgl-workspace/sglang/python/sglang/srt/layers/attention/mamba/causal_conv1d_triton.py":282:46)
#loc178 = loc("/sgl-workspace/sglang/python/sglang/srt/layers/attention/mamba/causal_conv1d_triton.py":283:53)
#loc179 = loc("/sgl-workspace/sglang/python/sglang/srt/layers/attention/mamba/causal_conv1d_triton.py":302:31)
#loc180 = loc("/sgl-workspace/sglang/python/sglang/srt/layers/attention/mamba/causal_conv1d_triton.py":304:40)
#loc181 = loc("/sgl-workspace/sglang/python/sglang/srt/layers/attention/mamba/causal_conv1d_triton.py":304:25)
#loc182 = loc("/sgl-workspace/sglang/python/sglang/srt/layers/attention/mamba/causal_conv1d_triton.py":307:25)
#loc183 = loc("/sgl-workspace/sglang/python/sglang/srt/layers/attention/mamba/causal_conv1d_triton.py":309:27)
#loc184 = loc("/sgl-workspace/sglang/python/sglang/srt/layers/attention/mamba/causal_conv1d_triton.py":310:33)
#loc185 = loc("/sgl-workspace/sglang/python/sglang/srt/layers/attention/mamba/causal_conv1d_triton.py":311:27)
#loc186 = loc("/sgl-workspace/sglang/python/sglang/srt/layers/attention/mamba/causal_conv1d_triton.py":312:33)
#loc187 = loc("/sgl-workspace/sglang/python/sglang/srt/layers/attention/mamba/causal_conv1d_triton.py":314:27)
#loc188 = loc("/sgl-workspace/sglang/python/sglang/srt/layers/attention/mamba/causal_conv1d_triton.py":315:33)
#loc189 = loc("/sgl-workspace/sglang/python/sglang/srt/layers/attention/mamba/causal_conv1d_triton.py":317:27)
#loc190 = loc("/sgl-workspace/sglang/python/sglang/srt/layers/attention/mamba/causal_conv1d_triton.py":318:33)
#loc191 = loc("/sgl-workspace/sglang/python/sglang/srt/layers/attention/mamba/causal_conv1d_triton.py":319:28)
#loc192 = loc("/sgl-workspace/sglang/python/sglang/srt/layers/attention/mamba/causal_conv1d_triton.py":320:27)
#loc193 = loc("/sgl-workspace/sglang/python/sglang/srt/layers/attention/mamba/causal_conv1d_triton.py":352:30)
#loc194 = loc("/sgl-workspace/sglang/python/sglang/srt/layers/attention/mamba/causal_conv1d_triton.py":352:19)
#loc195 = loc("/sgl-workspace/sglang/python/sglang/srt/layers/attention/mamba/causal_conv1d_triton.py":349:56)
#loc196 = loc("/sgl-workspace/sglang/python/sglang/srt/layers/attention/mamba/causal_conv1d_triton.py":349:44)
#loc197 = loc("/sgl-workspace/sglang/python/sglang/srt/layers/attention/mamba/causal_conv1d_triton.py":350:39)
#loc198 = loc("/sgl-workspace/sglang/python/sglang/srt/layers/attention/mamba/causal_conv1d_triton.py":365:37)
#loc199 = loc("/sgl-workspace/sglang/python/sglang/srt/layers/attention/mamba/causal_conv1d_triton.py":365:36)
#loc200 = loc("/sgl-workspace/sglang/python/sglang/srt/layers/attention/mamba/causal_conv1d_triton.py":365:29)
#loc201 = loc("/sgl-workspace/sglang/python/sglang/srt/layers/attention/mamba/causal_conv1d_triton.py":365:25)
#loc202 = loc("/sgl-workspace/sglang/python/sglang/srt/layers/attention/mamba/causal_conv1d_triton.py":366:31)
#loc203 = loc("/sgl-workspace/sglang/python/sglang/srt/layers/attention/mamba/causal_conv1d_triton.py":367:24)
#loc204 = loc("/sgl-workspace/sglang/python/sglang/srt/layers/attention/mamba/causal_conv1d_triton.py":367:12)
#loc205 = loc("/sgl-workspace/sglang/python/sglang/srt/layers/attention/mamba/causal_conv1d_triton.py":371:38)
#loc206 = loc("/sgl-workspace/sglang/python/sglang/srt/layers/attention/mamba/causal_conv1d_triton.py":371:53)
#loc207 = loc("/sgl-workspace/sglang/python/sglang/srt/layers/attention/mamba/causal_conv1d_triton.py":371:66)
#loc208 = loc("/sgl-workspace/sglang/python/sglang/srt/layers/attention/mamba/causal_conv1d_triton.py":371:14)
#loc209 = loc("/sgl-workspace/sglang/python/sglang/srt/layers/attention/mamba/causal_conv1d_triton.py":372:27)
#loc210 = loc("/sgl-workspace/sglang/python/sglang/srt/layers/attention/mamba/causal_conv1d_triton.py":372:15)
#loc211 = loc("/sgl-workspace/sglang/python/sglang/srt/layers/attention/mamba/causal_conv1d_triton.py":375:25)
#loc212 = loc("/sgl-workspace/sglang/python/sglang/srt/layers/attention/mamba/causal_conv1d_triton.py":375:8)
#loc213 = loc("/sgl-workspace/sglang/python/sglang/srt/layers/attention/mamba/causal_conv1d_triton.py":320:4)
#loc214 = loc("/usr/local/lib/python3.12/dist-packages/triton/language/standard.py":118:0)
#loc215 = loc("/usr/local/lib/python3.12/dist-packages/triton/language/standard.py":127:31)
#loc216 = loc("/usr/local/lib/python3.12/dist-packages/triton/language/standard.py":127:11)
#loc217 = loc("/usr/local/lib/python3.12/dist-packages/triton/language/standard.py":127:4)
#loc226 = loc("stride_conv_state_seq"(#loc1))
#loc227 = loc("stride_conv_state_dim"(#loc2))
#loc228 = loc("stride_conv_state_tok"(#loc3))
#loc229 = loc("state_len"(#loc4))
#loc230 = loc("idx_seq"(#loc5))
#loc231 = loc("chunk_offset"(#loc6))
#loc232 = loc("idx_feats"(#loc7))
#loc233 = loc("idx_feats"(#loc8))
#loc234 = loc("idx_feats"(#loc9))
#loc235 = loc("idx_feats"(#loc10))
#loc236 = loc("sequence_start_index"(#loc14))
#loc237 = loc("sequence_start_index"(#loc15))
#loc238 = loc("sequence_end_index"(#loc16))
#loc239 = loc("sequence_end_index"(#loc17))
#loc240 = loc("sequence_end_index"(#loc18))
#loc241 = loc("seqlen"(#loc19))
#loc242 = loc("token_offset"(#loc20))
#loc243 = loc("segment_len"(#loc21))
#loc244 = loc("segment_len"(#loc22))
#loc245 = loc("x_base"(#loc25))
#loc246 = loc("x_base"(#loc26))
#loc247 = loc("x_base"(#loc27))
#loc248 = loc("x_base"(#loc28))
#loc249 = loc("conv_state_batch_coord"(#loc29))
#loc250 = loc("conv_state_batch_coord"(#loc30))
#loc251 = loc("conv_state_batch_coord"(#loc31))
#loc252 = loc("conv_states_base"(#loc34))
#loc253 = loc("conv_states_base"(#loc35))
#loc254 = loc("conv_states_base"(#loc36))
#loc255 = loc("conv_states_base"(#loc37))
#loc256 = loc("w_base"(#loc38))
#loc257 = loc("w_base"(#loc39))
#loc258 = loc("load_init_state"(#loc42))
#loc259 = loc("load_init_state"(#loc43))
#loc260 = loc("load_init_state"(#loc44))
#loc261 = loc("col0"(#loc45))
#loc262 = loc("prior_tokens"(#loc46))
#loc263 = loc("prior_tokens"(#loc47))
#loc264 = loc("prior_tokens"(#loc48))
#loc265 = loc("mask_w"(#loc49))
#loc266 = loc("col2"(#loc50))
#loc267 = loc("conv_states_ptrs"(#loc51))
#loc268 = loc("conv_states_ptrs"(#loc52))
#loc269 = loc("col1"(#loc53))
#loc270 = loc("conv_states_ptrs"(#loc54))
#loc271 = loc("conv_states_ptrs"(#loc55))
#loc272 = loc("col0"(#loc56))
#loc273 = loc("col0"(#loc57))
#loc274 = loc("col1"(#loc58))
#loc275 = loc("col2"(#loc59))
#loc276 = loc("idx_tokens_last"(#loc62))
#loc277 = loc("idx_tokens_last"(#loc63))
#loc278 = loc("idx_tokens_last"(#loc64))
#loc279 = loc("x_ptrs"(#loc65))
#loc280 = loc("x_ptrs"(#loc66))
#loc281 = loc("x_ptrs"(#loc67))
#loc282 = loc("x_ptrs"(#loc68))
#loc283 = loc("x_ptrs"(#loc69))
#loc284 = loc("x_ptrs"(#loc70))
#loc285 = loc("x_ptrs"(#loc71))
#loc286 = loc("mask_x"(#loc72))
#loc287 = loc("mask_x"(#loc73))
#loc288 = loc("mask_x"(#loc74))
#loc289 = loc("mask_x"(#loc75))
#loc290 = loc("mask_x"(#loc76))
#loc291 = loc("mask_x"(#loc77))
#loc292 = loc("mask_x"(#loc78))
#loc293 = loc("mask_x"(#loc79))
#loc294 = loc("loaded_x"(#loc80))
#loc295 = loc("new_conv_state"(#loc81))
#loc296 = loc("idx_tokens_conv"(#loc82))
#loc297 = loc("conv_states_ptrs_target"(#loc83))
#loc298 = loc("conv_states_ptrs_target"(#loc84))
#loc299 = loc("conv_states_ptrs_target"(#loc85))
#loc300 = loc("conv_states_ptrs_target"(#loc86))
#loc301 = loc("mask"(#loc87))
#loc302 = loc("mask"(#loc88))
#loc303 = loc("mask"(#loc89))
#loc304 = loc("mask"(#loc90))
#loc305 = loc("mask"(#loc91))
#loc306 = loc("conv_states_ptrs_target"(#loc94))
#loc307 = loc("idx_tokens_conv"(#loc95))
#loc308 = loc("conv_states_ptrs_source"(#loc96))
#loc309 = loc("conv_states_ptrs_source"(#loc97))
#loc310 = loc("conv_states_ptrs_source"(#loc98))
#loc311 = loc("conv_states_ptrs_source"(#loc99))
#loc312 = loc("conv_states_ptrs_source"(#loc100))
#loc313 = loc("conv_states_ptrs_source"(#loc101))
#loc314 = loc("conv_states_ptrs_source"(#loc102))
#loc315 = loc("conv_states_ptrs_source"(#loc103))
#loc316 = loc("conv_states_ptrs_source"(#loc104))
#loc317 = loc("mask"(#loc105))
#loc318 = loc("mask"(#loc106))
#loc319 = loc("mask"(#loc107))
#loc320 = loc("mask"(#loc108))
#loc321 = loc("mask"(#loc109))
#loc322 = loc("mask"(#loc110))
#loc323 = loc("mask"(#loc111))
#loc324 = loc("mask"(#loc112))
#loc325 = loc("conv_state"(#loc113))
#loc326 = loc("VAL"(#loc114))
#loc327 = loc("x_ptrs"(#loc115))
#loc328 = loc("x_ptrs"(#loc116))
#loc329 = loc("x_ptrs"(#loc117))
#loc330 = loc("x_ptrs"(#loc118))
#loc331 = loc("x_ptrs"(#loc119))
#loc332 = loc("mask_x"(#loc120))
#loc333 = loc("mask_x"(#loc121))
#loc334 = loc("mask_x"(#loc122))
#loc335 = loc("mask_x"(#loc123))
#loc336 = loc("mask_x"(#loc124))
#loc337 = loc("mask_x"(#loc125))
#loc338 = loc("mask_x"(#loc126))
#loc339 = loc("mask_x"(#loc127))
#loc340 = loc("mask_x"(#loc128))
#loc341 = loc("mask_x"(#loc129))
#loc342 = loc("loaded_x"(#loc130))
#loc343 = loc("new_conv_state"(#loc132))
#loc344 = loc("conv_states_ptrs_target"(#loc133))
#loc345 = loc("conv_states_ptrs_target"(#loc134))
#loc346 = loc("conv_states_ptrs_target"(#loc135))
#loc347 = loc("mask"(#loc136))
#loc348 = loc("mask"(#loc137))
#loc349 = loc("mask"(#loc138))
#loc350 = loc("mask"(#loc139))
#loc351 = loc("mask"(#loc140))
#loc352 = loc("idx_tokens_conv"(#loc142))
#loc353 = loc("VAL"(#loc143))
#loc354 = loc("x_ptrs"(#loc144))
#loc355 = loc("x_ptrs"(#loc145))
#loc356 = loc("x_ptrs"(#loc146))
#loc357 = loc("x_ptrs"(#loc147))
#loc358 = loc("x_ptrs"(#loc148))
#loc359 = loc("mask_x"(#loc149))
#loc360 = loc("mask_x"(#loc150))
#loc361 = loc("mask_x"(#loc151))
#loc362 = loc("mask_x"(#loc152))
#loc363 = loc("mask_x"(#loc153))
#loc364 = loc("mask_x"(#loc154))
#loc365 = loc("mask_x"(#loc155))
#loc366 = loc("mask_x"(#loc156))
#loc367 = loc("mask_x"(#loc157))
#loc368 = loc("mask_x"(#loc158))
#loc369 = loc("new_conv_state"(#loc159))
#loc370 = loc("conv_states_ptrs_target"(#loc160))
#loc371 = loc("conv_states_ptrs_target"(#loc161))
#loc372 = loc("conv_states_ptrs_target"(#loc162))
#loc373 = loc("mask"(#loc163))
#loc374 = loc("mask"(#loc164))
#loc375 = loc("mask"(#loc165))
#loc376 = loc("mask"(#loc166))
#loc377 = loc("mask"(#loc167))
#loc378 = loc("load_init_state"(#loc169))
#loc379 = loc("prior_tokens"(#loc170))
#loc380 = loc("prior_tokens"(#loc171))
#loc381 = loc("prior_tokens"(#loc172))
#loc382 = loc("mask_w"(#loc173))
#loc383 = loc("col2"(#loc174))
#loc384 = loc("conv_states_ptrs"(#loc175))
#loc385 = loc("col1"(#loc176))
#loc386 = loc("conv_states_ptrs"(#loc177))
#loc387 = loc("col0"(#loc178))
#loc388 = loc("acc_preload"(#loc179))
#loc389 = loc("x_base_1d"(#loc180))
#loc390 = loc("x_base_1d"(#loc181))
#loc391 = loc("mask_w"(#loc182))
#loc392 = loc("w_ptrs"(#loc183))
#loc393 = loc("w_col0"(#loc184))
#loc394 = loc("w_ptrs"(#loc185))
#loc395 = loc("w_col1"(#loc186))
#loc396 = loc("w_ptrs"(#loc187))
#loc397 = loc("w_col2"(#loc188))
#loc398 = loc("w_ptrs"(#loc189))
#loc399 = loc("w_col3"(#loc190))
#loc400 = loc("mask_x_1d"(#loc191))
#loc401 = loc("col0"(#loc192))
#loc402 = loc("acc"(#loc193))
#loc403 = loc("acc"(#loc194))
#loc404 = loc("x_ptrs_1d"(#loc195))
#loc405 = loc("x_ptrs_1d"(#loc196))
#loc406 = loc("matrix_x"(#loc197))
#loc407 = loc("acc"(#loc198))
#loc408 = loc("acc"(#loc199))
#loc409 = loc("acc"(#loc200))
#loc410 = loc("acc"(#loc201))
#loc411 = loc("mask_1d"(#loc202))
#loc412 = loc("mask_1d"(#loc203))
#loc413 = loc("mask_1d"(#loc204))
#loc414 = loc("o_ptrs"(#loc205))
#loc415 = loc("o_ptrs"(#loc206))
#loc416 = loc("o_ptrs"(#loc207))
#loc417 = loc("o_ptrs"(#loc208))
#loc418 = loc("o_ptrs"(#loc209))
#loc419 = loc("o_ptrs"(#loc210))
#loc420 = loc("load_init_state"(#loc260))
#loc421 = loc("col1"(#loc261))
#loc422 = loc("col2"(#loc266))
#loc423 = loc("col1"(#loc269))
#loc424 = loc("col0"(#loc272))
#loc425 = loc("col0"(#loc273))
#loc426 = loc("col1"(#loc274))
#loc427 = loc("col2"(#loc275))
#loc428 = loc("x_ptrs"(#loc285))
#loc429 = loc("mask_x"(#loc293))
#loc430 = loc("new_conv_state"(#loc295))
#loc431 = loc("idx_tokens_conv"(#loc296))
#loc432 = loc("conv_states_ptrs_target"(#loc300))
#loc433 = loc("mask"(#loc305))
#loc434 = loc("idx_tokens_conv"(#loc306))
#loc435 = loc("idx_tokens_conv"(#loc307))
#loc436 = loc("VAL"(#loc326))
#loc437 = loc("x_ptrs"(#loc331))
#loc438 = loc("mask_x"(#loc341))
#loc439 = loc("new_conv_state"(#loc343))
#loc440 = loc("conv_states_ptrs_target"(#loc346))
#loc441 = loc("mask"(#loc351))
#loc442 = loc("idx_tokens_conv"(#loc352))
#loc443 = loc("VAL"(#loc353))
#loc444 = loc("x_ptrs"(#loc358))
#loc445 = loc("mask_x"(#loc368))
#loc446 = loc("new_conv_state"(#loc369))
#loc447 = loc("conv_states_ptrs_target"(#loc372))
#loc448 = loc("mask"(#loc377))
#loc449 = loc("load_init_state"(#loc378))
#loc450 = loc("col2"(#loc383))
#loc451 = loc("col1"(#loc385))
#loc452 = loc("col0"(#loc387))
#loc453 = loc("col1"(#loc401))
#loc454 = loc("col2"(#loc421))
#loc455 = loc("mask"(#loc434))
#loc456 = loc("col2"(#loc453))
#loc457 = loc("mask_x"(#loc455))
#loc458 = loc("new_conv_state"(#loc457))
#loc459 = loc("x_ptrs"(#loc458))
