#loc = loc("/sgl-workspace/sglang/python/sglang/srt/layers/attention/fla/chunk_fwd.py":40:0)
#loc21 = loc(unknown)
#loc388 = loc("/sgl-workspace/sglang/python/sglang/srt/layers/attention/fla/op.py":26:0)
#loc394 = loc("/usr/local/lib/python3.12/dist-packages/triton/language/standard.py":285:0)
#loc398 = loc("/usr/local/lib/python3.12/dist-packages/triton/language/standard.py":260:0)
#loc402 = loc("k"(#loc))
#loc403 = loc("g"(#loc))
#loc404 = loc("beta"(#loc))
#loc405 = loc("A"(#loc))
#loc406 = loc("cu_seqlens"(#loc))
#loc407 = loc("chunk_indices"(#loc))
#loc408 = loc("T"(#loc))
#loc730 = loc("x"(#loc388))
#loc731 = loc("input"(#loc394))
#loc732 = loc("a"(#loc398))
#loc733 = loc("b"(#loc398))
module {
  tt.func public @chunk_gated_delta_rule_fwd_kkt_solve_kernel(%k: !tt.ptr<bf16> {tt.divisibility = 16 : i32} loc("k"(#loc)), %g: !tt.ptr<f32> {tt.divisibility = 16 : i32} loc("g"(#loc)), %beta: !tt.ptr<f32> {tt.divisibility = 16 : i32} loc("beta"(#loc)), %A: !tt.ptr<bf16> {tt.divisibility = 16 : i32} loc("A"(#loc)), %cu_seqlens: !tt.ptr<i32> {tt.divisibility = 16 : i32} loc("cu_seqlens"(#loc)), %chunk_indices: !tt.ptr<i32> {tt.divisibility = 16 : i32} loc("chunk_indices"(#loc)), %T: i32 loc("T"(#loc))) attributes {noinline = false} {
    %0 = tt.get_program_id x : i32 loc(#loc1)
    %1 = tt.get_program_id y : i32 loc(#loc2)
    %c24_i32 = arith.constant 24 : i32 loc(#loc3)
    %c24_i32_0 = arith.constant 24 : i32 loc(#loc3)
    %2 = arith.divsi %1, %c24_i32_0 : i32 loc(#loc3)
    %c24_i32_1 = arith.constant 24 : i32 loc(#loc4)
    %c24_i32_2 = arith.constant 24 : i32 loc(#loc4)
    %3 = arith.remsi %1, %c24_i32_2 : i32 loc(#loc4)
    %c2_i32 = arith.constant 2 : i32 loc(#loc5)
    %c2_i32_3 = arith.constant 2 : i32 loc(#loc5)
    %4 = arith.extsi %0 : i32 to i64 loc(#loc5)
    %5 = arith.extsi %c2_i32_3 : i32 to i64 loc(#loc5)
    %6 = arith.muli %4, %5 : i64 loc(#loc5)
    %c2147483647_i64 = arith.constant 2147483647 : i64 loc(#loc5)
    %c-2147483648_i64 = arith.constant -2147483648 : i64 loc(#loc5)
    %7 = arith.cmpi sle, %6, %c2147483647_i64 : i64 loc(#loc5)
    %8 = arith.cmpi sge, %6, %c-2147483648_i64 : i64 loc(#loc5)
    %9 = arith.andi %7, %8 : i1 loc(#loc5)
    %10 = arith.muli %0, %c2_i32_3 : i32 loc(#loc5)
    %11 = tt.addptr %chunk_indices, %10 : !tt.ptr<i32>, i32 loc(#loc6)
    %12 = tt.load %11 : !tt.ptr<i32> loc(#loc7)
    %c2_i32_4 = arith.constant 2 : i32 loc(#loc8)
    %c2_i32_5 = arith.constant 2 : i32 loc(#loc8)
    %13 = arith.extsi %0 : i32 to i64 loc(#loc8)
    %14 = arith.extsi %c2_i32_5 : i32 to i64 loc(#loc8)
    %15 = arith.muli %13, %14 : i64 loc(#loc8)
    %c2147483647_i64_6 = arith.constant 2147483647 : i64 loc(#loc8)
    %c-2147483648_i64_7 = arith.constant -2147483648 : i64 loc(#loc8)
    %16 = arith.cmpi sle, %15, %c2147483647_i64_6 : i64 loc(#loc8)
    %17 = arith.cmpi sge, %15, %c-2147483648_i64_7 : i64 loc(#loc8)
    %18 = arith.andi %16, %17 : i1 loc(#loc8)
    %19 = arith.muli %0, %c2_i32_5 : i32 loc(#loc8)
    %20 = tt.addptr %chunk_indices, %19 : !tt.ptr<i32>, i32 loc(#loc9)
    %c1_i32 = arith.constant 1 : i32 loc(#loc10)
    %21 = tt.addptr %20, %c1_i32 : !tt.ptr<i32>, i32 loc(#loc10)
    %22 = tt.load %21 : !tt.ptr<i32> loc(#loc11)
    %23 = tt.addptr %cu_seqlens, %12 : !tt.ptr<i32>, i32 loc(#loc12)
    %24 = tt.load %23 : !tt.ptr<i32> loc(#loc13)
    %25 = tt.addptr %cu_seqlens, %12 : !tt.ptr<i32>, i32 loc(#loc14)
    %c1_i32_8 = arith.constant 1 : i32 loc(#loc15)
    %26 = tt.addptr %25, %c1_i32_8 : !tt.ptr<i32>, i32 loc(#loc15)
    %27 = tt.load %26 : !tt.ptr<i32> loc(#loc16)
    %T_9 = arith.extsi %27 : i32 to i64 loc(#loc409)
    %T_10 = arith.extsi %24 : i32 to i64 loc(#loc409)
    %T_11 = arith.subi %T_9, %T_10 : i64 loc(#loc409)
    %T_12 = arith.constant 2147483647 : i64 loc(#loc409)
    %T_13 = arith.constant -2147483648 : i64 loc(#loc409)
    %T_14 = arith.cmpi sle, %T_11, %T_12 : i64 loc(#loc409)
    %T_15 = arith.cmpi sge, %T_11, %T_13 : i64 loc(#loc409)
    %T_16 = arith.andi %T_14, %T_15 : i1 loc(#loc409)
    %T_17 = arith.subi %27, %24 : i32 loc(#loc409)
    %c64_i32 = arith.constant 64 : i32 loc(#loc18)
    %c64_i32_18 = arith.constant 64 : i32 loc(#loc18)
    %28 = arith.extsi %22 : i32 to i64 loc(#loc18)
    %29 = arith.extsi %c64_i32_18 : i32 to i64 loc(#loc18)
    %30 = arith.muli %28, %29 : i64 loc(#loc18)
    %c2147483647_i64_19 = arith.constant 2147483647 : i64 loc(#loc18)
    %c-2147483648_i64_20 = arith.constant -2147483648 : i64 loc(#loc18)
    %31 = arith.cmpi sle, %30, %c2147483647_i64_19 : i64 loc(#loc18)
    %32 = arith.cmpi sge, %30, %c-2147483648_i64_20 : i64 loc(#loc18)
    %33 = arith.andi %31, %32 : i1 loc(#loc18)
    %34 = arith.muli %22, %c64_i32_18 : i32 loc(#loc18)
    %35 = arith.cmpi sge, %34, %T_17 : i32 loc(#loc19)
    cf.cond_br %35, ^bb1, ^bb2 loc(#loc19)
  ^bb1:  // pred: ^bb0
    tt.return loc(#loc20)
  ^bb2:  // pred: ^bb0
    cf.br ^bb4 loc(#loc21)
  ^bb3:  // no predecessors
    cf.br ^bb4 loc(#loc21)
  ^bb4:  // 2 preds: ^bb2, ^bb3
    %i_tc0 = arith.constant 64 : i32 loc(#loc410)
    %i_tc0_21 = arith.constant 64 : i32 loc(#loc410)
    %i_tc0_22 = arith.extsi %22 : i32 to i64 loc(#loc410)
    %i_tc0_23 = arith.extsi %i_tc0_21 : i32 to i64 loc(#loc410)
    %i_tc0_24 = arith.muli %i_tc0_22, %i_tc0_23 : i64 loc(#loc410)
    %i_tc0_25 = arith.constant 2147483647 : i64 loc(#loc410)
    %i_tc0_26 = arith.constant -2147483648 : i64 loc(#loc410)
    %i_tc0_27 = arith.cmpi sle, %i_tc0_24, %i_tc0_25 : i64 loc(#loc410)
    %i_tc0_28 = arith.cmpi sge, %i_tc0_24, %i_tc0_26 : i64 loc(#loc410)
    %i_tc0_29 = arith.andi %i_tc0_27, %i_tc0_28 : i1 loc(#loc410)
    %i_tc0_30 = arith.muli %22, %i_tc0_21 : i32 loc(#loc410)
    %i_tc1 = arith.constant 64 : i32 loc(#loc411)
    %i_tc1_31 = arith.constant 64 : i32 loc(#loc411)
    %i_tc1_32 = arith.extsi %22 : i32 to i64 loc(#loc411)
    %i_tc1_33 = arith.extsi %i_tc1_31 : i32 to i64 loc(#loc411)
    %i_tc1_34 = arith.muli %i_tc1_32, %i_tc1_33 : i64 loc(#loc411)
    %i_tc1_35 = arith.constant 2147483647 : i64 loc(#loc411)
    %i_tc1_36 = arith.constant -2147483648 : i64 loc(#loc411)
    %i_tc1_37 = arith.cmpi sle, %i_tc1_34, %i_tc1_35 : i64 loc(#loc411)
    %i_tc1_38 = arith.cmpi sge, %i_tc1_34, %i_tc1_36 : i64 loc(#loc411)
    %i_tc1_39 = arith.andi %i_tc1_37, %i_tc1_38 : i1 loc(#loc411)
    %i_tc1_40 = arith.muli %22, %i_tc1_31 : i32 loc(#loc411)
    %i_tc1_41 = arith.constant 16 : i32 loc(#loc412)
    %i_tc1_42 = arith.constant 16 : i32 loc(#loc412)
    %i_tc1_43 = arith.extsi %i_tc1_40 : i32 to i64 loc(#loc412)
    %i_tc1_44 = arith.extsi %i_tc1_42 : i32 to i64 loc(#loc412)
    %i_tc1_45 = arith.addi %i_tc1_43, %i_tc1_44 : i64 loc(#loc412)
    %i_tc1_46 = arith.constant 2147483647 : i64 loc(#loc412)
    %i_tc1_47 = arith.constant -2147483648 : i64 loc(#loc412)
    %i_tc1_48 = arith.cmpi sle, %i_tc1_45, %i_tc1_46 : i64 loc(#loc412)
    %i_tc1_49 = arith.cmpi sge, %i_tc1_45, %i_tc1_47 : i64 loc(#loc412)
    %i_tc1_50 = arith.andi %i_tc1_48, %i_tc1_49 : i1 loc(#loc412)
    %i_tc1_51 = arith.addi %i_tc1_40, %i_tc1_42 : i32 loc(#loc412)
    %i_tc2 = arith.constant 64 : i32 loc(#loc413)
    %i_tc2_52 = arith.constant 64 : i32 loc(#loc413)
    %i_tc2_53 = arith.extsi %22 : i32 to i64 loc(#loc413)
    %i_tc2_54 = arith.extsi %i_tc2_52 : i32 to i64 loc(#loc413)
    %i_tc2_55 = arith.muli %i_tc2_53, %i_tc2_54 : i64 loc(#loc413)
    %i_tc2_56 = arith.constant 2147483647 : i64 loc(#loc413)
    %i_tc2_57 = arith.constant -2147483648 : i64 loc(#loc413)
    %i_tc2_58 = arith.cmpi sle, %i_tc2_55, %i_tc2_56 : i64 loc(#loc413)
    %i_tc2_59 = arith.cmpi sge, %i_tc2_55, %i_tc2_57 : i64 loc(#loc413)
    %i_tc2_60 = arith.andi %i_tc2_58, %i_tc2_59 : i1 loc(#loc413)
    %i_tc2_61 = arith.muli %22, %i_tc2_52 : i32 loc(#loc413)
    %i_tc2_62 = arith.constant 32 : i32 loc(#loc414)
    %i_tc2_63 = arith.constant 32 : i32 loc(#loc414)
    %i_tc2_64 = arith.extsi %i_tc2_61 : i32 to i64 loc(#loc414)
    %i_tc2_65 = arith.extsi %i_tc2_63 : i32 to i64 loc(#loc414)
    %i_tc2_66 = arith.addi %i_tc2_64, %i_tc2_65 : i64 loc(#loc414)
    %i_tc2_67 = arith.constant 2147483647 : i64 loc(#loc414)
    %i_tc2_68 = arith.constant -2147483648 : i64 loc(#loc414)
    %i_tc2_69 = arith.cmpi sle, %i_tc2_66, %i_tc2_67 : i64 loc(#loc414)
    %i_tc2_70 = arith.cmpi sge, %i_tc2_66, %i_tc2_68 : i64 loc(#loc414)
    %i_tc2_71 = arith.andi %i_tc2_69, %i_tc2_70 : i1 loc(#loc414)
    %i_tc2_72 = arith.addi %i_tc2_61, %i_tc2_63 : i32 loc(#loc414)
    %i_tc3 = arith.constant 64 : i32 loc(#loc415)
    %i_tc3_73 = arith.constant 64 : i32 loc(#loc415)
    %i_tc3_74 = arith.extsi %22 : i32 to i64 loc(#loc415)
    %i_tc3_75 = arith.extsi %i_tc3_73 : i32 to i64 loc(#loc415)
    %i_tc3_76 = arith.muli %i_tc3_74, %i_tc3_75 : i64 loc(#loc415)
    %i_tc3_77 = arith.constant 2147483647 : i64 loc(#loc415)
    %i_tc3_78 = arith.constant -2147483648 : i64 loc(#loc415)
    %i_tc3_79 = arith.cmpi sle, %i_tc3_76, %i_tc3_77 : i64 loc(#loc415)
    %i_tc3_80 = arith.cmpi sge, %i_tc3_76, %i_tc3_78 : i64 loc(#loc415)
    %i_tc3_81 = arith.andi %i_tc3_79, %i_tc3_80 : i1 loc(#loc415)
    %i_tc3_82 = arith.muli %22, %i_tc3_73 : i32 loc(#loc415)
    %i_tc3_83 = arith.constant 48 : i32 loc(#loc416)
    %i_tc3_84 = arith.constant 48 : i32 loc(#loc416)
    %i_tc3_85 = arith.extsi %i_tc3_82 : i32 to i64 loc(#loc416)
    %i_tc3_86 = arith.extsi %i_tc3_84 : i32 to i64 loc(#loc416)
    %i_tc3_87 = arith.addi %i_tc3_85, %i_tc3_86 : i64 loc(#loc416)
    %i_tc3_88 = arith.constant 2147483647 : i64 loc(#loc416)
    %i_tc3_89 = arith.constant -2147483648 : i64 loc(#loc416)
    %i_tc3_90 = arith.cmpi sle, %i_tc3_87, %i_tc3_88 : i64 loc(#loc416)
    %i_tc3_91 = arith.cmpi sge, %i_tc3_87, %i_tc3_89 : i64 loc(#loc416)
    %i_tc3_92 = arith.andi %i_tc3_90, %i_tc3_91 : i1 loc(#loc416)
    %i_tc3_93 = arith.addi %i_tc3_82, %i_tc3_84 : i32 loc(#loc416)
    %k_94 = arith.constant 8 : i32 loc(#loc417)
    %k_95 = arith.constant 8 : i32 loc(#loc417)
    %k_96 = arith.extsi %24 : i32 to i64 loc(#loc417)
    %k_97 = arith.extsi %k_95 : i32 to i64 loc(#loc417)
    %k_98 = arith.muli %k_96, %k_97 : i64 loc(#loc417)
    %k_99 = arith.constant 2147483647 : i64 loc(#loc417)
    %k_100 = arith.constant -2147483648 : i64 loc(#loc417)
    %k_101 = arith.cmpi sle, %k_98, %k_99 : i64 loc(#loc417)
    %k_102 = arith.cmpi sge, %k_98, %k_100 : i64 loc(#loc417)
    %k_103 = arith.andi %k_101, %k_102 : i1 loc(#loc417)
    %k_104 = arith.muli %24, %k_95 : i32 loc(#loc417)
    %k_105 = arith.constant 3 : i32 loc(#loc418)
    %k_106 = arith.constant 3 : i32 loc(#loc418)
    %k_107 = arith.divsi %3, %k_106 : i32 loc(#loc418)
    %k_108 = arith.extsi %k_104 : i32 to i64 loc(#loc419)
    %k_109 = arith.extsi %k_107 : i32 to i64 loc(#loc419)
    %k_110 = arith.addi %k_108, %k_109 : i64 loc(#loc419)
    %k_111 = arith.constant 2147483647 : i64 loc(#loc419)
    %k_112 = arith.constant -2147483648 : i64 loc(#loc419)
    %k_113 = arith.cmpi sle, %k_110, %k_111 : i64 loc(#loc419)
    %k_114 = arith.cmpi sge, %k_110, %k_112 : i64 loc(#loc419)
    %k_115 = arith.andi %k_113, %k_114 : i1 loc(#loc419)
    %k_116 = arith.addi %k_104, %k_107 : i32 loc(#loc419)
    %k_117 = arith.constant 128 : i32 loc(#loc420)
    %k_118 = arith.constant 128 : i32 loc(#loc420)
    %k_119 = arith.extsi %k_116 : i32 to i64 loc(#loc420)
    %k_120 = arith.extsi %k_118 : i32 to i64 loc(#loc420)
    %k_121 = arith.muli %k_119, %k_120 : i64 loc(#loc420)
    %k_122 = arith.constant 2147483647 : i64 loc(#loc420)
    %k_123 = arith.constant -2147483648 : i64 loc(#loc420)
    %k_124 = arith.cmpi sle, %k_121, %k_122 : i64 loc(#loc420)
    %k_125 = arith.cmpi sge, %k_121, %k_123 : i64 loc(#loc420)
    %k_126 = arith.andi %k_124, %k_125 : i1 loc(#loc420)
    %k_127 = arith.muli %k_116, %k_118 : i32 loc(#loc420)
    %k_128 = tt.addptr %k, %k_127 : !tt.ptr<bf16>, i32 loc(#loc421)
    %A_129 = arith.constant 24 : i32 loc(#loc422)
    %A_130 = arith.constant 24 : i32 loc(#loc422)
    %A_131 = arith.extsi %24 : i32 to i64 loc(#loc422)
    %A_132 = arith.extsi %A_130 : i32 to i64 loc(#loc422)
    %A_133 = arith.muli %A_131, %A_132 : i64 loc(#loc422)
    %A_134 = arith.constant 2147483647 : i64 loc(#loc422)
    %A_135 = arith.constant -2147483648 : i64 loc(#loc422)
    %A_136 = arith.cmpi sle, %A_133, %A_134 : i64 loc(#loc422)
    %A_137 = arith.cmpi sge, %A_133, %A_135 : i64 loc(#loc422)
    %A_138 = arith.andi %A_136, %A_137 : i1 loc(#loc422)
    %A_139 = arith.muli %24, %A_130 : i32 loc(#loc422)
    %A_140 = arith.extsi %A_139 : i32 to i64 loc(#loc423)
    %A_141 = arith.extsi %3 : i32 to i64 loc(#loc423)
    %A_142 = arith.addi %A_140, %A_141 : i64 loc(#loc423)
    %A_143 = arith.constant 2147483647 : i64 loc(#loc423)
    %A_144 = arith.constant -2147483648 : i64 loc(#loc423)
    %A_145 = arith.cmpi sle, %A_142, %A_143 : i64 loc(#loc423)
    %A_146 = arith.cmpi sge, %A_142, %A_144 : i64 loc(#loc423)
    %A_147 = arith.andi %A_145, %A_146 : i1 loc(#loc423)
    %A_148 = arith.addi %A_139, %3 : i32 loc(#loc423)
    %A_149 = arith.constant 64 : i32 loc(#loc424)
    %A_150 = arith.constant 64 : i32 loc(#loc424)
    %A_151 = arith.extsi %A_148 : i32 to i64 loc(#loc424)
    %A_152 = arith.extsi %A_150 : i32 to i64 loc(#loc424)
    %A_153 = arith.muli %A_151, %A_152 : i64 loc(#loc424)
    %A_154 = arith.constant 2147483647 : i64 loc(#loc424)
    %A_155 = arith.constant -2147483648 : i64 loc(#loc424)
    %A_156 = arith.cmpi sle, %A_153, %A_154 : i64 loc(#loc424)
    %A_157 = arith.cmpi sge, %A_153, %A_155 : i64 loc(#loc424)
    %A_158 = arith.andi %A_156, %A_157 : i1 loc(#loc424)
    %A_159 = arith.muli %A_148, %A_150 : i32 loc(#loc424)
    %A_160 = tt.addptr %A, %A_159 : !tt.ptr<bf16>, i32 loc(#loc425)
    %o_i = tt.make_range {end = 16 : i32, start = 0 : i32} : tensor<16xi32> loc(#loc426)
    %m_tc0 = tt.splat %i_tc0_30 : i32 -> tensor<16xi32> loc(#loc427)
    %m_tc0_161 = arith.extsi %m_tc0 : tensor<16xi32> to tensor<16xi64> loc(#loc427)
    %m_tc0_162 = arith.extsi %o_i : tensor<16xi32> to tensor<16xi64> loc(#loc427)
    %m_tc0_163 = arith.addi %m_tc0_161, %m_tc0_162 : tensor<16xi64> loc(#loc427)
    %m_tc0_164 = arith.constant 2147483647 : i64 loc(#loc427)
    %m_tc0_165 = arith.constant -2147483648 : i64 loc(#loc427)
    %m_tc0_166 = arith.constant dense<2147483647> : tensor<16xi64> loc(#loc427)
    %m_tc0_167 = arith.cmpi sle, %m_tc0_163, %m_tc0_166 : tensor<16xi64> loc(#loc427)
    %m_tc0_168 = arith.constant dense<-2147483648> : tensor<16xi64> loc(#loc427)
    %m_tc0_169 = arith.cmpi sge, %m_tc0_163, %m_tc0_168 : tensor<16xi64> loc(#loc427)
    %m_tc0_170 = arith.andi %m_tc0_167, %m_tc0_169 : tensor<16xi1> loc(#loc427)
    %m_tc0_171 = arith.addi %m_tc0, %o_i : tensor<16xi32> loc(#loc427)
    %m_tc0_172 = tt.splat %T_17 : i32 -> tensor<16xi32> loc(#loc428)
    %m_tc0_173 = arith.cmpi slt, %m_tc0_171, %m_tc0_172 : tensor<16xi32> loc(#loc428)
    %m_tc1 = tt.splat %i_tc1_51 : i32 -> tensor<16xi32> loc(#loc429)
    %m_tc1_174 = arith.extsi %m_tc1 : tensor<16xi32> to tensor<16xi64> loc(#loc429)
    %m_tc1_175 = arith.extsi %o_i : tensor<16xi32> to tensor<16xi64> loc(#loc429)
    %m_tc1_176 = arith.addi %m_tc1_174, %m_tc1_175 : tensor<16xi64> loc(#loc429)
    %m_tc1_177 = arith.constant 2147483647 : i64 loc(#loc429)
    %m_tc1_178 = arith.constant -2147483648 : i64 loc(#loc429)
    %m_tc1_179 = arith.constant dense<2147483647> : tensor<16xi64> loc(#loc429)
    %m_tc1_180 = arith.cmpi sle, %m_tc1_176, %m_tc1_179 : tensor<16xi64> loc(#loc429)
    %m_tc1_181 = arith.constant dense<-2147483648> : tensor<16xi64> loc(#loc429)
    %m_tc1_182 = arith.cmpi sge, %m_tc1_176, %m_tc1_181 : tensor<16xi64> loc(#loc429)
    %m_tc1_183 = arith.andi %m_tc1_180, %m_tc1_182 : tensor<16xi1> loc(#loc429)
    %m_tc1_184 = arith.addi %m_tc1, %o_i : tensor<16xi32> loc(#loc429)
    %m_tc1_185 = tt.splat %T_17 : i32 -> tensor<16xi32> loc(#loc430)
    %m_tc1_186 = arith.cmpi slt, %m_tc1_184, %m_tc1_185 : tensor<16xi32> loc(#loc430)
    %m_tc2 = tt.splat %i_tc2_72 : i32 -> tensor<16xi32> loc(#loc431)
    %m_tc2_187 = arith.extsi %m_tc2 : tensor<16xi32> to tensor<16xi64> loc(#loc431)
    %m_tc2_188 = arith.extsi %o_i : tensor<16xi32> to tensor<16xi64> loc(#loc431)
    %m_tc2_189 = arith.addi %m_tc2_187, %m_tc2_188 : tensor<16xi64> loc(#loc431)
    %m_tc2_190 = arith.constant 2147483647 : i64 loc(#loc431)
    %m_tc2_191 = arith.constant -2147483648 : i64 loc(#loc431)
    %m_tc2_192 = arith.constant dense<2147483647> : tensor<16xi64> loc(#loc431)
    %m_tc2_193 = arith.cmpi sle, %m_tc2_189, %m_tc2_192 : tensor<16xi64> loc(#loc431)
    %m_tc2_194 = arith.constant dense<-2147483648> : tensor<16xi64> loc(#loc431)
    %m_tc2_195 = arith.cmpi sge, %m_tc2_189, %m_tc2_194 : tensor<16xi64> loc(#loc431)
    %m_tc2_196 = arith.andi %m_tc2_193, %m_tc2_195 : tensor<16xi1> loc(#loc431)
    %m_tc2_197 = arith.addi %m_tc2, %o_i : tensor<16xi32> loc(#loc431)
    %m_tc2_198 = tt.splat %T_17 : i32 -> tensor<16xi32> loc(#loc432)
    %m_tc2_199 = arith.cmpi slt, %m_tc2_197, %m_tc2_198 : tensor<16xi32> loc(#loc432)
    %m_tc3 = tt.splat %i_tc3_93 : i32 -> tensor<16xi32> loc(#loc433)
    %m_tc3_200 = arith.extsi %m_tc3 : tensor<16xi32> to tensor<16xi64> loc(#loc433)
    %m_tc3_201 = arith.extsi %o_i : tensor<16xi32> to tensor<16xi64> loc(#loc433)
    %m_tc3_202 = arith.addi %m_tc3_200, %m_tc3_201 : tensor<16xi64> loc(#loc433)
    %m_tc3_203 = arith.constant 2147483647 : i64 loc(#loc433)
    %m_tc3_204 = arith.constant -2147483648 : i64 loc(#loc433)
    %m_tc3_205 = arith.constant dense<2147483647> : tensor<16xi64> loc(#loc433)
    %m_tc3_206 = arith.cmpi sle, %m_tc3_202, %m_tc3_205 : tensor<16xi64> loc(#loc433)
    %m_tc3_207 = arith.constant dense<-2147483648> : tensor<16xi64> loc(#loc433)
    %m_tc3_208 = arith.cmpi sge, %m_tc3_202, %m_tc3_207 : tensor<16xi64> loc(#loc433)
    %m_tc3_209 = arith.andi %m_tc3_206, %m_tc3_208 : tensor<16xi1> loc(#loc433)
    %m_tc3_210 = arith.addi %m_tc3, %o_i : tensor<16xi32> loc(#loc433)
    %m_tc3_211 = tt.splat %T_17 : i32 -> tensor<16xi32> loc(#loc434)
    %m_tc3_212 = arith.cmpi slt, %m_tc3_210, %m_tc3_211 : tensor<16xi32> loc(#loc434)
    %p_b0 = arith.constant 24 : i32 loc(#loc435)
    %p_b0_213 = arith.constant 24 : i32 loc(#loc435)
    %p_b0_214 = arith.extsi %24 : i32 to i64 loc(#loc435)
    %p_b0_215 = arith.extsi %p_b0_213 : i32 to i64 loc(#loc435)
    %p_b0_216 = arith.muli %p_b0_214, %p_b0_215 : i64 loc(#loc435)
    %p_b0_217 = arith.constant 2147483647 : i64 loc(#loc435)
    %p_b0_218 = arith.constant -2147483648 : i64 loc(#loc435)
    %p_b0_219 = arith.cmpi sle, %p_b0_216, %p_b0_217 : i64 loc(#loc435)
    %p_b0_220 = arith.cmpi sge, %p_b0_216, %p_b0_218 : i64 loc(#loc435)
    %p_b0_221 = arith.andi %p_b0_219, %p_b0_220 : i1 loc(#loc435)
    %p_b0_222 = arith.muli %24, %p_b0_213 : i32 loc(#loc435)
    %p_b0_223 = tt.addptr %beta, %p_b0_222 : !tt.ptr<f32>, i32 loc(#loc436)
    %p_b0_224 = tt.addptr %p_b0_223, %3 : !tt.ptr<f32>, i32 loc(#loc437)
    %p_b0_225 = arith.extsi %T_17 : i32 to i64 loc(#loc438)
    %p_b0_226 = arith.constant 24 : i64 loc(#loc438)
    %p_b0_227 = tt.make_tensor_ptr %p_b0_224, [%p_b0_225], [%p_b0_226], [%i_tc0_30] {order = array<i32: 0>} : <tensor<16xf32>> loc(#loc438)
    %p_b1 = arith.constant 24 : i32 loc(#loc439)
    %p_b1_228 = arith.constant 24 : i32 loc(#loc439)
    %p_b1_229 = arith.extsi %24 : i32 to i64 loc(#loc439)
    %p_b1_230 = arith.extsi %p_b1_228 : i32 to i64 loc(#loc439)
    %p_b1_231 = arith.muli %p_b1_229, %p_b1_230 : i64 loc(#loc439)
    %p_b1_232 = arith.constant 2147483647 : i64 loc(#loc439)
    %p_b1_233 = arith.constant -2147483648 : i64 loc(#loc439)
    %p_b1_234 = arith.cmpi sle, %p_b1_231, %p_b1_232 : i64 loc(#loc439)
    %p_b1_235 = arith.cmpi sge, %p_b1_231, %p_b1_233 : i64 loc(#loc439)
    %p_b1_236 = arith.andi %p_b1_234, %p_b1_235 : i1 loc(#loc439)
    %p_b1_237 = arith.muli %24, %p_b1_228 : i32 loc(#loc439)
    %p_b1_238 = tt.addptr %beta, %p_b1_237 : !tt.ptr<f32>, i32 loc(#loc440)
    %p_b1_239 = tt.addptr %p_b1_238, %3 : !tt.ptr<f32>, i32 loc(#loc441)
    %p_b1_240 = arith.extsi %T_17 : i32 to i64 loc(#loc442)
    %p_b1_241 = arith.constant 24 : i64 loc(#loc442)
    %p_b1_242 = tt.make_tensor_ptr %p_b1_239, [%p_b1_240], [%p_b1_241], [%i_tc1_51] {order = array<i32: 0>} : <tensor<16xf32>> loc(#loc442)
    %p_b2 = arith.constant 24 : i32 loc(#loc443)
    %p_b2_243 = arith.constant 24 : i32 loc(#loc443)
    %p_b2_244 = arith.extsi %24 : i32 to i64 loc(#loc443)
    %p_b2_245 = arith.extsi %p_b2_243 : i32 to i64 loc(#loc443)
    %p_b2_246 = arith.muli %p_b2_244, %p_b2_245 : i64 loc(#loc443)
    %p_b2_247 = arith.constant 2147483647 : i64 loc(#loc443)
    %p_b2_248 = arith.constant -2147483648 : i64 loc(#loc443)
    %p_b2_249 = arith.cmpi sle, %p_b2_246, %p_b2_247 : i64 loc(#loc443)
    %p_b2_250 = arith.cmpi sge, %p_b2_246, %p_b2_248 : i64 loc(#loc443)
    %p_b2_251 = arith.andi %p_b2_249, %p_b2_250 : i1 loc(#loc443)
    %p_b2_252 = arith.muli %24, %p_b2_243 : i32 loc(#loc443)
    %p_b2_253 = tt.addptr %beta, %p_b2_252 : !tt.ptr<f32>, i32 loc(#loc444)
    %p_b2_254 = tt.addptr %p_b2_253, %3 : !tt.ptr<f32>, i32 loc(#loc445)
    %p_b2_255 = arith.extsi %T_17 : i32 to i64 loc(#loc446)
    %p_b2_256 = arith.constant 24 : i64 loc(#loc446)
    %p_b2_257 = tt.make_tensor_ptr %p_b2_254, [%p_b2_255], [%p_b2_256], [%i_tc2_72] {order = array<i32: 0>} : <tensor<16xf32>> loc(#loc446)
    %p_b3 = arith.constant 24 : i32 loc(#loc447)
    %p_b3_258 = arith.constant 24 : i32 loc(#loc447)
    %p_b3_259 = arith.extsi %24 : i32 to i64 loc(#loc447)
    %p_b3_260 = arith.extsi %p_b3_258 : i32 to i64 loc(#loc447)
    %p_b3_261 = arith.muli %p_b3_259, %p_b3_260 : i64 loc(#loc447)
    %p_b3_262 = arith.constant 2147483647 : i64 loc(#loc447)
    %p_b3_263 = arith.constant -2147483648 : i64 loc(#loc447)
    %p_b3_264 = arith.cmpi sle, %p_b3_261, %p_b3_262 : i64 loc(#loc447)
    %p_b3_265 = arith.cmpi sge, %p_b3_261, %p_b3_263 : i64 loc(#loc447)
    %p_b3_266 = arith.andi %p_b3_264, %p_b3_265 : i1 loc(#loc447)
    %p_b3_267 = arith.muli %24, %p_b3_258 : i32 loc(#loc447)
    %p_b3_268 = tt.addptr %beta, %p_b3_267 : !tt.ptr<f32>, i32 loc(#loc448)
    %p_b3_269 = tt.addptr %p_b3_268, %3 : !tt.ptr<f32>, i32 loc(#loc449)
    %p_b3_270 = arith.extsi %T_17 : i32 to i64 loc(#loc450)
    %p_b3_271 = arith.constant 24 : i64 loc(#loc450)
    %p_b3_272 = tt.make_tensor_ptr %p_b3_269, [%p_b3_270], [%p_b3_271], [%i_tc3_93] {order = array<i32: 0>} : <tensor<16xf32>> loc(#loc450)
    %b_b0 = tt.load %p_b0_227 {boundaryCheck = array<i32: 0>} : !tt.ptr<tensor<16xf32>> loc(#loc451)
    %b_b1 = tt.load %p_b1_242 {boundaryCheck = array<i32: 0>} : !tt.ptr<tensor<16xf32>> loc(#loc452)
    %b_b2 = tt.load %p_b2_257 {boundaryCheck = array<i32: 0>} : !tt.ptr<tensor<16xf32>> loc(#loc453)
    %b_b3 = tt.load %p_b3_272 {boundaryCheck = array<i32: 0>} : !tt.ptr<tensor<16xf32>> loc(#loc454)
    %p_g0 = arith.constant 24 : i32 loc(#loc455)
    %p_g0_273 = arith.constant 24 : i32 loc(#loc455)
    %p_g0_274 = arith.extsi %24 : i32 to i64 loc(#loc455)
    %p_g0_275 = arith.extsi %p_g0_273 : i32 to i64 loc(#loc455)
    %p_g0_276 = arith.muli %p_g0_274, %p_g0_275 : i64 loc(#loc455)
    %p_g0_277 = arith.constant 2147483647 : i64 loc(#loc455)
    %p_g0_278 = arith.constant -2147483648 : i64 loc(#loc455)
    %p_g0_279 = arith.cmpi sle, %p_g0_276, %p_g0_277 : i64 loc(#loc455)
    %p_g0_280 = arith.cmpi sge, %p_g0_276, %p_g0_278 : i64 loc(#loc455)
    %p_g0_281 = arith.andi %p_g0_279, %p_g0_280 : i1 loc(#loc455)
    %p_g0_282 = arith.muli %24, %p_g0_273 : i32 loc(#loc455)
    %p_g0_283 = tt.addptr %g, %p_g0_282 : !tt.ptr<f32>, i32 loc(#loc456)
    %p_g0_284 = tt.addptr %p_g0_283, %3 : !tt.ptr<f32>, i32 loc(#loc457)
    %p_g0_285 = arith.extsi %T_17 : i32 to i64 loc(#loc458)
    %p_g0_286 = arith.constant 24 : i64 loc(#loc458)
    %p_g0_287 = tt.make_tensor_ptr %p_g0_284, [%p_g0_285], [%p_g0_286], [%i_tc0_30] {order = array<i32: 0>} : <tensor<16xf32>> loc(#loc458)
    %p_g1 = arith.constant 24 : i32 loc(#loc459)
    %p_g1_288 = arith.constant 24 : i32 loc(#loc459)
    %p_g1_289 = arith.extsi %24 : i32 to i64 loc(#loc459)
    %p_g1_290 = arith.extsi %p_g1_288 : i32 to i64 loc(#loc459)
    %p_g1_291 = arith.muli %p_g1_289, %p_g1_290 : i64 loc(#loc459)
    %p_g1_292 = arith.constant 2147483647 : i64 loc(#loc459)
    %p_g1_293 = arith.constant -2147483648 : i64 loc(#loc459)
    %p_g1_294 = arith.cmpi sle, %p_g1_291, %p_g1_292 : i64 loc(#loc459)
    %p_g1_295 = arith.cmpi sge, %p_g1_291, %p_g1_293 : i64 loc(#loc459)
    %p_g1_296 = arith.andi %p_g1_294, %p_g1_295 : i1 loc(#loc459)
    %p_g1_297 = arith.muli %24, %p_g1_288 : i32 loc(#loc459)
    %p_g1_298 = tt.addptr %g, %p_g1_297 : !tt.ptr<f32>, i32 loc(#loc460)
    %p_g1_299 = tt.addptr %p_g1_298, %3 : !tt.ptr<f32>, i32 loc(#loc461)
    %p_g1_300 = arith.extsi %T_17 : i32 to i64 loc(#loc462)
    %p_g1_301 = arith.constant 24 : i64 loc(#loc462)
    %p_g1_302 = tt.make_tensor_ptr %p_g1_299, [%p_g1_300], [%p_g1_301], [%i_tc1_51] {order = array<i32: 0>} : <tensor<16xf32>> loc(#loc462)
    %p_g2 = arith.constant 24 : i32 loc(#loc463)
    %p_g2_303 = arith.constant 24 : i32 loc(#loc463)
    %p_g2_304 = arith.extsi %24 : i32 to i64 loc(#loc463)
    %p_g2_305 = arith.extsi %p_g2_303 : i32 to i64 loc(#loc463)
    %p_g2_306 = arith.muli %p_g2_304, %p_g2_305 : i64 loc(#loc463)
    %p_g2_307 = arith.constant 2147483647 : i64 loc(#loc463)
    %p_g2_308 = arith.constant -2147483648 : i64 loc(#loc463)
    %p_g2_309 = arith.cmpi sle, %p_g2_306, %p_g2_307 : i64 loc(#loc463)
    %p_g2_310 = arith.cmpi sge, %p_g2_306, %p_g2_308 : i64 loc(#loc463)
    %p_g2_311 = arith.andi %p_g2_309, %p_g2_310 : i1 loc(#loc463)
    %p_g2_312 = arith.muli %24, %p_g2_303 : i32 loc(#loc463)
    %p_g2_313 = tt.addptr %g, %p_g2_312 : !tt.ptr<f32>, i32 loc(#loc464)
    %p_g2_314 = tt.addptr %p_g2_313, %3 : !tt.ptr<f32>, i32 loc(#loc465)
    %p_g2_315 = arith.extsi %T_17 : i32 to i64 loc(#loc466)
    %p_g2_316 = arith.constant 24 : i64 loc(#loc466)
    %p_g2_317 = tt.make_tensor_ptr %p_g2_314, [%p_g2_315], [%p_g2_316], [%i_tc2_72] {order = array<i32: 0>} : <tensor<16xf32>> loc(#loc466)
    %p_g3 = arith.constant 24 : i32 loc(#loc467)
    %p_g3_318 = arith.constant 24 : i32 loc(#loc467)
    %p_g3_319 = arith.extsi %24 : i32 to i64 loc(#loc467)
    %p_g3_320 = arith.extsi %p_g3_318 : i32 to i64 loc(#loc467)
    %p_g3_321 = arith.muli %p_g3_319, %p_g3_320 : i64 loc(#loc467)
    %p_g3_322 = arith.constant 2147483647 : i64 loc(#loc467)
    %p_g3_323 = arith.constant -2147483648 : i64 loc(#loc467)
    %p_g3_324 = arith.cmpi sle, %p_g3_321, %p_g3_322 : i64 loc(#loc467)
    %p_g3_325 = arith.cmpi sge, %p_g3_321, %p_g3_323 : i64 loc(#loc467)
    %p_g3_326 = arith.andi %p_g3_324, %p_g3_325 : i1 loc(#loc467)
    %p_g3_327 = arith.muli %24, %p_g3_318 : i32 loc(#loc467)
    %p_g3_328 = tt.addptr %g, %p_g3_327 : !tt.ptr<f32>, i32 loc(#loc468)
    %p_g3_329 = tt.addptr %p_g3_328, %3 : !tt.ptr<f32>, i32 loc(#loc469)
    %p_g3_330 = arith.extsi %T_17 : i32 to i64 loc(#loc470)
    %p_g3_331 = arith.constant 24 : i64 loc(#loc470)
    %p_g3_332 = tt.make_tensor_ptr %p_g3_329, [%p_g3_330], [%p_g3_331], [%i_tc3_93] {order = array<i32: 0>} : <tensor<16xf32>> loc(#loc470)
    %b_g0 = tt.load %p_g0_287 {boundaryCheck = array<i32: 0>} : !tt.ptr<tensor<16xf32>> loc(#loc471)
    %b_g1 = tt.load %p_g1_302 {boundaryCheck = array<i32: 0>} : !tt.ptr<tensor<16xf32>> loc(#loc472)
    %b_g2 = tt.load %p_g2_317 {boundaryCheck = array<i32: 0>} : !tt.ptr<tensor<16xf32>> loc(#loc473)
    %b_g3 = tt.load %p_g3_332 {boundaryCheck = array<i32: 0>} : !tt.ptr<tensor<16xf32>> loc(#loc474)
    %b_A00 = tt.call @"triton.language.standard.zeros____(0, 0)cconstexpr_16__(0, 1)cconstexpr_16__(1,)cconstexpr_fp32_"() : () -> tensor<16x16xf32> loc(#loc475)
    %b_A11 = tt.call @"triton.language.standard.zeros____(0, 0)cconstexpr_16__(0, 1)cconstexpr_16__(1,)cconstexpr_fp32_"() : () -> tensor<16x16xf32> loc(#loc734)
    %b_A22 = tt.call @"triton.language.standard.zeros____(0, 0)cconstexpr_16__(0, 1)cconstexpr_16__(1,)cconstexpr_fp32_"() : () -> tensor<16x16xf32> loc(#loc755)
    %b_A33 = tt.call @"triton.language.standard.zeros____(0, 0)cconstexpr_16__(0, 1)cconstexpr_16__(1,)cconstexpr_fp32_"() : () -> tensor<16x16xf32> loc(#loc765)
    %b_A10 = tt.call @"triton.language.standard.zeros____(0, 0)cconstexpr_16__(0, 1)cconstexpr_16__(1,)cconstexpr_fp32_"() : () -> tensor<16x16xf32> loc(#loc737)
    %b_A20 = tt.call @"triton.language.standard.zeros____(0, 0)cconstexpr_16__(0, 1)cconstexpr_16__(1,)cconstexpr_fp32_"() : () -> tensor<16x16xf32> loc(#loc757)
    %b_A21 = tt.call @"triton.language.standard.zeros____(0, 0)cconstexpr_16__(0, 1)cconstexpr_16__(1,)cconstexpr_fp32_"() : () -> tensor<16x16xf32> loc(#loc758)
    %b_A30 = tt.call @"triton.language.standard.zeros____(0, 0)cconstexpr_16__(0, 1)cconstexpr_16__(1,)cconstexpr_fp32_"() : () -> tensor<16x16xf32> loc(#loc766)
    %b_A31 = tt.call @"triton.language.standard.zeros____(0, 0)cconstexpr_16__(0, 1)cconstexpr_16__(1,)cconstexpr_fp32_"() : () -> tensor<16x16xf32> loc(#loc767)
    %b_A32 = tt.call @"triton.language.standard.zeros____(0, 0)cconstexpr_16__(0, 1)cconstexpr_16__(1,)cconstexpr_fp32_"() : () -> tensor<16x16xf32> loc(#loc768)
    %36 = tt.call @"triton.language.standard.cdiv____(0,)cconstexpr_128__(1,)cconstexpr_64_"() : () -> i32 loc(#loc97)
    %37 = tt.call @"triton.language.standard.cdiv____(0,)cconstexpr_128__(1,)cconstexpr_64_"() : () -> i32 loc(#loc97)
    %c0_i32 = arith.constant 0 : i32 loc(#loc98)
    %c1_i32_333 = arith.constant 1 : i32 loc(#loc98)
    %38 = arith.bitcast %c0_i32 : i32 to i32 loc(#loc98)
    %39 = arith.bitcast %37 : i32 to i32 loc(#loc98)
    %40 = arith.bitcast %c1_i32_333 : i32 to i32 loc(#loc98)
    %41 = ub.poison : i32 loc(#loc98)
    %b_A32_334:10 = scf.for %i_k = %38 to %39 step %40 iter_args(%b_A00_636 = %b_A00, %b_A11_637 = %b_A11, %b_A22_638 = %b_A22, %b_A33_639 = %b_A33, %b_A10_640 = %b_A10, %b_A20_641 = %b_A20, %b_A21_642 = %b_A21, %b_A30_643 = %b_A30, %b_A31_644 = %b_A31, %b_A32_645 = %b_A32) -> (tensor<16x16xf32>, tensor<16x16xf32>, tensor<16x16xf32>, tensor<16x16xf32>, tensor<16x16xf32>, tensor<16x16xf32>, tensor<16x16xf32>, tensor<16x16xf32>, tensor<16x16xf32>, tensor<16x16xf32>)  : i32 {
      %p_k0 = arith.constant 64 : i32 loc(#loc486)
      %p_k0_646 = arith.constant 64 : i32 loc(#loc486)
      %p_k0_647 = arith.extsi %i_k : i32 to i64 loc(#loc486)
      %p_k0_648 = arith.extsi %p_k0_646 : i32 to i64 loc(#loc486)
      %p_k0_649 = arith.muli %p_k0_647, %p_k0_648 : i64 loc(#loc486)
      %p_k0_650 = arith.constant 2147483647 : i64 loc(#loc486)
      %p_k0_651 = arith.constant -2147483648 : i64 loc(#loc486)
      %p_k0_652 = arith.cmpi sle, %p_k0_649, %p_k0_650 : i64 loc(#loc486)
      %p_k0_653 = arith.cmpi sge, %p_k0_649, %p_k0_651 : i64 loc(#loc486)
      %p_k0_654 = arith.andi %p_k0_652, %p_k0_653 : i1 loc(#loc486)
      %p_k0_655 = arith.muli %i_k, %p_k0_646 : i32 loc(#loc486)
      %p_k0_656 = arith.extsi %T_17 : i32 to i64 loc(#loc487)
      %p_k0_657 = arith.constant 128 : i64 loc(#loc487)
      %p_k0_658 = arith.constant 1024 : i64 loc(#loc487)
      %p_k0_659 = arith.constant 1 : i64 loc(#loc487)
      %p_k0_660 = tt.make_tensor_ptr %k_128, [%p_k0_656, %p_k0_657], [%p_k0_658, %p_k0_659], [%i_tc0_30, %p_k0_655] {order = array<i32: 1, 0>} : <tensor<16x64xbf16>> loc(#loc487)
      %b_k0 = tt.load %p_k0_660 {boundaryCheck = array<i32: 0, 1>} : !tt.ptr<tensor<16x64xbf16>> loc(#loc488)
      %b_A00_661 = tt.trans %b_k0 {order = array<i32: 1, 0>} : tensor<16x64xbf16> -> tensor<64x16xbf16> loc(#loc489)
      %b_A00_662 = arith.constant 0.000000e+00 : f32 loc(#loc490)
      %b_A00_663 = arith.constant dense<0.000000e+00> : tensor<16x16xf32> loc(#loc490)
      %b_A00_664 = tt.dot %b_k0, %b_A00_661, %b_A00_663, inputPrecision = tf32 : tensor<16x64xbf16> * tensor<64x16xbf16> -> tensor<16x16xf32> loc(#loc490)
      %b_A00_665 = arith.addf %b_A00_636, %b_A00_664 : tensor<16x16xf32> loc(#loc491)
      %100 = arith.cmpi slt, %i_tc1_51, %T_17 : i32 loc(#loc105)
      %101:9 = scf.if %100 -> (tensor<16x16xf32>, tensor<16x16xf32>, tensor<16x16xf32>, tensor<16x16xf32>, tensor<16x16xf32>, tensor<16x16xf32>, tensor<16x16xf32>, tensor<16x16xf32>, tensor<16x16xf32>) {
        %p_k1 = arith.constant 64 : i32 loc(#loc492)
        %p_k1_666 = arith.constant 64 : i32 loc(#loc492)
        %p_k1_667 = arith.extsi %i_k : i32 to i64 loc(#loc492)
        %p_k1_668 = arith.extsi %p_k1_666 : i32 to i64 loc(#loc492)
        %p_k1_669 = arith.muli %p_k1_667, %p_k1_668 : i64 loc(#loc492)
        %p_k1_670 = arith.constant 2147483647 : i64 loc(#loc492)
        %p_k1_671 = arith.constant -2147483648 : i64 loc(#loc492)
        %p_k1_672 = arith.cmpi sle, %p_k1_669, %p_k1_670 : i64 loc(#loc492)
        %p_k1_673 = arith.cmpi sge, %p_k1_669, %p_k1_671 : i64 loc(#loc492)
        %p_k1_674 = arith.andi %p_k1_672, %p_k1_673 : i1 loc(#loc492)
        %p_k1_675 = arith.muli %i_k, %p_k1_666 : i32 loc(#loc492)
        %p_k1_676 = arith.extsi %T_17 : i32 to i64 loc(#loc493)
        %p_k1_677 = arith.constant 128 : i64 loc(#loc493)
        %p_k1_678 = arith.constant 1024 : i64 loc(#loc493)
        %p_k1_679 = arith.constant 1 : i64 loc(#loc493)
        %p_k1_680 = tt.make_tensor_ptr %k_128, [%p_k1_676, %p_k1_677], [%p_k1_678, %p_k1_679], [%i_tc1_51, %p_k1_675] {order = array<i32: 1, 0>} : <tensor<16x64xbf16>> loc(#loc493)
        %b_k1 = tt.load %p_k1_680 {boundaryCheck = array<i32: 0, 1>} : !tt.ptr<tensor<16x64xbf16>> loc(#loc494)
        %b_A11_681 = tt.trans %b_k1 {order = array<i32: 1, 0>} : tensor<16x64xbf16> -> tensor<64x16xbf16> loc(#loc495)
        %b_A11_682 = arith.constant 0.000000e+00 : f32 loc(#loc496)
        %b_A11_683 = arith.constant dense<0.000000e+00> : tensor<16x16xf32> loc(#loc496)
        %b_A11_684 = tt.dot %b_k1, %b_A11_681, %b_A11_683, inputPrecision = tf32 : tensor<16x64xbf16> * tensor<64x16xbf16> -> tensor<16x16xf32> loc(#loc496)
        %b_A11_685 = arith.addf %b_A11_637, %b_A11_684 : tensor<16x16xf32> loc(#loc744)
        %b_A10_686 = tt.trans %b_k0 {order = array<i32: 1, 0>} : tensor<16x64xbf16> -> tensor<64x16xbf16> loc(#loc498)
        %b_A10_687 = arith.constant 0.000000e+00 : f32 loc(#loc499)
        %b_A10_688 = arith.constant dense<0.000000e+00> : tensor<16x16xf32> loc(#loc499)
        %b_A10_689 = tt.dot %b_k1, %b_A10_686, %b_A10_688, inputPrecision = tf32 : tensor<16x64xbf16> * tensor<64x16xbf16> -> tensor<16x16xf32> loc(#loc499)
        %b_A10_690 = arith.addf %b_A10_640, %b_A10_689 : tensor<16x16xf32> loc(#loc745)
        %102 = arith.cmpi slt, %i_tc2_72, %T_17 : i32 loc(#loc116)
        %b_A32_691:7 = scf.if %102 -> (tensor<16x16xf32>, tensor<16x16xf32>, tensor<16x16xf32>, tensor<16x16xf32>, tensor<16x16xf32>, tensor<16x16xf32>, tensor<16x16xf32>) {
          %p_k2 = arith.constant 64 : i32 loc(#loc502)
          %p_k2_692 = arith.constant 64 : i32 loc(#loc502)
          %p_k2_693 = arith.extsi %i_k : i32 to i64 loc(#loc502)
          %p_k2_694 = arith.extsi %p_k2_692 : i32 to i64 loc(#loc502)
          %p_k2_695 = arith.muli %p_k2_693, %p_k2_694 : i64 loc(#loc502)
          %p_k2_696 = arith.constant 2147483647 : i64 loc(#loc502)
          %p_k2_697 = arith.constant -2147483648 : i64 loc(#loc502)
          %p_k2_698 = arith.cmpi sle, %p_k2_695, %p_k2_696 : i64 loc(#loc502)
          %p_k2_699 = arith.cmpi sge, %p_k2_695, %p_k2_697 : i64 loc(#loc502)
          %p_k2_700 = arith.andi %p_k2_698, %p_k2_699 : i1 loc(#loc502)
          %p_k2_701 = arith.muli %i_k, %p_k2_692 : i32 loc(#loc502)
          %p_k2_702 = arith.extsi %T_17 : i32 to i64 loc(#loc503)
          %p_k2_703 = arith.constant 128 : i64 loc(#loc503)
          %p_k2_704 = arith.constant 1024 : i64 loc(#loc503)
          %p_k2_705 = arith.constant 1 : i64 loc(#loc503)
          %p_k2_706 = tt.make_tensor_ptr %k_128, [%p_k2_702, %p_k2_703], [%p_k2_704, %p_k2_705], [%i_tc2_72, %p_k2_701] {order = array<i32: 1, 0>} : <tensor<16x64xbf16>> loc(#loc503)
          %b_k2 = tt.load %p_k2_706 {boundaryCheck = array<i32: 0, 1>} : !tt.ptr<tensor<16x64xbf16>> loc(#loc504)
          %b_A22_707 = tt.trans %b_k2 {order = array<i32: 1, 0>} : tensor<16x64xbf16> -> tensor<64x16xbf16> loc(#loc505)
          %b_A22_708 = arith.constant 0.000000e+00 : f32 loc(#loc506)
          %b_A22_709 = arith.constant dense<0.000000e+00> : tensor<16x16xf32> loc(#loc506)
          %b_A22_710 = tt.dot %b_k2, %b_A22_707, %b_A22_709, inputPrecision = tf32 : tensor<16x64xbf16> * tensor<64x16xbf16> -> tensor<16x16xf32> loc(#loc506)
          %b_A22_711 = arith.addf %b_A22_638, %b_A22_710 : tensor<16x16xf32> loc(#loc747)
          %b_A20_712 = tt.trans %b_k0 {order = array<i32: 1, 0>} : tensor<16x64xbf16> -> tensor<64x16xbf16> loc(#loc508)
          %b_A20_713 = arith.constant 0.000000e+00 : f32 loc(#loc509)
          %b_A20_714 = arith.constant dense<0.000000e+00> : tensor<16x16xf32> loc(#loc509)
          %b_A20_715 = tt.dot %b_k2, %b_A20_712, %b_A20_714, inputPrecision = tf32 : tensor<16x64xbf16> * tensor<64x16xbf16> -> tensor<16x16xf32> loc(#loc509)
          %b_A20_716 = arith.addf %b_A20_641, %b_A20_715 : tensor<16x16xf32> loc(#loc748)
          %b_A21_717 = tt.trans %b_k1 {order = array<i32: 1, 0>} : tensor<16x64xbf16> -> tensor<64x16xbf16> loc(#loc511)
          %b_A21_718 = arith.constant 0.000000e+00 : f32 loc(#loc512)
          %b_A21_719 = arith.constant dense<0.000000e+00> : tensor<16x16xf32> loc(#loc512)
          %b_A21_720 = tt.dot %b_k2, %b_A21_717, %b_A21_719, inputPrecision = tf32 : tensor<16x64xbf16> * tensor<64x16xbf16> -> tensor<16x16xf32> loc(#loc512)
          %b_A21_721 = arith.addf %b_A21_642, %b_A21_720 : tensor<16x16xf32> loc(#loc749)
          %103 = arith.cmpi slt, %i_tc3_93, %T_17 : i32 loc(#loc130)
          %b_A32_722:4 = scf.if %103 -> (tensor<16x16xf32>, tensor<16x16xf32>, tensor<16x16xf32>, tensor<16x16xf32>) {
            %p_k3 = arith.constant 64 : i32 loc(#loc515)
            %p_k3_723 = arith.constant 64 : i32 loc(#loc515)
            %p_k3_724 = arith.extsi %i_k : i32 to i64 loc(#loc515)
            %p_k3_725 = arith.extsi %p_k3_723 : i32 to i64 loc(#loc515)
            %p_k3_726 = arith.muli %p_k3_724, %p_k3_725 : i64 loc(#loc515)
            %p_k3_727 = arith.constant 2147483647 : i64 loc(#loc515)
            %p_k3_728 = arith.constant -2147483648 : i64 loc(#loc515)
            %p_k3_729 = arith.cmpi sle, %p_k3_726, %p_k3_727 : i64 loc(#loc515)
            %p_k3_730 = arith.cmpi sge, %p_k3_726, %p_k3_728 : i64 loc(#loc515)
            %p_k3_731 = arith.andi %p_k3_729, %p_k3_730 : i1 loc(#loc515)
            %p_k3_732 = arith.muli %i_k, %p_k3_723 : i32 loc(#loc515)
            %p_k3_733 = arith.extsi %T_17 : i32 to i64 loc(#loc516)
            %p_k3_734 = arith.constant 128 : i64 loc(#loc516)
            %p_k3_735 = arith.constant 1024 : i64 loc(#loc516)
            %p_k3_736 = arith.constant 1 : i64 loc(#loc516)
            %p_k3_737 = tt.make_tensor_ptr %k_128, [%p_k3_733, %p_k3_734], [%p_k3_735, %p_k3_736], [%i_tc3_93, %p_k3_732] {order = array<i32: 1, 0>} : <tensor<16x64xbf16>> loc(#loc516)
            %b_k3 = tt.load %p_k3_737 {boundaryCheck = array<i32: 0, 1>} : !tt.ptr<tensor<16x64xbf16>> loc(#loc517)
            %b_A33_738 = tt.trans %b_k3 {order = array<i32: 1, 0>} : tensor<16x64xbf16> -> tensor<64x16xbf16> loc(#loc518)
            %b_A33_739 = arith.constant 0.000000e+00 : f32 loc(#loc519)
            %b_A33_740 = arith.constant dense<0.000000e+00> : tensor<16x16xf32> loc(#loc519)
            %b_A33_741 = tt.dot %b_k3, %b_A33_738, %b_A33_740, inputPrecision = tf32 : tensor<16x64xbf16> * tensor<64x16xbf16> -> tensor<16x16xf32> loc(#loc519)
            %b_A33_742 = arith.addf %b_A33_639, %b_A33_741 : tensor<16x16xf32> loc(#loc751)
            %b_A30_743 = tt.trans %b_k0 {order = array<i32: 1, 0>} : tensor<16x64xbf16> -> tensor<64x16xbf16> loc(#loc521)
            %b_A30_744 = arith.constant 0.000000e+00 : f32 loc(#loc522)
            %b_A30_745 = arith.constant dense<0.000000e+00> : tensor<16x16xf32> loc(#loc522)
            %b_A30_746 = tt.dot %b_k3, %b_A30_743, %b_A30_745, inputPrecision = tf32 : tensor<16x64xbf16> * tensor<64x16xbf16> -> tensor<16x16xf32> loc(#loc522)
            %b_A30_747 = arith.addf %b_A30_643, %b_A30_746 : tensor<16x16xf32> loc(#loc752)
            %b_A31_748 = tt.trans %b_k1 {order = array<i32: 1, 0>} : tensor<16x64xbf16> -> tensor<64x16xbf16> loc(#loc524)
            %b_A31_749 = arith.constant 0.000000e+00 : f32 loc(#loc525)
            %b_A31_750 = arith.constant dense<0.000000e+00> : tensor<16x16xf32> loc(#loc525)
            %b_A31_751 = tt.dot %b_k3, %b_A31_748, %b_A31_750, inputPrecision = tf32 : tensor<16x64xbf16> * tensor<64x16xbf16> -> tensor<16x16xf32> loc(#loc525)
            %b_A31_752 = arith.addf %b_A31_644, %b_A31_751 : tensor<16x16xf32> loc(#loc753)
            %b_A32_753 = tt.trans %b_k2 {order = array<i32: 1, 0>} : tensor<16x64xbf16> -> tensor<64x16xbf16> loc(#loc527)
            %b_A32_754 = arith.constant 0.000000e+00 : f32 loc(#loc528)
            %b_A32_755 = arith.constant dense<0.000000e+00> : tensor<16x16xf32> loc(#loc528)
            %b_A32_756 = tt.dot %b_k3, %b_A32_753, %b_A32_755, inputPrecision = tf32 : tensor<16x64xbf16> * tensor<64x16xbf16> -> tensor<16x16xf32> loc(#loc528)
            %b_A32_757 = arith.addf %b_A32_645, %b_A32_756 : tensor<16x16xf32> loc(#loc754)
            scf.yield %b_A33_742, %b_A30_747, %b_A31_752, %b_A32_757 : tensor<16x16xf32>, tensor<16x16xf32>, tensor<16x16xf32>, tensor<16x16xf32> loc(#loc754)
          } else {
            scf.yield %b_A33_639, %b_A30_643, %b_A31_644, %b_A32_645 : tensor<16x16xf32>, tensor<16x16xf32>, tensor<16x16xf32>, tensor<16x16xf32> loc(#loc21)
          } loc(#loc771)
          scf.yield %b_A22_711, %b_A32_722#0, %b_A20_716, %b_A21_721, %b_A32_722#1, %b_A32_722#2, %b_A32_722#3 : tensor<16x16xf32>, tensor<16x16xf32>, tensor<16x16xf32>, tensor<16x16xf32>, tensor<16x16xf32>, tensor<16x16xf32>, tensor<16x16xf32> loc(#loc771)
        } else {
          scf.yield %b_A22_638, %b_A33_639, %b_A20_641, %b_A21_642, %b_A30_643, %b_A31_644, %b_A32_645 : tensor<16x16xf32>, tensor<16x16xf32>, tensor<16x16xf32>, tensor<16x16xf32>, tensor<16x16xf32>, tensor<16x16xf32>, tensor<16x16xf32> loc(#loc21)
        } loc(#loc777)
        scf.yield %b_A11_685, %b_A32_691#0, %b_A32_691#1, %b_A10_690, %b_A32_691#2, %b_A32_691#3, %b_A32_691#4, %b_A32_691#5, %b_A32_691#6 : tensor<16x16xf32>, tensor<16x16xf32>, tensor<16x16xf32>, tensor<16x16xf32>, tensor<16x16xf32>, tensor<16x16xf32>, tensor<16x16xf32>, tensor<16x16xf32>, tensor<16x16xf32> loc(#loc777)
      } else {
        scf.yield %b_A11_637, %b_A22_638, %b_A33_639, %b_A10_640, %b_A20_641, %b_A21_642, %b_A30_643, %b_A31_644, %b_A32_645 : tensor<16x16xf32>, tensor<16x16xf32>, tensor<16x16xf32>, tensor<16x16xf32>, tensor<16x16xf32>, tensor<16x16xf32>, tensor<16x16xf32>, tensor<16x16xf32>, tensor<16x16xf32> loc(#loc21)
      } loc(#loc106)
      scf.yield %b_A00_665, %101#0, %101#1, %101#2, %101#3, %101#4, %101#5, %101#6, %101#7, %101#8 : tensor<16x16xf32>, tensor<16x16xf32>, tensor<16x16xf32>, tensor<16x16xf32>, tensor<16x16xf32>, tensor<16x16xf32>, tensor<16x16xf32>, tensor<16x16xf32>, tensor<16x16xf32>, tensor<16x16xf32> loc(#loc147)
    } loc(#loc780)
    %b_A00_335 = tt.expand_dims %b_g0 {axis = 1 : i32} : tensor<16xf32> -> tensor<16x1xf32> loc(#loc530)
    %b_A00_336 = tt.expand_dims %b_g0 {axis = 0 : i32} : tensor<16xf32> -> tensor<1x16xf32> loc(#loc531)
    %b_A00_337 = tt.broadcast %b_A00_335 : tensor<16x1xf32> -> tensor<16x16xf32> loc(#loc532)
    %b_A00_338 = tt.broadcast %b_A00_336 : tensor<1x16xf32> -> tensor<16x16xf32> loc(#loc532)
    %b_A00_339 = arith.subf %b_A00_337, %b_A00_338 : tensor<16x16xf32> loc(#loc532)
    %b_A00_340 = tt.call @sglang.srt.layers.attention.fla.op.safe_exp__fp32S16_16S__(%b_A00_339) : (tensor<16x16xf32>) -> tensor<16x16xf32> loc(#loc533)
    %b_A00_341 = arith.mulf %b_A32_334#0, %b_A00_340 : tensor<16x16xf32> loc(#loc534)
    %b_A11_342 = tt.expand_dims %b_g1 {axis = 1 : i32} : tensor<16xf32> -> tensor<16x1xf32> loc(#loc535)
    %b_A11_343 = tt.expand_dims %b_g1 {axis = 0 : i32} : tensor<16xf32> -> tensor<1x16xf32> loc(#loc536)
    %b_A11_344 = tt.broadcast %b_A11_342 : tensor<16x1xf32> -> tensor<16x16xf32> loc(#loc537)
    %b_A11_345 = tt.broadcast %b_A11_343 : tensor<1x16xf32> -> tensor<16x16xf32> loc(#loc537)
    %b_A11_346 = arith.subf %b_A11_344, %b_A11_345 : tensor<16x16xf32> loc(#loc537)
    %b_A11_347 = tt.call @sglang.srt.layers.attention.fla.op.safe_exp__fp32S16_16S__(%b_A11_346) : (tensor<16x16xf32>) -> tensor<16x16xf32> loc(#loc538)
    %b_A11_348 = arith.mulf %b_A32_334#1, %b_A11_347 : tensor<16x16xf32> loc(#loc539)
    %b_A22_349 = tt.expand_dims %b_g2 {axis = 1 : i32} : tensor<16xf32> -> tensor<16x1xf32> loc(#loc540)
    %b_A22_350 = tt.expand_dims %b_g2 {axis = 0 : i32} : tensor<16xf32> -> tensor<1x16xf32> loc(#loc541)
    %b_A22_351 = tt.broadcast %b_A22_349 : tensor<16x1xf32> -> tensor<16x16xf32> loc(#loc542)
    %b_A22_352 = tt.broadcast %b_A22_350 : tensor<1x16xf32> -> tensor<16x16xf32> loc(#loc542)
    %b_A22_353 = arith.subf %b_A22_351, %b_A22_352 : tensor<16x16xf32> loc(#loc542)
    %b_A22_354 = tt.call @sglang.srt.layers.attention.fla.op.safe_exp__fp32S16_16S__(%b_A22_353) : (tensor<16x16xf32>) -> tensor<16x16xf32> loc(#loc543)
    %b_A22_355 = arith.mulf %b_A32_334#2, %b_A22_354 : tensor<16x16xf32> loc(#loc544)
    %b_A33_356 = tt.expand_dims %b_g3 {axis = 1 : i32} : tensor<16xf32> -> tensor<16x1xf32> loc(#loc545)
    %b_A33_357 = tt.expand_dims %b_g3 {axis = 0 : i32} : tensor<16xf32> -> tensor<1x16xf32> loc(#loc546)
    %b_A33_358 = tt.broadcast %b_A33_356 : tensor<16x1xf32> -> tensor<16x16xf32> loc(#loc547)
    %b_A33_359 = tt.broadcast %b_A33_357 : tensor<1x16xf32> -> tensor<16x16xf32> loc(#loc547)
    %b_A33_360 = arith.subf %b_A33_358, %b_A33_359 : tensor<16x16xf32> loc(#loc547)
    %b_A33_361 = tt.call @sglang.srt.layers.attention.fla.op.safe_exp__fp32S16_16S__(%b_A33_360) : (tensor<16x16xf32>) -> tensor<16x16xf32> loc(#loc548)
    %b_A33_362 = arith.mulf %b_A32_334#3, %b_A33_361 : tensor<16x16xf32> loc(#loc549)
    %b_A10_363 = tt.expand_dims %b_g1 {axis = 1 : i32} : tensor<16xf32> -> tensor<16x1xf32> loc(#loc550)
    %b_A10_364 = tt.expand_dims %b_g0 {axis = 0 : i32} : tensor<16xf32> -> tensor<1x16xf32> loc(#loc551)
    %b_A10_365 = tt.broadcast %b_A10_363 : tensor<16x1xf32> -> tensor<16x16xf32> loc(#loc552)
    %b_A10_366 = tt.broadcast %b_A10_364 : tensor<1x16xf32> -> tensor<16x16xf32> loc(#loc552)
    %b_A10_367 = arith.subf %b_A10_365, %b_A10_366 : tensor<16x16xf32> loc(#loc552)
    %b_A10_368 = tt.call @sglang.srt.layers.attention.fla.op.safe_exp__fp32S16_16S__(%b_A10_367) : (tensor<16x16xf32>) -> tensor<16x16xf32> loc(#loc553)
    %b_A10_369 = arith.mulf %b_A32_334#4, %b_A10_368 : tensor<16x16xf32> loc(#loc554)
    %b_A20_370 = tt.expand_dims %b_g2 {axis = 1 : i32} : tensor<16xf32> -> tensor<16x1xf32> loc(#loc555)
    %b_A20_371 = tt.expand_dims %b_g0 {axis = 0 : i32} : tensor<16xf32> -> tensor<1x16xf32> loc(#loc556)
    %b_A20_372 = tt.broadcast %b_A20_370 : tensor<16x1xf32> -> tensor<16x16xf32> loc(#loc557)
    %b_A20_373 = tt.broadcast %b_A20_371 : tensor<1x16xf32> -> tensor<16x16xf32> loc(#loc557)
    %b_A20_374 = arith.subf %b_A20_372, %b_A20_373 : tensor<16x16xf32> loc(#loc557)
    %b_A20_375 = tt.call @sglang.srt.layers.attention.fla.op.safe_exp__fp32S16_16S__(%b_A20_374) : (tensor<16x16xf32>) -> tensor<16x16xf32> loc(#loc558)
    %b_A20_376 = arith.mulf %b_A32_334#5, %b_A20_375 : tensor<16x16xf32> loc(#loc559)
    %b_A21_377 = tt.expand_dims %b_g2 {axis = 1 : i32} : tensor<16xf32> -> tensor<16x1xf32> loc(#loc560)
    %b_A21_378 = tt.expand_dims %b_g1 {axis = 0 : i32} : tensor<16xf32> -> tensor<1x16xf32> loc(#loc561)
    %b_A21_379 = tt.broadcast %b_A21_377 : tensor<16x1xf32> -> tensor<16x16xf32> loc(#loc562)
    %b_A21_380 = tt.broadcast %b_A21_378 : tensor<1x16xf32> -> tensor<16x16xf32> loc(#loc562)
    %b_A21_381 = arith.subf %b_A21_379, %b_A21_380 : tensor<16x16xf32> loc(#loc562)
    %b_A21_382 = tt.call @sglang.srt.layers.attention.fla.op.safe_exp__fp32S16_16S__(%b_A21_381) : (tensor<16x16xf32>) -> tensor<16x16xf32> loc(#loc563)
    %b_A21_383 = arith.mulf %b_A32_334#6, %b_A21_382 : tensor<16x16xf32> loc(#loc564)
    %b_A30_384 = tt.expand_dims %b_g3 {axis = 1 : i32} : tensor<16xf32> -> tensor<16x1xf32> loc(#loc565)
    %b_A30_385 = tt.expand_dims %b_g0 {axis = 0 : i32} : tensor<16xf32> -> tensor<1x16xf32> loc(#loc566)
    %b_A30_386 = tt.broadcast %b_A30_384 : tensor<16x1xf32> -> tensor<16x16xf32> loc(#loc567)
    %b_A30_387 = tt.broadcast %b_A30_385 : tensor<1x16xf32> -> tensor<16x16xf32> loc(#loc567)
    %b_A30_388 = arith.subf %b_A30_386, %b_A30_387 : tensor<16x16xf32> loc(#loc567)
    %b_A30_389 = tt.call @sglang.srt.layers.attention.fla.op.safe_exp__fp32S16_16S__(%b_A30_388) : (tensor<16x16xf32>) -> tensor<16x16xf32> loc(#loc568)
    %b_A30_390 = arith.mulf %b_A32_334#7, %b_A30_389 : tensor<16x16xf32> loc(#loc569)
    %b_A31_391 = tt.expand_dims %b_g3 {axis = 1 : i32} : tensor<16xf32> -> tensor<16x1xf32> loc(#loc570)
    %b_A31_392 = tt.expand_dims %b_g1 {axis = 0 : i32} : tensor<16xf32> -> tensor<1x16xf32> loc(#loc571)
    %b_A31_393 = tt.broadcast %b_A31_391 : tensor<16x1xf32> -> tensor<16x16xf32> loc(#loc572)
    %b_A31_394 = tt.broadcast %b_A31_392 : tensor<1x16xf32> -> tensor<16x16xf32> loc(#loc572)
    %b_A31_395 = arith.subf %b_A31_393, %b_A31_394 : tensor<16x16xf32> loc(#loc572)
    %b_A31_396 = tt.call @sglang.srt.layers.attention.fla.op.safe_exp__fp32S16_16S__(%b_A31_395) : (tensor<16x16xf32>) -> tensor<16x16xf32> loc(#loc573)
    %b_A31_397 = arith.mulf %b_A32_334#8, %b_A31_396 : tensor<16x16xf32> loc(#loc574)
    %b_A32_398 = tt.expand_dims %b_g3 {axis = 1 : i32} : tensor<16xf32> -> tensor<16x1xf32> loc(#loc575)
    %b_A32_399 = tt.expand_dims %b_g2 {axis = 0 : i32} : tensor<16xf32> -> tensor<1x16xf32> loc(#loc576)
    %b_A32_400 = tt.broadcast %b_A32_398 : tensor<16x1xf32> -> tensor<16x16xf32> loc(#loc577)
    %b_A32_401 = tt.broadcast %b_A32_399 : tensor<1x16xf32> -> tensor<16x16xf32> loc(#loc577)
    %b_A32_402 = arith.subf %b_A32_400, %b_A32_401 : tensor<16x16xf32> loc(#loc577)
    %b_A32_403 = tt.call @sglang.srt.layers.attention.fla.op.safe_exp__fp32S16_16S__(%b_A32_402) : (tensor<16x16xf32>) -> tensor<16x16xf32> loc(#loc578)
    %b_A32_404 = arith.mulf %b_A32_334#9, %b_A32_403 : tensor<16x16xf32> loc(#loc579)
    %m_d = tt.expand_dims %o_i {axis = 1 : i32} : tensor<16xi32> -> tensor<16x1xi32> loc(#loc580)
    %m_d_405 = tt.expand_dims %o_i {axis = 0 : i32} : tensor<16xi32> -> tensor<1x16xi32> loc(#loc581)
    %m_d_406 = tt.broadcast %m_d : tensor<16x1xi32> -> tensor<16x16xi32> loc(#loc582)
    %m_d_407 = tt.broadcast %m_d_405 : tensor<1x16xi32> -> tensor<16x16xi32> loc(#loc582)
    %m_d_408 = arith.cmpi sgt, %m_d_406, %m_d_407 : tensor<16x16xi32> loc(#loc582)
    %m_I = tt.expand_dims %o_i {axis = 1 : i32} : tensor<16xi32> -> tensor<16x1xi32> loc(#loc583)
    %m_I_409 = tt.expand_dims %o_i {axis = 0 : i32} : tensor<16xi32> -> tensor<1x16xi32> loc(#loc584)
    %m_I_410 = tt.broadcast %m_I : tensor<16x1xi32> -> tensor<16x16xi32> loc(#loc585)
    %m_I_411 = tt.broadcast %m_I_409 : tensor<1x16xi32> -> tensor<16x16xi32> loc(#loc585)
    %m_I_412 = arith.cmpi eq, %m_I_410, %m_I_411 : tensor<16x16xi32> loc(#loc585)
    %b_A00_413 = tt.expand_dims %m_tc0_173 {axis = 1 : i32} : tensor<16xi1> -> tensor<16x1xi1> loc(#loc586)
    %b_A00_414 = tt.expand_dims %m_tc0_173 {axis = 0 : i32} : tensor<16xi1> -> tensor<1x16xi1> loc(#loc587)
    %b_A00_415 = tt.broadcast %b_A00_413 : tensor<16x1xi1> -> tensor<16x16xi1> loc(#loc588)
    %b_A00_416 = tt.broadcast %b_A00_414 : tensor<1x16xi1> -> tensor<16x16xi1> loc(#loc588)
    %b_A00_417 = arith.andi %b_A00_415, %b_A00_416 : tensor<16x16xi1> loc(#loc588)
    %b_A00_418 = arith.andi %m_d_408, %b_A00_417 : tensor<16x16xi1> loc(#loc589)
    %b_A00_419 = arith.constant 0.000000e+00 : f32 loc(#loc590)
    %b_A00_420 = arith.constant 0.000000e+00 : f32 loc(#loc590)
    %b_A00_421 = arith.constant dense<0.000000e+00> : tensor<16x16xf32> loc(#loc590)
    %b_A00_422 = arith.select %b_A00_418, %b_A00_341, %b_A00_421 : tensor<16x16xi1>, tensor<16x16xf32> loc(#loc590)
    %b_A00_423 = tt.expand_dims %b_b0 {axis = 1 : i32} : tensor<16xf32> -> tensor<16x1xf32> loc(#loc591)
    %b_A00_424 = tt.broadcast %b_A00_423 : tensor<16x1xf32> -> tensor<16x16xf32> loc(#loc592)
    %b_A00_425 = arith.mulf %b_A00_422, %b_A00_424 : tensor<16x16xf32> loc(#loc592)
    %b_A11_426 = tt.expand_dims %m_tc1_186 {axis = 1 : i32} : tensor<16xi1> -> tensor<16x1xi1> loc(#loc593)
    %b_A11_427 = tt.expand_dims %m_tc1_186 {axis = 0 : i32} : tensor<16xi1> -> tensor<1x16xi1> loc(#loc594)
    %b_A11_428 = tt.broadcast %b_A11_426 : tensor<16x1xi1> -> tensor<16x16xi1> loc(#loc595)
    %b_A11_429 = tt.broadcast %b_A11_427 : tensor<1x16xi1> -> tensor<16x16xi1> loc(#loc595)
    %b_A11_430 = arith.andi %b_A11_428, %b_A11_429 : tensor<16x16xi1> loc(#loc595)
    %b_A11_431 = arith.andi %m_d_408, %b_A11_430 : tensor<16x16xi1> loc(#loc596)
    %b_A11_432 = arith.constant 0.000000e+00 : f32 loc(#loc597)
    %b_A11_433 = arith.constant 0.000000e+00 : f32 loc(#loc597)
    %b_A11_434 = arith.constant dense<0.000000e+00> : tensor<16x16xf32> loc(#loc597)
    %b_A11_435 = arith.select %b_A11_431, %b_A11_348, %b_A11_434 : tensor<16x16xi1>, tensor<16x16xf32> loc(#loc597)
    %b_A11_436 = tt.expand_dims %b_b1 {axis = 1 : i32} : tensor<16xf32> -> tensor<16x1xf32> loc(#loc598)
    %b_A11_437 = tt.broadcast %b_A11_436 : tensor<16x1xf32> -> tensor<16x16xf32> loc(#loc599)
    %b_A11_438 = arith.mulf %b_A11_435, %b_A11_437 : tensor<16x16xf32> loc(#loc599)
    %b_A22_439 = tt.expand_dims %m_tc2_199 {axis = 1 : i32} : tensor<16xi1> -> tensor<16x1xi1> loc(#loc600)
    %b_A22_440 = tt.expand_dims %m_tc2_199 {axis = 0 : i32} : tensor<16xi1> -> tensor<1x16xi1> loc(#loc601)
    %b_A22_441 = tt.broadcast %b_A22_439 : tensor<16x1xi1> -> tensor<16x16xi1> loc(#loc602)
    %b_A22_442 = tt.broadcast %b_A22_440 : tensor<1x16xi1> -> tensor<16x16xi1> loc(#loc602)
    %b_A22_443 = arith.andi %b_A22_441, %b_A22_442 : tensor<16x16xi1> loc(#loc602)
    %b_A22_444 = arith.andi %m_d_408, %b_A22_443 : tensor<16x16xi1> loc(#loc603)
    %b_A22_445 = arith.constant 0.000000e+00 : f32 loc(#loc604)
    %b_A22_446 = arith.constant 0.000000e+00 : f32 loc(#loc604)
    %b_A22_447 = arith.constant dense<0.000000e+00> : tensor<16x16xf32> loc(#loc604)
    %b_A22_448 = arith.select %b_A22_444, %b_A22_355, %b_A22_447 : tensor<16x16xi1>, tensor<16x16xf32> loc(#loc604)
    %b_A22_449 = tt.expand_dims %b_b2 {axis = 1 : i32} : tensor<16xf32> -> tensor<16x1xf32> loc(#loc605)
    %b_A22_450 = tt.broadcast %b_A22_449 : tensor<16x1xf32> -> tensor<16x16xf32> loc(#loc606)
    %b_A22_451 = arith.mulf %b_A22_448, %b_A22_450 : tensor<16x16xf32> loc(#loc606)
    %b_A33_452 = tt.expand_dims %m_tc3_212 {axis = 1 : i32} : tensor<16xi1> -> tensor<16x1xi1> loc(#loc607)
    %b_A33_453 = tt.expand_dims %m_tc3_212 {axis = 0 : i32} : tensor<16xi1> -> tensor<1x16xi1> loc(#loc608)
    %b_A33_454 = tt.broadcast %b_A33_452 : tensor<16x1xi1> -> tensor<16x16xi1> loc(#loc609)
    %b_A33_455 = tt.broadcast %b_A33_453 : tensor<1x16xi1> -> tensor<16x16xi1> loc(#loc609)
    %b_A33_456 = arith.andi %b_A33_454, %b_A33_455 : tensor<16x16xi1> loc(#loc609)
    %b_A33_457 = arith.andi %m_d_408, %b_A33_456 : tensor<16x16xi1> loc(#loc610)
    %b_A33_458 = arith.constant 0.000000e+00 : f32 loc(#loc611)
    %b_A33_459 = arith.constant 0.000000e+00 : f32 loc(#loc611)
    %b_A33_460 = arith.constant dense<0.000000e+00> : tensor<16x16xf32> loc(#loc611)
    %b_A33_461 = arith.select %b_A33_457, %b_A33_362, %b_A33_460 : tensor<16x16xi1>, tensor<16x16xf32> loc(#loc611)
    %b_A33_462 = tt.expand_dims %b_b3 {axis = 1 : i32} : tensor<16xf32> -> tensor<16x1xf32> loc(#loc612)
    %b_A33_463 = tt.broadcast %b_A33_462 : tensor<16x1xf32> -> tensor<16x16xf32> loc(#loc613)
    %b_A33_464 = arith.mulf %b_A33_461, %b_A33_463 : tensor<16x16xf32> loc(#loc613)
    %b_A10_465 = tt.expand_dims %b_b1 {axis = 1 : i32} : tensor<16xf32> -> tensor<16x1xf32> loc(#loc614)
    %b_A10_466 = tt.broadcast %b_A10_465 : tensor<16x1xf32> -> tensor<16x16xf32> loc(#loc615)
    %b_A10_467 = arith.mulf %b_A10_369, %b_A10_466 : tensor<16x16xf32> loc(#loc615)
    %b_A20_468 = tt.expand_dims %b_b2 {axis = 1 : i32} : tensor<16xf32> -> tensor<16x1xf32> loc(#loc616)
    %b_A20_469 = tt.broadcast %b_A20_468 : tensor<16x1xf32> -> tensor<16x16xf32> loc(#loc617)
    %b_A20_470 = arith.mulf %b_A20_376, %b_A20_469 : tensor<16x16xf32> loc(#loc617)
    %b_A21_471 = tt.expand_dims %b_b2 {axis = 1 : i32} : tensor<16xf32> -> tensor<16x1xf32> loc(#loc618)
    %b_A21_472 = tt.broadcast %b_A21_471 : tensor<16x1xf32> -> tensor<16x16xf32> loc(#loc619)
    %b_A21_473 = arith.mulf %b_A21_383, %b_A21_472 : tensor<16x16xf32> loc(#loc619)
    %b_A30_474 = tt.expand_dims %b_b3 {axis = 1 : i32} : tensor<16xf32> -> tensor<16x1xf32> loc(#loc620)
    %b_A30_475 = tt.broadcast %b_A30_474 : tensor<16x1xf32> -> tensor<16x16xf32> loc(#loc621)
    %b_A30_476 = arith.mulf %b_A30_390, %b_A30_475 : tensor<16x16xf32> loc(#loc621)
    %b_A31_477 = tt.expand_dims %b_b3 {axis = 1 : i32} : tensor<16xf32> -> tensor<16x1xf32> loc(#loc622)
    %b_A31_478 = tt.broadcast %b_A31_477 : tensor<16x1xf32> -> tensor<16x16xf32> loc(#loc623)
    %b_A31_479 = arith.mulf %b_A31_397, %b_A31_478 : tensor<16x16xf32> loc(#loc623)
    %b_A32_480 = tt.expand_dims %b_b3 {axis = 1 : i32} : tensor<16xf32> -> tensor<16x1xf32> loc(#loc624)
    %b_A32_481 = tt.broadcast %b_A32_480 : tensor<16x1xf32> -> tensor<16x16xf32> loc(#loc625)
    %b_A32_482 = arith.mulf %b_A32_404, %b_A32_481 : tensor<16x16xf32> loc(#loc625)
    %b_Ai00 = arith.constant 0.000000e+00 : f32 loc(#loc626)
    %b_Ai00_483 = arith.constant dense<0.000000e+00> : tensor<16x16xf32> loc(#loc626)
    %b_Ai00_484 = arith.subf %b_Ai00_483, %b_A00_425 : tensor<16x16xf32> loc(#loc626)
    %b_Ai11 = arith.constant 0.000000e+00 : f32 loc(#loc627)
    %b_Ai11_485 = arith.constant dense<0.000000e+00> : tensor<16x16xf32> loc(#loc627)
    %b_Ai11_486 = arith.subf %b_Ai11_485, %b_A11_438 : tensor<16x16xf32> loc(#loc627)
    %b_Ai22 = arith.constant 0.000000e+00 : f32 loc(#loc628)
    %b_Ai22_487 = arith.constant dense<0.000000e+00> : tensor<16x16xf32> loc(#loc628)
    %b_Ai22_488 = arith.subf %b_Ai22_487, %b_A22_451 : tensor<16x16xf32> loc(#loc628)
    %b_Ai33 = arith.constant 0.000000e+00 : f32 loc(#loc629)
    %b_Ai33_489 = arith.constant dense<0.000000e+00> : tensor<16x16xf32> loc(#loc629)
    %b_Ai33_490 = arith.subf %b_Ai33_489, %b_A33_464 : tensor<16x16xf32> loc(#loc629)
    %42 = arith.extsi %T_17 : i32 to i64 loc(#loc248)
    %43 = arith.extsi %i_tc0_30 : i32 to i64 loc(#loc248)
    %44 = arith.subi %42, %43 : i64 loc(#loc248)
    %c2147483647_i64_491 = arith.constant 2147483647 : i64 loc(#loc248)
    %c-2147483648_i64_492 = arith.constant -2147483648 : i64 loc(#loc248)
    %45 = arith.cmpi sle, %44, %c2147483647_i64_491 : i64 loc(#loc248)
    %46 = arith.cmpi sge, %44, %c-2147483648_i64_492 : i64 loc(#loc248)
    %47 = arith.andi %45, %46 : i1 loc(#loc248)
    %48 = arith.subi %T_17, %i_tc0_30 : i32 loc(#loc248)
    %c16_i32 = arith.constant 16 : i32 loc(#loc249)
    %49 = arith.minsi %c16_i32, %48 : i32 loc(#loc249)
    %c2_i32_493 = arith.constant 2 : i32 loc(#loc250)
    %c1_i32_494 = arith.constant 1 : i32 loc(#loc250)
    %50 = arith.bitcast %c2_i32_493 : i32 to i32 loc(#loc250)
    %51 = arith.bitcast %49 : i32 to i32 loc(#loc250)
    %52 = arith.bitcast %c1_i32_494 : i32 to i32 loc(#loc250)
    %53 = ub.poison : i32 loc(#loc250)
    %b_Ai00_495 = scf.for %i = %50 to %51 step %52 iter_args(%b_Ai00_636 = %b_Ai00_484) -> (tensor<16x16xf32>)  : i32 {
      %b_a00 = tt.splat %i : i32 -> tensor<16xi32> loc(#loc631)
      %b_a00_637 = arith.cmpi eq, %o_i, %b_a00 : tensor<16xi32> loc(#loc631)
      %b_a00_638 = tt.expand_dims %b_a00_637 {axis = 1 : i32} : tensor<16xi1> -> tensor<16x1xi1> loc(#loc632)
      %b_a00_639 = arith.constant 0.000000e+00 : f32 loc(#loc633)
      %b_a00_640 = arith.constant dense<0.000000e+00> : tensor<16x16xf32> loc(#loc633)
      %b_a00_641 = arith.subf %b_a00_640, %b_A00_425 : tensor<16x16xf32> loc(#loc633)
      %b_a00_642 = arith.constant 0.000000e+00 : f32 loc(#loc634)
      %b_a00_643 = arith.constant 0.000000e+00 : f32 loc(#loc634)
      %b_a00_644 = arith.constant dense<0.000000e+00> : tensor<16x16xf32> loc(#loc634)
      %b_a00_645 = tt.broadcast %b_a00_638 : tensor<16x1xi1> -> tensor<16x16xi1> loc(#loc634)
      %b_a00_646 = arith.select %b_a00_645, %b_a00_641, %b_a00_644 : tensor<16x16xi1>, tensor<16x16xf32> loc(#loc634)
      %b_a00_647 = tt.call @"triton.language.standard.sum__fp32S16_16S__(1,)cconstexpr_0__(2,)cconstexpr_False__(3,)cNone"(%b_a00_646) : (tensor<16x16xf32>) -> tensor<16xf32> loc(#loc635)
      %b_a00_648 = tt.splat %i : i32 -> tensor<16xi32> loc(#loc636)
      %b_a00_649 = arith.cmpi slt, %o_i, %b_a00_648 : tensor<16xi32> loc(#loc636)
      %b_a00_650 = arith.constant 0.000000e+00 : f32 loc(#loc637)
      %b_a00_651 = arith.constant 0.000000e+00 : f32 loc(#loc637)
      %b_a00_652 = arith.constant dense<0.000000e+00> : tensor<16xf32> loc(#loc637)
      %b_a00_653 = arith.select %b_a00_649, %b_a00_647, %b_a00_652 : tensor<16xi1>, tensor<16xf32> loc(#loc637)
      %b_a00_654 = tt.expand_dims %b_a00_653 {axis = 1 : i32} : tensor<16xf32> -> tensor<16x1xf32> loc(#loc638)
      %b_a00_655 = tt.broadcast %b_a00_654 : tensor<16x1xf32> -> tensor<16x16xf32> loc(#loc639)
      %b_a00_656 = arith.mulf %b_a00_655, %b_Ai00_636 : tensor<16x16xf32> loc(#loc639)
      %b_a00_657 = tt.call @"triton.language.standard.sum__fp32S16_16S__(1,)cconstexpr_0__(2,)cconstexpr_False__(3,)cNone"(%b_a00_656) : (tensor<16x16xf32>) -> tensor<16xf32> loc(#loc640)
      %b_a00_658 = arith.addf %b_a00_653, %b_a00_657 : tensor<16xf32> loc(#loc641)
      %b_Ai00_659 = tt.splat %i : i32 -> tensor<16xi32> loc(#loc642)
      %b_Ai00_660 = arith.cmpi eq, %o_i, %b_Ai00_659 : tensor<16xi32> loc(#loc642)
      %b_Ai00_661 = tt.expand_dims %b_Ai00_660 {axis = 1 : i32} : tensor<16xi1> -> tensor<16x1xi1> loc(#loc643)
      %b_Ai00_662 = tt.expand_dims %b_a00_658 {axis = 0 : i32} : tensor<16xf32> -> tensor<1x16xf32> loc(#loc644)
      %b_Ai00_663 = tt.broadcast %b_Ai00_662 : tensor<1x16xf32> -> tensor<16x16xf32> loc(#loc644)
      %b_Ai00_664 = tt.broadcast %b_Ai00_661 : tensor<16x1xi1> -> tensor<16x16xi1> loc(#loc644)
      %b_Ai00_665 = arith.select %b_Ai00_664, %b_Ai00_663, %b_Ai00_636 : tensor<16x16xi1>, tensor<16x16xf32> loc(#loc644)
      scf.yield %b_Ai00_665 : tensor<16x16xf32> loc(#loc265)
    } loc(#loc630)
    %54 = arith.extsi %T_17 : i32 to i64 loc(#loc266)
    %55 = arith.extsi %i_tc1_51 : i32 to i64 loc(#loc266)
    %56 = arith.subi %54, %55 : i64 loc(#loc266)
    %c2147483647_i64_496 = arith.constant 2147483647 : i64 loc(#loc266)
    %c-2147483648_i64_497 = arith.constant -2147483648 : i64 loc(#loc266)
    %57 = arith.cmpi sle, %56, %c2147483647_i64_496 : i64 loc(#loc266)
    %58 = arith.cmpi sge, %56, %c-2147483648_i64_497 : i64 loc(#loc266)
    %59 = arith.andi %57, %58 : i1 loc(#loc266)
    %60 = arith.subi %T_17, %i_tc1_51 : i32 loc(#loc266)
    %c16_i32_498 = arith.constant 16 : i32 loc(#loc267)
    %61 = arith.minsi %c16_i32_498, %60 : i32 loc(#loc267)
    %c2_i32_499 = arith.constant 2 : i32 loc(#loc268)
    %c1_i32_500 = arith.constant 1 : i32 loc(#loc268)
    %62 = arith.bitcast %c2_i32_499 : i32 to i32 loc(#loc268)
    %63 = arith.bitcast %61 : i32 to i32 loc(#loc268)
    %64 = arith.bitcast %c1_i32_500 : i32 to i32 loc(#loc268)
    %65 = ub.poison : i32 loc(#loc268)
    %b_Ai11_501 = scf.for %i = %62 to %63 step %64 iter_args(%b_Ai11_636 = %b_Ai11_486) -> (tensor<16x16xf32>)  : i32 {
      %b_a11 = tt.splat %i : i32 -> tensor<16xi32> loc(#loc646)
      %b_a11_637 = arith.cmpi eq, %o_i, %b_a11 : tensor<16xi32> loc(#loc646)
      %b_a11_638 = tt.expand_dims %b_a11_637 {axis = 1 : i32} : tensor<16xi1> -> tensor<16x1xi1> loc(#loc647)
      %b_a11_639 = arith.constant 0.000000e+00 : f32 loc(#loc648)
      %b_a11_640 = arith.constant dense<0.000000e+00> : tensor<16x16xf32> loc(#loc648)
      %b_a11_641 = arith.subf %b_a11_640, %b_A11_438 : tensor<16x16xf32> loc(#loc648)
      %b_a11_642 = arith.constant 0.000000e+00 : f32 loc(#loc649)
      %b_a11_643 = arith.constant 0.000000e+00 : f32 loc(#loc649)
      %b_a11_644 = arith.constant dense<0.000000e+00> : tensor<16x16xf32> loc(#loc649)
      %b_a11_645 = tt.broadcast %b_a11_638 : tensor<16x1xi1> -> tensor<16x16xi1> loc(#loc649)
      %b_a11_646 = arith.select %b_a11_645, %b_a11_641, %b_a11_644 : tensor<16x16xi1>, tensor<16x16xf32> loc(#loc649)
      %b_a11_647 = tt.call @"triton.language.standard.sum__fp32S16_16S__(1,)cconstexpr_0__(2,)cconstexpr_False__(3,)cNone"(%b_a11_646) : (tensor<16x16xf32>) -> tensor<16xf32> loc(#loc650)
      %b_a11_648 = tt.splat %i : i32 -> tensor<16xi32> loc(#loc651)
      %b_a11_649 = arith.cmpi slt, %o_i, %b_a11_648 : tensor<16xi32> loc(#loc651)
      %b_a11_650 = arith.constant 0.000000e+00 : f32 loc(#loc652)
      %b_a11_651 = arith.constant 0.000000e+00 : f32 loc(#loc652)
      %b_a11_652 = arith.constant dense<0.000000e+00> : tensor<16xf32> loc(#loc652)
      %b_a11_653 = arith.select %b_a11_649, %b_a11_647, %b_a11_652 : tensor<16xi1>, tensor<16xf32> loc(#loc652)
      %b_a11_654 = tt.expand_dims %b_a11_653 {axis = 1 : i32} : tensor<16xf32> -> tensor<16x1xf32> loc(#loc653)
      %b_a11_655 = tt.broadcast %b_a11_654 : tensor<16x1xf32> -> tensor<16x16xf32> loc(#loc654)
      %b_a11_656 = arith.mulf %b_a11_655, %b_Ai11_636 : tensor<16x16xf32> loc(#loc654)
      %b_a11_657 = tt.call @"triton.language.standard.sum__fp32S16_16S__(1,)cconstexpr_0__(2,)cconstexpr_False__(3,)cNone"(%b_a11_656) : (tensor<16x16xf32>) -> tensor<16xf32> loc(#loc655)
      %b_a11_658 = arith.addf %b_a11_653, %b_a11_657 : tensor<16xf32> loc(#loc656)
      %b_Ai11_659 = tt.splat %i : i32 -> tensor<16xi32> loc(#loc657)
      %b_Ai11_660 = arith.cmpi eq, %o_i, %b_Ai11_659 : tensor<16xi32> loc(#loc657)
      %b_Ai11_661 = tt.expand_dims %b_Ai11_660 {axis = 1 : i32} : tensor<16xi1> -> tensor<16x1xi1> loc(#loc658)
      %b_Ai11_662 = tt.expand_dims %b_a11_658 {axis = 0 : i32} : tensor<16xf32> -> tensor<1x16xf32> loc(#loc659)
      %b_Ai11_663 = tt.broadcast %b_Ai11_662 : tensor<1x16xf32> -> tensor<16x16xf32> loc(#loc659)
      %b_Ai11_664 = tt.broadcast %b_Ai11_661 : tensor<16x1xi1> -> tensor<16x16xi1> loc(#loc659)
      %b_Ai11_665 = arith.select %b_Ai11_664, %b_Ai11_663, %b_Ai11_636 : tensor<16x16xi1>, tensor<16x16xf32> loc(#loc659)
      scf.yield %b_Ai11_665 : tensor<16x16xf32> loc(#loc283)
    } loc(#loc645)
    %66 = arith.extsi %T_17 : i32 to i64 loc(#loc284)
    %67 = arith.extsi %i_tc2_72 : i32 to i64 loc(#loc284)
    %68 = arith.subi %66, %67 : i64 loc(#loc284)
    %c2147483647_i64_502 = arith.constant 2147483647 : i64 loc(#loc284)
    %c-2147483648_i64_503 = arith.constant -2147483648 : i64 loc(#loc284)
    %69 = arith.cmpi sle, %68, %c2147483647_i64_502 : i64 loc(#loc284)
    %70 = arith.cmpi sge, %68, %c-2147483648_i64_503 : i64 loc(#loc284)
    %71 = arith.andi %69, %70 : i1 loc(#loc284)
    %72 = arith.subi %T_17, %i_tc2_72 : i32 loc(#loc284)
    %c16_i32_504 = arith.constant 16 : i32 loc(#loc285)
    %73 = arith.minsi %c16_i32_504, %72 : i32 loc(#loc285)
    %c2_i32_505 = arith.constant 2 : i32 loc(#loc286)
    %c1_i32_506 = arith.constant 1 : i32 loc(#loc286)
    %74 = arith.bitcast %c2_i32_505 : i32 to i32 loc(#loc286)
    %75 = arith.bitcast %73 : i32 to i32 loc(#loc286)
    %76 = arith.bitcast %c1_i32_506 : i32 to i32 loc(#loc286)
    %77 = ub.poison : i32 loc(#loc286)
    %b_Ai22_507 = scf.for %i = %74 to %75 step %76 iter_args(%b_Ai22_636 = %b_Ai22_488) -> (tensor<16x16xf32>)  : i32 {
      %b_a22 = tt.splat %i : i32 -> tensor<16xi32> loc(#loc661)
      %b_a22_637 = arith.cmpi eq, %o_i, %b_a22 : tensor<16xi32> loc(#loc661)
      %b_a22_638 = tt.expand_dims %b_a22_637 {axis = 1 : i32} : tensor<16xi1> -> tensor<16x1xi1> loc(#loc662)
      %b_a22_639 = arith.constant 0.000000e+00 : f32 loc(#loc663)
      %b_a22_640 = arith.constant dense<0.000000e+00> : tensor<16x16xf32> loc(#loc663)
      %b_a22_641 = arith.subf %b_a22_640, %b_A22_451 : tensor<16x16xf32> loc(#loc663)
      %b_a22_642 = arith.constant 0.000000e+00 : f32 loc(#loc664)
      %b_a22_643 = arith.constant 0.000000e+00 : f32 loc(#loc664)
      %b_a22_644 = arith.constant dense<0.000000e+00> : tensor<16x16xf32> loc(#loc664)
      %b_a22_645 = tt.broadcast %b_a22_638 : tensor<16x1xi1> -> tensor<16x16xi1> loc(#loc664)
      %b_a22_646 = arith.select %b_a22_645, %b_a22_641, %b_a22_644 : tensor<16x16xi1>, tensor<16x16xf32> loc(#loc664)
      %b_a22_647 = tt.call @"triton.language.standard.sum__fp32S16_16S__(1,)cconstexpr_0__(2,)cconstexpr_False__(3,)cNone"(%b_a22_646) : (tensor<16x16xf32>) -> tensor<16xf32> loc(#loc665)
      %b_a22_648 = tt.splat %i : i32 -> tensor<16xi32> loc(#loc666)
      %b_a22_649 = arith.cmpi slt, %o_i, %b_a22_648 : tensor<16xi32> loc(#loc666)
      %b_a22_650 = arith.constant 0.000000e+00 : f32 loc(#loc667)
      %b_a22_651 = arith.constant 0.000000e+00 : f32 loc(#loc667)
      %b_a22_652 = arith.constant dense<0.000000e+00> : tensor<16xf32> loc(#loc667)
      %b_a22_653 = arith.select %b_a22_649, %b_a22_647, %b_a22_652 : tensor<16xi1>, tensor<16xf32> loc(#loc667)
      %b_a22_654 = tt.expand_dims %b_a22_653 {axis = 1 : i32} : tensor<16xf32> -> tensor<16x1xf32> loc(#loc668)
      %b_a22_655 = tt.broadcast %b_a22_654 : tensor<16x1xf32> -> tensor<16x16xf32> loc(#loc669)
      %b_a22_656 = arith.mulf %b_a22_655, %b_Ai22_636 : tensor<16x16xf32> loc(#loc669)
      %b_a22_657 = tt.call @"triton.language.standard.sum__fp32S16_16S__(1,)cconstexpr_0__(2,)cconstexpr_False__(3,)cNone"(%b_a22_656) : (tensor<16x16xf32>) -> tensor<16xf32> loc(#loc670)
      %b_a22_658 = arith.addf %b_a22_653, %b_a22_657 : tensor<16xf32> loc(#loc671)
      %b_Ai22_659 = tt.splat %i : i32 -> tensor<16xi32> loc(#loc672)
      %b_Ai22_660 = arith.cmpi eq, %o_i, %b_Ai22_659 : tensor<16xi32> loc(#loc672)
      %b_Ai22_661 = tt.expand_dims %b_Ai22_660 {axis = 1 : i32} : tensor<16xi1> -> tensor<16x1xi1> loc(#loc673)
      %b_Ai22_662 = tt.expand_dims %b_a22_658 {axis = 0 : i32} : tensor<16xf32> -> tensor<1x16xf32> loc(#loc674)
      %b_Ai22_663 = tt.broadcast %b_Ai22_662 : tensor<1x16xf32> -> tensor<16x16xf32> loc(#loc674)
      %b_Ai22_664 = tt.broadcast %b_Ai22_661 : tensor<16x1xi1> -> tensor<16x16xi1> loc(#loc674)
      %b_Ai22_665 = arith.select %b_Ai22_664, %b_Ai22_663, %b_Ai22_636 : tensor<16x16xi1>, tensor<16x16xf32> loc(#loc674)
      scf.yield %b_Ai22_665 : tensor<16x16xf32> loc(#loc301)
    } loc(#loc660)
    %78 = arith.extsi %T_17 : i32 to i64 loc(#loc302)
    %79 = arith.extsi %i_tc3_93 : i32 to i64 loc(#loc302)
    %80 = arith.subi %78, %79 : i64 loc(#loc302)
    %c2147483647_i64_508 = arith.constant 2147483647 : i64 loc(#loc302)
    %c-2147483648_i64_509 = arith.constant -2147483648 : i64 loc(#loc302)
    %81 = arith.cmpi sle, %80, %c2147483647_i64_508 : i64 loc(#loc302)
    %82 = arith.cmpi sge, %80, %c-2147483648_i64_509 : i64 loc(#loc302)
    %83 = arith.andi %81, %82 : i1 loc(#loc302)
    %84 = arith.subi %T_17, %i_tc3_93 : i32 loc(#loc302)
    %c16_i32_510 = arith.constant 16 : i32 loc(#loc303)
    %85 = arith.minsi %c16_i32_510, %84 : i32 loc(#loc303)
    %c2_i32_511 = arith.constant 2 : i32 loc(#loc304)
    %c1_i32_512 = arith.constant 1 : i32 loc(#loc304)
    %86 = arith.bitcast %c2_i32_511 : i32 to i32 loc(#loc304)
    %87 = arith.bitcast %85 : i32 to i32 loc(#loc304)
    %88 = arith.bitcast %c1_i32_512 : i32 to i32 loc(#loc304)
    %89 = ub.poison : i32 loc(#loc304)
    %b_Ai33_513 = scf.for %i = %86 to %87 step %88 iter_args(%b_Ai33_636 = %b_Ai33_490) -> (tensor<16x16xf32>)  : i32 {
      %b_a33 = tt.splat %i : i32 -> tensor<16xi32> loc(#loc676)
      %b_a33_637 = arith.cmpi eq, %o_i, %b_a33 : tensor<16xi32> loc(#loc676)
      %b_a33_638 = tt.expand_dims %b_a33_637 {axis = 1 : i32} : tensor<16xi1> -> tensor<16x1xi1> loc(#loc677)
      %b_a33_639 = arith.constant 0.000000e+00 : f32 loc(#loc678)
      %b_a33_640 = arith.constant dense<0.000000e+00> : tensor<16x16xf32> loc(#loc678)
      %b_a33_641 = arith.subf %b_a33_640, %b_A33_464 : tensor<16x16xf32> loc(#loc678)
      %b_a33_642 = arith.constant 0.000000e+00 : f32 loc(#loc679)
      %b_a33_643 = arith.constant 0.000000e+00 : f32 loc(#loc679)
      %b_a33_644 = arith.constant dense<0.000000e+00> : tensor<16x16xf32> loc(#loc679)
      %b_a33_645 = tt.broadcast %b_a33_638 : tensor<16x1xi1> -> tensor<16x16xi1> loc(#loc679)
      %b_a33_646 = arith.select %b_a33_645, %b_a33_641, %b_a33_644 : tensor<16x16xi1>, tensor<16x16xf32> loc(#loc679)
      %b_a33_647 = tt.call @"triton.language.standard.sum__fp32S16_16S__(1,)cconstexpr_0__(2,)cconstexpr_False__(3,)cNone"(%b_a33_646) : (tensor<16x16xf32>) -> tensor<16xf32> loc(#loc680)
      %b_a33_648 = tt.splat %i : i32 -> tensor<16xi32> loc(#loc681)
      %b_a33_649 = arith.cmpi slt, %o_i, %b_a33_648 : tensor<16xi32> loc(#loc681)
      %b_a33_650 = arith.constant 0.000000e+00 : f32 loc(#loc682)
      %b_a33_651 = arith.constant 0.000000e+00 : f32 loc(#loc682)
      %b_a33_652 = arith.constant dense<0.000000e+00> : tensor<16xf32> loc(#loc682)
      %b_a33_653 = arith.select %b_a33_649, %b_a33_647, %b_a33_652 : tensor<16xi1>, tensor<16xf32> loc(#loc682)
      %b_a33_654 = tt.expand_dims %b_a33_653 {axis = 1 : i32} : tensor<16xf32> -> tensor<16x1xf32> loc(#loc683)
      %b_a33_655 = tt.broadcast %b_a33_654 : tensor<16x1xf32> -> tensor<16x16xf32> loc(#loc684)
      %b_a33_656 = arith.mulf %b_a33_655, %b_Ai33_636 : tensor<16x16xf32> loc(#loc684)
      %b_a33_657 = tt.call @"triton.language.standard.sum__fp32S16_16S__(1,)cconstexpr_0__(2,)cconstexpr_False__(3,)cNone"(%b_a33_656) : (tensor<16x16xf32>) -> tensor<16xf32> loc(#loc685)
      %b_a33_658 = arith.addf %b_a33_653, %b_a33_657 : tensor<16xf32> loc(#loc686)
      %b_Ai33_659 = tt.splat %i : i32 -> tensor<16xi32> loc(#loc687)
      %b_Ai33_660 = arith.cmpi eq, %o_i, %b_Ai33_659 : tensor<16xi32> loc(#loc687)
      %b_Ai33_661 = tt.expand_dims %b_Ai33_660 {axis = 1 : i32} : tensor<16xi1> -> tensor<16x1xi1> loc(#loc688)
      %b_Ai33_662 = tt.expand_dims %b_a33_658 {axis = 0 : i32} : tensor<16xf32> -> tensor<1x16xf32> loc(#loc689)
      %b_Ai33_663 = tt.broadcast %b_Ai33_662 : tensor<1x16xf32> -> tensor<16x16xf32> loc(#loc689)
      %b_Ai33_664 = tt.broadcast %b_Ai33_661 : tensor<16x1xi1> -> tensor<16x16xi1> loc(#loc689)
      %b_Ai33_665 = arith.select %b_Ai33_664, %b_Ai33_663, %b_Ai33_636 : tensor<16x16xi1>, tensor<16x16xf32> loc(#loc689)
      scf.yield %b_Ai33_665 : tensor<16x16xf32> loc(#loc319)
    } loc(#loc675)
    %b_Ai00_514 = arith.uitofp %m_I_412 : tensor<16x16xi1> to tensor<16x16xf32> loc(#loc690)
    %b_Ai00_515 = arith.addf %b_Ai00_495, %b_Ai00_514 : tensor<16x16xf32> loc(#loc690)
    %b_Ai11_516 = arith.uitofp %m_I_412 : tensor<16x16xi1> to tensor<16x16xf32> loc(#loc691)
    %b_Ai11_517 = arith.addf %b_Ai11_501, %b_Ai11_516 : tensor<16x16xf32> loc(#loc691)
    %b_Ai22_518 = arith.uitofp %m_I_412 : tensor<16x16xi1> to tensor<16x16xf32> loc(#loc692)
    %b_Ai22_519 = arith.addf %b_Ai22_507, %b_Ai22_518 : tensor<16x16xf32> loc(#loc692)
    %b_Ai33_520 = arith.uitofp %m_I_412 : tensor<16x16xi1> to tensor<16x16xf32> loc(#loc693)
    %b_Ai33_521 = arith.addf %b_Ai33_513, %b_Ai33_520 : tensor<16x16xf32> loc(#loc693)
    %b_Ai10 = arith.constant 0.000000e+00 : f32 loc(#loc694)
    %b_Ai10_522 = arith.constant dense<0.000000e+00> : tensor<16x16xf32> loc(#loc694)
    %b_Ai10_523 = tt.dot %b_Ai11_517, %b_A10_467, %b_Ai10_522, inputPrecision = tf32 : tensor<16x16xf32> * tensor<16x16xf32> -> tensor<16x16xf32> loc(#loc694)
    %b_Ai10_524 = arith.constant 0.000000e+00 : f32 loc(#loc695)
    %b_Ai10_525 = arith.constant dense<0.000000e+00> : tensor<16x16xf32> loc(#loc695)
    %b_Ai10_526 = tt.dot %b_Ai10_523, %b_Ai00_515, %b_Ai10_525, inputPrecision = tf32 : tensor<16x16xf32> * tensor<16x16xf32> -> tensor<16x16xf32> loc(#loc695)
    %b_Ai10_527 = arith.constant 0.000000e+00 : f32 loc(#loc696)
    %b_Ai10_528 = arith.constant dense<0.000000e+00> : tensor<16x16xf32> loc(#loc696)
    %b_Ai10_529 = arith.subf %b_Ai10_528, %b_Ai10_526 : tensor<16x16xf32> loc(#loc696)
    %b_Ai21 = arith.constant 0.000000e+00 : f32 loc(#loc697)
    %b_Ai21_530 = arith.constant dense<0.000000e+00> : tensor<16x16xf32> loc(#loc697)
    %b_Ai21_531 = tt.dot %b_Ai22_519, %b_A21_473, %b_Ai21_530, inputPrecision = tf32 : tensor<16x16xf32> * tensor<16x16xf32> -> tensor<16x16xf32> loc(#loc697)
    %b_Ai21_532 = arith.constant 0.000000e+00 : f32 loc(#loc698)
    %b_Ai21_533 = arith.constant dense<0.000000e+00> : tensor<16x16xf32> loc(#loc698)
    %b_Ai21_534 = tt.dot %b_Ai21_531, %b_Ai11_517, %b_Ai21_533, inputPrecision = tf32 : tensor<16x16xf32> * tensor<16x16xf32> -> tensor<16x16xf32> loc(#loc698)
    %b_Ai21_535 = arith.constant 0.000000e+00 : f32 loc(#loc699)
    %b_Ai21_536 = arith.constant dense<0.000000e+00> : tensor<16x16xf32> loc(#loc699)
    %b_Ai21_537 = arith.subf %b_Ai21_536, %b_Ai21_534 : tensor<16x16xf32> loc(#loc699)
    %b_Ai32 = arith.constant 0.000000e+00 : f32 loc(#loc700)
    %b_Ai32_538 = arith.constant dense<0.000000e+00> : tensor<16x16xf32> loc(#loc700)
    %b_Ai32_539 = tt.dot %b_Ai33_521, %b_A32_482, %b_Ai32_538, inputPrecision = tf32 : tensor<16x16xf32> * tensor<16x16xf32> -> tensor<16x16xf32> loc(#loc700)
    %b_Ai32_540 = arith.constant 0.000000e+00 : f32 loc(#loc701)
    %b_Ai32_541 = arith.constant dense<0.000000e+00> : tensor<16x16xf32> loc(#loc701)
    %b_Ai32_542 = tt.dot %b_Ai32_539, %b_Ai22_519, %b_Ai32_541, inputPrecision = tf32 : tensor<16x16xf32> * tensor<16x16xf32> -> tensor<16x16xf32> loc(#loc701)
    %b_Ai32_543 = arith.constant 0.000000e+00 : f32 loc(#loc702)
    %b_Ai32_544 = arith.constant dense<0.000000e+00> : tensor<16x16xf32> loc(#loc702)
    %b_Ai32_545 = arith.subf %b_Ai32_544, %b_Ai32_542 : tensor<16x16xf32> loc(#loc702)
    %b_Ai20 = arith.constant 0.000000e+00 : f32 loc(#loc703)
    %b_Ai20_546 = arith.constant dense<0.000000e+00> : tensor<16x16xf32> loc(#loc703)
    %b_Ai20_547 = tt.dot %b_A20_470, %b_Ai00_515, %b_Ai20_546, inputPrecision = tf32 : tensor<16x16xf32> * tensor<16x16xf32> -> tensor<16x16xf32> loc(#loc703)
    %b_Ai20_548 = arith.constant 0.000000e+00 : f32 loc(#loc704)
    %b_Ai20_549 = arith.constant dense<0.000000e+00> : tensor<16x16xf32> loc(#loc704)
    %b_Ai20_550 = tt.dot %b_A21_473, %b_Ai10_529, %b_Ai20_549, inputPrecision = tf32 : tensor<16x16xf32> * tensor<16x16xf32> -> tensor<16x16xf32> loc(#loc704)
    %b_Ai20_551 = arith.addf %b_Ai20_547, %b_Ai20_550 : tensor<16x16xf32> loc(#loc705)
    %b_Ai20_552 = arith.constant 0.000000e+00 : f32 loc(#loc706)
    %b_Ai20_553 = arith.constant dense<0.000000e+00> : tensor<16x16xf32> loc(#loc706)
    %b_Ai20_554 = tt.dot %b_Ai22_519, %b_Ai20_551, %b_Ai20_553, inputPrecision = tf32 : tensor<16x16xf32> * tensor<16x16xf32> -> tensor<16x16xf32> loc(#loc706)
    %b_Ai20_555 = arith.constant 0.000000e+00 : f32 loc(#loc707)
    %b_Ai20_556 = arith.constant dense<0.000000e+00> : tensor<16x16xf32> loc(#loc707)
    %b_Ai20_557 = arith.subf %b_Ai20_556, %b_Ai20_554 : tensor<16x16xf32> loc(#loc707)
    %b_Ai31 = arith.constant 0.000000e+00 : f32 loc(#loc708)
    %b_Ai31_558 = arith.constant dense<0.000000e+00> : tensor<16x16xf32> loc(#loc708)
    %b_Ai31_559 = tt.dot %b_A31_479, %b_Ai11_517, %b_Ai31_558, inputPrecision = tf32 : tensor<16x16xf32> * tensor<16x16xf32> -> tensor<16x16xf32> loc(#loc708)
    %b_Ai31_560 = arith.constant 0.000000e+00 : f32 loc(#loc709)
    %b_Ai31_561 = arith.constant dense<0.000000e+00> : tensor<16x16xf32> loc(#loc709)
    %b_Ai31_562 = tt.dot %b_A32_482, %b_Ai21_537, %b_Ai31_561, inputPrecision = tf32 : tensor<16x16xf32> * tensor<16x16xf32> -> tensor<16x16xf32> loc(#loc709)
    %b_Ai31_563 = arith.addf %b_Ai31_559, %b_Ai31_562 : tensor<16x16xf32> loc(#loc710)
    %b_Ai31_564 = arith.constant 0.000000e+00 : f32 loc(#loc711)
    %b_Ai31_565 = arith.constant dense<0.000000e+00> : tensor<16x16xf32> loc(#loc711)
    %b_Ai31_566 = tt.dot %b_Ai33_521, %b_Ai31_563, %b_Ai31_565, inputPrecision = tf32 : tensor<16x16xf32> * tensor<16x16xf32> -> tensor<16x16xf32> loc(#loc711)
    %b_Ai31_567 = arith.constant 0.000000e+00 : f32 loc(#loc712)
    %b_Ai31_568 = arith.constant dense<0.000000e+00> : tensor<16x16xf32> loc(#loc712)
    %b_Ai31_569 = arith.subf %b_Ai31_568, %b_Ai31_566 : tensor<16x16xf32> loc(#loc712)
    %b_Ai30 = arith.constant 0.000000e+00 : f32 loc(#loc713)
    %b_Ai30_570 = arith.constant dense<0.000000e+00> : tensor<16x16xf32> loc(#loc713)
    %b_Ai30_571 = tt.dot %b_A30_476, %b_Ai00_515, %b_Ai30_570, inputPrecision = tf32 : tensor<16x16xf32> * tensor<16x16xf32> -> tensor<16x16xf32> loc(#loc713)
    %b_Ai30_572 = arith.constant 0.000000e+00 : f32 loc(#loc714)
    %b_Ai30_573 = arith.constant dense<0.000000e+00> : tensor<16x16xf32> loc(#loc714)
    %b_Ai30_574 = tt.dot %b_A31_479, %b_Ai10_529, %b_Ai30_573, inputPrecision = tf32 : tensor<16x16xf32> * tensor<16x16xf32> -> tensor<16x16xf32> loc(#loc714)
    %b_Ai30_575 = arith.addf %b_Ai30_571, %b_Ai30_574 : tensor<16x16xf32> loc(#loc715)
    %b_Ai30_576 = arith.constant 0.000000e+00 : f32 loc(#loc716)
    %b_Ai30_577 = arith.constant dense<0.000000e+00> : tensor<16x16xf32> loc(#loc716)
    %b_Ai30_578 = tt.dot %b_A32_482, %b_Ai20_557, %b_Ai30_577, inputPrecision = tf32 : tensor<16x16xf32> * tensor<16x16xf32> -> tensor<16x16xf32> loc(#loc716)
    %b_Ai30_579 = arith.addf %b_Ai30_575, %b_Ai30_578 : tensor<16x16xf32> loc(#loc717)
    %b_Ai30_580 = arith.constant 0.000000e+00 : f32 loc(#loc718)
    %b_Ai30_581 = arith.constant dense<0.000000e+00> : tensor<16x16xf32> loc(#loc718)
    %b_Ai30_582 = tt.dot %b_Ai33_521, %b_Ai30_579, %b_Ai30_581, inputPrecision = tf32 : tensor<16x16xf32> * tensor<16x16xf32> -> tensor<16x16xf32> loc(#loc718)
    %b_Ai30_583 = arith.constant 0.000000e+00 : f32 loc(#loc719)
    %b_Ai30_584 = arith.constant dense<0.000000e+00> : tensor<16x16xf32> loc(#loc719)
    %b_Ai30_585 = arith.subf %b_Ai30_584, %b_Ai30_582 : tensor<16x16xf32> loc(#loc719)
    %p_A00 = arith.extsi %T_17 : i32 to i64 loc(#loc720)
    %p_A00_586 = arith.constant 64 : i64 loc(#loc720)
    %p_A00_587 = arith.constant 1536 : i64 loc(#loc720)
    %p_A00_588 = arith.constant 1 : i64 loc(#loc720)
    %p_A00_589 = arith.constant 0 : i32 loc(#loc720)
    %p_A00_590 = tt.make_tensor_ptr %A_160, [%p_A00, %p_A00_586], [%p_A00_587, %p_A00_588], [%i_tc0_30, %p_A00_589] {order = array<i32: 1, 0>} : <tensor<16x16xbf16>> loc(#loc720)
    %p_A10 = arith.extsi %T_17 : i32 to i64 loc(#loc721)
    %p_A10_591 = arith.constant 64 : i64 loc(#loc721)
    %p_A10_592 = arith.constant 1536 : i64 loc(#loc721)
    %p_A10_593 = arith.constant 1 : i64 loc(#loc721)
    %p_A10_594 = arith.constant 0 : i32 loc(#loc721)
    %p_A10_595 = tt.make_tensor_ptr %A_160, [%p_A10, %p_A10_591], [%p_A10_592, %p_A10_593], [%i_tc1_51, %p_A10_594] {order = array<i32: 1, 0>} : <tensor<16x16xbf16>> loc(#loc721)
    %p_A11 = arith.extsi %T_17 : i32 to i64 loc(#loc722)
    %p_A11_596 = arith.constant 64 : i64 loc(#loc722)
    %p_A11_597 = arith.constant 1536 : i64 loc(#loc722)
    %p_A11_598 = arith.constant 1 : i64 loc(#loc722)
    %p_A11_599 = arith.constant 16 : i32 loc(#loc722)
    %p_A11_600 = tt.make_tensor_ptr %A_160, [%p_A11, %p_A11_596], [%p_A11_597, %p_A11_598], [%i_tc1_51, %p_A11_599] {order = array<i32: 1, 0>} : <tensor<16x16xbf16>> loc(#loc722)
    %p_A20 = arith.extsi %T_17 : i32 to i64 loc(#loc723)
    %p_A20_601 = arith.constant 64 : i64 loc(#loc723)
    %p_A20_602 = arith.constant 1536 : i64 loc(#loc723)
    %p_A20_603 = arith.constant 1 : i64 loc(#loc723)
    %p_A20_604 = arith.constant 0 : i32 loc(#loc723)
    %p_A20_605 = tt.make_tensor_ptr %A_160, [%p_A20, %p_A20_601], [%p_A20_602, %p_A20_603], [%i_tc2_72, %p_A20_604] {order = array<i32: 1, 0>} : <tensor<16x16xbf16>> loc(#loc723)
    %p_A21 = arith.extsi %T_17 : i32 to i64 loc(#loc724)
    %p_A21_606 = arith.constant 64 : i64 loc(#loc724)
    %p_A21_607 = arith.constant 1536 : i64 loc(#loc724)
    %p_A21_608 = arith.constant 1 : i64 loc(#loc724)
    %p_A21_609 = arith.constant 16 : i32 loc(#loc724)
    %p_A21_610 = tt.make_tensor_ptr %A_160, [%p_A21, %p_A21_606], [%p_A21_607, %p_A21_608], [%i_tc2_72, %p_A21_609] {order = array<i32: 1, 0>} : <tensor<16x16xbf16>> loc(#loc724)
    %p_A22 = arith.extsi %T_17 : i32 to i64 loc(#loc725)
    %p_A22_611 = arith.constant 64 : i64 loc(#loc725)
    %p_A22_612 = arith.constant 1536 : i64 loc(#loc725)
    %p_A22_613 = arith.constant 1 : i64 loc(#loc725)
    %p_A22_614 = arith.constant 32 : i32 loc(#loc725)
    %p_A22_615 = tt.make_tensor_ptr %A_160, [%p_A22, %p_A22_611], [%p_A22_612, %p_A22_613], [%i_tc2_72, %p_A22_614] {order = array<i32: 1, 0>} : <tensor<16x16xbf16>> loc(#loc725)
    %p_A30 = arith.extsi %T_17 : i32 to i64 loc(#loc726)
    %p_A30_616 = arith.constant 64 : i64 loc(#loc726)
    %p_A30_617 = arith.constant 1536 : i64 loc(#loc726)
    %p_A30_618 = arith.constant 1 : i64 loc(#loc726)
    %p_A30_619 = arith.constant 0 : i32 loc(#loc726)
    %p_A30_620 = tt.make_tensor_ptr %A_160, [%p_A30, %p_A30_616], [%p_A30_617, %p_A30_618], [%i_tc3_93, %p_A30_619] {order = array<i32: 1, 0>} : <tensor<16x16xbf16>> loc(#loc726)
    %p_A31 = arith.extsi %T_17 : i32 to i64 loc(#loc727)
    %p_A31_621 = arith.constant 64 : i64 loc(#loc727)
    %p_A31_622 = arith.constant 1536 : i64 loc(#loc727)
    %p_A31_623 = arith.constant 1 : i64 loc(#loc727)
    %p_A31_624 = arith.constant 16 : i32 loc(#loc727)
    %p_A31_625 = tt.make_tensor_ptr %A_160, [%p_A31, %p_A31_621], [%p_A31_622, %p_A31_623], [%i_tc3_93, %p_A31_624] {order = array<i32: 1, 0>} : <tensor<16x16xbf16>> loc(#loc727)
    %p_A32 = arith.extsi %T_17 : i32 to i64 loc(#loc728)
    %p_A32_626 = arith.constant 64 : i64 loc(#loc728)
    %p_A32_627 = arith.constant 1536 : i64 loc(#loc728)
    %p_A32_628 = arith.constant 1 : i64 loc(#loc728)
    %p_A32_629 = arith.constant 32 : i32 loc(#loc728)
    %p_A32_630 = tt.make_tensor_ptr %A_160, [%p_A32, %p_A32_626], [%p_A32_627, %p_A32_628], [%i_tc3_93, %p_A32_629] {order = array<i32: 1, 0>} : <tensor<16x16xbf16>> loc(#loc728)
    %p_A33 = arith.extsi %T_17 : i32 to i64 loc(#loc729)
    %p_A33_631 = arith.constant 64 : i64 loc(#loc729)
    %p_A33_632 = arith.constant 1536 : i64 loc(#loc729)
    %p_A33_633 = arith.constant 1 : i64 loc(#loc729)
    %p_A33_634 = arith.constant 48 : i32 loc(#loc729)
    %p_A33_635 = tt.make_tensor_ptr %A_160, [%p_A33, %p_A33_631], [%p_A33_632, %p_A33_633], [%i_tc3_93, %p_A33_634] {order = array<i32: 1, 0>} : <tensor<16x16xbf16>> loc(#loc729)
    %90 = arith.truncf %b_Ai00_515 : tensor<16x16xf32> to tensor<16x16xbf16> loc(#loc360)
    tt.store %p_A00_590, %90 {boundaryCheck = array<i32: 0, 1>} : !tt.ptr<tensor<16x16xbf16>> loc(#loc361)
    %91 = arith.truncf %b_Ai10_529 : tensor<16x16xf32> to tensor<16x16xbf16> loc(#loc362)
    tt.store %p_A10_595, %91 {boundaryCheck = array<i32: 0, 1>} : !tt.ptr<tensor<16x16xbf16>> loc(#loc363)
    %92 = arith.truncf %b_Ai11_517 : tensor<16x16xf32> to tensor<16x16xbf16> loc(#loc364)
    tt.store %p_A11_600, %92 {boundaryCheck = array<i32: 0, 1>} : !tt.ptr<tensor<16x16xbf16>> loc(#loc365)
    %93 = arith.truncf %b_Ai20_557 : tensor<16x16xf32> to tensor<16x16xbf16> loc(#loc366)
    tt.store %p_A20_605, %93 {boundaryCheck = array<i32: 0, 1>} : !tt.ptr<tensor<16x16xbf16>> loc(#loc367)
    %94 = arith.truncf %b_Ai21_537 : tensor<16x16xf32> to tensor<16x16xbf16> loc(#loc368)
    tt.store %p_A21_610, %94 {boundaryCheck = array<i32: 0, 1>} : !tt.ptr<tensor<16x16xbf16>> loc(#loc369)
    %95 = arith.truncf %b_Ai22_519 : tensor<16x16xf32> to tensor<16x16xbf16> loc(#loc370)
    tt.store %p_A22_615, %95 {boundaryCheck = array<i32: 0, 1>} : !tt.ptr<tensor<16x16xbf16>> loc(#loc371)
    %96 = arith.truncf %b_Ai30_585 : tensor<16x16xf32> to tensor<16x16xbf16> loc(#loc372)
    tt.store %p_A30_620, %96 {boundaryCheck = array<i32: 0, 1>} : !tt.ptr<tensor<16x16xbf16>> loc(#loc373)
    %97 = arith.truncf %b_Ai31_569 : tensor<16x16xf32> to tensor<16x16xbf16> loc(#loc374)
    tt.store %p_A31_625, %97 {boundaryCheck = array<i32: 0, 1>} : !tt.ptr<tensor<16x16xbf16>> loc(#loc375)
    %98 = arith.truncf %b_Ai32_545 : tensor<16x16xf32> to tensor<16x16xbf16> loc(#loc376)
    tt.store %p_A32_630, %98 {boundaryCheck = array<i32: 0, 1>} : !tt.ptr<tensor<16x16xbf16>> loc(#loc377)
    %99 = arith.truncf %b_Ai33_521 : tensor<16x16xf32> to tensor<16x16xbf16> loc(#loc378)
    tt.store %p_A33_635, %99 {boundaryCheck = array<i32: 0, 1>} : !tt.ptr<tensor<16x16xbf16>> loc(#loc379)
    tt.return loc(#loc380)
  } loc(#loc)
  tt.func private @"triton.language.standard.zeros____(0, 0)cconstexpr_16__(0, 1)cconstexpr_16__(1,)cconstexpr_fp32_"() -> tensor<16x16xf32> attributes {noinline = false} {
    %cst = arith.constant 0.000000e+00 : f32 loc(#loc382)
    %cst_0 = arith.constant dense<0.000000e+00> : tensor<16x16xf32> loc(#loc382)
    tt.return %cst_0 : tensor<16x16xf32> loc(#loc383)
  ^bb1:  // no predecessors
    %0 = ub.poison : tensor<16x16xf32> loc(#loc384)
    tt.return %0 : tensor<16x16xf32> loc(#loc384)
  } loc(#loc381)
  tt.func private @"triton.language.standard.cdiv____(0,)cconstexpr_128__(1,)cconstexpr_64_"() -> i32 attributes {noinline = false} {
    %c2_i32 = arith.constant 2 : i32 loc(#loc386)
    tt.return %c2_i32 : i32 loc(#loc386)
  ^bb1:  // no predecessors
    %0 = ub.poison : i32 loc(#loc387)
    tt.return %0 : i32 loc(#loc387)
  } loc(#loc385)
  tt.func private @sglang.srt.layers.attention.fla.op.safe_exp__fp32S16_16S__(%x: tensor<16x16xf32> loc("x"(#loc388))) -> tensor<16x16xf32> attributes {noinline = false} {
    %c0_i32 = arith.constant 0 : i32 loc(#loc389)
    %0 = arith.sitofp %c0_i32 : i32 to f32 loc(#loc389)
    %1 = tt.splat %0 : f32 -> tensor<16x16xf32> loc(#loc389)
    %2 = arith.cmpf ole, %x, %1 : tensor<16x16xf32> loc(#loc389)
    %cst = arith.constant 0xFF800000 : f32 loc(#loc390)
    %cst_0 = arith.constant 0xFF800000 : f32 loc(#loc390)
    %cst_1 = arith.constant dense<0xFF800000> : tensor<16x16xf32> loc(#loc390)
    %3 = arith.select %2, %x, %cst_1 : tensor<16x16xi1>, tensor<16x16xf32> loc(#loc390)
    %4 = math.exp %3 : tensor<16x16xf32> loc(#loc391)
    tt.return %4 : tensor<16x16xf32> loc(#loc392)
  ^bb1:  // no predecessors
    %5 = ub.poison : tensor<16x16xf32> loc(#loc393)
    tt.return %5 : tensor<16x16xf32> loc(#loc393)
  } loc(#loc388)
  tt.func private @"triton.language.standard.sum__fp32S16_16S__(1,)cconstexpr_0__(2,)cconstexpr_False__(3,)cNone"(%input: tensor<16x16xf32> loc("input"(#loc394))) -> tensor<16xf32> attributes {noinline = false} {
    %0 = "tt.reduce"(%input) <{axis = 0 : i32}> ({
    ^bb0(%arg1: f32 loc(unknown), %arg2: f32 loc(unknown)):
      %2 = tt.call @triton.language.standard._sum_combine__fp32_fp32__(%arg1, %arg2) : (f32, f32) -> f32 loc(#loc395)
      tt.reduce.return %2 : f32 loc(#loc395)
    }) : (tensor<16x16xf32>) -> tensor<16xf32> loc(#loc395)
    tt.return %0 : tensor<16xf32> loc(#loc396)
  ^bb1:  // no predecessors
    %1 = ub.poison : tensor<16xf32> loc(#loc397)
    tt.return %1 : tensor<16xf32> loc(#loc397)
  } loc(#loc394)
  tt.func private @triton.language.standard._sum_combine__fp32_fp32__(%a: f32 loc("a"(#loc398)), %b: f32 loc("b"(#loc398))) -> f32 attributes {noinline = false} {
    %0 = arith.addf %a, %b : f32 loc(#loc399)
    tt.return %0 : f32 loc(#loc400)
  ^bb1:  // no predecessors
    %1 = ub.poison : f32 loc(#loc401)
    tt.return %1 : f32 loc(#loc401)
  } loc(#loc398)
} loc(#loc)
#loc1 = loc("/sgl-workspace/sglang/python/sglang/srt/layers/attention/fla/chunk_fwd.py":70:30)
#loc2 = loc("/sgl-workspace/sglang/python/sglang/srt/layers/attention/fla/chunk_fwd.py":70:48)
#loc3 = loc("/sgl-workspace/sglang/python/sglang/srt/layers/attention/fla/chunk_fwd.py":71:23)
#loc4 = loc("/sgl-workspace/sglang/python/sglang/srt/layers/attention/fla/chunk_fwd.py":71:33)
#loc5 = loc("/sgl-workspace/sglang/python/sglang/srt/layers/attention/fla/chunk_fwd.py":74:49)
#loc6 = loc("/sgl-workspace/sglang/python/sglang/srt/layers/attention/fla/chunk_fwd.py":74:43)
#loc7 = loc("/sgl-workspace/sglang/python/sglang/srt/layers/attention/fla/chunk_fwd.py":74:27)
#loc8 = loc("/sgl-workspace/sglang/python/sglang/srt/layers/attention/fla/chunk_fwd.py":75:34)
#loc9 = loc("/sgl-workspace/sglang/python/sglang/srt/layers/attention/fla/chunk_fwd.py":75:28)
#loc10 = loc("/sgl-workspace/sglang/python/sglang/srt/layers/attention/fla/chunk_fwd.py":75:38)
#loc11 = loc("/sgl-workspace/sglang/python/sglang/srt/layers/attention/fla/chunk_fwd.py":75:12)
#loc12 = loc("/sgl-workspace/sglang/python/sglang/srt/layers/attention/fla/chunk_fwd.py":77:40)
#loc13 = loc("/sgl-workspace/sglang/python/sglang/srt/layers/attention/fla/chunk_fwd.py":77:27)
#loc14 = loc("/sgl-workspace/sglang/python/sglang/srt/layers/attention/fla/chunk_fwd.py":78:25)
#loc15 = loc("/sgl-workspace/sglang/python/sglang/srt/layers/attention/fla/chunk_fwd.py":78:31)
#loc16 = loc("/sgl-workspace/sglang/python/sglang/srt/layers/attention/fla/chunk_fwd.py":78:12)
#loc17 = loc("/sgl-workspace/sglang/python/sglang/srt/layers/attention/fla/chunk_fwd.py":80:18)
#loc18 = loc("/sgl-workspace/sglang/python/sglang/srt/layers/attention/fla/chunk_fwd.py":84:13)
#loc19 = loc("/sgl-workspace/sglang/python/sglang/srt/layers/attention/fla/chunk_fwd.py":84:19)
#loc20 = loc("/sgl-workspace/sglang/python/sglang/srt/layers/attention/fla/chunk_fwd.py":85:8)
#loc22 = loc("/sgl-workspace/sglang/python/sglang/srt/layers/attention/fla/chunk_fwd.py":87:18)
#loc23 = loc("/sgl-workspace/sglang/python/sglang/srt/layers/attention/fla/chunk_fwd.py":88:18)
#loc24 = loc("/sgl-workspace/sglang/python/sglang/srt/layers/attention/fla/chunk_fwd.py":88:23)
#loc25 = loc("/sgl-workspace/sglang/python/sglang/srt/layers/attention/fla/chunk_fwd.py":89:18)
#loc26 = loc("/sgl-workspace/sglang/python/sglang/srt/layers/attention/fla/chunk_fwd.py":89:23)
#loc27 = loc("/sgl-workspace/sglang/python/sglang/srt/layers/attention/fla/chunk_fwd.py":90:18)
#loc28 = loc("/sgl-workspace/sglang/python/sglang/srt/layers/attention/fla/chunk_fwd.py":90:23)
#loc29 = loc("/sgl-workspace/sglang/python/sglang/srt/layers/attention/fla/chunk_fwd.py":92:16)
#loc30 = loc("/sgl-workspace/sglang/python/sglang/srt/layers/attention/fla/chunk_fwd.py":92:29)
#loc31 = loc("/sgl-workspace/sglang/python/sglang/srt/layers/attention/fla/chunk_fwd.py":92:21)
#loc32 = loc("/sgl-workspace/sglang/python/sglang/srt/layers/attention/fla/chunk_fwd.py":92:41)
#loc33 = loc("/sgl-workspace/sglang/python/sglang/srt/layers/attention/fla/chunk_fwd.py":92:9)
#loc34 = loc("/sgl-workspace/sglang/python/sglang/srt/layers/attention/fla/chunk_fwd.py":93:16)
#loc35 = loc("/sgl-workspace/sglang/python/sglang/srt/layers/attention/fla/chunk_fwd.py":93:20)
#loc36 = loc("/sgl-workspace/sglang/python/sglang/srt/layers/attention/fla/chunk_fwd.py":93:27)
#loc37 = loc("/sgl-workspace/sglang/python/sglang/srt/layers/attention/fla/chunk_fwd.py":93:9)
#loc38 = loc("/sgl-workspace/sglang/python/sglang/srt/layers/attention/fla/chunk_fwd.py":95:23)
#loc39 = loc("/sgl-workspace/sglang/python/sglang/srt/layers/attention/fla/chunk_fwd.py":96:21)
#loc40 = loc("/sgl-workspace/sglang/python/sglang/srt/layers/attention/fla/chunk_fwd.py":96:28)
#loc41 = loc("/sgl-workspace/sglang/python/sglang/srt/layers/attention/fla/chunk_fwd.py":97:21)
#loc42 = loc("/sgl-workspace/sglang/python/sglang/srt/layers/attention/fla/chunk_fwd.py":97:28)
#loc43 = loc("/sgl-workspace/sglang/python/sglang/srt/layers/attention/fla/chunk_fwd.py":98:21)
#loc44 = loc("/sgl-workspace/sglang/python/sglang/srt/layers/attention/fla/chunk_fwd.py":98:28)
#loc45 = loc("/sgl-workspace/sglang/python/sglang/srt/layers/attention/fla/chunk_fwd.py":99:21)
#loc46 = loc("/sgl-workspace/sglang/python/sglang/srt/layers/attention/fla/chunk_fwd.py":99:28)
#loc47 = loc("/sgl-workspace/sglang/python/sglang/srt/layers/attention/fla/chunk_fwd.py":102:42)
#loc48 = loc("/sgl-workspace/sglang/python/sglang/srt/layers/attention/fla/chunk_fwd.py":102:36)
#loc49 = loc("/sgl-workspace/sglang/python/sglang/srt/layers/attention/fla/chunk_fwd.py":102:46)
#loc50 = loc("/sgl-workspace/sglang/python/sglang/srt/layers/attention/fla/chunk_fwd.py":102:80)
#loc51 = loc("/sgl-workspace/sglang/python/sglang/srt/layers/attention/fla/chunk_fwd.py":103:42)
#loc52 = loc("/sgl-workspace/sglang/python/sglang/srt/layers/attention/fla/chunk_fwd.py":103:36)
#loc53 = loc("/sgl-workspace/sglang/python/sglang/srt/layers/attention/fla/chunk_fwd.py":103:46)
#loc54 = loc("/sgl-workspace/sglang/python/sglang/srt/layers/attention/fla/chunk_fwd.py":103:80)
#loc55 = loc("/sgl-workspace/sglang/python/sglang/srt/layers/attention/fla/chunk_fwd.py":104:42)
#loc56 = loc("/sgl-workspace/sglang/python/sglang/srt/layers/attention/fla/chunk_fwd.py":104:36)
#loc57 = loc("/sgl-workspace/sglang/python/sglang/srt/layers/attention/fla/chunk_fwd.py":104:46)
#loc58 = loc("/sgl-workspace/sglang/python/sglang/srt/layers/attention/fla/chunk_fwd.py":104:80)
#loc59 = loc("/sgl-workspace/sglang/python/sglang/srt/layers/attention/fla/chunk_fwd.py":105:42)
#loc60 = loc("/sgl-workspace/sglang/python/sglang/srt/layers/attention/fla/chunk_fwd.py":105:36)
#loc61 = loc("/sgl-workspace/sglang/python/sglang/srt/layers/attention/fla/chunk_fwd.py":105:46)
#loc62 = loc("/sgl-workspace/sglang/python/sglang/srt/layers/attention/fla/chunk_fwd.py":105:80)
#loc63 = loc("/sgl-workspace/sglang/python/sglang/srt/layers/attention/fla/chunk_fwd.py":106:19)
#loc64 = loc("/sgl-workspace/sglang/python/sglang/srt/layers/attention/fla/chunk_fwd.py":107:19)
#loc65 = loc("/sgl-workspace/sglang/python/sglang/srt/layers/attention/fla/chunk_fwd.py":108:19)
#loc66 = loc("/sgl-workspace/sglang/python/sglang/srt/layers/attention/fla/chunk_fwd.py":109:19)
#loc67 = loc("/sgl-workspace/sglang/python/sglang/srt/layers/attention/fla/chunk_fwd.py":113:43)
#loc68 = loc("/sgl-workspace/sglang/python/sglang/srt/layers/attention/fla/chunk_fwd.py":113:37)
#loc69 = loc("/sgl-workspace/sglang/python/sglang/srt/layers/attention/fla/chunk_fwd.py":113:47)
#loc70 = loc("/sgl-workspace/sglang/python/sglang/srt/layers/attention/fla/chunk_fwd.py":113:81)
#loc71 = loc("/sgl-workspace/sglang/python/sglang/srt/layers/attention/fla/chunk_fwd.py":114:43)
#loc72 = loc("/sgl-workspace/sglang/python/sglang/srt/layers/attention/fla/chunk_fwd.py":114:37)
#loc73 = loc("/sgl-workspace/sglang/python/sglang/srt/layers/attention/fla/chunk_fwd.py":114:47)
#loc74 = loc("/sgl-workspace/sglang/python/sglang/srt/layers/attention/fla/chunk_fwd.py":114:81)
#loc75 = loc("/sgl-workspace/sglang/python/sglang/srt/layers/attention/fla/chunk_fwd.py":115:43)
#loc76 = loc("/sgl-workspace/sglang/python/sglang/srt/layers/attention/fla/chunk_fwd.py":115:37)
#loc77 = loc("/sgl-workspace/sglang/python/sglang/srt/layers/attention/fla/chunk_fwd.py":115:47)
#loc78 = loc("/sgl-workspace/sglang/python/sglang/srt/layers/attention/fla/chunk_fwd.py":115:81)
#loc79 = loc("/sgl-workspace/sglang/python/sglang/srt/layers/attention/fla/chunk_fwd.py":116:43)
#loc80 = loc("/sgl-workspace/sglang/python/sglang/srt/layers/attention/fla/chunk_fwd.py":116:37)
#loc81 = loc("/sgl-workspace/sglang/python/sglang/srt/layers/attention/fla/chunk_fwd.py":116:47)
#loc82 = loc("/sgl-workspace/sglang/python/sglang/srt/layers/attention/fla/chunk_fwd.py":116:81)
#loc83 = loc("/sgl-workspace/sglang/python/sglang/srt/layers/attention/fla/chunk_fwd.py":118:23)
#loc84 = loc("/sgl-workspace/sglang/python/sglang/srt/layers/attention/fla/chunk_fwd.py":119:23)
#loc85 = loc("/sgl-workspace/sglang/python/sglang/srt/layers/attention/fla/chunk_fwd.py":120:23)
#loc86 = loc("/sgl-workspace/sglang/python/sglang/srt/layers/attention/fla/chunk_fwd.py":121:23)
#loc87 = loc("/sgl-workspace/sglang/python/sglang/srt/layers/attention/fla/chunk_fwd.py":128:21)
#loc88 = loc("/sgl-workspace/sglang/python/sglang/srt/layers/attention/fla/chunk_fwd.py":129:21)
#loc89 = loc("/sgl-workspace/sglang/python/sglang/srt/layers/attention/fla/chunk_fwd.py":130:21)
#loc90 = loc("/sgl-workspace/sglang/python/sglang/srt/layers/attention/fla/chunk_fwd.py":131:21)
#loc91 = loc("/sgl-workspace/sglang/python/sglang/srt/layers/attention/fla/chunk_fwd.py":134:21)
#loc92 = loc("/sgl-workspace/sglang/python/sglang/srt/layers/attention/fla/chunk_fwd.py":135:21)
#loc93 = loc("/sgl-workspace/sglang/python/sglang/srt/layers/attention/fla/chunk_fwd.py":136:21)
#loc94 = loc("/sgl-workspace/sglang/python/sglang/srt/layers/attention/fla/chunk_fwd.py":137:21)
#loc95 = loc("/sgl-workspace/sglang/python/sglang/srt/layers/attention/fla/chunk_fwd.py":138:21)
#loc96 = loc("/sgl-workspace/sglang/python/sglang/srt/layers/attention/fla/chunk_fwd.py":139:21)
#loc97 = loc("/sgl-workspace/sglang/python/sglang/srt/layers/attention/fla/chunk_fwd.py":141:32)
#loc98 = loc("/sgl-workspace/sglang/python/sglang/srt/layers/attention/fla/chunk_fwd.py":141:21)
#loc99 = loc("/sgl-workspace/sglang/python/sglang/srt/layers/attention/fla/chunk_fwd.py":143:50)
#loc100 = loc("/sgl-workspace/sglang/python/sglang/srt/layers/attention/fla/chunk_fwd.py":143:65)
#loc101 = loc("/sgl-workspace/sglang/python/sglang/srt/layers/attention/fla/chunk_fwd.py":145:23)
#loc102 = loc("/sgl-workspace/sglang/python/sglang/srt/layers/attention/fla/chunk_fwd.py":147:39)
#loc103 = loc("/sgl-workspace/sglang/python/sglang/srt/layers/attention/fla/chunk_fwd.py":147:30)
#loc104 = loc("/sgl-workspace/sglang/python/sglang/srt/layers/attention/fla/chunk_fwd.py":147:17)
#loc105 = loc("/sgl-workspace/sglang/python/sglang/srt/layers/attention/fla/chunk_fwd.py":149:19)
#loc106 = loc("/sgl-workspace/sglang/python/sglang/srt/layers/attention/fla/chunk_fwd.py":149:11)
#loc107 = loc("/sgl-workspace/sglang/python/sglang/srt/layers/attention/fla/chunk_fwd.py":151:54)
#loc108 = loc("/sgl-workspace/sglang/python/sglang/srt/layers/attention/fla/chunk_fwd.py":151:69)
#loc109 = loc("/sgl-workspace/sglang/python/sglang/srt/layers/attention/fla/chunk_fwd.py":153:27)
#loc110 = loc("/sgl-workspace/sglang/python/sglang/srt/layers/attention/fla/chunk_fwd.py":155:43)
#loc111 = loc("/sgl-workspace/sglang/python/sglang/srt/layers/attention/fla/chunk_fwd.py":155:34)
#loc112 = loc("/sgl-workspace/sglang/python/sglang/srt/layers/attention/fla/chunk_fwd.py":155:21)
#loc113 = loc("/sgl-workspace/sglang/python/sglang/srt/layers/attention/fla/chunk_fwd.py":157:43)
#loc114 = loc("/sgl-workspace/sglang/python/sglang/srt/layers/attention/fla/chunk_fwd.py":157:34)
#loc115 = loc("/sgl-workspace/sglang/python/sglang/srt/layers/attention/fla/chunk_fwd.py":157:21)
#loc116 = loc("/sgl-workspace/sglang/python/sglang/srt/layers/attention/fla/chunk_fwd.py":159:23)
#loc117 = loc("/sgl-workspace/sglang/python/sglang/srt/layers/attention/fla/chunk_fwd.py":159:15)
#loc118 = loc("/sgl-workspace/sglang/python/sglang/srt/layers/attention/fla/chunk_fwd.py":161:58)
#loc119 = loc("/sgl-workspace/sglang/python/sglang/srt/layers/attention/fla/chunk_fwd.py":161:73)
#loc120 = loc("/sgl-workspace/sglang/python/sglang/srt/layers/attention/fla/chunk_fwd.py":163:31)
#loc121 = loc("/sgl-workspace/sglang/python/sglang/srt/layers/attention/fla/chunk_fwd.py":165:47)
#loc122 = loc("/sgl-workspace/sglang/python/sglang/srt/layers/attention/fla/chunk_fwd.py":165:38)
#loc123 = loc("/sgl-workspace/sglang/python/sglang/srt/layers/attention/fla/chunk_fwd.py":165:25)
#loc124 = loc("/sgl-workspace/sglang/python/sglang/srt/layers/attention/fla/chunk_fwd.py":167:47)
#loc125 = loc("/sgl-workspace/sglang/python/sglang/srt/layers/attention/fla/chunk_fwd.py":167:38)
#loc126 = loc("/sgl-workspace/sglang/python/sglang/srt/layers/attention/fla/chunk_fwd.py":167:25)
#loc127 = loc("/sgl-workspace/sglang/python/sglang/srt/layers/attention/fla/chunk_fwd.py":168:47)
#loc128 = loc("/sgl-workspace/sglang/python/sglang/srt/layers/attention/fla/chunk_fwd.py":168:38)
#loc129 = loc("/sgl-workspace/sglang/python/sglang/srt/layers/attention/fla/chunk_fwd.py":168:25)
#loc130 = loc("/sgl-workspace/sglang/python/sglang/srt/layers/attention/fla/chunk_fwd.py":170:27)
#loc131 = loc("/sgl-workspace/sglang/python/sglang/srt/layers/attention/fla/chunk_fwd.py":170:19)
#loc132 = loc("/sgl-workspace/sglang/python/sglang/srt/layers/attention/fla/chunk_fwd.py":172:62)
#loc133 = loc("/sgl-workspace/sglang/python/sglang/srt/layers/attention/fla/chunk_fwd.py":172:77)
#loc134 = loc("/sgl-workspace/sglang/python/sglang/srt/layers/attention/fla/chunk_fwd.py":174:35)
#loc135 = loc("/sgl-workspace/sglang/python/sglang/srt/layers/attention/fla/chunk_fwd.py":176:51)
#loc136 = loc("/sgl-workspace/sglang/python/sglang/srt/layers/attention/fla/chunk_fwd.py":176:42)
#loc137 = loc("/sgl-workspace/sglang/python/sglang/srt/layers/attention/fla/chunk_fwd.py":176:29)
#loc138 = loc("/sgl-workspace/sglang/python/sglang/srt/layers/attention/fla/chunk_fwd.py":178:51)
#loc139 = loc("/sgl-workspace/sglang/python/sglang/srt/layers/attention/fla/chunk_fwd.py":178:42)
#loc140 = loc("/sgl-workspace/sglang/python/sglang/srt/layers/attention/fla/chunk_fwd.py":178:29)
#loc141 = loc("/sgl-workspace/sglang/python/sglang/srt/layers/attention/fla/chunk_fwd.py":179:51)
#loc142 = loc("/sgl-workspace/sglang/python/sglang/srt/layers/attention/fla/chunk_fwd.py":179:42)
#loc143 = loc("/sgl-workspace/sglang/python/sglang/srt/layers/attention/fla/chunk_fwd.py":179:29)
#loc144 = loc("/sgl-workspace/sglang/python/sglang/srt/layers/attention/fla/chunk_fwd.py":180:51)
#loc145 = loc("/sgl-workspace/sglang/python/sglang/srt/layers/attention/fla/chunk_fwd.py":180:42)
#loc146 = loc("/sgl-workspace/sglang/python/sglang/srt/layers/attention/fla/chunk_fwd.py":180:29)
#loc147 = loc("/sgl-workspace/sglang/python/sglang/srt/layers/attention/fla/chunk_fwd.py":149:8)
#loc148 = loc("/sgl-workspace/sglang/python/sglang/srt/layers/attention/fla/chunk_fwd.py":188:31)
#loc149 = loc("/sgl-workspace/sglang/python/sglang/srt/layers/attention/fla/chunk_fwd.py":188:47)
#loc150 = loc("/sgl-workspace/sglang/python/sglang/srt/layers/attention/fla/chunk_fwd.py":188:42)
#loc151 = loc("/sgl-workspace/sglang/python/sglang/srt/layers/attention/fla/chunk_fwd.py":188:26)
#loc152 = loc("/sgl-workspace/sglang/python/sglang/srt/layers/attention/fla/chunk_fwd.py":188:17)
#loc153 = loc("/sgl-workspace/sglang/python/sglang/srt/layers/attention/fla/chunk_fwd.py":189:31)
#loc154 = loc("/sgl-workspace/sglang/python/sglang/srt/layers/attention/fla/chunk_fwd.py":189:47)
#loc155 = loc("/sgl-workspace/sglang/python/sglang/srt/layers/attention/fla/chunk_fwd.py":189:42)
#loc156 = loc("/sgl-workspace/sglang/python/sglang/srt/layers/attention/fla/chunk_fwd.py":189:26)
#loc157 = loc("/sgl-workspace/sglang/python/sglang/srt/layers/attention/fla/chunk_fwd.py":189:17)
#loc158 = loc("/sgl-workspace/sglang/python/sglang/srt/layers/attention/fla/chunk_fwd.py":190:31)
#loc159 = loc("/sgl-workspace/sglang/python/sglang/srt/layers/attention/fla/chunk_fwd.py":190:47)
#loc160 = loc("/sgl-workspace/sglang/python/sglang/srt/layers/attention/fla/chunk_fwd.py":190:42)
#loc161 = loc("/sgl-workspace/sglang/python/sglang/srt/layers/attention/fla/chunk_fwd.py":190:26)
#loc162 = loc("/sgl-workspace/sglang/python/sglang/srt/layers/attention/fla/chunk_fwd.py":190:17)
#loc163 = loc("/sgl-workspace/sglang/python/sglang/srt/layers/attention/fla/chunk_fwd.py":191:31)
#loc164 = loc("/sgl-workspace/sglang/python/sglang/srt/layers/attention/fla/chunk_fwd.py":191:47)
#loc165 = loc("/sgl-workspace/sglang/python/sglang/srt/layers/attention/fla/chunk_fwd.py":191:42)
#loc166 = loc("/sgl-workspace/sglang/python/sglang/srt/layers/attention/fla/chunk_fwd.py":191:26)
#loc167 = loc("/sgl-workspace/sglang/python/sglang/srt/layers/attention/fla/chunk_fwd.py":191:17)
#loc168 = loc("/sgl-workspace/sglang/python/sglang/srt/layers/attention/fla/chunk_fwd.py":194:31)
#loc169 = loc("/sgl-workspace/sglang/python/sglang/srt/layers/attention/fla/chunk_fwd.py":194:47)
#loc170 = loc("/sgl-workspace/sglang/python/sglang/srt/layers/attention/fla/chunk_fwd.py":194:42)
#loc171 = loc("/sgl-workspace/sglang/python/sglang/srt/layers/attention/fla/chunk_fwd.py":194:26)
#loc172 = loc("/sgl-workspace/sglang/python/sglang/srt/layers/attention/fla/chunk_fwd.py":194:17)
#loc173 = loc("/sgl-workspace/sglang/python/sglang/srt/layers/attention/fla/chunk_fwd.py":195:31)
#loc174 = loc("/sgl-workspace/sglang/python/sglang/srt/layers/attention/fla/chunk_fwd.py":195:47)
#loc175 = loc("/sgl-workspace/sglang/python/sglang/srt/layers/attention/fla/chunk_fwd.py":195:42)
#loc176 = loc("/sgl-workspace/sglang/python/sglang/srt/layers/attention/fla/chunk_fwd.py":195:26)
#loc177 = loc("/sgl-workspace/sglang/python/sglang/srt/layers/attention/fla/chunk_fwd.py":195:17)
#loc178 = loc("/sgl-workspace/sglang/python/sglang/srt/layers/attention/fla/chunk_fwd.py":196:31)
#loc179 = loc("/sgl-workspace/sglang/python/sglang/srt/layers/attention/fla/chunk_fwd.py":196:47)
#loc180 = loc("/sgl-workspace/sglang/python/sglang/srt/layers/attention/fla/chunk_fwd.py":196:42)
#loc181 = loc("/sgl-workspace/sglang/python/sglang/srt/layers/attention/fla/chunk_fwd.py":196:26)
#loc182 = loc("/sgl-workspace/sglang/python/sglang/srt/layers/attention/fla/chunk_fwd.py":196:17)
#loc183 = loc("/sgl-workspace/sglang/python/sglang/srt/layers/attention/fla/chunk_fwd.py":197:31)
#loc184 = loc("/sgl-workspace/sglang/python/sglang/srt/layers/attention/fla/chunk_fwd.py":197:47)
#loc185 = loc("/sgl-workspace/sglang/python/sglang/srt/layers/attention/fla/chunk_fwd.py":197:42)
#loc186 = loc("/sgl-workspace/sglang/python/sglang/srt/layers/attention/fla/chunk_fwd.py":197:26)
#loc187 = loc("/sgl-workspace/sglang/python/sglang/srt/layers/attention/fla/chunk_fwd.py":197:17)
#loc188 = loc("/sgl-workspace/sglang/python/sglang/srt/layers/attention/fla/chunk_fwd.py":198:31)
#loc189 = loc("/sgl-workspace/sglang/python/sglang/srt/layers/attention/fla/chunk_fwd.py":198:47)
#loc190 = loc("/sgl-workspace/sglang/python/sglang/srt/layers/attention/fla/chunk_fwd.py":198:42)
#loc191 = loc("/sgl-workspace/sglang/python/sglang/srt/layers/attention/fla/chunk_fwd.py":198:26)
#loc192 = loc("/sgl-workspace/sglang/python/sglang/srt/layers/attention/fla/chunk_fwd.py":198:17)
#loc193 = loc("/sgl-workspace/sglang/python/sglang/srt/layers/attention/fla/chunk_fwd.py":199:31)
#loc194 = loc("/sgl-workspace/sglang/python/sglang/srt/layers/attention/fla/chunk_fwd.py":199:47)
#loc195 = loc("/sgl-workspace/sglang/python/sglang/srt/layers/attention/fla/chunk_fwd.py":199:42)
#loc196 = loc("/sgl-workspace/sglang/python/sglang/srt/layers/attention/fla/chunk_fwd.py":199:26)
#loc197 = loc("/sgl-workspace/sglang/python/sglang/srt/layers/attention/fla/chunk_fwd.py":199:17)
#loc198 = loc("/sgl-workspace/sglang/python/sglang/srt/layers/attention/fla/chunk_fwd.py":202:14)
#loc199 = loc("/sgl-workspace/sglang/python/sglang/srt/layers/attention/fla/chunk_fwd.py":202:29)
#loc200 = loc("/sgl-workspace/sglang/python/sglang/srt/layers/attention/fla/chunk_fwd.py":202:25)
#loc201 = loc("/sgl-workspace/sglang/python/sglang/srt/layers/attention/fla/chunk_fwd.py":203:14)
#loc202 = loc("/sgl-workspace/sglang/python/sglang/srt/layers/attention/fla/chunk_fwd.py":203:30)
#loc203 = loc("/sgl-workspace/sglang/python/sglang/srt/layers/attention/fla/chunk_fwd.py":203:26)
#loc204 = loc("/sgl-workspace/sglang/python/sglang/srt/layers/attention/fla/chunk_fwd.py":207:30)
#loc205 = loc("/sgl-workspace/sglang/python/sglang/srt/layers/attention/fla/chunk_fwd.py":207:47)
#loc206 = loc("/sgl-workspace/sglang/python/sglang/srt/layers/attention/fla/chunk_fwd.py":207:41)
#loc207 = loc("/sgl-workspace/sglang/python/sglang/srt/layers/attention/fla/chunk_fwd.py":207:24)
#loc208 = loc("/sgl-workspace/sglang/python/sglang/srt/layers/attention/fla/chunk_fwd.py":207:65)
#loc209 = loc("/sgl-workspace/sglang/python/sglang/srt/layers/attention/fla/chunk_fwd.py":207:77)
#loc210 = loc("/sgl-workspace/sglang/python/sglang/srt/layers/attention/fla/chunk_fwd.py":207:72)
#loc211 = loc("/sgl-workspace/sglang/python/sglang/srt/layers/attention/fla/chunk_fwd.py":210:30)
#loc212 = loc("/sgl-workspace/sglang/python/sglang/srt/layers/attention/fla/chunk_fwd.py":210:47)
#loc213 = loc("/sgl-workspace/sglang/python/sglang/srt/layers/attention/fla/chunk_fwd.py":210:41)
#loc214 = loc("/sgl-workspace/sglang/python/sglang/srt/layers/attention/fla/chunk_fwd.py":210:24)
#loc215 = loc("/sgl-workspace/sglang/python/sglang/srt/layers/attention/fla/chunk_fwd.py":210:65)
#loc216 = loc("/sgl-workspace/sglang/python/sglang/srt/layers/attention/fla/chunk_fwd.py":210:77)
#loc217 = loc("/sgl-workspace/sglang/python/sglang/srt/layers/attention/fla/chunk_fwd.py":210:72)
#loc218 = loc("/sgl-workspace/sglang/python/sglang/srt/layers/attention/fla/chunk_fwd.py":213:30)
#loc219 = loc("/sgl-workspace/sglang/python/sglang/srt/layers/attention/fla/chunk_fwd.py":213:47)
#loc220 = loc("/sgl-workspace/sglang/python/sglang/srt/layers/attention/fla/chunk_fwd.py":213:41)
#loc221 = loc("/sgl-workspace/sglang/python/sglang/srt/layers/attention/fla/chunk_fwd.py":213:24)
#loc222 = loc("/sgl-workspace/sglang/python/sglang/srt/layers/attention/fla/chunk_fwd.py":213:65)
#loc223 = loc("/sgl-workspace/sglang/python/sglang/srt/layers/attention/fla/chunk_fwd.py":213:77)
#loc224 = loc("/sgl-workspace/sglang/python/sglang/srt/layers/attention/fla/chunk_fwd.py":213:72)
#loc225 = loc("/sgl-workspace/sglang/python/sglang/srt/layers/attention/fla/chunk_fwd.py":216:30)
#loc226 = loc("/sgl-workspace/sglang/python/sglang/srt/layers/attention/fla/chunk_fwd.py":216:47)
#loc227 = loc("/sgl-workspace/sglang/python/sglang/srt/layers/attention/fla/chunk_fwd.py":216:41)
#loc228 = loc("/sgl-workspace/sglang/python/sglang/srt/layers/attention/fla/chunk_fwd.py":216:24)
#loc229 = loc("/sgl-workspace/sglang/python/sglang/srt/layers/attention/fla/chunk_fwd.py":216:65)
#loc230 = loc("/sgl-workspace/sglang/python/sglang/srt/layers/attention/fla/chunk_fwd.py":216:77)
#loc231 = loc("/sgl-workspace/sglang/python/sglang/srt/layers/attention/fla/chunk_fwd.py":216:72)
#loc232 = loc("/sgl-workspace/sglang/python/sglang/srt/layers/attention/fla/chunk_fwd.py":220:25)
#loc233 = loc("/sgl-workspace/sglang/python/sglang/srt/layers/attention/fla/chunk_fwd.py":220:20)
#loc234 = loc("/sgl-workspace/sglang/python/sglang/srt/layers/attention/fla/chunk_fwd.py":221:25)
#loc235 = loc("/sgl-workspace/sglang/python/sglang/srt/layers/attention/fla/chunk_fwd.py":221:20)
#loc236 = loc("/sgl-workspace/sglang/python/sglang/srt/layers/attention/fla/chunk_fwd.py":222:25)
#loc237 = loc("/sgl-workspace/sglang/python/sglang/srt/layers/attention/fla/chunk_fwd.py":222:20)
#loc238 = loc("/sgl-workspace/sglang/python/sglang/srt/layers/attention/fla/chunk_fwd.py":223:25)
#loc239 = loc("/sgl-workspace/sglang/python/sglang/srt/layers/attention/fla/chunk_fwd.py":223:20)
#loc240 = loc("/sgl-workspace/sglang/python/sglang/srt/layers/attention/fla/chunk_fwd.py":224:25)
#loc241 = loc("/sgl-workspace/sglang/python/sglang/srt/layers/attention/fla/chunk_fwd.py":224:20)
#loc242 = loc("/sgl-workspace/sglang/python/sglang/srt/layers/attention/fla/chunk_fwd.py":225:25)
#loc243 = loc("/sgl-workspace/sglang/python/sglang/srt/layers/attention/fla/chunk_fwd.py":225:20)
#loc244 = loc("/sgl-workspace/sglang/python/sglang/srt/layers/attention/fla/chunk_fwd.py":235:14)
#loc245 = loc("/sgl-workspace/sglang/python/sglang/srt/layers/attention/fla/chunk_fwd.py":236:14)
#loc246 = loc("/sgl-workspace/sglang/python/sglang/srt/layers/attention/fla/chunk_fwd.py":237:14)
#loc247 = loc("/sgl-workspace/sglang/python/sglang/srt/layers/attention/fla/chunk_fwd.py":238:14)
#loc248 = loc("/sgl-workspace/sglang/python/sglang/srt/layers/attention/fla/chunk_fwd.py":240:34)
#loc249 = loc("/sgl-workspace/sglang/python/sglang/srt/layers/attention/fla/chunk_fwd.py":240:30)
#loc250 = loc("/sgl-workspace/sglang/python/sglang/srt/layers/attention/fla/chunk_fwd.py":240:22)
#loc251 = loc("/sgl-workspace/sglang/python/sglang/srt/layers/attention/fla/chunk_fwd.py":241:40)
#loc252 = loc("/sgl-workspace/sglang/python/sglang/srt/layers/attention/fla/chunk_fwd.py":241:43)
#loc253 = loc("/sgl-workspace/sglang/python/sglang/srt/layers/attention/fla/chunk_fwd.py":241:54)
#loc254 = loc("/sgl-workspace/sglang/python/sglang/srt/layers/attention/fla/chunk_fwd.py":241:61)
#loc255 = loc("/sgl-workspace/sglang/python/sglang/srt/layers/attention/fla/chunk_fwd.py":241:67)
#loc256 = loc("/sgl-workspace/sglang/python/sglang/srt/layers/attention/fla/chunk_fwd.py":242:31)
#loc257 = loc("/sgl-workspace/sglang/python/sglang/srt/layers/attention/fla/chunk_fwd.py":242:41)
#loc258 = loc("/sgl-workspace/sglang/python/sglang/srt/layers/attention/fla/chunk_fwd.py":243:37)
#loc259 = loc("/sgl-workspace/sglang/python/sglang/srt/layers/attention/fla/chunk_fwd.py":243:48)
#loc260 = loc("/sgl-workspace/sglang/python/sglang/srt/layers/attention/fla/chunk_fwd.py":243:56)
#loc261 = loc("/sgl-workspace/sglang/python/sglang/srt/layers/attention/fla/chunk_fwd.py":243:24)
#loc262 = loc("/sgl-workspace/sglang/python/sglang/srt/layers/attention/fla/chunk_fwd.py":244:34)
#loc263 = loc("/sgl-workspace/sglang/python/sglang/srt/layers/attention/fla/chunk_fwd.py":244:37)
#loc264 = loc("/sgl-workspace/sglang/python/sglang/srt/layers/attention/fla/chunk_fwd.py":244:54)
#loc265 = loc("/sgl-workspace/sglang/python/sglang/srt/layers/attention/fla/chunk_fwd.py":244:8)
#loc266 = loc("/sgl-workspace/sglang/python/sglang/srt/layers/attention/fla/chunk_fwd.py":245:34)
#loc267 = loc("/sgl-workspace/sglang/python/sglang/srt/layers/attention/fla/chunk_fwd.py":245:30)
#loc268 = loc("/sgl-workspace/sglang/python/sglang/srt/layers/attention/fla/chunk_fwd.py":245:22)
#loc269 = loc("/sgl-workspace/sglang/python/sglang/srt/layers/attention/fla/chunk_fwd.py":246:40)
#loc270 = loc("/sgl-workspace/sglang/python/sglang/srt/layers/attention/fla/chunk_fwd.py":246:43)
#loc271 = loc("/sgl-workspace/sglang/python/sglang/srt/layers/attention/fla/chunk_fwd.py":246:54)
#loc272 = loc("/sgl-workspace/sglang/python/sglang/srt/layers/attention/fla/chunk_fwd.py":246:61)
#loc273 = loc("/sgl-workspace/sglang/python/sglang/srt/layers/attention/fla/chunk_fwd.py":246:67)
#loc274 = loc("/sgl-workspace/sglang/python/sglang/srt/layers/attention/fla/chunk_fwd.py":247:31)
#loc275 = loc("/sgl-workspace/sglang/python/sglang/srt/layers/attention/fla/chunk_fwd.py":247:41)
#loc276 = loc("/sgl-workspace/sglang/python/sglang/srt/layers/attention/fla/chunk_fwd.py":248:37)
#loc277 = loc("/sgl-workspace/sglang/python/sglang/srt/layers/attention/fla/chunk_fwd.py":248:48)
#loc278 = loc("/sgl-workspace/sglang/python/sglang/srt/layers/attention/fla/chunk_fwd.py":248:56)
#loc279 = loc("/sgl-workspace/sglang/python/sglang/srt/layers/attention/fla/chunk_fwd.py":248:24)
#loc280 = loc("/sgl-workspace/sglang/python/sglang/srt/layers/attention/fla/chunk_fwd.py":249:34)
#loc281 = loc("/sgl-workspace/sglang/python/sglang/srt/layers/attention/fla/chunk_fwd.py":249:37)
#loc282 = loc("/sgl-workspace/sglang/python/sglang/srt/layers/attention/fla/chunk_fwd.py":249:54)
#loc283 = loc("/sgl-workspace/sglang/python/sglang/srt/layers/attention/fla/chunk_fwd.py":249:8)
#loc284 = loc("/sgl-workspace/sglang/python/sglang/srt/layers/attention/fla/chunk_fwd.py":250:34)
#loc285 = loc("/sgl-workspace/sglang/python/sglang/srt/layers/attention/fla/chunk_fwd.py":250:30)
#loc286 = loc("/sgl-workspace/sglang/python/sglang/srt/layers/attention/fla/chunk_fwd.py":250:22)
#loc287 = loc("/sgl-workspace/sglang/python/sglang/srt/layers/attention/fla/chunk_fwd.py":251:40)
#loc288 = loc("/sgl-workspace/sglang/python/sglang/srt/layers/attention/fla/chunk_fwd.py":251:43)
#loc289 = loc("/sgl-workspace/sglang/python/sglang/srt/layers/attention/fla/chunk_fwd.py":251:54)
#loc290 = loc("/sgl-workspace/sglang/python/sglang/srt/layers/attention/fla/chunk_fwd.py":251:61)
#loc291 = loc("/sgl-workspace/sglang/python/sglang/srt/layers/attention/fla/chunk_fwd.py":251:67)
#loc292 = loc("/sgl-workspace/sglang/python/sglang/srt/layers/attention/fla/chunk_fwd.py":252:31)
#loc293 = loc("/sgl-workspace/sglang/python/sglang/srt/layers/attention/fla/chunk_fwd.py":252:41)
#loc294 = loc("/sgl-workspace/sglang/python/sglang/srt/layers/attention/fla/chunk_fwd.py":253:37)
#loc295 = loc("/sgl-workspace/sglang/python/sglang/srt/layers/attention/fla/chunk_fwd.py":253:48)
#loc296 = loc("/sgl-workspace/sglang/python/sglang/srt/layers/attention/fla/chunk_fwd.py":253:56)
#loc297 = loc("/sgl-workspace/sglang/python/sglang/srt/layers/attention/fla/chunk_fwd.py":253:24)
#loc298 = loc("/sgl-workspace/sglang/python/sglang/srt/layers/attention/fla/chunk_fwd.py":254:34)
#loc299 = loc("/sgl-workspace/sglang/python/sglang/srt/layers/attention/fla/chunk_fwd.py":254:37)
#loc300 = loc("/sgl-workspace/sglang/python/sglang/srt/layers/attention/fla/chunk_fwd.py":254:54)
#loc301 = loc("/sgl-workspace/sglang/python/sglang/srt/layers/attention/fla/chunk_fwd.py":254:8)
#loc302 = loc("/sgl-workspace/sglang/python/sglang/srt/layers/attention/fla/chunk_fwd.py":255:34)
#loc303 = loc("/sgl-workspace/sglang/python/sglang/srt/layers/attention/fla/chunk_fwd.py":255:30)
#loc304 = loc("/sgl-workspace/sglang/python/sglang/srt/layers/attention/fla/chunk_fwd.py":255:22)
#loc305 = loc("/sgl-workspace/sglang/python/sglang/srt/layers/attention/fla/chunk_fwd.py":256:40)
#loc306 = loc("/sgl-workspace/sglang/python/sglang/srt/layers/attention/fla/chunk_fwd.py":256:43)
#loc307 = loc("/sgl-workspace/sglang/python/sglang/srt/layers/attention/fla/chunk_fwd.py":256:54)
#loc308 = loc("/sgl-workspace/sglang/python/sglang/srt/layers/attention/fla/chunk_fwd.py":256:61)
#loc309 = loc("/sgl-workspace/sglang/python/sglang/srt/layers/attention/fla/chunk_fwd.py":256:67)
#loc310 = loc("/sgl-workspace/sglang/python/sglang/srt/layers/attention/fla/chunk_fwd.py":257:31)
#loc311 = loc("/sgl-workspace/sglang/python/sglang/srt/layers/attention/fla/chunk_fwd.py":257:41)
#loc312 = loc("/sgl-workspace/sglang/python/sglang/srt/layers/attention/fla/chunk_fwd.py":258:37)
#loc313 = loc("/sgl-workspace/sglang/python/sglang/srt/layers/attention/fla/chunk_fwd.py":258:48)
#loc314 = loc("/sgl-workspace/sglang/python/sglang/srt/layers/attention/fla/chunk_fwd.py":258:56)
#loc315 = loc("/sgl-workspace/sglang/python/sglang/srt/layers/attention/fla/chunk_fwd.py":258:24)
#loc316 = loc("/sgl-workspace/sglang/python/sglang/srt/layers/attention/fla/chunk_fwd.py":259:34)
#loc317 = loc("/sgl-workspace/sglang/python/sglang/srt/layers/attention/fla/chunk_fwd.py":259:37)
#loc318 = loc("/sgl-workspace/sglang/python/sglang/srt/layers/attention/fla/chunk_fwd.py":259:54)
#loc319 = loc("/sgl-workspace/sglang/python/sglang/srt/layers/attention/fla/chunk_fwd.py":259:8)
#loc320 = loc("/sgl-workspace/sglang/python/sglang/srt/layers/attention/fla/chunk_fwd.py":261:14)
#loc321 = loc("/sgl-workspace/sglang/python/sglang/srt/layers/attention/fla/chunk_fwd.py":262:14)
#loc322 = loc("/sgl-workspace/sglang/python/sglang/srt/layers/attention/fla/chunk_fwd.py":263:14)
#loc323 = loc("/sgl-workspace/sglang/python/sglang/srt/layers/attention/fla/chunk_fwd.py":264:14)
#loc324 = loc("/sgl-workspace/sglang/python/sglang/srt/layers/attention/fla/chunk_fwd.py":271:23)
#loc325 = loc("/sgl-workspace/sglang/python/sglang/srt/layers/attention/fla/chunk_fwd.py":272:8)
#loc326 = loc("/sgl-workspace/sglang/python/sglang/srt/layers/attention/fla/chunk_fwd.py":270:14)
#loc327 = loc("/sgl-workspace/sglang/python/sglang/srt/layers/attention/fla/chunk_fwd.py":276:23)
#loc328 = loc("/sgl-workspace/sglang/python/sglang/srt/layers/attention/fla/chunk_fwd.py":277:8)
#loc329 = loc("/sgl-workspace/sglang/python/sglang/srt/layers/attention/fla/chunk_fwd.py":275:14)
#loc330 = loc("/sgl-workspace/sglang/python/sglang/srt/layers/attention/fla/chunk_fwd.py":281:23)
#loc331 = loc("/sgl-workspace/sglang/python/sglang/srt/layers/attention/fla/chunk_fwd.py":282:8)
#loc332 = loc("/sgl-workspace/sglang/python/sglang/srt/layers/attention/fla/chunk_fwd.py":280:14)
#loc333 = loc("/sgl-workspace/sglang/python/sglang/srt/layers/attention/fla/chunk_fwd.py":288:22)
#loc334 = loc("/sgl-workspace/sglang/python/sglang/srt/layers/attention/fla/chunk_fwd.py":289:24)
#loc335 = loc("/sgl-workspace/sglang/python/sglang/srt/layers/attention/fla/chunk_fwd.py":289:10)
#loc336 = loc("/sgl-workspace/sglang/python/sglang/srt/layers/attention/fla/chunk_fwd.py":288:8)
#loc337 = loc("/sgl-workspace/sglang/python/sglang/srt/layers/attention/fla/chunk_fwd.py":286:14)
#loc338 = loc("/sgl-workspace/sglang/python/sglang/srt/layers/attention/fla/chunk_fwd.py":294:22)
#loc339 = loc("/sgl-workspace/sglang/python/sglang/srt/layers/attention/fla/chunk_fwd.py":295:24)
#loc340 = loc("/sgl-workspace/sglang/python/sglang/srt/layers/attention/fla/chunk_fwd.py":295:10)
#loc341 = loc("/sgl-workspace/sglang/python/sglang/srt/layers/attention/fla/chunk_fwd.py":294:8)
#loc342 = loc("/sgl-workspace/sglang/python/sglang/srt/layers/attention/fla/chunk_fwd.py":292:14)
#loc343 = loc("/sgl-workspace/sglang/python/sglang/srt/layers/attention/fla/chunk_fwd.py":300:22)
#loc344 = loc("/sgl-workspace/sglang/python/sglang/srt/layers/attention/fla/chunk_fwd.py":301:24)
#loc345 = loc("/sgl-workspace/sglang/python/sglang/srt/layers/attention/fla/chunk_fwd.py":301:10)
#loc346 = loc("/sgl-workspace/sglang/python/sglang/srt/layers/attention/fla/chunk_fwd.py":302:24)
#loc347 = loc("/sgl-workspace/sglang/python/sglang/srt/layers/attention/fla/chunk_fwd.py":302:10)
#loc348 = loc("/sgl-workspace/sglang/python/sglang/srt/layers/attention/fla/chunk_fwd.py":300:8)
#loc349 = loc("/sgl-workspace/sglang/python/sglang/srt/layers/attention/fla/chunk_fwd.py":298:14)
#loc350 = loc("/sgl-workspace/sglang/python/sglang/srt/layers/attention/fla/chunk_fwd.py":310:77)
#loc351 = loc("/sgl-workspace/sglang/python/sglang/srt/layers/attention/fla/chunk_fwd.py":311:77)
#loc352 = loc("/sgl-workspace/sglang/python/sglang/srt/layers/attention/fla/chunk_fwd.py":312:78)
#loc353 = loc("/sgl-workspace/sglang/python/sglang/srt/layers/attention/fla/chunk_fwd.py":313:77)
#loc354 = loc("/sgl-workspace/sglang/python/sglang/srt/layers/attention/fla/chunk_fwd.py":314:78)
#loc355 = loc("/sgl-workspace/sglang/python/sglang/srt/layers/attention/fla/chunk_fwd.py":316:60)
#loc356 = loc("/sgl-workspace/sglang/python/sglang/srt/layers/attention/fla/chunk_fwd.py":318:77)
#loc357 = loc("/sgl-workspace/sglang/python/sglang/srt/layers/attention/fla/chunk_fwd.py":319:78)
#loc358 = loc("/sgl-workspace/sglang/python/sglang/srt/layers/attention/fla/chunk_fwd.py":321:60)
#loc359 = loc("/sgl-workspace/sglang/python/sglang/srt/layers/attention/fla/chunk_fwd.py":324:60)
#loc360 = loc("/sgl-workspace/sglang/python/sglang/srt/layers/attention/fla/chunk_fwd.py":327:30)
#loc361 = loc("/sgl-workspace/sglang/python/sglang/srt/layers/attention/fla/chunk_fwd.py":327:20)
#loc362 = loc("/sgl-workspace/sglang/python/sglang/srt/layers/attention/fla/chunk_fwd.py":328:30)
#loc363 = loc("/sgl-workspace/sglang/python/sglang/srt/layers/attention/fla/chunk_fwd.py":328:20)
#loc364 = loc("/sgl-workspace/sglang/python/sglang/srt/layers/attention/fla/chunk_fwd.py":329:30)
#loc365 = loc("/sgl-workspace/sglang/python/sglang/srt/layers/attention/fla/chunk_fwd.py":329:20)
#loc366 = loc("/sgl-workspace/sglang/python/sglang/srt/layers/attention/fla/chunk_fwd.py":330:30)
#loc367 = loc("/sgl-workspace/sglang/python/sglang/srt/layers/attention/fla/chunk_fwd.py":330:20)
#loc368 = loc("/sgl-workspace/sglang/python/sglang/srt/layers/attention/fla/chunk_fwd.py":331:30)
#loc369 = loc("/sgl-workspace/sglang/python/sglang/srt/layers/attention/fla/chunk_fwd.py":331:20)
#loc370 = loc("/sgl-workspace/sglang/python/sglang/srt/layers/attention/fla/chunk_fwd.py":332:30)
#loc371 = loc("/sgl-workspace/sglang/python/sglang/srt/layers/attention/fla/chunk_fwd.py":332:20)
#loc372 = loc("/sgl-workspace/sglang/python/sglang/srt/layers/attention/fla/chunk_fwd.py":333:30)
#loc373 = loc("/sgl-workspace/sglang/python/sglang/srt/layers/attention/fla/chunk_fwd.py":333:20)
#loc374 = loc("/sgl-workspace/sglang/python/sglang/srt/layers/attention/fla/chunk_fwd.py":334:30)
#loc375 = loc("/sgl-workspace/sglang/python/sglang/srt/layers/attention/fla/chunk_fwd.py":334:20)
#loc376 = loc("/sgl-workspace/sglang/python/sglang/srt/layers/attention/fla/chunk_fwd.py":335:30)
#loc377 = loc("/sgl-workspace/sglang/python/sglang/srt/layers/attention/fla/chunk_fwd.py":335:20)
#loc378 = loc("/sgl-workspace/sglang/python/sglang/srt/layers/attention/fla/chunk_fwd.py":336:30)
#loc379 = loc("/sgl-workspace/sglang/python/sglang/srt/layers/attention/fla/chunk_fwd.py":336:20)
#loc380 = loc("/sgl-workspace/sglang/python/sglang/srt/layers/attention/fla/chunk_fwd.py":336:4)
#loc381 = loc("/usr/local/lib/python3.12/dist-packages/triton/language/standard.py":118:0)
#loc382 = loc("/usr/local/lib/python3.12/dist-packages/triton/language/standard.py":127:31)
#loc383 = loc("/usr/local/lib/python3.12/dist-packages/triton/language/standard.py":127:11)
#loc384 = loc("/usr/local/lib/python3.12/dist-packages/triton/language/standard.py":127:4)
#loc385 = loc("/usr/local/lib/python3.12/dist-packages/triton/language/standard.py":32:0)
#loc386 = loc("/usr/local/lib/python3.12/dist-packages/triton/language/standard.py":41:11)
#loc387 = loc("/usr/local/lib/python3.12/dist-packages/triton/language/standard.py":41:4)
#loc389 = loc("/sgl-workspace/sglang/python/sglang/srt/layers/attention/fla/op.py":27:29)
#loc390 = loc("/sgl-workspace/sglang/python/sglang/srt/layers/attention/fla/op.py":27:35)
#loc391 = loc("/sgl-workspace/sglang/python/sglang/srt/layers/attention/fla/op.py":27:15)
#loc392 = loc("/sgl-workspace/sglang/python/sglang/srt/layers/attention/fla/op.py":27:11)
#loc393 = loc("/sgl-workspace/sglang/python/sglang/srt/layers/attention/fla/op.py":27:4)
#loc395 = loc("/usr/local/lib/python3.12/dist-packages/triton/language/standard.py":291:36)
#loc396 = loc("/usr/local/lib/python3.12/dist-packages/triton/language/standard.py":291:11)
#loc397 = loc("/usr/local/lib/python3.12/dist-packages/triton/language/standard.py":291:4)
#loc399 = loc("/usr/local/lib/python3.12/dist-packages/triton/language/standard.py":261:15)
#loc400 = loc("/usr/local/lib/python3.12/dist-packages/triton/language/standard.py":261:11)
#loc401 = loc("/usr/local/lib/python3.12/dist-packages/triton/language/standard.py":261:4)
#loc409 = loc("T"(#loc17))
#loc410 = loc("i_tc0"(#loc22))
#loc411 = loc("i_tc1"(#loc23))
#loc412 = loc("i_tc1"(#loc24))
#loc413 = loc("i_tc2"(#loc25))
#loc414 = loc("i_tc2"(#loc26))
#loc415 = loc("i_tc3"(#loc27))
#loc416 = loc("i_tc3"(#loc28))
#loc417 = loc("k"(#loc29))
#loc418 = loc("k"(#loc30))
#loc419 = loc("k"(#loc31))
#loc420 = loc("k"(#loc32))
#loc421 = loc("k"(#loc33))
#loc422 = loc("A"(#loc34))
#loc423 = loc("A"(#loc35))
#loc424 = loc("A"(#loc36))
#loc425 = loc("A"(#loc37))
#loc426 = loc("o_i"(#loc38))
#loc427 = loc("m_tc0"(#loc39))
#loc428 = loc("m_tc0"(#loc40))
#loc429 = loc("m_tc1"(#loc41))
#loc430 = loc("m_tc1"(#loc42))
#loc431 = loc("m_tc2"(#loc43))
#loc432 = loc("m_tc2"(#loc44))
#loc433 = loc("m_tc3"(#loc45))
#loc434 = loc("m_tc3"(#loc46))
#loc435 = loc("p_b0"(#loc47))
#loc436 = loc("p_b0"(#loc48))
#loc437 = loc("p_b0"(#loc49))
#loc438 = loc("p_b0"(#loc50))
#loc439 = loc("p_b1"(#loc51))
#loc440 = loc("p_b1"(#loc52))
#loc441 = loc("p_b1"(#loc53))
#loc442 = loc("p_b1"(#loc54))
#loc443 = loc("p_b2"(#loc55))
#loc444 = loc("p_b2"(#loc56))
#loc445 = loc("p_b2"(#loc57))
#loc446 = loc("p_b2"(#loc58))
#loc447 = loc("p_b3"(#loc59))
#loc448 = loc("p_b3"(#loc60))
#loc449 = loc("p_b3"(#loc61))
#loc450 = loc("p_b3"(#loc62))
#loc451 = loc("b_b0"(#loc63))
#loc452 = loc("b_b1"(#loc64))
#loc453 = loc("b_b2"(#loc65))
#loc454 = loc("b_b3"(#loc66))
#loc455 = loc("p_g0"(#loc67))
#loc456 = loc("p_g0"(#loc68))
#loc457 = loc("p_g0"(#loc69))
#loc458 = loc("p_g0"(#loc70))
#loc459 = loc("p_g1"(#loc71))
#loc460 = loc("p_g1"(#loc72))
#loc461 = loc("p_g1"(#loc73))
#loc462 = loc("p_g1"(#loc74))
#loc463 = loc("p_g2"(#loc75))
#loc464 = loc("p_g2"(#loc76))
#loc465 = loc("p_g2"(#loc77))
#loc466 = loc("p_g2"(#loc78))
#loc467 = loc("p_g3"(#loc79))
#loc468 = loc("p_g3"(#loc80))
#loc469 = loc("p_g3"(#loc81))
#loc470 = loc("p_g3"(#loc82))
#loc471 = loc("b_g0"(#loc83))
#loc472 = loc("b_g1"(#loc84))
#loc473 = loc("b_g2"(#loc85))
#loc474 = loc("b_g3"(#loc86))
#loc475 = loc("b_A00"(#loc87))
#loc476 = loc("b_A11"(#loc88))
#loc477 = loc("b_A22"(#loc89))
#loc478 = loc("b_A33"(#loc90))
#loc479 = loc("b_A10"(#loc91))
#loc480 = loc("b_A20"(#loc92))
#loc481 = loc("b_A21"(#loc93))
#loc482 = loc("b_A30"(#loc94))
#loc483 = loc("b_A31"(#loc95))
#loc484 = loc("b_A32"(#loc96))
#loc485 = loc("b_A00"(#loc98))
#loc486 = loc("p_k0"(#loc99))
#loc487 = loc("p_k0"(#loc100))
#loc488 = loc("b_k0"(#loc101))
#loc489 = loc("b_A00"(#loc102))
#loc490 = loc("b_A00"(#loc103))
#loc491 = loc("b_A00"(#loc104))
#loc492 = loc("p_k1"(#loc107))
#loc493 = loc("p_k1"(#loc108))
#loc494 = loc("b_k1"(#loc109))
#loc495 = loc("b_A11"(#loc110))
#loc496 = loc("b_A11"(#loc111))
#loc497 = loc("b_A11"(#loc112))
#loc498 = loc("b_A10"(#loc113))
#loc499 = loc("b_A10"(#loc114))
#loc500 = loc("b_A10"(#loc115))
#loc501 = loc("b_A22"(#loc117))
#loc502 = loc("p_k2"(#loc118))
#loc503 = loc("p_k2"(#loc119))
#loc504 = loc("b_k2"(#loc120))
#loc505 = loc("b_A22"(#loc121))
#loc506 = loc("b_A22"(#loc122))
#loc507 = loc("b_A22"(#loc123))
#loc508 = loc("b_A20"(#loc124))
#loc509 = loc("b_A20"(#loc125))
#loc510 = loc("b_A20"(#loc126))
#loc511 = loc("b_A21"(#loc127))
#loc512 = loc("b_A21"(#loc128))
#loc513 = loc("b_A21"(#loc129))
#loc514 = loc("b_A33"(#loc131))
#loc515 = loc("p_k3"(#loc132))
#loc516 = loc("p_k3"(#loc133))
#loc517 = loc("b_k3"(#loc134))
#loc518 = loc("b_A33"(#loc135))
#loc519 = loc("b_A33"(#loc136))
#loc520 = loc("b_A33"(#loc137))
#loc521 = loc("b_A30"(#loc138))
#loc522 = loc("b_A30"(#loc139))
#loc523 = loc("b_A30"(#loc140))
#loc524 = loc("b_A31"(#loc141))
#loc525 = loc("b_A31"(#loc142))
#loc526 = loc("b_A31"(#loc143))
#loc527 = loc("b_A32"(#loc144))
#loc528 = loc("b_A32"(#loc145))
#loc529 = loc("b_A32"(#loc146))
#loc530 = loc("b_A00"(#loc148))
#loc531 = loc("b_A00"(#loc149))
#loc532 = loc("b_A00"(#loc150))
#loc533 = loc("b_A00"(#loc151))
#loc534 = loc("b_A00"(#loc152))
#loc535 = loc("b_A11"(#loc153))
#loc536 = loc("b_A11"(#loc154))
#loc537 = loc("b_A11"(#loc155))
#loc538 = loc("b_A11"(#loc156))
#loc539 = loc("b_A11"(#loc157))
#loc540 = loc("b_A22"(#loc158))
#loc541 = loc("b_A22"(#loc159))
#loc542 = loc("b_A22"(#loc160))
#loc543 = loc("b_A22"(#loc161))
#loc544 = loc("b_A22"(#loc162))
#loc545 = loc("b_A33"(#loc163))
#loc546 = loc("b_A33"(#loc164))
#loc547 = loc("b_A33"(#loc165))
#loc548 = loc("b_A33"(#loc166))
#loc549 = loc("b_A33"(#loc167))
#loc550 = loc("b_A10"(#loc168))
#loc551 = loc("b_A10"(#loc169))
#loc552 = loc("b_A10"(#loc170))
#loc553 = loc("b_A10"(#loc171))
#loc554 = loc("b_A10"(#loc172))
#loc555 = loc("b_A20"(#loc173))
#loc556 = loc("b_A20"(#loc174))
#loc557 = loc("b_A20"(#loc175))
#loc558 = loc("b_A20"(#loc176))
#loc559 = loc("b_A20"(#loc177))
#loc560 = loc("b_A21"(#loc178))
#loc561 = loc("b_A21"(#loc179))
#loc562 = loc("b_A21"(#loc180))
#loc563 = loc("b_A21"(#loc181))
#loc564 = loc("b_A21"(#loc182))
#loc565 = loc("b_A30"(#loc183))
#loc566 = loc("b_A30"(#loc184))
#loc567 = loc("b_A30"(#loc185))
#loc568 = loc("b_A30"(#loc186))
#loc569 = loc("b_A30"(#loc187))
#loc570 = loc("b_A31"(#loc188))
#loc571 = loc("b_A31"(#loc189))
#loc572 = loc("b_A31"(#loc190))
#loc573 = loc("b_A31"(#loc191))
#loc574 = loc("b_A31"(#loc192))
#loc575 = loc("b_A32"(#loc193))
#loc576 = loc("b_A32"(#loc194))
#loc577 = loc("b_A32"(#loc195))
#loc578 = loc("b_A32"(#loc196))
#loc579 = loc("b_A32"(#loc197))
#loc580 = loc("m_d"(#loc198))
#loc581 = loc("m_d"(#loc199))
#loc582 = loc("m_d"(#loc200))
#loc583 = loc("m_I"(#loc201))
#loc584 = loc("m_I"(#loc202))
#loc585 = loc("m_I"(#loc203))
#loc586 = loc("b_A00"(#loc204))
#loc587 = loc("b_A00"(#loc205))
#loc588 = loc("b_A00"(#loc206))
#loc589 = loc("b_A00"(#loc207))
#loc590 = loc("b_A00"(#loc208))
#loc591 = loc("b_A00"(#loc209))
#loc592 = loc("b_A00"(#loc210))
#loc593 = loc("b_A11"(#loc211))
#loc594 = loc("b_A11"(#loc212))
#loc595 = loc("b_A11"(#loc213))
#loc596 = loc("b_A11"(#loc214))
#loc597 = loc("b_A11"(#loc215))
#loc598 = loc("b_A11"(#loc216))
#loc599 = loc("b_A11"(#loc217))
#loc600 = loc("b_A22"(#loc218))
#loc601 = loc("b_A22"(#loc219))
#loc602 = loc("b_A22"(#loc220))
#loc603 = loc("b_A22"(#loc221))
#loc604 = loc("b_A22"(#loc222))
#loc605 = loc("b_A22"(#loc223))
#loc606 = loc("b_A22"(#loc224))
#loc607 = loc("b_A33"(#loc225))
#loc608 = loc("b_A33"(#loc226))
#loc609 = loc("b_A33"(#loc227))
#loc610 = loc("b_A33"(#loc228))
#loc611 = loc("b_A33"(#loc229))
#loc612 = loc("b_A33"(#loc230))
#loc613 = loc("b_A33"(#loc231))
#loc614 = loc("b_A10"(#loc232))
#loc615 = loc("b_A10"(#loc233))
#loc616 = loc("b_A20"(#loc234))
#loc617 = loc("b_A20"(#loc235))
#loc618 = loc("b_A21"(#loc236))
#loc619 = loc("b_A21"(#loc237))
#loc620 = loc("b_A30"(#loc238))
#loc621 = loc("b_A30"(#loc239))
#loc622 = loc("b_A31"(#loc240))
#loc623 = loc("b_A31"(#loc241))
#loc624 = loc("b_A32"(#loc242))
#loc625 = loc("b_A32"(#loc243))
#loc626 = loc("b_Ai00"(#loc244))
#loc627 = loc("b_Ai11"(#loc245))
#loc628 = loc("b_Ai22"(#loc246))
#loc629 = loc("b_Ai33"(#loc247))
#loc630 = loc("b_Ai00"(#loc250))
#loc631 = loc("b_a00"(#loc251))
#loc632 = loc("b_a00"(#loc252))
#loc633 = loc("b_a00"(#loc253))
#loc634 = loc("b_a00"(#loc254))
#loc635 = loc("b_a00"(#loc255))
#loc636 = loc("b_a00"(#loc256))
#loc637 = loc("b_a00"(#loc257))
#loc638 = loc("b_a00"(#loc258))
#loc639 = loc("b_a00"(#loc259))
#loc640 = loc("b_a00"(#loc260))
#loc641 = loc("b_a00"(#loc261))
#loc642 = loc("b_Ai00"(#loc262))
#loc643 = loc("b_Ai00"(#loc263))
#loc644 = loc("b_Ai00"(#loc264))
#loc645 = loc("b_Ai11"(#loc268))
#loc646 = loc("b_a11"(#loc269))
#loc647 = loc("b_a11"(#loc270))
#loc648 = loc("b_a11"(#loc271))
#loc649 = loc("b_a11"(#loc272))
#loc650 = loc("b_a11"(#loc273))
#loc651 = loc("b_a11"(#loc274))
#loc652 = loc("b_a11"(#loc275))
#loc653 = loc("b_a11"(#loc276))
#loc654 = loc("b_a11"(#loc277))
#loc655 = loc("b_a11"(#loc278))
#loc656 = loc("b_a11"(#loc279))
#loc657 = loc("b_Ai11"(#loc280))
#loc658 = loc("b_Ai11"(#loc281))
#loc659 = loc("b_Ai11"(#loc282))
#loc660 = loc("b_Ai22"(#loc286))
#loc661 = loc("b_a22"(#loc287))
#loc662 = loc("b_a22"(#loc288))
#loc663 = loc("b_a22"(#loc289))
#loc664 = loc("b_a22"(#loc290))
#loc665 = loc("b_a22"(#loc291))
#loc666 = loc("b_a22"(#loc292))
#loc667 = loc("b_a22"(#loc293))
#loc668 = loc("b_a22"(#loc294))
#loc669 = loc("b_a22"(#loc295))
#loc670 = loc("b_a22"(#loc296))
#loc671 = loc("b_a22"(#loc297))
#loc672 = loc("b_Ai22"(#loc298))
#loc673 = loc("b_Ai22"(#loc299))
#loc674 = loc("b_Ai22"(#loc300))
#loc675 = loc("b_Ai33"(#loc304))
#loc676 = loc("b_a33"(#loc305))
#loc677 = loc("b_a33"(#loc306))
#loc678 = loc("b_a33"(#loc307))
#loc679 = loc("b_a33"(#loc308))
#loc680 = loc("b_a33"(#loc309))
#loc681 = loc("b_a33"(#loc310))
#loc682 = loc("b_a33"(#loc311))
#loc683 = loc("b_a33"(#loc312))
#loc684 = loc("b_a33"(#loc313))
#loc685 = loc("b_a33"(#loc314))
#loc686 = loc("b_a33"(#loc315))
#loc687 = loc("b_Ai33"(#loc316))
#loc688 = loc("b_Ai33"(#loc317))
#loc689 = loc("b_Ai33"(#loc318))
#loc690 = loc("b_Ai00"(#loc320))
#loc691 = loc("b_Ai11"(#loc321))
#loc692 = loc("b_Ai22"(#loc322))
#loc693 = loc("b_Ai33"(#loc323))
#loc694 = loc("b_Ai10"(#loc324))
#loc695 = loc("b_Ai10"(#loc325))
#loc696 = loc("b_Ai10"(#loc326))
#loc697 = loc("b_Ai21"(#loc327))
#loc698 = loc("b_Ai21"(#loc328))
#loc699 = loc("b_Ai21"(#loc329))
#loc700 = loc("b_Ai32"(#loc330))
#loc701 = loc("b_Ai32"(#loc331))
#loc702 = loc("b_Ai32"(#loc332))
#loc703 = loc("b_Ai20"(#loc333))
#loc704 = loc("b_Ai20"(#loc334))
#loc705 = loc("b_Ai20"(#loc335))
#loc706 = loc("b_Ai20"(#loc336))
#loc707 = loc("b_Ai20"(#loc337))
#loc708 = loc("b_Ai31"(#loc338))
#loc709 = loc("b_Ai31"(#loc339))
#loc710 = loc("b_Ai31"(#loc340))
#loc711 = loc("b_Ai31"(#loc341))
#loc712 = loc("b_Ai31"(#loc342))
#loc713 = loc("b_Ai30"(#loc343))
#loc714 = loc("b_Ai30"(#loc344))
#loc715 = loc("b_Ai30"(#loc345))
#loc716 = loc("b_Ai30"(#loc346))
#loc717 = loc("b_Ai30"(#loc347))
#loc718 = loc("b_Ai30"(#loc348))
#loc719 = loc("b_Ai30"(#loc349))
#loc720 = loc("p_A00"(#loc350))
#loc721 = loc("p_A10"(#loc351))
#loc722 = loc("p_A11"(#loc352))
#loc723 = loc("p_A20"(#loc353))
#loc724 = loc("p_A21"(#loc354))
#loc725 = loc("p_A22"(#loc355))
#loc726 = loc("p_A30"(#loc356))
#loc727 = loc("p_A31"(#loc357))
#loc728 = loc("p_A32"(#loc358))
#loc729 = loc("p_A33"(#loc359))
#loc734 = loc("b_A11"(#loc476))
#loc735 = loc("b_A22"(#loc477))
#loc736 = loc("b_A33"(#loc478))
#loc737 = loc("b_A10"(#loc479))
#loc738 = loc("b_A20"(#loc480))
#loc739 = loc("b_A21"(#loc481))
#loc740 = loc("b_A30"(#loc482))
#loc741 = loc("b_A31"(#loc483))
#loc742 = loc("b_A32"(#loc484))
#loc743 = loc("b_A11"(#loc485))
#loc744 = loc("b_A11"(#loc497))
#loc745 = loc("b_A10"(#loc500))
#loc746 = loc("b_A33"(#loc501))
#loc747 = loc("b_A22"(#loc507))
#loc748 = loc("b_A20"(#loc510))
#loc749 = loc("b_A21"(#loc513))
#loc750 = loc("b_A30"(#loc514))
#loc751 = loc("b_A33"(#loc520))
#loc752 = loc("b_A30"(#loc523))
#loc753 = loc("b_A31"(#loc526))
#loc754 = loc("b_A32"(#loc529))
#loc755 = loc("b_A22"(#loc735))
#loc756 = loc("b_A33"(#loc736))
#loc757 = loc("b_A20"(#loc738))
#loc758 = loc("b_A21"(#loc739))
#loc759 = loc("b_A30"(#loc740))
#loc760 = loc("b_A31"(#loc741))
#loc761 = loc("b_A32"(#loc742))
#loc762 = loc("b_A22"(#loc743))
#loc763 = loc("b_A20"(#loc746))
#loc764 = loc("b_A31"(#loc750))
#loc765 = loc("b_A33"(#loc756))
#loc766 = loc("b_A30"(#loc759))
#loc767 = loc("b_A31"(#loc760))
#loc768 = loc("b_A32"(#loc761))
#loc769 = loc("b_A33"(#loc762))
#loc770 = loc("b_A21"(#loc763))
#loc771 = loc("b_A32"(#loc764))
#loc772 = loc("b_A10"(#loc769))
#loc773 = loc("b_A30"(#loc770))
#loc774 = loc("b_A20"(#loc772))
#loc775 = loc("b_A31"(#loc773))
#loc776 = loc("b_A21"(#loc774))
#loc777 = loc("b_A32"(#loc775))
#loc778 = loc("b_A30"(#loc776))
#loc779 = loc("b_A31"(#loc778))
#loc780 = loc("b_A32"(#loc779))
