#loc = loc("/sgl-workspace/sglang/python/sglang/srt/layers/rotary_embedding/triton_kernels.py":13:0)
#loc112 = loc("q_ptr"(#loc))
#loc113 = loc("k_ptr"(#loc))
#loc114 = loc("cos_sin_cache_ptr"(#loc))
#loc115 = loc("positions_ptr"(#loc))
#loc116 = loc("q_stride"(#loc))
#loc117 = loc("k_stride"(#loc))
#loc118 = loc("positions_stride"(#loc))
module {
  tt.func public @_triton_mrope_forward_fused(%q_ptr: !tt.ptr<bf16> {tt.divisibility = 16 : i32} loc("q_ptr"(#loc)), %k_ptr: !tt.ptr<bf16> {tt.divisibility = 16 : i32} loc("k_ptr"(#loc)), %cos_sin_cache_ptr: !tt.ptr<bf16> {tt.divisibility = 16 : i32} loc("cos_sin_cache_ptr"(#loc)), %positions_ptr: !tt.ptr<i64> {tt.divisibility = 16 : i32} loc("positions_ptr"(#loc)), %q_stride: i32 {tt.divisibility = 16 : i32} loc("q_stride"(#loc)), %k_stride: i32 {tt.divisibility = 16 : i32} loc("k_stride"(#loc)), %positions_stride: i32 {tt.divisibility = 16 : i32} loc("positions_stride"(#loc))) attributes {noinline = false} {
    %pid = tt.get_program_id x : i32 loc(#loc119)
    %q_ptr_0 = arith.extsi %pid : i32 to i64 loc(#loc120)
    %q_ptr_1 = arith.extsi %q_stride : i32 to i64 loc(#loc120)
    %q_ptr_2 = arith.muli %q_ptr_0, %q_ptr_1 : i64 loc(#loc120)
    %q_ptr_3 = arith.constant 2147483647 : i64 loc(#loc120)
    %q_ptr_4 = arith.constant -2147483648 : i64 loc(#loc120)
    %q_ptr_5 = arith.cmpi sle, %q_ptr_2, %q_ptr_3 : i64 loc(#loc120)
    %q_ptr_6 = arith.cmpi sge, %q_ptr_2, %q_ptr_4 : i64 loc(#loc120)
    %q_ptr_7 = arith.andi %q_ptr_5, %q_ptr_6 : i1 loc(#loc120)
    %q_ptr_8 = arith.muli %pid, %q_stride : i32 loc(#loc120)
    %q_ptr_9 = tt.addptr %q_ptr, %q_ptr_8 : !tt.ptr<bf16>, i32 loc(#loc121)
    %k_ptr_10 = arith.extsi %pid : i32 to i64 loc(#loc122)
    %k_ptr_11 = arith.extsi %k_stride : i32 to i64 loc(#loc122)
    %k_ptr_12 = arith.muli %k_ptr_10, %k_ptr_11 : i64 loc(#loc122)
    %k_ptr_13 = arith.constant 2147483647 : i64 loc(#loc122)
    %k_ptr_14 = arith.constant -2147483648 : i64 loc(#loc122)
    %k_ptr_15 = arith.cmpi sle, %k_ptr_12, %k_ptr_13 : i64 loc(#loc122)
    %k_ptr_16 = arith.cmpi sge, %k_ptr_12, %k_ptr_14 : i64 loc(#loc122)
    %k_ptr_17 = arith.andi %k_ptr_15, %k_ptr_16 : i1 loc(#loc122)
    %k_ptr_18 = arith.muli %pid, %k_stride : i32 loc(#loc122)
    %k_ptr_19 = tt.addptr %k_ptr, %k_ptr_18 : !tt.ptr<bf16>, i32 loc(#loc123)
    %half_rd = arith.constant 32 : i32 loc(#loc124)
    %t = arith.constant 0 : i32 loc(#loc125)
    %t_20 = arith.constant 0 : i32 loc(#loc125)
    %t_21 = arith.extsi %t_20 : i32 to i64 loc(#loc125)
    %t_22 = arith.extsi %positions_stride : i32 to i64 loc(#loc125)
    %t_23 = arith.muli %t_21, %t_22 : i64 loc(#loc125)
    %t_24 = arith.constant 2147483647 : i64 loc(#loc125)
    %t_25 = arith.constant -2147483648 : i64 loc(#loc125)
    %t_26 = arith.cmpi sle, %t_23, %t_24 : i64 loc(#loc125)
    %t_27 = arith.cmpi sge, %t_23, %t_25 : i64 loc(#loc125)
    %t_28 = arith.andi %t_26, %t_27 : i1 loc(#loc125)
    %t_29 = arith.muli %t_20, %positions_stride : i32 loc(#loc125)
    %t_30 = tt.addptr %positions_ptr, %t_29 : !tt.ptr<i64>, i32 loc(#loc126)
    %t_31 = tt.addptr %t_30, %pid : !tt.ptr<i64>, i32 loc(#loc127)
    %t_32 = tt.load %t_31 : !tt.ptr<i64> loc(#loc128)
    %h = arith.constant 1 : i32 loc(#loc129)
    %h_33 = arith.constant 1 : i32 loc(#loc129)
    %h_34 = arith.extsi %h_33 : i32 to i64 loc(#loc129)
    %h_35 = arith.extsi %positions_stride : i32 to i64 loc(#loc129)
    %h_36 = arith.muli %h_34, %h_35 : i64 loc(#loc129)
    %h_37 = arith.constant 2147483647 : i64 loc(#loc129)
    %h_38 = arith.constant -2147483648 : i64 loc(#loc129)
    %h_39 = arith.cmpi sle, %h_36, %h_37 : i64 loc(#loc129)
    %h_40 = arith.cmpi sge, %h_36, %h_38 : i64 loc(#loc129)
    %h_41 = arith.andi %h_39, %h_40 : i1 loc(#loc129)
    %h_42 = arith.muli %h_33, %positions_stride : i32 loc(#loc129)
    %h_43 = tt.addptr %positions_ptr, %h_42 : !tt.ptr<i64>, i32 loc(#loc130)
    %h_44 = tt.addptr %h_43, %pid : !tt.ptr<i64>, i32 loc(#loc131)
    %h_45 = tt.load %h_44 : !tt.ptr<i64> loc(#loc132)
    %w = arith.constant 2 : i32 loc(#loc133)
    %w_46 = arith.constant 2 : i32 loc(#loc133)
    %w_47 = arith.extsi %w_46 : i32 to i64 loc(#loc133)
    %w_48 = arith.extsi %positions_stride : i32 to i64 loc(#loc133)
    %w_49 = arith.muli %w_47, %w_48 : i64 loc(#loc133)
    %w_50 = arith.constant 2147483647 : i64 loc(#loc133)
    %w_51 = arith.constant -2147483648 : i64 loc(#loc133)
    %w_52 = arith.cmpi sle, %w_49, %w_50 : i64 loc(#loc133)
    %w_53 = arith.cmpi sge, %w_49, %w_51 : i64 loc(#loc133)
    %w_54 = arith.andi %w_52, %w_53 : i1 loc(#loc133)
    %w_55 = arith.muli %w_46, %positions_stride : i32 loc(#loc133)
    %w_56 = tt.addptr %positions_ptr, %w_55 : !tt.ptr<i64>, i32 loc(#loc134)
    %w_57 = tt.addptr %w_56, %pid : !tt.ptr<i64>, i32 loc(#loc135)
    %w_58 = tt.load %w_57 : !tt.ptr<i64> loc(#loc136)
    %t_cos = arith.constant 64 : i32 loc(#loc137)
    %t_cos_59 = arith.constant 64 : i64 loc(#loc137)
    %t_cos_60 = arith.muli %t_32, %t_cos_59 : i64 loc(#loc137)
    %t_cos_61 = tt.addptr %cos_sin_cache_ptr, %t_cos_60 : !tt.ptr<bf16>, i64 loc(#loc138)
    %h_cos = arith.constant 64 : i32 loc(#loc139)
    %h_cos_62 = arith.constant 64 : i64 loc(#loc139)
    %h_cos_63 = arith.muli %h_45, %h_cos_62 : i64 loc(#loc139)
    %h_cos_64 = tt.addptr %cos_sin_cache_ptr, %h_cos_63 : !tt.ptr<bf16>, i64 loc(#loc140)
    %w_cos = arith.constant 64 : i32 loc(#loc141)
    %w_cos_65 = arith.constant 64 : i64 loc(#loc141)
    %w_cos_66 = arith.muli %w_58, %w_cos_65 : i64 loc(#loc141)
    %w_cos_67 = tt.addptr %cos_sin_cache_ptr, %w_cos_66 : !tt.ptr<bf16>, i64 loc(#loc142)
    %t_sin = tt.addptr %t_cos_61, %half_rd : !tt.ptr<bf16>, i32 loc(#loc143)
    %h_sin = tt.addptr %h_cos_64, %half_rd : !tt.ptr<bf16>, i32 loc(#loc144)
    %w_sin = tt.addptr %w_cos_67, %half_rd : !tt.ptr<bf16>, i32 loc(#loc145)
    %cos_offsets = tt.make_range {end = 128 : i32, start = 0 : i32} : tensor<128xi32> loc(#loc146)
    %h_mask = arith.constant 3 : i32 loc(#loc147)
    %h_mask_68 = arith.constant 3 : i32 loc(#loc147)
    %h_mask_69 = arith.constant dense<3> : tensor<128xi32> loc(#loc147)
    %h_mask_70 = arith.remsi %cos_offsets, %h_mask_69 : tensor<128xi32> loc(#loc147)
    %h_mask_71 = arith.constant 1 : i32 loc(#loc148)
    %h_mask_72 = arith.constant dense<1> : tensor<128xi32> loc(#loc148)
    %h_mask_73 = arith.cmpi eq, %h_mask_70, %h_mask_72 : tensor<128xi32> loc(#loc148)
    %h_mask_74 = arith.constant 33 : i32 loc(#loc149)
    %h_mask_75 = arith.constant dense<33> : tensor<128xi32> loc(#loc149)
    %h_mask_76 = arith.cmpi sle, %cos_offsets, %h_mask_75 : tensor<128xi32> loc(#loc149)
    %h_mask_77 = arith.andi %h_mask_73, %h_mask_76 : tensor<128xi1> loc(#loc150)
    %w_mask = arith.constant 3 : i32 loc(#loc151)
    %w_mask_78 = arith.constant 3 : i32 loc(#loc151)
    %w_mask_79 = arith.constant dense<3> : tensor<128xi32> loc(#loc151)
    %w_mask_80 = arith.remsi %cos_offsets, %w_mask_79 : tensor<128xi32> loc(#loc151)
    %w_mask_81 = arith.constant 2 : i32 loc(#loc152)
    %w_mask_82 = arith.constant dense<2> : tensor<128xi32> loc(#loc152)
    %w_mask_83 = arith.cmpi eq, %w_mask_80, %w_mask_82 : tensor<128xi32> loc(#loc152)
    %w_mask_84 = arith.constant 30 : i32 loc(#loc153)
    %w_mask_85 = arith.constant dense<30> : tensor<128xi32> loc(#loc153)
    %w_mask_86 = arith.cmpi sle, %cos_offsets, %w_mask_85 : tensor<128xi32> loc(#loc153)
    %w_mask_87 = arith.andi %w_mask_83, %w_mask_86 : tensor<128xi1> loc(#loc154)
    %t_mask = arith.ori %h_mask_77, %w_mask_87 : tensor<128xi1> loc(#loc155)
    %t_mask_88 = arith.constant true loc(#loc156)
    %t_mask_89 = arith.constant dense<true> : tensor<128xi1> loc(#loc156)
    %t_mask_90 = arith.xori %t_mask, %t_mask_89 : tensor<128xi1> loc(#loc156)
    %t_cos_row = tt.splat %t_cos_61 : !tt.ptr<bf16> -> tensor<128x!tt.ptr<bf16>> loc(#loc157)
    %t_cos_row_91 = tt.addptr %t_cos_row, %cos_offsets : tensor<128x!tt.ptr<bf16>>, tensor<128xi32> loc(#loc157)
    %t_cos_row_92 = arith.constant 0 : i32 loc(#loc158)
    %t_cos_row_93 = arith.constant dense<0> : tensor<128xi32> loc(#loc158)
    %t_cos_row_94 = arith.sitofp %t_cos_row_93 : tensor<128xi32> to tensor<128xbf16> loc(#loc158)
    %t_cos_row_95 = tt.load %t_cos_row_91, %t_mask_90, %t_cos_row_94 : tensor<128x!tt.ptr<bf16>> loc(#loc158)
    %t_sin_row = tt.splat %t_sin : !tt.ptr<bf16> -> tensor<128x!tt.ptr<bf16>> loc(#loc159)
    %t_sin_row_96 = tt.addptr %t_sin_row, %cos_offsets : tensor<128x!tt.ptr<bf16>>, tensor<128xi32> loc(#loc159)
    %t_sin_row_97 = arith.constant 0 : i32 loc(#loc160)
    %t_sin_row_98 = arith.constant dense<0> : tensor<128xi32> loc(#loc160)
    %t_sin_row_99 = arith.sitofp %t_sin_row_98 : tensor<128xi32> to tensor<128xbf16> loc(#loc160)
    %t_sin_row_100 = tt.load %t_sin_row_96, %t_mask_90, %t_sin_row_99 : tensor<128x!tt.ptr<bf16>> loc(#loc160)
    %h_cos_row = tt.splat %h_cos_64 : !tt.ptr<bf16> -> tensor<128x!tt.ptr<bf16>> loc(#loc161)
    %h_cos_row_101 = tt.addptr %h_cos_row, %cos_offsets : tensor<128x!tt.ptr<bf16>>, tensor<128xi32> loc(#loc161)
    %h_cos_row_102 = arith.constant 0 : i32 loc(#loc162)
    %h_cos_row_103 = arith.constant dense<0> : tensor<128xi32> loc(#loc162)
    %h_cos_row_104 = arith.sitofp %h_cos_row_103 : tensor<128xi32> to tensor<128xbf16> loc(#loc162)
    %h_cos_row_105 = tt.load %h_cos_row_101, %h_mask_77, %h_cos_row_104 : tensor<128x!tt.ptr<bf16>> loc(#loc162)
    %h_sin_row = tt.splat %h_sin : !tt.ptr<bf16> -> tensor<128x!tt.ptr<bf16>> loc(#loc163)
    %h_sin_row_106 = tt.addptr %h_sin_row, %cos_offsets : tensor<128x!tt.ptr<bf16>>, tensor<128xi32> loc(#loc163)
    %h_sin_row_107 = arith.constant 0 : i32 loc(#loc164)
    %h_sin_row_108 = arith.constant dense<0> : tensor<128xi32> loc(#loc164)
    %h_sin_row_109 = arith.sitofp %h_sin_row_108 : tensor<128xi32> to tensor<128xbf16> loc(#loc164)
    %h_sin_row_110 = tt.load %h_sin_row_106, %h_mask_77, %h_sin_row_109 : tensor<128x!tt.ptr<bf16>> loc(#loc164)
    %w_cos_row = tt.splat %w_cos_67 : !tt.ptr<bf16> -> tensor<128x!tt.ptr<bf16>> loc(#loc165)
    %w_cos_row_111 = tt.addptr %w_cos_row, %cos_offsets : tensor<128x!tt.ptr<bf16>>, tensor<128xi32> loc(#loc165)
    %w_cos_row_112 = arith.constant 0 : i32 loc(#loc166)
    %w_cos_row_113 = arith.constant dense<0> : tensor<128xi32> loc(#loc166)
    %w_cos_row_114 = arith.sitofp %w_cos_row_113 : tensor<128xi32> to tensor<128xbf16> loc(#loc166)
    %w_cos_row_115 = tt.load %w_cos_row_111, %w_mask_87, %w_cos_row_114 : tensor<128x!tt.ptr<bf16>> loc(#loc166)
    %w_sin_row = tt.splat %w_sin : !tt.ptr<bf16> -> tensor<128x!tt.ptr<bf16>> loc(#loc167)
    %w_sin_row_116 = tt.addptr %w_sin_row, %cos_offsets : tensor<128x!tt.ptr<bf16>>, tensor<128xi32> loc(#loc167)
    %w_sin_row_117 = arith.constant 0 : i32 loc(#loc168)
    %w_sin_row_118 = arith.constant dense<0> : tensor<128xi32> loc(#loc168)
    %w_sin_row_119 = arith.sitofp %w_sin_row_118 : tensor<128xi32> to tensor<128xbf16> loc(#loc168)
    %w_sin_row_120 = tt.load %w_sin_row_116, %w_mask_87, %w_sin_row_119 : tensor<128x!tt.ptr<bf16>> loc(#loc168)
    %cos_row = arith.addf %t_cos_row_95, %h_cos_row_105 : tensor<128xbf16> loc(#loc169)
    %cos_row_121 = arith.addf %cos_row, %w_cos_row_115 : tensor<128xbf16> loc(#loc170)
    %sin_row = arith.addf %t_sin_row_100, %h_sin_row_110 : tensor<128xbf16> loc(#loc171)
    %sin_row_122 = arith.addf %sin_row, %w_sin_row_120 : tensor<128xbf16> loc(#loc172)
    %fhq = tt.make_range {end = 16 : i32, start = 0 : i32} : tensor<16xi32> loc(#loc173)
    %fhq_123 = tt.expand_dims %fhq {axis = 1 : i32} : tensor<16xi32> -> tensor<16x1xi32> loc(#loc174)
    %fhq_124 = arith.constant 256 : i32 loc(#loc175)
    %fhq_125 = arith.constant 256 : i32 loc(#loc175)
    %fhq_126 = arith.constant dense<256> : tensor<16x1xi32> loc(#loc175)
    %fhq_127 = arith.extsi %fhq_123 : tensor<16x1xi32> to tensor<16x1xi64> loc(#loc175)
    %fhq_128 = arith.extsi %fhq_126 : tensor<16x1xi32> to tensor<16x1xi64> loc(#loc175)
    %fhq_129 = arith.muli %fhq_127, %fhq_128 : tensor<16x1xi64> loc(#loc175)
    %fhq_130 = arith.constant 2147483647 : i64 loc(#loc175)
    %fhq_131 = arith.constant -2147483648 : i64 loc(#loc175)
    %fhq_132 = arith.constant dense<2147483647> : tensor<16x1xi64> loc(#loc175)
    %fhq_133 = arith.cmpi sle, %fhq_129, %fhq_132 : tensor<16x1xi64> loc(#loc175)
    %fhq_134 = arith.constant dense<-2147483648> : tensor<16x1xi64> loc(#loc175)
    %fhq_135 = arith.cmpi sge, %fhq_129, %fhq_134 : tensor<16x1xi64> loc(#loc175)
    %fhq_136 = arith.andi %fhq_133, %fhq_135 : tensor<16x1xi1> loc(#loc175)
    %fhq_137 = arith.muli %fhq_123, %fhq_126 : tensor<16x1xi32> loc(#loc175)
    %fhq_138 = tt.make_range {end = 128 : i32, start = 0 : i32} : tensor<128xi32> loc(#loc176)
    %fhq_139 = tt.expand_dims %fhq_138 {axis = 0 : i32} : tensor<128xi32> -> tensor<1x128xi32> loc(#loc177)
    %fhq_140 = tt.broadcast %fhq_137 : tensor<16x1xi32> -> tensor<16x128xi32> loc(#loc178)
    %fhq_141 = tt.broadcast %fhq_139 : tensor<1x128xi32> -> tensor<16x128xi32> loc(#loc178)
    %fhq_142 = arith.extsi %fhq_140 : tensor<16x128xi32> to tensor<16x128xi64> loc(#loc178)
    %fhq_143 = arith.extsi %fhq_141 : tensor<16x128xi32> to tensor<16x128xi64> loc(#loc178)
    %fhq_144 = arith.addi %fhq_142, %fhq_143 : tensor<16x128xi64> loc(#loc178)
    %fhq_145 = arith.constant 2147483647 : i64 loc(#loc178)
    %fhq_146 = arith.constant -2147483648 : i64 loc(#loc178)
    %fhq_147 = arith.constant dense<2147483647> : tensor<16x128xi64> loc(#loc178)
    %fhq_148 = arith.cmpi sle, %fhq_144, %fhq_147 : tensor<16x128xi64> loc(#loc178)
    %fhq_149 = arith.constant dense<-2147483648> : tensor<16x128xi64> loc(#loc178)
    %fhq_150 = arith.cmpi sge, %fhq_144, %fhq_149 : tensor<16x128xi64> loc(#loc178)
    %fhq_151 = arith.andi %fhq_148, %fhq_150 : tensor<16x128xi1> loc(#loc178)
    %fhq_152 = arith.addi %fhq_140, %fhq_141 : tensor<16x128xi32> loc(#loc178)
    %fhk = tt.make_range {end = 2 : i32, start = 0 : i32} : tensor<2xi32> loc(#loc179)
    %fhk_153 = tt.expand_dims %fhk {axis = 1 : i32} : tensor<2xi32> -> tensor<2x1xi32> loc(#loc180)
    %fhk_154 = arith.constant 256 : i32 loc(#loc181)
    %fhk_155 = arith.constant 256 : i32 loc(#loc181)
    %fhk_156 = arith.constant dense<256> : tensor<2x1xi32> loc(#loc181)
    %fhk_157 = arith.extsi %fhk_153 : tensor<2x1xi32> to tensor<2x1xi64> loc(#loc181)
    %fhk_158 = arith.extsi %fhk_156 : tensor<2x1xi32> to tensor<2x1xi64> loc(#loc181)
    %fhk_159 = arith.muli %fhk_157, %fhk_158 : tensor<2x1xi64> loc(#loc181)
    %fhk_160 = arith.constant 2147483647 : i64 loc(#loc181)
    %fhk_161 = arith.constant -2147483648 : i64 loc(#loc181)
    %fhk_162 = arith.constant dense<2147483647> : tensor<2x1xi64> loc(#loc181)
    %fhk_163 = arith.cmpi sle, %fhk_159, %fhk_162 : tensor<2x1xi64> loc(#loc181)
    %fhk_164 = arith.constant dense<-2147483648> : tensor<2x1xi64> loc(#loc181)
    %fhk_165 = arith.cmpi sge, %fhk_159, %fhk_164 : tensor<2x1xi64> loc(#loc181)
    %fhk_166 = arith.andi %fhk_163, %fhk_165 : tensor<2x1xi1> loc(#loc181)
    %fhk_167 = arith.muli %fhk_153, %fhk_156 : tensor<2x1xi32> loc(#loc181)
    %fhk_168 = tt.make_range {end = 128 : i32, start = 0 : i32} : tensor<128xi32> loc(#loc182)
    %fhk_169 = tt.expand_dims %fhk_168 {axis = 0 : i32} : tensor<128xi32> -> tensor<1x128xi32> loc(#loc183)
    %fhk_170 = tt.broadcast %fhk_167 : tensor<2x1xi32> -> tensor<2x128xi32> loc(#loc184)
    %fhk_171 = tt.broadcast %fhk_169 : tensor<1x128xi32> -> tensor<2x128xi32> loc(#loc184)
    %fhk_172 = arith.extsi %fhk_170 : tensor<2x128xi32> to tensor<2x128xi64> loc(#loc184)
    %fhk_173 = arith.extsi %fhk_171 : tensor<2x128xi32> to tensor<2x128xi64> loc(#loc184)
    %fhk_174 = arith.addi %fhk_172, %fhk_173 : tensor<2x128xi64> loc(#loc184)
    %fhk_175 = arith.constant 2147483647 : i64 loc(#loc184)
    %fhk_176 = arith.constant -2147483648 : i64 loc(#loc184)
    %fhk_177 = arith.constant dense<2147483647> : tensor<2x128xi64> loc(#loc184)
    %fhk_178 = arith.cmpi sle, %fhk_174, %fhk_177 : tensor<2x128xi64> loc(#loc184)
    %fhk_179 = arith.constant dense<-2147483648> : tensor<2x128xi64> loc(#loc184)
    %fhk_180 = arith.cmpi sge, %fhk_174, %fhk_179 : tensor<2x128xi64> loc(#loc184)
    %fhk_181 = arith.andi %fhk_178, %fhk_180 : tensor<2x128xi1> loc(#loc184)
    %fhk_182 = arith.addi %fhk_170, %fhk_171 : tensor<2x128xi32> loc(#loc184)
    %fqm = tt.make_range {end = 16 : i32, start = 0 : i32} : tensor<16xi32> loc(#loc185)
    %fqm_183 = tt.expand_dims %fqm {axis = 1 : i32} : tensor<16xi32> -> tensor<16x1xi32> loc(#loc186)
    %fqm_184 = arith.constant 12 : i32 loc(#loc187)
    %fqm_185 = arith.constant dense<12> : tensor<16x1xi32> loc(#loc187)
    %fqm_186 = arith.cmpi slt, %fqm_183, %fqm_185 : tensor<16x1xi32> loc(#loc187)
    %fqm_187 = tt.make_range {end = 128 : i32, start = 0 : i32} : tensor<128xi32> loc(#loc188)
    %fqm_188 = tt.expand_dims %fqm_187 {axis = 0 : i32} : tensor<128xi32> -> tensor<1x128xi32> loc(#loc189)
    %fqm_189 = arith.constant 32 : i32 loc(#loc190)
    %fqm_190 = arith.constant dense<32> : tensor<1x128xi32> loc(#loc190)
    %fqm_191 = arith.cmpi slt, %fqm_188, %fqm_190 : tensor<1x128xi32> loc(#loc190)
    %fqm_192 = tt.broadcast %fqm_186 : tensor<16x1xi1> -> tensor<16x128xi1> loc(#loc191)
    %fqm_193 = tt.broadcast %fqm_191 : tensor<1x128xi1> -> tensor<16x128xi1> loc(#loc191)
    %fqm_194 = arith.andi %fqm_192, %fqm_193 : tensor<16x128xi1> loc(#loc191)
    %fkm = tt.make_range {end = 2 : i32, start = 0 : i32} : tensor<2xi32> loc(#loc192)
    %fkm_195 = tt.expand_dims %fkm {axis = 1 : i32} : tensor<2xi32> -> tensor<2x1xi32> loc(#loc193)
    %fkm_196 = arith.constant 2 : i32 loc(#loc194)
    %fkm_197 = arith.constant dense<2> : tensor<2x1xi32> loc(#loc194)
    %fkm_198 = arith.cmpi slt, %fkm_195, %fkm_197 : tensor<2x1xi32> loc(#loc194)
    %fkm_199 = tt.make_range {end = 128 : i32, start = 0 : i32} : tensor<128xi32> loc(#loc195)
    %fkm_200 = tt.expand_dims %fkm_199 {axis = 0 : i32} : tensor<128xi32> -> tensor<1x128xi32> loc(#loc196)
    %fkm_201 = arith.constant 32 : i32 loc(#loc197)
    %fkm_202 = arith.constant dense<32> : tensor<1x128xi32> loc(#loc197)
    %fkm_203 = arith.cmpi slt, %fkm_200, %fkm_202 : tensor<1x128xi32> loc(#loc197)
    %fkm_204 = tt.broadcast %fkm_198 : tensor<2x1xi1> -> tensor<2x128xi1> loc(#loc198)
    %fkm_205 = tt.broadcast %fkm_203 : tensor<1x128xi1> -> tensor<2x128xi1> loc(#loc198)
    %fkm_206 = arith.andi %fkm_204, %fkm_205 : tensor<2x128xi1> loc(#loc198)
    %q1 = tt.splat %q_ptr_9 : !tt.ptr<bf16> -> tensor<16x128x!tt.ptr<bf16>> loc(#loc199)
    %q1_207 = tt.addptr %q1, %fhq_152 : tensor<16x128x!tt.ptr<bf16>>, tensor<16x128xi32> loc(#loc199)
    %q1_208 = arith.constant 0 : i32 loc(#loc200)
    %q1_209 = arith.constant dense<0> : tensor<16x128xi32> loc(#loc200)
    %q1_210 = arith.sitofp %q1_209 : tensor<16x128xi32> to tensor<16x128xbf16> loc(#loc200)
    %q1_211 = tt.load %q1_207, %fqm_194, %q1_210 : tensor<16x128x!tt.ptr<bf16>> loc(#loc200)
    %k1 = tt.splat %k_ptr_19 : !tt.ptr<bf16> -> tensor<2x128x!tt.ptr<bf16>> loc(#loc201)
    %k1_212 = tt.addptr %k1, %fhk_182 : tensor<2x128x!tt.ptr<bf16>>, tensor<2x128xi32> loc(#loc201)
    %k1_213 = arith.constant 0 : i32 loc(#loc202)
    %k1_214 = arith.constant dense<0> : tensor<2x128xi32> loc(#loc202)
    %k1_215 = arith.sitofp %k1_214 : tensor<2x128xi32> to tensor<2x128xbf16> loc(#loc202)
    %k1_216 = tt.load %k1_212, %fkm_206, %k1_215 : tensor<2x128x!tt.ptr<bf16>> loc(#loc202)
    %shq = arith.constant 32 : i32 loc(#loc203)
    %shq_217 = arith.constant 32 : i32 loc(#loc203)
    %shq_218 = arith.constant dense<32> : tensor<16x128xi32> loc(#loc203)
    %shq_219 = arith.extsi %fhq_152 : tensor<16x128xi32> to tensor<16x128xi64> loc(#loc203)
    %shq_220 = arith.extsi %shq_218 : tensor<16x128xi32> to tensor<16x128xi64> loc(#loc203)
    %shq_221 = arith.addi %shq_219, %shq_220 : tensor<16x128xi64> loc(#loc203)
    %shq_222 = arith.constant 2147483647 : i64 loc(#loc203)
    %shq_223 = arith.constant -2147483648 : i64 loc(#loc203)
    %shq_224 = arith.constant dense<2147483647> : tensor<16x128xi64> loc(#loc203)
    %shq_225 = arith.cmpi sle, %shq_221, %shq_224 : tensor<16x128xi64> loc(#loc203)
    %shq_226 = arith.constant dense<-2147483648> : tensor<16x128xi64> loc(#loc203)
    %shq_227 = arith.cmpi sge, %shq_221, %shq_226 : tensor<16x128xi64> loc(#loc203)
    %shq_228 = arith.andi %shq_225, %shq_227 : tensor<16x128xi1> loc(#loc203)
    %shq_229 = arith.addi %fhq_152, %shq_218 : tensor<16x128xi32> loc(#loc203)
    %shk = arith.constant 32 : i32 loc(#loc204)
    %shk_230 = arith.constant 32 : i32 loc(#loc204)
    %shk_231 = arith.constant dense<32> : tensor<2x128xi32> loc(#loc204)
    %shk_232 = arith.extsi %fhk_182 : tensor<2x128xi32> to tensor<2x128xi64> loc(#loc204)
    %shk_233 = arith.extsi %shk_231 : tensor<2x128xi32> to tensor<2x128xi64> loc(#loc204)
    %shk_234 = arith.addi %shk_232, %shk_233 : tensor<2x128xi64> loc(#loc204)
    %shk_235 = arith.constant 2147483647 : i64 loc(#loc204)
    %shk_236 = arith.constant -2147483648 : i64 loc(#loc204)
    %shk_237 = arith.constant dense<2147483647> : tensor<2x128xi64> loc(#loc204)
    %shk_238 = arith.cmpi sle, %shk_234, %shk_237 : tensor<2x128xi64> loc(#loc204)
    %shk_239 = arith.constant dense<-2147483648> : tensor<2x128xi64> loc(#loc204)
    %shk_240 = arith.cmpi sge, %shk_234, %shk_239 : tensor<2x128xi64> loc(#loc204)
    %shk_241 = arith.andi %shk_238, %shk_240 : tensor<2x128xi1> loc(#loc204)
    %shk_242 = arith.addi %fhk_182, %shk_231 : tensor<2x128xi32> loc(#loc204)
    %q2 = tt.splat %q_ptr_9 : !tt.ptr<bf16> -> tensor<16x128x!tt.ptr<bf16>> loc(#loc205)
    %q2_243 = tt.addptr %q2, %shq_229 : tensor<16x128x!tt.ptr<bf16>>, tensor<16x128xi32> loc(#loc205)
    %q2_244 = arith.constant 0 : i32 loc(#loc206)
    %q2_245 = arith.constant dense<0> : tensor<16x128xi32> loc(#loc206)
    %q2_246 = arith.sitofp %q2_245 : tensor<16x128xi32> to tensor<16x128xbf16> loc(#loc206)
    %q2_247 = tt.load %q2_243, %fqm_194, %q2_246 : tensor<16x128x!tt.ptr<bf16>> loc(#loc206)
    %k2 = tt.splat %k_ptr_19 : !tt.ptr<bf16> -> tensor<2x128x!tt.ptr<bf16>> loc(#loc207)
    %k2_248 = tt.addptr %k2, %shk_242 : tensor<2x128x!tt.ptr<bf16>>, tensor<2x128xi32> loc(#loc207)
    %k2_249 = arith.constant 0 : i32 loc(#loc208)
    %k2_250 = arith.constant dense<0> : tensor<2x128xi32> loc(#loc208)
    %k2_251 = arith.sitofp %k2_250 : tensor<2x128xi32> to tensor<2x128xbf16> loc(#loc208)
    %k2_252 = tt.load %k2_248, %fkm_206, %k2_251 : tensor<2x128x!tt.ptr<bf16>> loc(#loc208)
    %0 = tt.splat %q_ptr_9 : !tt.ptr<bf16> -> tensor<16x128x!tt.ptr<bf16>> loc(#loc91)
    %1 = tt.addptr %0, %fhq_152 : tensor<16x128x!tt.ptr<bf16>>, tensor<16x128xi32> loc(#loc91)
    %2 = tt.expand_dims %cos_row_121 {axis = 0 : i32} : tensor<128xbf16> -> tensor<1x128xbf16> loc(#loc92)
    %3 = tt.broadcast %2 : tensor<1x128xbf16> -> tensor<16x128xbf16> loc(#loc92)
    %4 = arith.mulf %q1_211, %3 : tensor<16x128xbf16> loc(#loc92)
    %5 = tt.expand_dims %sin_row_122 {axis = 0 : i32} : tensor<128xbf16> -> tensor<1x128xbf16> loc(#loc93)
    %6 = tt.broadcast %5 : tensor<1x128xbf16> -> tensor<16x128xbf16> loc(#loc93)
    %7 = arith.mulf %q2_247, %6 : tensor<16x128xbf16> loc(#loc93)
    %8 = arith.subf %4, %7 : tensor<16x128xbf16> loc(#loc94)
    tt.store %1, %8, %fqm_194 : tensor<16x128x!tt.ptr<bf16>> loc(#loc95)
    %9 = tt.splat %q_ptr_9 : !tt.ptr<bf16> -> tensor<16x128x!tt.ptr<bf16>> loc(#loc96)
    %10 = tt.addptr %9, %shq_229 : tensor<16x128x!tt.ptr<bf16>>, tensor<16x128xi32> loc(#loc96)
    %11 = tt.expand_dims %cos_row_121 {axis = 0 : i32} : tensor<128xbf16> -> tensor<1x128xbf16> loc(#loc97)
    %12 = tt.broadcast %11 : tensor<1x128xbf16> -> tensor<16x128xbf16> loc(#loc97)
    %13 = arith.mulf %q2_247, %12 : tensor<16x128xbf16> loc(#loc97)
    %14 = tt.expand_dims %sin_row_122 {axis = 0 : i32} : tensor<128xbf16> -> tensor<1x128xbf16> loc(#loc98)
    %15 = tt.broadcast %14 : tensor<1x128xbf16> -> tensor<16x128xbf16> loc(#loc98)
    %16 = arith.mulf %q1_211, %15 : tensor<16x128xbf16> loc(#loc98)
    %17 = arith.addf %13, %16 : tensor<16x128xbf16> loc(#loc99)
    tt.store %10, %17, %fqm_194 : tensor<16x128x!tt.ptr<bf16>> loc(#loc100)
    %18 = tt.splat %k_ptr_19 : !tt.ptr<bf16> -> tensor<2x128x!tt.ptr<bf16>> loc(#loc101)
    %19 = tt.addptr %18, %fhk_182 : tensor<2x128x!tt.ptr<bf16>>, tensor<2x128xi32> loc(#loc101)
    %20 = tt.expand_dims %cos_row_121 {axis = 0 : i32} : tensor<128xbf16> -> tensor<1x128xbf16> loc(#loc102)
    %21 = tt.broadcast %20 : tensor<1x128xbf16> -> tensor<2x128xbf16> loc(#loc102)
    %22 = arith.mulf %k1_216, %21 : tensor<2x128xbf16> loc(#loc102)
    %23 = tt.expand_dims %sin_row_122 {axis = 0 : i32} : tensor<128xbf16> -> tensor<1x128xbf16> loc(#loc103)
    %24 = tt.broadcast %23 : tensor<1x128xbf16> -> tensor<2x128xbf16> loc(#loc103)
    %25 = arith.mulf %k2_252, %24 : tensor<2x128xbf16> loc(#loc103)
    %26 = arith.subf %22, %25 : tensor<2x128xbf16> loc(#loc104)
    tt.store %19, %26, %fkm_206 : tensor<2x128x!tt.ptr<bf16>> loc(#loc105)
    %27 = tt.splat %k_ptr_19 : !tt.ptr<bf16> -> tensor<2x128x!tt.ptr<bf16>> loc(#loc106)
    %28 = tt.addptr %27, %shk_242 : tensor<2x128x!tt.ptr<bf16>>, tensor<2x128xi32> loc(#loc106)
    %29 = tt.expand_dims %cos_row_121 {axis = 0 : i32} : tensor<128xbf16> -> tensor<1x128xbf16> loc(#loc107)
    %30 = tt.broadcast %29 : tensor<1x128xbf16> -> tensor<2x128xbf16> loc(#loc107)
    %31 = arith.mulf %k2_252, %30 : tensor<2x128xbf16> loc(#loc107)
    %32 = tt.expand_dims %sin_row_122 {axis = 0 : i32} : tensor<128xbf16> -> tensor<1x128xbf16> loc(#loc108)
    %33 = tt.broadcast %32 : tensor<1x128xbf16> -> tensor<2x128xbf16> loc(#loc108)
    %34 = arith.mulf %k1_216, %33 : tensor<2x128xbf16> loc(#loc108)
    %35 = arith.addf %31, %34 : tensor<2x128xbf16> loc(#loc109)
    tt.store %28, %35, %fkm_206 : tensor<2x128x!tt.ptr<bf16>> loc(#loc110)
    tt.return loc(#loc111)
  } loc(#loc)
} loc(#loc)
#loc1 = loc("/sgl-workspace/sglang/python/sglang/srt/layers/rotary_embedding/triton_kernels.py":36:24)
#loc2 = loc("/sgl-workspace/sglang/python/sglang/srt/layers/rotary_embedding/triton_kernels.py":37:26)
#loc3 = loc("/sgl-workspace/sglang/python/sglang/srt/layers/rotary_embedding/triton_kernels.py":37:20)
#loc4 = loc("/sgl-workspace/sglang/python/sglang/srt/layers/rotary_embedding/triton_kernels.py":38:26)
#loc5 = loc("/sgl-workspace/sglang/python/sglang/srt/layers/rotary_embedding/triton_kernels.py":38:20)
#loc6 = loc("/sgl-workspace/sglang/python/sglang/srt/layers/rotary_embedding/triton_kernels.py":39:14)
#loc7 = loc("/sgl-workspace/sglang/python/sglang/srt/layers/rotary_embedding/triton_kernels.py":40:36)
#loc8 = loc("/sgl-workspace/sglang/python/sglang/srt/layers/rotary_embedding/triton_kernels.py":40:32)
#loc9 = loc("/sgl-workspace/sglang/python/sglang/srt/layers/rotary_embedding/triton_kernels.py":40:55)
#loc10 = loc("/sgl-workspace/sglang/python/sglang/srt/layers/rotary_embedding/triton_kernels.py":40:16)
#loc11 = loc("/sgl-workspace/sglang/python/sglang/srt/layers/rotary_embedding/triton_kernels.py":41:36)
#loc12 = loc("/sgl-workspace/sglang/python/sglang/srt/layers/rotary_embedding/triton_kernels.py":41:32)
#loc13 = loc("/sgl-workspace/sglang/python/sglang/srt/layers/rotary_embedding/triton_kernels.py":41:55)
#loc14 = loc("/sgl-workspace/sglang/python/sglang/srt/layers/rotary_embedding/triton_kernels.py":41:16)
#loc15 = loc("/sgl-workspace/sglang/python/sglang/srt/layers/rotary_embedding/triton_kernels.py":42:36)
#loc16 = loc("/sgl-workspace/sglang/python/sglang/srt/layers/rotary_embedding/triton_kernels.py":42:32)
#loc17 = loc("/sgl-workspace/sglang/python/sglang/srt/layers/rotary_embedding/triton_kernels.py":42:55)
#loc18 = loc("/sgl-workspace/sglang/python/sglang/srt/layers/rotary_embedding/triton_kernels.py":42:16)
#loc19 = loc("/sgl-workspace/sglang/python/sglang/srt/layers/rotary_embedding/triton_kernels.py":43:36)
#loc20 = loc("/sgl-workspace/sglang/python/sglang/srt/layers/rotary_embedding/triton_kernels.py":43:32)
#loc21 = loc("/sgl-workspace/sglang/python/sglang/srt/layers/rotary_embedding/triton_kernels.py":44:36)
#loc22 = loc("/sgl-workspace/sglang/python/sglang/srt/layers/rotary_embedding/triton_kernels.py":44:32)
#loc23 = loc("/sgl-workspace/sglang/python/sglang/srt/layers/rotary_embedding/triton_kernels.py":45:36)
#loc24 = loc("/sgl-workspace/sglang/python/sglang/srt/layers/rotary_embedding/triton_kernels.py":45:32)
#loc25 = loc("/sgl-workspace/sglang/python/sglang/srt/layers/rotary_embedding/triton_kernels.py":46:20)
#loc26 = loc("/sgl-workspace/sglang/python/sglang/srt/layers/rotary_embedding/triton_kernels.py":47:20)
#loc27 = loc("/sgl-workspace/sglang/python/sglang/srt/layers/rotary_embedding/triton_kernels.py":48:20)
#loc28 = loc("/sgl-workspace/sglang/python/sglang/srt/layers/rotary_embedding/triton_kernels.py":49:31)
#loc29 = loc("/sgl-workspace/sglang/python/sglang/srt/layers/rotary_embedding/triton_kernels.py":57:37)
#loc30 = loc("/sgl-workspace/sglang/python/sglang/srt/layers/rotary_embedding/triton_kernels.py":57:43)
#loc31 = loc("/sgl-workspace/sglang/python/sglang/srt/layers/rotary_embedding/triton_kernels.py":57:64)
#loc32 = loc("/sgl-workspace/sglang/python/sglang/srt/layers/rotary_embedding/triton_kernels.py":57:49)
#loc33 = loc("/sgl-workspace/sglang/python/sglang/srt/layers/rotary_embedding/triton_kernels.py":58:37)
#loc34 = loc("/sgl-workspace/sglang/python/sglang/srt/layers/rotary_embedding/triton_kernels.py":58:43)
#loc35 = loc("/sgl-workspace/sglang/python/sglang/srt/layers/rotary_embedding/triton_kernels.py":58:64)
#loc36 = loc("/sgl-workspace/sglang/python/sglang/srt/layers/rotary_embedding/triton_kernels.py":58:49)
#loc37 = loc("/sgl-workspace/sglang/python/sglang/srt/layers/rotary_embedding/triton_kernels.py":59:32)
#loc38 = loc("/sgl-workspace/sglang/python/sglang/srt/layers/rotary_embedding/triton_kernels.py":59:23)
#loc39 = loc("/sgl-workspace/sglang/python/sglang/srt/layers/rotary_embedding/triton_kernels.py":66:32)
#loc40 = loc("/sgl-workspace/sglang/python/sglang/srt/layers/rotary_embedding/triton_kernels.py":66:24)
#loc41 = loc("/sgl-workspace/sglang/python/sglang/srt/layers/rotary_embedding/triton_kernels.py":67:32)
#loc42 = loc("/sgl-workspace/sglang/python/sglang/srt/layers/rotary_embedding/triton_kernels.py":67:24)
#loc43 = loc("/sgl-workspace/sglang/python/sglang/srt/layers/rotary_embedding/triton_kernels.py":68:32)
#loc44 = loc("/sgl-workspace/sglang/python/sglang/srt/layers/rotary_embedding/triton_kernels.py":68:24)
#loc45 = loc("/sgl-workspace/sglang/python/sglang/srt/layers/rotary_embedding/triton_kernels.py":69:32)
#loc46 = loc("/sgl-workspace/sglang/python/sglang/srt/layers/rotary_embedding/triton_kernels.py":69:24)
#loc47 = loc("/sgl-workspace/sglang/python/sglang/srt/layers/rotary_embedding/triton_kernels.py":70:32)
#loc48 = loc("/sgl-workspace/sglang/python/sglang/srt/layers/rotary_embedding/triton_kernels.py":70:24)
#loc49 = loc("/sgl-workspace/sglang/python/sglang/srt/layers/rotary_embedding/triton_kernels.py":71:32)
#loc50 = loc("/sgl-workspace/sglang/python/sglang/srt/layers/rotary_embedding/triton_kernels.py":71:24)
#loc51 = loc("/sgl-workspace/sglang/python/sglang/srt/layers/rotary_embedding/triton_kernels.py":72:26)
#loc52 = loc("/sgl-workspace/sglang/python/sglang/srt/layers/rotary_embedding/triton_kernels.py":72:38)
#loc53 = loc("/sgl-workspace/sglang/python/sglang/srt/layers/rotary_embedding/triton_kernels.py":73:26)
#loc54 = loc("/sgl-workspace/sglang/python/sglang/srt/layers/rotary_embedding/triton_kernels.py":73:38)
#loc55 = loc("/sgl-workspace/sglang/python/sglang/srt/layers/rotary_embedding/triton_kernels.py":75:27)
#loc56 = loc("/sgl-workspace/sglang/python/sglang/srt/layers/rotary_embedding/triton_kernels.py":75:37)
#loc57 = loc("/sgl-workspace/sglang/python/sglang/srt/layers/rotary_embedding/triton_kernels.py":75:48)
#loc58 = loc("/sgl-workspace/sglang/python/sglang/srt/layers/rotary_embedding/triton_kernels.py":75:66)
#loc59 = loc("/sgl-workspace/sglang/python/sglang/srt/layers/rotary_embedding/triton_kernels.py":75:79)
#loc60 = loc("/sgl-workspace/sglang/python/sglang/srt/layers/rotary_embedding/triton_kernels.py":75:53)
#loc61 = loc("/sgl-workspace/sglang/python/sglang/srt/layers/rotary_embedding/triton_kernels.py":76:27)
#loc62 = loc("/sgl-workspace/sglang/python/sglang/srt/layers/rotary_embedding/triton_kernels.py":76:37)
#loc63 = loc("/sgl-workspace/sglang/python/sglang/srt/layers/rotary_embedding/triton_kernels.py":76:48)
#loc64 = loc("/sgl-workspace/sglang/python/sglang/srt/layers/rotary_embedding/triton_kernels.py":76:66)
#loc65 = loc("/sgl-workspace/sglang/python/sglang/srt/layers/rotary_embedding/triton_kernels.py":76:79)
#loc66 = loc("/sgl-workspace/sglang/python/sglang/srt/layers/rotary_embedding/triton_kernels.py":76:53)
#loc67 = loc("/sgl-workspace/sglang/python/sglang/srt/layers/rotary_embedding/triton_kernels.py":77:28)
#loc68 = loc("/sgl-workspace/sglang/python/sglang/srt/layers/rotary_embedding/triton_kernels.py":77:38)
#loc69 = loc("/sgl-workspace/sglang/python/sglang/srt/layers/rotary_embedding/triton_kernels.py":77:49)
#loc70 = loc("/sgl-workspace/sglang/python/sglang/srt/layers/rotary_embedding/triton_kernels.py":78:25)
#loc71 = loc("/sgl-workspace/sglang/python/sglang/srt/layers/rotary_embedding/triton_kernels.py":78:38)
#loc72 = loc("/sgl-workspace/sglang/python/sglang/srt/layers/rotary_embedding/triton_kernels.py":78:49)
#loc73 = loc("/sgl-workspace/sglang/python/sglang/srt/layers/rotary_embedding/triton_kernels.py":78:12)
#loc74 = loc("/sgl-workspace/sglang/python/sglang/srt/layers/rotary_embedding/triton_kernels.py":80:28)
#loc75 = loc("/sgl-workspace/sglang/python/sglang/srt/layers/rotary_embedding/triton_kernels.py":80:38)
#loc76 = loc("/sgl-workspace/sglang/python/sglang/srt/layers/rotary_embedding/triton_kernels.py":80:49)
#loc77 = loc("/sgl-workspace/sglang/python/sglang/srt/layers/rotary_embedding/triton_kernels.py":81:25)
#loc78 = loc("/sgl-workspace/sglang/python/sglang/srt/layers/rotary_embedding/triton_kernels.py":81:38)
#loc79 = loc("/sgl-workspace/sglang/python/sglang/srt/layers/rotary_embedding/triton_kernels.py":81:49)
#loc80 = loc("/sgl-workspace/sglang/python/sglang/srt/layers/rotary_embedding/triton_kernels.py":81:12)
#loc81 = loc("/sgl-workspace/sglang/python/sglang/srt/layers/rotary_embedding/triton_kernels.py":83:29)
#loc82 = loc("/sgl-workspace/sglang/python/sglang/srt/layers/rotary_embedding/triton_kernels.py":83:21)
#loc83 = loc("/sgl-workspace/sglang/python/sglang/srt/layers/rotary_embedding/triton_kernels.py":84:29)
#loc84 = loc("/sgl-workspace/sglang/python/sglang/srt/layers/rotary_embedding/triton_kernels.py":84:21)
#loc85 = loc("/sgl-workspace/sglang/python/sglang/srt/layers/rotary_embedding/triton_kernels.py":85:21)
#loc86 = loc("/sgl-workspace/sglang/python/sglang/srt/layers/rotary_embedding/triton_kernels.py":86:21)
#loc87 = loc("/sgl-workspace/sglang/python/sglang/srt/layers/rotary_embedding/triton_kernels.py":87:29)
#loc88 = loc("/sgl-workspace/sglang/python/sglang/srt/layers/rotary_embedding/triton_kernels.py":87:21)
#loc89 = loc("/sgl-workspace/sglang/python/sglang/srt/layers/rotary_embedding/triton_kernels.py":88:29)
#loc90 = loc("/sgl-workspace/sglang/python/sglang/srt/layers/rotary_embedding/triton_kernels.py":88:21)
#loc91 = loc("/sgl-workspace/sglang/python/sglang/srt/layers/rotary_embedding/triton_kernels.py":89:25)
#loc92 = loc("/sgl-workspace/sglang/python/sglang/srt/layers/rotary_embedding/triton_kernels.py":89:35)
#loc93 = loc("/sgl-workspace/sglang/python/sglang/srt/layers/rotary_embedding/triton_kernels.py":89:50)
#loc94 = loc("/sgl-workspace/sglang/python/sglang/srt/layers/rotary_embedding/triton_kernels.py":89:45)
#loc95 = loc("/sgl-workspace/sglang/python/sglang/srt/layers/rotary_embedding/triton_kernels.py":89:30)
#loc96 = loc("/sgl-workspace/sglang/python/sglang/srt/layers/rotary_embedding/triton_kernels.py":90:25)
#loc97 = loc("/sgl-workspace/sglang/python/sglang/srt/layers/rotary_embedding/triton_kernels.py":90:35)
#loc98 = loc("/sgl-workspace/sglang/python/sglang/srt/layers/rotary_embedding/triton_kernels.py":90:50)
#loc99 = loc("/sgl-workspace/sglang/python/sglang/srt/layers/rotary_embedding/triton_kernels.py":90:45)
#loc100 = loc("/sgl-workspace/sglang/python/sglang/srt/layers/rotary_embedding/triton_kernels.py":90:30)
#loc101 = loc("/sgl-workspace/sglang/python/sglang/srt/layers/rotary_embedding/triton_kernels.py":91:25)
#loc102 = loc("/sgl-workspace/sglang/python/sglang/srt/layers/rotary_embedding/triton_kernels.py":91:35)
#loc103 = loc("/sgl-workspace/sglang/python/sglang/srt/layers/rotary_embedding/triton_kernels.py":91:50)
#loc104 = loc("/sgl-workspace/sglang/python/sglang/srt/layers/rotary_embedding/triton_kernels.py":91:45)
#loc105 = loc("/sgl-workspace/sglang/python/sglang/srt/layers/rotary_embedding/triton_kernels.py":91:30)
#loc106 = loc("/sgl-workspace/sglang/python/sglang/srt/layers/rotary_embedding/triton_kernels.py":92:25)
#loc107 = loc("/sgl-workspace/sglang/python/sglang/srt/layers/rotary_embedding/triton_kernels.py":92:35)
#loc108 = loc("/sgl-workspace/sglang/python/sglang/srt/layers/rotary_embedding/triton_kernels.py":92:50)
#loc109 = loc("/sgl-workspace/sglang/python/sglang/srt/layers/rotary_embedding/triton_kernels.py":92:45)
#loc110 = loc("/sgl-workspace/sglang/python/sglang/srt/layers/rotary_embedding/triton_kernels.py":92:30)
#loc111 = loc("/sgl-workspace/sglang/python/sglang/srt/layers/rotary_embedding/triton_kernels.py":74:4)
#loc119 = loc("pid"(#loc1))
#loc120 = loc("q_ptr"(#loc2))
#loc121 = loc("q_ptr"(#loc3))
#loc122 = loc("k_ptr"(#loc4))
#loc123 = loc("k_ptr"(#loc5))
#loc124 = loc("half_rd"(#loc6))
#loc125 = loc("t"(#loc7))
#loc126 = loc("t"(#loc8))
#loc127 = loc("t"(#loc9))
#loc128 = loc("t"(#loc10))
#loc129 = loc("h"(#loc11))
#loc130 = loc("h"(#loc12))
#loc131 = loc("h"(#loc13))
#loc132 = loc("h"(#loc14))
#loc133 = loc("w"(#loc15))
#loc134 = loc("w"(#loc16))
#loc135 = loc("w"(#loc17))
#loc136 = loc("w"(#loc18))
#loc137 = loc("t_cos"(#loc19))
#loc138 = loc("t_cos"(#loc20))
#loc139 = loc("h_cos"(#loc21))
#loc140 = loc("h_cos"(#loc22))
#loc141 = loc("w_cos"(#loc23))
#loc142 = loc("w_cos"(#loc24))
#loc143 = loc("t_sin"(#loc25))
#loc144 = loc("h_sin"(#loc26))
#loc145 = loc("w_sin"(#loc27))
#loc146 = loc("cos_offsets"(#loc28))
#loc147 = loc("h_mask"(#loc29))
#loc148 = loc("h_mask"(#loc30))
#loc149 = loc("h_mask"(#loc31))
#loc150 = loc("h_mask"(#loc32))
#loc151 = loc("w_mask"(#loc33))
#loc152 = loc("w_mask"(#loc34))
#loc153 = loc("w_mask"(#loc35))
#loc154 = loc("w_mask"(#loc36))
#loc155 = loc("t_mask"(#loc37))
#loc156 = loc("t_mask"(#loc38))
#loc157 = loc("t_cos_row"(#loc39))
#loc158 = loc("t_cos_row"(#loc40))
#loc159 = loc("t_sin_row"(#loc41))
#loc160 = loc("t_sin_row"(#loc42))
#loc161 = loc("h_cos_row"(#loc43))
#loc162 = loc("h_cos_row"(#loc44))
#loc163 = loc("h_sin_row"(#loc45))
#loc164 = loc("h_sin_row"(#loc46))
#loc165 = loc("w_cos_row"(#loc47))
#loc166 = loc("w_cos_row"(#loc48))
#loc167 = loc("w_sin_row"(#loc49))
#loc168 = loc("w_sin_row"(#loc50))
#loc169 = loc("cos_row"(#loc51))
#loc170 = loc("cos_row"(#loc52))
#loc171 = loc("sin_row"(#loc53))
#loc172 = loc("sin_row"(#loc54))
#loc173 = loc("fhq"(#loc55))
#loc174 = loc("fhq"(#loc56))
#loc175 = loc("fhq"(#loc57))
#loc176 = loc("fhq"(#loc58))
#loc177 = loc("fhq"(#loc59))
#loc178 = loc("fhq"(#loc60))
#loc179 = loc("fhk"(#loc61))
#loc180 = loc("fhk"(#loc62))
#loc181 = loc("fhk"(#loc63))
#loc182 = loc("fhk"(#loc64))
#loc183 = loc("fhk"(#loc65))
#loc184 = loc("fhk"(#loc66))
#loc185 = loc("fqm"(#loc67))
#loc186 = loc("fqm"(#loc68))
#loc187 = loc("fqm"(#loc69))
#loc188 = loc("fqm"(#loc70))
#loc189 = loc("fqm"(#loc71))
#loc190 = loc("fqm"(#loc72))
#loc191 = loc("fqm"(#loc73))
#loc192 = loc("fkm"(#loc74))
#loc193 = loc("fkm"(#loc75))
#loc194 = loc("fkm"(#loc76))
#loc195 = loc("fkm"(#loc77))
#loc196 = loc("fkm"(#loc78))
#loc197 = loc("fkm"(#loc79))
#loc198 = loc("fkm"(#loc80))
#loc199 = loc("q1"(#loc81))
#loc200 = loc("q1"(#loc82))
#loc201 = loc("k1"(#loc83))
#loc202 = loc("k1"(#loc84))
#loc203 = loc("shq"(#loc85))
#loc204 = loc("shk"(#loc86))
#loc205 = loc("q2"(#loc87))
#loc206 = loc("q2"(#loc88))
#loc207 = loc("k2"(#loc89))
#loc208 = loc("k2"(#loc90))
