#loc = loc("/sgl-workspace/aiter/aiter/ops/triton/_triton_kernels/common/splitk_reduce.py":22:0)
#loc1 = loc(unknown)
#loc34 = loc("/sgl-workspace/aiter/aiter/ops/triton/_triton_kernels/common/splitk_reduce.py":70:15)
#loc43 = loc("c_in_ptr"(#loc))
#loc44 = loc("c_out_ptr"(#loc))
#loc45 = loc("M"(#loc))
#loc46 = loc("N"(#loc))
#loc47 = loc("stride_c_in_k"(#loc))
#loc48 = loc("stride_c_in_m"(#loc))
#loc49 = loc("stride_c_out_m"(#loc))
#loc69 = loc("c"(#loc34))
#loc76 = loc(callsite(#loc1 at #loc69))
module {
  tt.func public @_gemm_a8w8_blockscale_reduce_kernel_BLOCK_SIZE_M_32_BLOCK_SIZE_N_32_ACTUAL_KSPLIT_4_MAX_KSPLIT_4_ADD_BIAS_0_activation_NONE_use_activation_0(%c_in_ptr: !tt.ptr<f32> {tt.divisibility = 16 : i32, tt.pointer_range = 32 : i32} loc("c_in_ptr"(#loc)), %c_out_ptr: !tt.ptr<bf16> {tt.divisibility = 16 : i32, tt.pointer_range = 32 : i32} loc("c_out_ptr"(#loc)), %M: i32 {tt.divisibility = 16 : i32} loc("M"(#loc)), %N: i32 {tt.divisibility = 16 : i32} loc("N"(#loc)), %stride_c_in_k: i32 {tt.divisibility = 16 : i32} loc("stride_c_in_k"(#loc)), %stride_c_in_m: i32 {tt.divisibility = 16 : i32} loc("stride_c_in_m"(#loc)), %stride_c_out_m: i32 {tt.divisibility = 16 : i32} loc("stride_c_out_m"(#loc))) attributes {noinline = false} {
    %c32_i32 = arith.constant 32 : i32 loc(#loc1)
    %true = arith.constant true loc(#loc1)
    %c0_i32 = arith.constant 0 : i32 loc(#loc1)
    %0 = arith.cmpi sgt, %stride_c_in_k, %c0_i32 : i32 loc(#loc2)
    llvm.intr.assume %0 : i1 loc(#loc3)
    %1 = arith.cmpi sgt, %stride_c_in_m, %c0_i32 : i32 loc(#loc4)
    llvm.intr.assume %1 : i1 loc(#loc5)
    llvm.intr.assume %true : i1 loc(#loc6)
    %2 = arith.cmpi sgt, %stride_c_out_m, %c0_i32 : i32 loc(#loc7)
    llvm.intr.assume %2 : i1 loc(#loc8)
    llvm.intr.assume %true : i1 loc(#loc9)
    %pid_m = tt.get_program_id x : i32 loc(#loc50)
    %pid_n = tt.get_program_id y : i32 loc(#loc51)
    %3 = arith.cmpi sge, %pid_m, %c0_i32 : i32 loc(#loc12)
    llvm.intr.assume %3 : i1 loc(#loc13)
    %4 = arith.cmpi sge, %pid_n, %c0_i32 : i32 loc(#loc14)
    llvm.intr.assume %4 : i1 loc(#loc15)
    %offs_m = arith.muli %pid_m, %c32_i32 : i32 loc(#loc52)
    %offs_m_0 = tt.make_range {end = 32 : i32, start = 0 : i32} : tensor<32xi32> loc(#loc53)
    %offs_m_1 = tt.splat %offs_m : i32 -> tensor<32xi32> loc(#loc54)
    %offs_m_2 = arith.addi %offs_m_1, %offs_m_0 : tensor<32xi32> loc(#loc54)
    %offs_m_3 = tt.splat %M : i32 -> tensor<32xi32> loc(#loc55)
    %offs_m_4 = arith.remsi %offs_m_2, %offs_m_3 : tensor<32xi32> loc(#loc55)
    %offs_n = arith.muli %pid_n, %c32_i32 : i32 loc(#loc56)
    %offs_n_5 = tt.splat %offs_n : i32 -> tensor<32xi32> loc(#loc57)
    %offs_n_6 = arith.addi %offs_n_5, %offs_m_0 : tensor<32xi32> loc(#loc57)
    %offs_n_7 = tt.splat %N : i32 -> tensor<32xi32> loc(#loc58)
    %offs_n_8 = arith.remsi %offs_n_6, %offs_n_7 : tensor<32xi32> loc(#loc58)
    %offs_k = tt.make_range {end = 4 : i32, start = 0 : i32} : tensor<4xi32> loc(#loc59)
    %c_in_ptrs = tt.expand_dims %offs_k {axis = 1 : i32} : tensor<4xi32> -> tensor<4x1xi32> loc(#loc60)
    %c_in_ptrs_9 = tt.expand_dims %c_in_ptrs {axis = 2 : i32} : tensor<4x1xi32> -> tensor<4x1x1xi32> loc(#loc60)
    %c_in_ptrs_10 = tt.splat %stride_c_in_k : i32 -> tensor<4x1x1xi32> loc(#loc61)
    %c_in_ptrs_11 = arith.muli %c_in_ptrs_9, %c_in_ptrs_10 : tensor<4x1x1xi32> loc(#loc61)
    %c_in_ptrs_12 = tt.splat %c_in_ptr : !tt.ptr<f32> -> tensor<4x1x1x!tt.ptr<f32>> loc(#loc62)
    %c_in_ptrs_13 = tt.addptr %c_in_ptrs_12, %c_in_ptrs_11 : tensor<4x1x1x!tt.ptr<f32>>, tensor<4x1x1xi32> loc(#loc62)
    %c_in_ptrs_14 = tt.expand_dims %offs_m_4 {axis = 0 : i32} : tensor<32xi32> -> tensor<1x32xi32> loc(#loc63)
    %c_in_ptrs_15 = tt.expand_dims %c_in_ptrs_14 {axis = 2 : i32} : tensor<1x32xi32> -> tensor<1x32x1xi32> loc(#loc63)
    %c_in_ptrs_16 = tt.splat %stride_c_in_m : i32 -> tensor<1x32x1xi32> loc(#loc64)
    %c_in_ptrs_17 = arith.muli %c_in_ptrs_15, %c_in_ptrs_16 : tensor<1x32x1xi32> loc(#loc64)
    %c_in_ptrs_18 = tt.broadcast %c_in_ptrs_13 : tensor<4x1x1x!tt.ptr<f32>> -> tensor<4x32x1x!tt.ptr<f32>> loc(#loc65)
    %c_in_ptrs_19 = tt.broadcast %c_in_ptrs_17 : tensor<1x32x1xi32> -> tensor<4x32x1xi32> loc(#loc65)
    %c_in_ptrs_20 = tt.addptr %c_in_ptrs_18, %c_in_ptrs_19 : tensor<4x32x1x!tt.ptr<f32>>, tensor<4x32x1xi32> loc(#loc65)
    %c_in_ptrs_21 = tt.expand_dims %offs_n_8 {axis = 0 : i32} : tensor<32xi32> -> tensor<1x32xi32> loc(#loc66)
    %c_in_ptrs_22 = tt.expand_dims %c_in_ptrs_21 {axis = 1 : i32} : tensor<1x32xi32> -> tensor<1x1x32xi32> loc(#loc66)
    %c_in_ptrs_23 = tt.broadcast %c_in_ptrs_20 : tensor<4x32x1x!tt.ptr<f32>> -> tensor<4x32x32x!tt.ptr<f32>> loc(#loc67)
    %c_in_ptrs_24 = tt.broadcast %c_in_ptrs_22 : tensor<1x1x32xi32> -> tensor<4x32x32xi32> loc(#loc67)
    %c_in_ptrs_25 = tt.addptr %c_in_ptrs_23, %c_in_ptrs_24 : tensor<4x32x32x!tt.ptr<f32>>, tensor<4x32x32xi32> loc(#loc67)
    %c = tt.load %c_in_ptrs_25 : tensor<4x32x32x!tt.ptr<f32>> loc(#loc68)
    %c_26 = "tt.reduce"(%c) <{axis = 0 : i32}> ({
    ^bb0(%c_35: f32 loc(callsite(#loc1 at #loc69)), %c_36: f32 loc(callsite(#loc1 at #loc69))):
      %c_37 = arith.addf %c_35, %c_36 : f32 loc(#loc77)
      tt.reduce.return %c_37 : f32 loc(#loc75)
    }) : (tensor<4x32x32xf32>) -> tensor<32x32xf32> loc(#loc75)
    %c_27 = arith.truncf %c_26 : tensor<32x32xf32> to tensor<32x32xbf16> loc(#loc70)
    %c_out_ptrs = tt.expand_dims %offs_m_4 {axis = 1 : i32} : tensor<32xi32> -> tensor<32x1xi32> loc(#loc71)
    %c_out_ptrs_28 = tt.splat %stride_c_out_m : i32 -> tensor<32x1xi32> loc(#loc72)
    %c_out_ptrs_29 = arith.muli %c_out_ptrs, %c_out_ptrs_28 : tensor<32x1xi32> loc(#loc72)
    %c_out_ptrs_30 = tt.splat %c_out_ptr : !tt.ptr<bf16> -> tensor<32x1x!tt.ptr<bf16>> loc(#loc73)
    %c_out_ptrs_31 = tt.addptr %c_out_ptrs_30, %c_out_ptrs_29 : tensor<32x1x!tt.ptr<bf16>>, tensor<32x1xi32> loc(#loc73)
    %c_out_ptrs_32 = tt.broadcast %c_out_ptrs_31 : tensor<32x1x!tt.ptr<bf16>> -> tensor<32x32x!tt.ptr<bf16>> loc(#loc74)
    %c_out_ptrs_33 = tt.broadcast %c_in_ptrs_21 : tensor<1x32xi32> -> tensor<32x32xi32> loc(#loc74)
    %c_out_ptrs_34 = tt.addptr %c_out_ptrs_32, %c_out_ptrs_33 : tensor<32x32x!tt.ptr<bf16>>, tensor<32x32xi32> loc(#loc74)
    tt.store %c_out_ptrs_34, %c_27 : tensor<32x32x!tt.ptr<bf16>> loc(#loc41)
    tt.return loc(#loc42)
  } loc(#loc)
} loc(#loc)
#loc2 = loc("/sgl-workspace/aiter/aiter/ops/triton/_triton_kernels/common/splitk_reduce.py":42:30)
#loc3 = loc("/sgl-workspace/aiter/aiter/ops/triton/_triton_kernels/common/splitk_reduce.py":42:14)
#loc4 = loc("/sgl-workspace/aiter/aiter/ops/triton/_triton_kernels/common/splitk_reduce.py":43:30)
#loc5 = loc("/sgl-workspace/aiter/aiter/ops/triton/_triton_kernels/common/splitk_reduce.py":43:14)
#loc6 = loc("/sgl-workspace/aiter/aiter/ops/triton/_triton_kernels/common/splitk_reduce.py":44:14)
#loc7 = loc("/sgl-workspace/aiter/aiter/ops/triton/_triton_kernels/common/splitk_reduce.py":45:31)
#loc8 = loc("/sgl-workspace/aiter/aiter/ops/triton/_triton_kernels/common/splitk_reduce.py":45:14)
#loc9 = loc("/sgl-workspace/aiter/aiter/ops/triton/_triton_kernels/common/splitk_reduce.py":46:14)
#loc10 = loc("/sgl-workspace/aiter/aiter/ops/triton/_triton_kernels/common/splitk_reduce.py":48:26)
#loc11 = loc("/sgl-workspace/aiter/aiter/ops/triton/_triton_kernels/common/splitk_reduce.py":49:26)
#loc12 = loc("/sgl-workspace/aiter/aiter/ops/triton/_triton_kernels/common/splitk_reduce.py":53:23)
#loc13 = loc("/sgl-workspace/aiter/aiter/ops/triton/_triton_kernels/common/splitk_reduce.py":53:14)
#loc14 = loc("/sgl-workspace/aiter/aiter/ops/triton/_triton_kernels/common/splitk_reduce.py":54:23)
#loc15 = loc("/sgl-workspace/aiter/aiter/ops/triton/_triton_kernels/common/splitk_reduce.py":54:14)
#loc16 = loc("/sgl-workspace/aiter/aiter/ops/triton/_triton_kernels/common/splitk_reduce.py":56:22)
#loc17 = loc("/sgl-workspace/aiter/aiter/ops/triton/_triton_kernels/common/splitk_reduce.py":56:50)
#loc18 = loc("/sgl-workspace/aiter/aiter/ops/triton/_triton_kernels/common/splitk_reduce.py":56:37)
#loc19 = loc("/sgl-workspace/aiter/aiter/ops/triton/_triton_kernels/common/splitk_reduce.py":56:67)
#loc20 = loc("/sgl-workspace/aiter/aiter/ops/triton/_triton_kernels/common/splitk_reduce.py":57:22)
#loc21 = loc("/sgl-workspace/aiter/aiter/ops/triton/_triton_kernels/common/splitk_reduce.py":57:37)
#loc22 = loc("/sgl-workspace/aiter/aiter/ops/triton/_triton_kernels/common/splitk_reduce.py":57:67)
#loc23 = loc("/sgl-workspace/aiter/aiter/ops/triton/_triton_kernels/common/splitk_reduce.py":58:26)
#loc24 = loc("/sgl-workspace/aiter/aiter/ops/triton/_triton_kernels/common/splitk_reduce.py":61:18)
#loc25 = loc("/sgl-workspace/aiter/aiter/ops/triton/_triton_kernels/common/splitk_reduce.py":61:35)
#loc26 = loc("/sgl-workspace/aiter/aiter/ops/triton/_triton_kernels/common/splitk_reduce.py":61:11)
#loc27 = loc("/sgl-workspace/aiter/aiter/ops/triton/_triton_kernels/common/splitk_reduce.py":62:18)
#loc28 = loc("/sgl-workspace/aiter/aiter/ops/triton/_triton_kernels/common/splitk_reduce.py":62:35)
#loc29 = loc("/sgl-workspace/aiter/aiter/ops/triton/_triton_kernels/common/splitk_reduce.py":62:11)
#loc30 = loc("/sgl-workspace/aiter/aiter/ops/triton/_triton_kernels/common/splitk_reduce.py":63:18)
#loc31 = loc("/sgl-workspace/aiter/aiter/ops/triton/_triton_kernels/common/splitk_reduce.py":63:11)
#loc32 = loc("/sgl-workspace/aiter/aiter/ops/triton/_triton_kernels/common/splitk_reduce.py":67:20)
#loc33 = loc("/opt/venv/lib/python3.10/site-packages/triton/language/standard.py":291:36)
#loc35 = loc("/opt/venv/lib/python3.10/site-packages/triton/language/standard.py":261:15)
#loc36 = loc("/sgl-workspace/aiter/aiter/ops/triton/_triton_kernels/common/splitk_reduce.py":81:13)
#loc37 = loc("/sgl-workspace/aiter/aiter/ops/triton/_triton_kernels/common/splitk_reduce.py":85:18)
#loc38 = loc("/sgl-workspace/aiter/aiter/ops/triton/_triton_kernels/common/splitk_reduce.py":85:29)
#loc39 = loc("/sgl-workspace/aiter/aiter/ops/triton/_triton_kernels/common/splitk_reduce.py":85:11)
#loc40 = loc("/sgl-workspace/aiter/aiter/ops/triton/_triton_kernels/common/splitk_reduce.py":86:11)
#loc41 = loc("/sgl-workspace/aiter/aiter/ops/triton/_triton_kernels/common/splitk_reduce.py":89:25)
#loc42 = loc("/sgl-workspace/aiter/aiter/ops/triton/_triton_kernels/common/splitk_reduce.py":89:4)
#loc50 = loc("pid_m"(#loc10))
#loc51 = loc("pid_n"(#loc11))
#loc52 = loc("offs_m"(#loc16))
#loc53 = loc("offs_m"(#loc17))
#loc54 = loc("offs_m"(#loc18))
#loc55 = loc("offs_m"(#loc19))
#loc56 = loc("offs_n"(#loc20))
#loc57 = loc("offs_n"(#loc21))
#loc58 = loc("offs_n"(#loc22))
#loc59 = loc("offs_k"(#loc23))
#loc60 = loc("c_in_ptrs"(#loc24))
#loc61 = loc("c_in_ptrs"(#loc25))
#loc62 = loc("c_in_ptrs"(#loc26))
#loc63 = loc("c_in_ptrs"(#loc27))
#loc64 = loc("c_in_ptrs"(#loc28))
#loc65 = loc("c_in_ptrs"(#loc29))
#loc66 = loc("c_in_ptrs"(#loc30))
#loc67 = loc("c_in_ptrs"(#loc31))
#loc68 = loc("c"(#loc32))
#loc70 = loc("c"(#loc36))
#loc71 = loc("c_out_ptrs"(#loc37))
#loc72 = loc("c_out_ptrs"(#loc38))
#loc73 = loc("c_out_ptrs"(#loc39))
#loc74 = loc("c_out_ptrs"(#loc40))
#loc75 = loc(callsite(#loc33 at #loc69))
#loc77 = loc(callsite(#loc35 at #loc75))
