#loc = loc("/sgl-workspace/aiter/aiter/ops/triton/_triton_kernels/common/splitk_reduce.py":22:0)
#loc44 = loc("/opt/venv/lib/python3.10/site-packages/triton/language/standard.py":285:0)
#loc46 = loc(unknown)
#loc49 = loc("/opt/venv/lib/python3.10/site-packages/triton/language/standard.py":260:0)
#loc53 = loc("c_in_ptr"(#loc))
#loc54 = loc("c_out_ptr"(#loc))
#loc55 = loc("M"(#loc))
#loc56 = loc("N"(#loc))
#loc57 = loc("stride_c_in_k"(#loc))
#loc58 = loc("stride_c_in_m"(#loc))
#loc59 = loc("stride_c_out_m"(#loc))
#loc89 = loc("input"(#loc44))
#loc90 = loc("a"(#loc49))
#loc91 = loc("b"(#loc49))
module {
  tt.func public @_gemm_a8w8_blockscale_reduce_kernel_BLOCK_SIZE_M_32_BLOCK_SIZE_N_32_ACTUAL_KSPLIT_4_MAX_KSPLIT_4_ADD_BIAS_0_activation_NONE_use_activation_0(%c_in_ptr: !tt.ptr<f32> {tt.divisibility = 16 : i32, tt.pointer_range = 32 : i32} loc("c_in_ptr"(#loc)), %c_out_ptr: !tt.ptr<bf16> {tt.divisibility = 16 : i32, tt.pointer_range = 32 : i32} loc("c_out_ptr"(#loc)), %M: i32 {tt.divisibility = 16 : i32} loc("M"(#loc)), %N: i32 {tt.divisibility = 16 : i32} loc("N"(#loc)), %stride_c_in_k: i32 {tt.divisibility = 16 : i32} loc("stride_c_in_k"(#loc)), %stride_c_in_m: i32 {tt.divisibility = 16 : i32} loc("stride_c_in_m"(#loc)), %stride_c_out_m: i32 {tt.divisibility = 16 : i32} loc("stride_c_out_m"(#loc))) attributes {noinline = false} {
    %c0_i32 = arith.constant 0 : i32 loc(#loc1)
    %0 = arith.cmpi sgt, %stride_c_in_k, %c0_i32 : i32 loc(#loc1)
    llvm.intr.assume %0 : i1 loc(#loc2)
    %c0_i32_0 = arith.constant 0 : i32 loc(#loc3)
    %1 = arith.cmpi sgt, %stride_c_in_m, %c0_i32_0 : i32 loc(#loc3)
    llvm.intr.assume %1 : i1 loc(#loc4)
    %true = arith.constant true loc(#loc5)
    llvm.intr.assume %true : i1 loc(#loc5)
    %c0_i32_1 = arith.constant 0 : i32 loc(#loc6)
    %2 = arith.cmpi sgt, %stride_c_out_m, %c0_i32_1 : i32 loc(#loc6)
    llvm.intr.assume %2 : i1 loc(#loc7)
    %true_2 = arith.constant true loc(#loc8)
    llvm.intr.assume %true_2 : i1 loc(#loc8)
    %pid_m = tt.get_program_id x : i32 loc(#loc60)
    %pid_n = tt.get_program_id y : i32 loc(#loc61)
    %c0_i32_3 = arith.constant 0 : i32 loc(#loc11)
    %3 = arith.cmpi sge, %pid_m, %c0_i32_3 : i32 loc(#loc11)
    llvm.intr.assume %3 : i1 loc(#loc12)
    %c0_i32_4 = arith.constant 0 : i32 loc(#loc13)
    %4 = arith.cmpi sge, %pid_n, %c0_i32_4 : i32 loc(#loc13)
    llvm.intr.assume %4 : i1 loc(#loc14)
    %offs_m = arith.constant 32 : i32 loc(#loc62)
    %offs_m_5 = arith.constant 32 : i32 loc(#loc62)
    %offs_m_6 = arith.extsi %pid_m : i32 to i64 loc(#loc62)
    %offs_m_7 = arith.extsi %offs_m_5 : i32 to i64 loc(#loc62)
    %offs_m_8 = arith.muli %offs_m_6, %offs_m_7 : i64 loc(#loc62)
    %offs_m_9 = arith.constant 2147483647 : i64 loc(#loc62)
    %offs_m_10 = arith.constant -2147483648 : i64 loc(#loc62)
    %offs_m_11 = arith.cmpi sle, %offs_m_8, %offs_m_9 : i64 loc(#loc62)
    %offs_m_12 = arith.cmpi sge, %offs_m_8, %offs_m_10 : i64 loc(#loc62)
    %offs_m_13 = arith.andi %offs_m_11, %offs_m_12 : i1 loc(#loc62)
    %offs_m_14 = arith.muli %pid_m, %offs_m_5 : i32 loc(#loc62)
    %offs_m_15 = tt.make_range {end = 32 : i32, start = 0 : i32} : tensor<32xi32> loc(#loc63)
    %offs_m_16 = tt.splat %offs_m_14 : i32 -> tensor<32xi32> loc(#loc64)
    %offs_m_17 = arith.extsi %offs_m_16 : tensor<32xi32> to tensor<32xi64> loc(#loc64)
    %offs_m_18 = arith.extsi %offs_m_15 : tensor<32xi32> to tensor<32xi64> loc(#loc64)
    %offs_m_19 = arith.addi %offs_m_17, %offs_m_18 : tensor<32xi64> loc(#loc64)
    %offs_m_20 = arith.constant 2147483647 : i64 loc(#loc64)
    %offs_m_21 = arith.constant -2147483648 : i64 loc(#loc64)
    %offs_m_22 = arith.constant dense<2147483647> : tensor<32xi64> loc(#loc64)
    %offs_m_23 = arith.cmpi sle, %offs_m_19, %offs_m_22 : tensor<32xi64> loc(#loc64)
    %offs_m_24 = arith.constant dense<-2147483648> : tensor<32xi64> loc(#loc64)
    %offs_m_25 = arith.cmpi sge, %offs_m_19, %offs_m_24 : tensor<32xi64> loc(#loc64)
    %offs_m_26 = arith.andi %offs_m_23, %offs_m_25 : tensor<32xi1> loc(#loc64)
    %offs_m_27 = arith.addi %offs_m_16, %offs_m_15 : tensor<32xi32> loc(#loc64)
    %offs_m_28 = tt.splat %M : i32 -> tensor<32xi32> loc(#loc65)
    %offs_m_29 = arith.remsi %offs_m_27, %offs_m_28 : tensor<32xi32> loc(#loc65)
    %offs_n = arith.constant 32 : i32 loc(#loc66)
    %offs_n_30 = arith.constant 32 : i32 loc(#loc66)
    %offs_n_31 = arith.extsi %pid_n : i32 to i64 loc(#loc66)
    %offs_n_32 = arith.extsi %offs_n_30 : i32 to i64 loc(#loc66)
    %offs_n_33 = arith.muli %offs_n_31, %offs_n_32 : i64 loc(#loc66)
    %offs_n_34 = arith.constant 2147483647 : i64 loc(#loc66)
    %offs_n_35 = arith.constant -2147483648 : i64 loc(#loc66)
    %offs_n_36 = arith.cmpi sle, %offs_n_33, %offs_n_34 : i64 loc(#loc66)
    %offs_n_37 = arith.cmpi sge, %offs_n_33, %offs_n_35 : i64 loc(#loc66)
    %offs_n_38 = arith.andi %offs_n_36, %offs_n_37 : i1 loc(#loc66)
    %offs_n_39 = arith.muli %pid_n, %offs_n_30 : i32 loc(#loc66)
    %offs_n_40 = tt.make_range {end = 32 : i32, start = 0 : i32} : tensor<32xi32> loc(#loc67)
    %offs_n_41 = tt.splat %offs_n_39 : i32 -> tensor<32xi32> loc(#loc68)
    %offs_n_42 = arith.extsi %offs_n_41 : tensor<32xi32> to tensor<32xi64> loc(#loc68)
    %offs_n_43 = arith.extsi %offs_n_40 : tensor<32xi32> to tensor<32xi64> loc(#loc68)
    %offs_n_44 = arith.addi %offs_n_42, %offs_n_43 : tensor<32xi64> loc(#loc68)
    %offs_n_45 = arith.constant 2147483647 : i64 loc(#loc68)
    %offs_n_46 = arith.constant -2147483648 : i64 loc(#loc68)
    %offs_n_47 = arith.constant dense<2147483647> : tensor<32xi64> loc(#loc68)
    %offs_n_48 = arith.cmpi sle, %offs_n_44, %offs_n_47 : tensor<32xi64> loc(#loc68)
    %offs_n_49 = arith.constant dense<-2147483648> : tensor<32xi64> loc(#loc68)
    %offs_n_50 = arith.cmpi sge, %offs_n_44, %offs_n_49 : tensor<32xi64> loc(#loc68)
    %offs_n_51 = arith.andi %offs_n_48, %offs_n_50 : tensor<32xi1> loc(#loc68)
    %offs_n_52 = arith.addi %offs_n_41, %offs_n_40 : tensor<32xi32> loc(#loc68)
    %offs_n_53 = tt.splat %N : i32 -> tensor<32xi32> loc(#loc69)
    %offs_n_54 = arith.remsi %offs_n_52, %offs_n_53 : tensor<32xi32> loc(#loc69)
    %offs_k = tt.make_range {end = 4 : i32, start = 0 : i32} : tensor<4xi32> loc(#loc70)
    %c_in_ptrs = tt.expand_dims %offs_k {axis = 1 : i32} : tensor<4xi32> -> tensor<4x1xi32> loc(#loc71)
    %c_in_ptrs_55 = tt.expand_dims %c_in_ptrs {axis = 2 : i32} : tensor<4x1xi32> -> tensor<4x1x1xi32> loc(#loc71)
    %c_in_ptrs_56 = tt.splat %stride_c_in_k : i32 -> tensor<4x1x1xi32> loc(#loc72)
    %c_in_ptrs_57 = arith.extsi %c_in_ptrs_55 : tensor<4x1x1xi32> to tensor<4x1x1xi64> loc(#loc72)
    %c_in_ptrs_58 = arith.extsi %c_in_ptrs_56 : tensor<4x1x1xi32> to tensor<4x1x1xi64> loc(#loc72)
    %c_in_ptrs_59 = arith.muli %c_in_ptrs_57, %c_in_ptrs_58 : tensor<4x1x1xi64> loc(#loc72)
    %c_in_ptrs_60 = arith.constant 2147483647 : i64 loc(#loc72)
    %c_in_ptrs_61 = arith.constant -2147483648 : i64 loc(#loc72)
    %c_in_ptrs_62 = arith.constant dense<2147483647> : tensor<4x1x1xi64> loc(#loc72)
    %c_in_ptrs_63 = arith.cmpi sle, %c_in_ptrs_59, %c_in_ptrs_62 : tensor<4x1x1xi64> loc(#loc72)
    %c_in_ptrs_64 = arith.constant dense<-2147483648> : tensor<4x1x1xi64> loc(#loc72)
    %c_in_ptrs_65 = arith.cmpi sge, %c_in_ptrs_59, %c_in_ptrs_64 : tensor<4x1x1xi64> loc(#loc72)
    %c_in_ptrs_66 = arith.andi %c_in_ptrs_63, %c_in_ptrs_65 : tensor<4x1x1xi1> loc(#loc72)
    %c_in_ptrs_67 = arith.muli %c_in_ptrs_55, %c_in_ptrs_56 : tensor<4x1x1xi32> loc(#loc72)
    %c_in_ptrs_68 = tt.splat %c_in_ptr : !tt.ptr<f32> -> tensor<4x1x1x!tt.ptr<f32>> loc(#loc73)
    %c_in_ptrs_69 = tt.addptr %c_in_ptrs_68, %c_in_ptrs_67 : tensor<4x1x1x!tt.ptr<f32>>, tensor<4x1x1xi32> loc(#loc73)
    %c_in_ptrs_70 = tt.expand_dims %offs_m_29 {axis = 0 : i32} : tensor<32xi32> -> tensor<1x32xi32> loc(#loc74)
    %c_in_ptrs_71 = tt.expand_dims %c_in_ptrs_70 {axis = 2 : i32} : tensor<1x32xi32> -> tensor<1x32x1xi32> loc(#loc74)
    %c_in_ptrs_72 = tt.splat %stride_c_in_m : i32 -> tensor<1x32x1xi32> loc(#loc75)
    %c_in_ptrs_73 = arith.extsi %c_in_ptrs_71 : tensor<1x32x1xi32> to tensor<1x32x1xi64> loc(#loc75)
    %c_in_ptrs_74 = arith.extsi %c_in_ptrs_72 : tensor<1x32x1xi32> to tensor<1x32x1xi64> loc(#loc75)
    %c_in_ptrs_75 = arith.muli %c_in_ptrs_73, %c_in_ptrs_74 : tensor<1x32x1xi64> loc(#loc75)
    %c_in_ptrs_76 = arith.constant 2147483647 : i64 loc(#loc75)
    %c_in_ptrs_77 = arith.constant -2147483648 : i64 loc(#loc75)
    %c_in_ptrs_78 = arith.constant dense<2147483647> : tensor<1x32x1xi64> loc(#loc75)
    %c_in_ptrs_79 = arith.cmpi sle, %c_in_ptrs_75, %c_in_ptrs_78 : tensor<1x32x1xi64> loc(#loc75)
    %c_in_ptrs_80 = arith.constant dense<-2147483648> : tensor<1x32x1xi64> loc(#loc75)
    %c_in_ptrs_81 = arith.cmpi sge, %c_in_ptrs_75, %c_in_ptrs_80 : tensor<1x32x1xi64> loc(#loc75)
    %c_in_ptrs_82 = arith.andi %c_in_ptrs_79, %c_in_ptrs_81 : tensor<1x32x1xi1> loc(#loc75)
    %c_in_ptrs_83 = arith.muli %c_in_ptrs_71, %c_in_ptrs_72 : tensor<1x32x1xi32> loc(#loc75)
    %c_in_ptrs_84 = tt.broadcast %c_in_ptrs_69 : tensor<4x1x1x!tt.ptr<f32>> -> tensor<4x32x1x!tt.ptr<f32>> loc(#loc76)
    %c_in_ptrs_85 = tt.broadcast %c_in_ptrs_83 : tensor<1x32x1xi32> -> tensor<4x32x1xi32> loc(#loc76)
    %c_in_ptrs_86 = tt.addptr %c_in_ptrs_84, %c_in_ptrs_85 : tensor<4x32x1x!tt.ptr<f32>>, tensor<4x32x1xi32> loc(#loc76)
    %c_in_ptrs_87 = tt.expand_dims %offs_n_54 {axis = 0 : i32} : tensor<32xi32> -> tensor<1x32xi32> loc(#loc77)
    %c_in_ptrs_88 = tt.expand_dims %c_in_ptrs_87 {axis = 1 : i32} : tensor<1x32xi32> -> tensor<1x1x32xi32> loc(#loc77)
    %c_in_ptrs_89 = arith.constant 1 : i32 loc(#loc78)
    %c_in_ptrs_90 = arith.constant 1 : i32 loc(#loc78)
    %c_in_ptrs_91 = arith.constant dense<1> : tensor<1x1x32xi32> loc(#loc78)
    %c_in_ptrs_92 = arith.extsi %c_in_ptrs_88 : tensor<1x1x32xi32> to tensor<1x1x32xi64> loc(#loc78)
    %c_in_ptrs_93 = arith.extsi %c_in_ptrs_91 : tensor<1x1x32xi32> to tensor<1x1x32xi64> loc(#loc78)
    %c_in_ptrs_94 = arith.muli %c_in_ptrs_92, %c_in_ptrs_93 : tensor<1x1x32xi64> loc(#loc78)
    %c_in_ptrs_95 = arith.constant 2147483647 : i64 loc(#loc78)
    %c_in_ptrs_96 = arith.constant -2147483648 : i64 loc(#loc78)
    %c_in_ptrs_97 = arith.constant dense<2147483647> : tensor<1x1x32xi64> loc(#loc78)
    %c_in_ptrs_98 = arith.cmpi sle, %c_in_ptrs_94, %c_in_ptrs_97 : tensor<1x1x32xi64> loc(#loc78)
    %c_in_ptrs_99 = arith.constant dense<-2147483648> : tensor<1x1x32xi64> loc(#loc78)
    %c_in_ptrs_100 = arith.cmpi sge, %c_in_ptrs_94, %c_in_ptrs_99 : tensor<1x1x32xi64> loc(#loc78)
    %c_in_ptrs_101 = arith.andi %c_in_ptrs_98, %c_in_ptrs_100 : tensor<1x1x32xi1> loc(#loc78)
    %c_in_ptrs_102 = arith.muli %c_in_ptrs_88, %c_in_ptrs_91 : tensor<1x1x32xi32> loc(#loc78)
    %c_in_ptrs_103 = tt.broadcast %c_in_ptrs_86 : tensor<4x32x1x!tt.ptr<f32>> -> tensor<4x32x32x!tt.ptr<f32>> loc(#loc79)
    %c_in_ptrs_104 = tt.broadcast %c_in_ptrs_102 : tensor<1x1x32xi32> -> tensor<4x32x32xi32> loc(#loc79)
    %c_in_ptrs_105 = tt.addptr %c_in_ptrs_103, %c_in_ptrs_104 : tensor<4x32x32x!tt.ptr<f32>>, tensor<4x32x32xi32> loc(#loc79)
    %c = tt.load %c_in_ptrs_105 : tensor<4x32x32x!tt.ptr<f32>> loc(#loc80)
    %c_106 = tt.call @"triton.language.standard.sum__fp32S4_32_32S__(1,)cconstexpr_0__(2,)cconstexpr_False__(3,)cNone"(%c) : (tensor<4x32x32xf32>) -> tensor<32x32xf32> loc(#loc81)
    %c_107 = arith.truncf %c_106 : tensor<32x32xf32> to tensor<32x32xbf16> loc(#loc82)
    %c_out_ptrs = tt.expand_dims %offs_m_29 {axis = 1 : i32} : tensor<32xi32> -> tensor<32x1xi32> loc(#loc83)
    %c_out_ptrs_108 = tt.splat %stride_c_out_m : i32 -> tensor<32x1xi32> loc(#loc84)
    %c_out_ptrs_109 = arith.extsi %c_out_ptrs : tensor<32x1xi32> to tensor<32x1xi64> loc(#loc84)
    %c_out_ptrs_110 = arith.extsi %c_out_ptrs_108 : tensor<32x1xi32> to tensor<32x1xi64> loc(#loc84)
    %c_out_ptrs_111 = arith.muli %c_out_ptrs_109, %c_out_ptrs_110 : tensor<32x1xi64> loc(#loc84)
    %c_out_ptrs_112 = arith.constant 2147483647 : i64 loc(#loc84)
    %c_out_ptrs_113 = arith.constant -2147483648 : i64 loc(#loc84)
    %c_out_ptrs_114 = arith.constant dense<2147483647> : tensor<32x1xi64> loc(#loc84)
    %c_out_ptrs_115 = arith.cmpi sle, %c_out_ptrs_111, %c_out_ptrs_114 : tensor<32x1xi64> loc(#loc84)
    %c_out_ptrs_116 = arith.constant dense<-2147483648> : tensor<32x1xi64> loc(#loc84)
    %c_out_ptrs_117 = arith.cmpi sge, %c_out_ptrs_111, %c_out_ptrs_116 : tensor<32x1xi64> loc(#loc84)
    %c_out_ptrs_118 = arith.andi %c_out_ptrs_115, %c_out_ptrs_117 : tensor<32x1xi1> loc(#loc84)
    %c_out_ptrs_119 = arith.muli %c_out_ptrs, %c_out_ptrs_108 : tensor<32x1xi32> loc(#loc84)
    %c_out_ptrs_120 = tt.splat %c_out_ptr : !tt.ptr<bf16> -> tensor<32x1x!tt.ptr<bf16>> loc(#loc85)
    %c_out_ptrs_121 = tt.addptr %c_out_ptrs_120, %c_out_ptrs_119 : tensor<32x1x!tt.ptr<bf16>>, tensor<32x1xi32> loc(#loc85)
    %c_out_ptrs_122 = tt.expand_dims %offs_n_54 {axis = 0 : i32} : tensor<32xi32> -> tensor<1x32xi32> loc(#loc86)
    %c_out_ptrs_123 = arith.constant 1 : i32 loc(#loc87)
    %c_out_ptrs_124 = arith.constant 1 : i32 loc(#loc87)
    %c_out_ptrs_125 = arith.constant dense<1> : tensor<1x32xi32> loc(#loc87)
    %c_out_ptrs_126 = arith.extsi %c_out_ptrs_122 : tensor<1x32xi32> to tensor<1x32xi64> loc(#loc87)
    %c_out_ptrs_127 = arith.extsi %c_out_ptrs_125 : tensor<1x32xi32> to tensor<1x32xi64> loc(#loc87)
    %c_out_ptrs_128 = arith.muli %c_out_ptrs_126, %c_out_ptrs_127 : tensor<1x32xi64> loc(#loc87)
    %c_out_ptrs_129 = arith.constant 2147483647 : i64 loc(#loc87)
    %c_out_ptrs_130 = arith.constant -2147483648 : i64 loc(#loc87)
    %c_out_ptrs_131 = arith.constant dense<2147483647> : tensor<1x32xi64> loc(#loc87)
    %c_out_ptrs_132 = arith.cmpi sle, %c_out_ptrs_128, %c_out_ptrs_131 : tensor<1x32xi64> loc(#loc87)
    %c_out_ptrs_133 = arith.constant dense<-2147483648> : tensor<1x32xi64> loc(#loc87)
    %c_out_ptrs_134 = arith.cmpi sge, %c_out_ptrs_128, %c_out_ptrs_133 : tensor<1x32xi64> loc(#loc87)
    %c_out_ptrs_135 = arith.andi %c_out_ptrs_132, %c_out_ptrs_134 : tensor<1x32xi1> loc(#loc87)
    %c_out_ptrs_136 = arith.muli %c_out_ptrs_122, %c_out_ptrs_125 : tensor<1x32xi32> loc(#loc87)
    %c_out_ptrs_137 = tt.broadcast %c_out_ptrs_121 : tensor<32x1x!tt.ptr<bf16>> -> tensor<32x32x!tt.ptr<bf16>> loc(#loc88)
    %c_out_ptrs_138 = tt.broadcast %c_out_ptrs_136 : tensor<1x32xi32> -> tensor<32x32xi32> loc(#loc88)
    %c_out_ptrs_139 = tt.addptr %c_out_ptrs_137, %c_out_ptrs_138 : tensor<32x32x!tt.ptr<bf16>>, tensor<32x32xi32> loc(#loc88)
    tt.store %c_out_ptrs_139, %c_107 : tensor<32x32x!tt.ptr<bf16>> loc(#loc42)
    tt.return loc(#loc43)
  } loc(#loc)
  tt.func private @"triton.language.standard.sum__fp32S4_32_32S__(1,)cconstexpr_0__(2,)cconstexpr_False__(3,)cNone"(%input: tensor<4x32x32xf32> loc("input"(#loc44))) -> tensor<32x32xf32> attributes {noinline = false} {
    %0 = "tt.reduce"(%input) <{axis = 0 : i32}> ({
    ^bb0(%arg1: f32 loc(unknown), %arg2: f32 loc(unknown)):
      %2 = tt.call @triton.language.standard._sum_combine__fp32_fp32__(%arg1, %arg2) : (f32, f32) -> f32 loc(#loc45)
      tt.reduce.return %2 : f32 loc(#loc45)
    }) : (tensor<4x32x32xf32>) -> tensor<32x32xf32> loc(#loc45)
    tt.return %0 : tensor<32x32xf32> loc(#loc47)
  ^bb1:  // no predecessors
    %1 = ub.poison : tensor<32x32xf32> loc(#loc48)
    tt.return %1 : tensor<32x32xf32> loc(#loc48)
  } loc(#loc44)
  tt.func private @triton.language.standard._sum_combine__fp32_fp32__(%a: f32 loc("a"(#loc49)), %b: f32 loc("b"(#loc49))) -> f32 attributes {noinline = false} {
    %0 = arith.addf %a, %b : f32 loc(#loc50)
    tt.return %0 : f32 loc(#loc51)
  ^bb1:  // no predecessors
    %1 = ub.poison : f32 loc(#loc52)
    tt.return %1 : f32 loc(#loc52)
  } loc(#loc49)
} loc(#loc)
#loc1 = loc("/sgl-workspace/aiter/aiter/ops/triton/_triton_kernels/common/splitk_reduce.py":42:30)
#loc2 = loc("/sgl-workspace/aiter/aiter/ops/triton/_triton_kernels/common/splitk_reduce.py":42:14)
#loc3 = loc("/sgl-workspace/aiter/aiter/ops/triton/_triton_kernels/common/splitk_reduce.py":43:30)
#loc4 = loc("/sgl-workspace/aiter/aiter/ops/triton/_triton_kernels/common/splitk_reduce.py":43:14)
#loc5 = loc("/sgl-workspace/aiter/aiter/ops/triton/_triton_kernels/common/splitk_reduce.py":44:14)
#loc6 = loc("/sgl-workspace/aiter/aiter/ops/triton/_triton_kernels/common/splitk_reduce.py":45:31)
#loc7 = loc("/sgl-workspace/aiter/aiter/ops/triton/_triton_kernels/common/splitk_reduce.py":45:14)
#loc8 = loc("/sgl-workspace/aiter/aiter/ops/triton/_triton_kernels/common/splitk_reduce.py":46:14)
#loc9 = loc("/sgl-workspace/aiter/aiter/ops/triton/_triton_kernels/common/splitk_reduce.py":48:26)
#loc10 = loc("/sgl-workspace/aiter/aiter/ops/triton/_triton_kernels/common/splitk_reduce.py":49:26)
#loc11 = loc("/sgl-workspace/aiter/aiter/ops/triton/_triton_kernels/common/splitk_reduce.py":53:23)
#loc12 = loc("/sgl-workspace/aiter/aiter/ops/triton/_triton_kernels/common/splitk_reduce.py":53:14)
#loc13 = loc("/sgl-workspace/aiter/aiter/ops/triton/_triton_kernels/common/splitk_reduce.py":54:23)
#loc14 = loc("/sgl-workspace/aiter/aiter/ops/triton/_triton_kernels/common/splitk_reduce.py":54:14)
#loc15 = loc("/sgl-workspace/aiter/aiter/ops/triton/_triton_kernels/common/splitk_reduce.py":56:22)
#loc16 = loc("/sgl-workspace/aiter/aiter/ops/triton/_triton_kernels/common/splitk_reduce.py":56:50)
#loc17 = loc("/sgl-workspace/aiter/aiter/ops/triton/_triton_kernels/common/splitk_reduce.py":56:37)
#loc18 = loc("/sgl-workspace/aiter/aiter/ops/triton/_triton_kernels/common/splitk_reduce.py":56:67)
#loc19 = loc("/sgl-workspace/aiter/aiter/ops/triton/_triton_kernels/common/splitk_reduce.py":57:22)
#loc20 = loc("/sgl-workspace/aiter/aiter/ops/triton/_triton_kernels/common/splitk_reduce.py":57:50)
#loc21 = loc("/sgl-workspace/aiter/aiter/ops/triton/_triton_kernels/common/splitk_reduce.py":57:37)
#loc22 = loc("/sgl-workspace/aiter/aiter/ops/triton/_triton_kernels/common/splitk_reduce.py":57:67)
#loc23 = loc("/sgl-workspace/aiter/aiter/ops/triton/_triton_kernels/common/splitk_reduce.py":58:26)
#loc24 = loc("/sgl-workspace/aiter/aiter/ops/triton/_triton_kernels/common/splitk_reduce.py":61:18)
#loc25 = loc("/sgl-workspace/aiter/aiter/ops/triton/_triton_kernels/common/splitk_reduce.py":61:35)
#loc26 = loc("/sgl-workspace/aiter/aiter/ops/triton/_triton_kernels/common/splitk_reduce.py":61:11)
#loc27 = loc("/sgl-workspace/aiter/aiter/ops/triton/_triton_kernels/common/splitk_reduce.py":62:18)
#loc28 = loc("/sgl-workspace/aiter/aiter/ops/triton/_triton_kernels/common/splitk_reduce.py":62:35)
#loc29 = loc("/sgl-workspace/aiter/aiter/ops/triton/_triton_kernels/common/splitk_reduce.py":62:11)
#loc30 = loc("/sgl-workspace/aiter/aiter/ops/triton/_triton_kernels/common/splitk_reduce.py":63:18)
#loc31 = loc("/sgl-workspace/aiter/aiter/ops/triton/_triton_kernels/common/splitk_reduce.py":63:35)
#loc32 = loc("/sgl-workspace/aiter/aiter/ops/triton/_triton_kernels/common/splitk_reduce.py":63:11)
#loc33 = loc("/sgl-workspace/aiter/aiter/ops/triton/_triton_kernels/common/splitk_reduce.py":67:20)
#loc34 = loc("/sgl-workspace/aiter/aiter/ops/triton/_triton_kernels/common/splitk_reduce.py":70:15)
#loc35 = loc("/sgl-workspace/aiter/aiter/ops/triton/_triton_kernels/common/splitk_reduce.py":81:13)
#loc36 = loc("/sgl-workspace/aiter/aiter/ops/triton/_triton_kernels/common/splitk_reduce.py":85:18)
#loc37 = loc("/sgl-workspace/aiter/aiter/ops/triton/_triton_kernels/common/splitk_reduce.py":85:29)
#loc38 = loc("/sgl-workspace/aiter/aiter/ops/triton/_triton_kernels/common/splitk_reduce.py":85:11)
#loc39 = loc("/sgl-workspace/aiter/aiter/ops/triton/_triton_kernels/common/splitk_reduce.py":86:18)
#loc40 = loc("/sgl-workspace/aiter/aiter/ops/triton/_triton_kernels/common/splitk_reduce.py":86:29)
#loc41 = loc("/sgl-workspace/aiter/aiter/ops/triton/_triton_kernels/common/splitk_reduce.py":86:11)
#loc42 = loc("/sgl-workspace/aiter/aiter/ops/triton/_triton_kernels/common/splitk_reduce.py":89:25)
#loc43 = loc("/sgl-workspace/aiter/aiter/ops/triton/_triton_kernels/common/splitk_reduce.py":89:4)
#loc45 = loc("/opt/venv/lib/python3.10/site-packages/triton/language/standard.py":291:36)
#loc47 = loc("/opt/venv/lib/python3.10/site-packages/triton/language/standard.py":291:11)
#loc48 = loc("/opt/venv/lib/python3.10/site-packages/triton/language/standard.py":291:4)
#loc50 = loc("/opt/venv/lib/python3.10/site-packages/triton/language/standard.py":261:15)
#loc51 = loc("/opt/venv/lib/python3.10/site-packages/triton/language/standard.py":261:11)
#loc52 = loc("/opt/venv/lib/python3.10/site-packages/triton/language/standard.py":261:4)
#loc60 = loc("pid_m"(#loc9))
#loc61 = loc("pid_n"(#loc10))
#loc62 = loc("offs_m"(#loc15))
#loc63 = loc("offs_m"(#loc16))
#loc64 = loc("offs_m"(#loc17))
#loc65 = loc("offs_m"(#loc18))
#loc66 = loc("offs_n"(#loc19))
#loc67 = loc("offs_n"(#loc20))
#loc68 = loc("offs_n"(#loc21))
#loc69 = loc("offs_n"(#loc22))
#loc70 = loc("offs_k"(#loc23))
#loc71 = loc("c_in_ptrs"(#loc24))
#loc72 = loc("c_in_ptrs"(#loc25))
#loc73 = loc("c_in_ptrs"(#loc26))
#loc74 = loc("c_in_ptrs"(#loc27))
#loc75 = loc("c_in_ptrs"(#loc28))
#loc76 = loc("c_in_ptrs"(#loc29))
#loc77 = loc("c_in_ptrs"(#loc30))
#loc78 = loc("c_in_ptrs"(#loc31))
#loc79 = loc("c_in_ptrs"(#loc32))
#loc80 = loc("c"(#loc33))
#loc81 = loc("c"(#loc34))
#loc82 = loc("c"(#loc35))
#loc83 = loc("c_out_ptrs"(#loc36))
#loc84 = loc("c_out_ptrs"(#loc37))
#loc85 = loc("c_out_ptrs"(#loc38))
#loc86 = loc("c_out_ptrs"(#loc39))
#loc87 = loc("c_out_ptrs"(#loc40))
#loc88 = loc("c_out_ptrs"(#loc41))
